hackathon_toolkit/checkpoints_qlearn/agent_1_episode_3700.pth (torch, 78474 bytes, 6 tensors)

fc1.weight f4 [128, 11]
000000 d6 23 02 bd 5d 2c 71 be 2d d4 1e 3e 2a 94 53 3c
       -0.031772457 -0.2355208 0.15510626 0.012913743
000010 19 2b a8 3d de 9f 4c bd fb b1 d2 bd 81 08 9c be
       0.08211345 -0.04995715 -0.10287853 -0.30475238
000020 6a c5 95 be 52 f2 96 3e 74 35 25 3e b3 f9 01 be
       -0.29252177 0.2948175 0.16133672 -0.12692909
000030 f1 17 ba 3d 76 33 eb 3c 49 5b a0 3e 2c 4b c9 bd
       0.09086598 0.028711062 0.31319645 -0.09828791
000040 60 60 2b 3e e3 6f c1 3e cb c9 1c bc 17 33 7d 3e
       0.16735983 0.37780675 -0.009569596 0.2472652
000050 55 50 1e bf b9 2c 2d be d8 de 87 be 8c 33 c7 be
       -0.61841327 -0.16911592 -0.26537204 -0.38906515
000060 77 55 c7 3d 12 f0 20 be c2 82 24 bd 67 68 04 3e
       0.09733098 -0.1571658 -0.040163763 0.12930451
000070 fd 7a 95 3e d3 c7 bd 3e d2 88 39 3e 28 47 98 3d
       0.29195395 0.37066516 0.18118599 0.07435447
000080 c0 36 a0 be be 43 25 bc 9e c8 57 3e 4b f0 d7 3c
       -0.3129177 -0.010086952 0.21072623 0.026359698
000090 9a ce 3a 3e 50 25 1d be 06 3c 9a 3e 91 bd 05 3e
       0.18242875 -0.15346265 0.3012392 0.13060595
0000a0 f5 ac 5e be 55 b4 24 bd 6f 5a 97 be 5b 80 20 be
       -0.21745665 -0.04021104 -0.29561183 -0.15673964
0000b0 2b 64 2b 3e 50 55 48 3e 49 86 66 3d 34 66 e1 bd
       0.1673743 0.19563794 0.056280408 -0.11005822
0000c0 c6 dd 0f 3e f7 51 97 bd 8e 59 98 3e 8f 58 98 3e
       0.14049444 -0.073886804 0.29755825 0.29755065
0000d0 0e 2e 38 be dd df 61 be f3 eb 91 3e 2b 0e 6b be
       -0.17986318 -0.22058053 0.28500327 -0.22954623
0000e0 3e 1a af be 84 b8 99 3e 0e d2 07 3e af e9 37 3e
       -0.3419971 0.30023587 0.13263723 0.17960237
0000f0 76 ad f9 3d 48 98 14 be 9c 9b 47 bc 3f cc a4 3e
       0.12191288 -0.14511216 -0.012183096 0.32187077
000100 e9 e9 ac 3c 07 5a 97 bd ca dd aa 3d 27 9e 01 be
       0.02110763 -0.07390218 0.08343084 -0.12657987
000110 8f 6d 9f bc 69 c0 0c 3d a1 43 e9 bd 8f 98 7b bc
       -0.019461421 0.034363184 -0.11389852 -0.015356197
000120 8d 4a f2 bd 20 44 af bc ed 88 77 3e cf d5 84 3e
       -0.11830626 -0.02139479 0.24173327 0.25944373
000130 ea 36 38 be 30 24 01 3e 5e 80 f6 3e c5 10 89 bd
       -0.17989698 0.1261146 0.4814481 -0.06692652
000140 91 d8 a7 3e 81 a2 9a 3e 78 53 99 3c 6b ec 77 3e
       0.32782415 0.30202106 0.018716559 0.2421128
000150 44 47 68 3e d9 70 3b bd ca f0 4c be ad 99 d9 3e
       0.22683436 -0.045761917 -0.20013729 0.42500058
000160 ae bc c2 be c9 4d f5 3e f2 4d da 3e 2e 8b f1 bd
       -0.38034576 0.47910908 0.42637593 -0.117941245
000170 9b 5f 32 be 01 2f f5 3c 69 dd 51 3e fd d7 a9 3c
       -0.17419283 0.02992964 0.20494618 0.020732874
000180 df df 2e be 70 36 29 be 12 1f f8 3e 34 1a b4 bd
       -0.17077588 -0.16524673 0.48461205 -0.0879406
000190 b8 fa 42 3e 24 d2 3a 3e c8 e6 43 be 25 2d 14 bb
       0.19040954 0.18244225 -0.19131005 -0.0022609916
0001a0 8d e4 0d be 4a 98 fe bd 5c fa b3 3d 41 3e 2b 3e
       -0.13856716 -0.124313906 0.08787987 0.16722967
0001b0 37 01 b3 3e ba 35 15 3e 7c 23 81 3e 60 9d 34 be
       0.34961864 0.14571276 0.25222385 -0.17638159
0001c0 9c fc a4 3d 2d d3 5e 3d 51 3e 59 3d 8d dd 57 3e
       0.08055994 0.05440061 0.053037945 0.21080609
0001d0 18 8d 0b be 26 fe 0d be 4b a5 e2 3d 76 c4 19 3f
       -0.13628042 -0.13866481 0.110666834 0.600654
0001e0 99 5e 95 3d b7 8e 83 3d 29 db a2 bd e5 c4 87 bc
       0.07293434 0.06423705 -0.07951958 -0.016573379
0001f0 2e 1e 56 bd 65 4b 5d 3e cf ef 03 3d 15 c2 17 3d
       -0.052274875 0.21610792 0.03221112 0.037050325
000200 ba c4 b9 bd ed 9d af 3e 5a a5 8c be e8 3a b6 bd
       -0.09070726 0.34300175 -0.27469903 -0.08897954
000210 17 6a aa 3e 00 81 7a be 53 fd 12 3b 71 b8 2e be
       0.33284065 -0.24463272 0.0022428825 -0.17062546
000220 66 f3 28 3e 80 c8 56 bd a3 54 8e 3d 14 05 3d 3e
       0.16499099 -0.052437305 0.06949737 0.18458968
000230 b9 54 8f 3e d5 dd c9 3e 55 9c c1 be 97 2e e8 3d
       0.27994326 0.39427057 -0.37814584 0.11337011
000240 bf ec cf bd d9 ec 90 3d 55 ad 8a be 46 0c 56 3e
       -0.101525776 0.07076425 -0.27085367 0.2090312
000250 1c 43 15 3e 05 9c f4 3d 3e a0 62 3d 6a ac 80 3e
       0.14576381 0.11943821 0.0553286 0.25131541
000260 77 6e be be ee 80 63 3e 3a 45 45 3e 4c 67 0b be
       -0.37193653 0.22217152 0.19264689 -0.13613623
000270 1a 71 67 3e 96 38 df be 4e 0d 23 3e 86 65 cb bd
       0.22601739 -0.4359786 0.15923044 -0.099314734
000280 95 eb ab be bb 51 25 3c 25 db 6a 3e 73 fc 2c 3e
       -0.33578172 0.010090287 0.2293516 0.16893177
000290 8f 46 1b be 93 7f 5b be 53 1f aa be f9 2a 17 be
       -0.15163635 -0.21435384 -0.33227023 -0.14762487
0002a0 e7 8e a9 3e 37 8a b0 3e 19 50 d2 bd 73 29 94 3e
       0.33116838 0.3448045 -0.10269184 0.28937873
0002b0 37 0e 2a be 5b 03 95 3e df f6 81 3e 6c 85 64 be
       -0.16606985 0.29104123 0.2538366 -0.22316521
0002c0 10 11 f4 bd 87 f7 1a bd e8 05 01 be 21 6b dd 3b
       -0.11917317 -0.037833717 -0.1259991 0.0067571555
0002d0 20 b2 4b 3e a1 7b a0 bd ae 4a fc bd ab f0 9e 3d
       0.19892168 -0.0783608 -0.123189315 0.077607475
0002e0 70 71 91 3e d7 30 90 bd ad fa a0 be 69 74 01 3f
       0.28406858 -0.070405655 -0.3144125 0.5056825
0002f0 17 33 6c 3e d3 39 3d 3d 61 a3 e6 bd e1 54 8d 3d
       0.23066364 0.046197724 -0.11261631 0.06900955
000300 f8 31 59 3e bc 50 cd bd 15 7a 63 3e ea 0d c8 be
       0.21210468 -0.100251645 0.2221454 -0.39073116
000310 9e 1f 7f 3d b5 3c 54 be 2b 3e da 3d 0c 83 c0 be
       0.062286012 -0.20726283 0.10656389 -0.3759998
000320 94 8e d5 3d 26 2d 59 3e dc 42 f5 3d e3 54 7b 3e
       0.10427585 0.21208629 0.11975643 0.245441
000330 86 86 a5 3e 42 33 f3 bd 54 09 1a be 16 47 8a bb
       0.32329196 -0.11875011 -0.15042621 -0.0042199
000340 a9 2f 82 be 0e 66 45 3d 31 9d 9e 3e d0 ce e9 3d
       -0.25426987 0.04819303 0.30979303 0.114163995
000350 37 5a 46 3e 6b 20 cf 3d 66 ff 9f 3e 6e 39 ca 3d
       0.19370352 0.10113605 0.3124954 0.09874235
000360 75 e4 b0 3c 1b 2c c9 be 00 19 18 3e 08 21 f6 3e
       0.021593312 -0.39291462 0.14853287 0.48072076
000370 1c 48 44 be 4a 8c 4d be 03 51 1a bd 3c c3 53 3e
       -0.19168133 -0.20073047 -0.037674915 0.20679945
000380 79 ca 4e 3d ad db 5f be 6c ad 43 bb c5 8f 88 3e
       0.05048606 -0.21861143 -0.0029858006 0.26672187
000390 67 25 bf 3b ea 9c 3d be a9 68 a2 3e 26 60 70 3e
       0.005833316 -0.18516889 0.31720474 0.23474178
0003a0 58 7d 01 3f 68 ba e6 3d f3 20 89 bd 01 0c 3c be
       0.50581884 0.11266023 -0.06695738 -0.18363954
0003b0 12 ee 86 3e 04 7b ba 3d 2f e6 6e 3e c5 3a cb bd
       0.26353508 0.091054946 0.23329996 -0.09923319
0003c0 0c 0d 7e bd e6 8c b0 3e d3 db 0a 3f 7b 95 b9 bc
       -0.06202416 0.34482497 0.54241675 -0.022654286
0003d0 56 3f 80 be 07 8a 5b 3e 44 aa 9c bd 87 30 6f bd
       -0.2504832 0.21439372 -0.07649663 -0.05839589
0003e0 62 36 a8 bc 14 86 8f 3e 02 40 e0 3b 34 5b d6 3e
       -0.020533744 0.2803198 0.006843568 0.41866457
0003f0 45 c8 06 be cc 91 1e be 7e cd af 3e 87 46 48 be
       -0.13162334 -0.15485305 0.34336466 -0.19558154

fc1.bias f4 [128]
000000 74 97 a4 be b0 2d fd 3d 94 64 5f be 4d 02 a8 be
       -0.321468 0.1236223 -0.21815711 -0.32814255
000010 a1 b0 b3 bd 20 6c 3b 3d dc 80 34 bd 20 6e 91 3e
       -0.08773924 0.045757413 -0.044068202 0.2840433
000020 b3 11 bc bd 30 20 94 bd 3e a9 38 3e c5 6c e9 bd
       -0.09183063 -0.07232702 0.18033311 -0.11397699
000030 a6 e0 37 be 06 bb b2 be cf f7 3c be 00 19 64 3e
       -0.1795679 -0.34908313 -0.18453906 0.22275162
000040 07 ba cc be 5f 25 0f 3d 30 50 21 3e 9d 12 97 bc
       -0.39985678 0.03494775 0.15753245 -0.018441493
000050 8e 2b 5d be 04 1a a5 3d 17 82 a4 bd 53 9c 07 be
       -0.21598646 0.08061603 -0.08032625 -0.13243227
000060 76 47 50 bd 66 d8 f5 3d 12 5a 39 be 97 fa ab be
       -0.0508494 0.12004165 -0.18100765 -0.33589622
000070 3f 56 75 be 94 0d 04 bf ae 09 dd be 3e 3b 8d be
       -0.23958682 -0.5158322 -0.43171448 -0.2758426
000080 87 ce 4e 3d 4a 01 10 be 26 d9 41 be 9c 32 4d 3e
       0.05048993 -0.14062992 -0.18930492 0.20038837
000090 7d bb 8d be 0f 25 6c 3d 38 1f 6e be 65 d4 fc be
       -0.27682105 0.05765253 -0.23254097 -0.49380794
0000a0 89 38 cf be d5 33 ac 3e b7 0f 31 3e 7e a8 1c be
       -0.4047282 0.33633295 0.17291151 -0.1529865
0000b0 e0 b2 c0 bd 15 22 e5 3e 3e 52 d5 bd d8 48 33 bd
       -0.09409118 0.44752565 -0.10416077 -0.04377064
0000c0 55 de ea bc 45 88 dc bc 51 83 9e be 96 ea 62 3e
       -0.02867047 -0.026920447 -0.3095956 0.221598
0000d0 0a 2b b7 be 98 91 8d 3c 89 19 28 3e 88 8f 83 3e
       -0.35775024 0.017281339 0.16415991 0.25695443
0000e0 6f a1 b6 be 30 ee a8 bc 3f 23 e3 3d 4a 67 12 3d
       -0.3567004 -0.02062139 0.11090707 0.035743035
0000f0 d5 b6 27 3d 32 be 87 3e 42 55 8d 3d 46 9b 6f 3c
       0.040945847 0.26512295 0.06901027 0.014624422
000100 b1 ae 27 3e ec b7 61 be 89 a7 dd bd 6f 1c 35 bd
       0.16375233 -0.22042817 -0.108229704 -0.04421657
000110 0c 95 6b bd b1 db 10 3d 11 66 db 3e fa 8b 96 be
       -0.05751519 0.035365764 0.42851308 -0.2940367
000120 d1 8e c9 be 88 65 91 be cd 72 a2 be 55 83 a5 3a
       -0.39366773 -0.28397775 -0.3172821 0.0012627641
000130 5c b0 2c bd be 37 4b bd 5e be c0 3d e0 3f 11 3d
       -0.042160377 -0.049613707 0.0941131 0.035461307
000140 81 4f 80 bd 24 ce 8c 3e dc 1a 4a be 4a f8 81 bd
       -0.06265164 0.27501023 -0.19736809 -0.063461855
000150 e8 da c6 3e 11 d7 d3 bd bd 03 a7 bc 96 a0 f6 be
       0.38838887 -0.10343755 -0.020387525 -0.48169392
000160 ad 12 c5 be e3 c0 a9 bd ac 7d c2 bc 61 1d ca be
       -0.3849081 -0.08288743 -0.023741566 -0.3947554
000170 23 55 13 3e e7 ee c9 bd e6 8d 99 39 23 45 8d be
       0.14387946 -0.0986002 0.00029288157 -0.2759181
000180 b5 3d 68 3d 9b 11 f9 3d f9 56 35 be 8b e1 8e be
       0.056699473 0.12161561 -0.17708959 -0.2790645
000190 9f ae 1f be 0e b4 44 3e 44 ac a5 3e 31 bb 17 be
       -0.15593956 0.1920931 0.3235799 -0.14817502
0001a0 04 93 6b be 09 a0 e7 3b e5 d7 c6 bd ff e8 ab bd
       -0.23005301 0.007068638 -0.09709147 -0.0839405
0001b0 91 8d 44 3e aa a2 c5 3c 09 93 70 3e 20 56 10 be
       0.19194628 0.024125416 0.2349359 -0.14095354
0001c0 b5 f3 5d 3e d1 19 46 be 34 d4 39 be 3b 5b b2 3e
       0.21674998 -0.19345786 -0.18147355 0.34835228
0001d0 d3 3f 82 be e5 2f 21 3e b3 84 1b be bf d7 e7 3d
       -0.2543932 0.15740927 -0.1518734 0.11320447
0001e0 9a ec 13 3e 85 36 e7 3d c2 26 9a be d9 51 69 be
       0.14445725 0.11289696 -0.30107695 -0.22785129
0001f0 ba b3 4a 3d b9 d4 f8 bd d1 c6 96 3d c8 fa 2f be
       0.049487807 -0.121499486 0.0736214 -0.17185509

fc2.weight f4 [128, 128]
000000 ce c4 3f 3d 13 dd 5a ba da c7 ef bc da 59 73 3d
       0.046818547 -0.00083489827 -0.029270101 0.05941186
000010 0b 4e b9 bd b5 07 59 bd ef 45 85 bb 28 5f a1 bc
       -0.09048089 -0.052985866 -0.0040671746 -0.019698694
000020 f4 24 a3 bc 65 4d 32 bd 75 88 98 bd 11 81 90 3c
       -0.019915082 -0.04353084 -0.07447902 0.017639669
000030 13 76 ad bd 3a df 15 3d 8e ea 07 bd a1 63 5c 3c
       -0.084697865 0.03658984 -0.033182673 0.013451488
000040 3a 42 cd ba 34 29 bb 3c 68 26 79 3d fb ba d4 3a
       -0.0015659996 0.022846796 0.060827643 0.0016230041
000050 2f 67 1e bd 46 a7 1d bd bd e5 c6 3a 54 08 93 bd
       -0.038672622 -0.038489603 0.0015174669 -0.07179323
000060 f9 1d 2a bd 68 c3 ca bd d3 8f 02 bd 21 bf d8 3c
       -0.04153249 -0.09900552 -0.031875443 0.026458325
000070 e8 8c 86 ba f7 13 27 bd b2 55 e2 3c ad 71 98 bd
       -0.0010265382 -0.040790524 0.027628753 -0.07443557
000080 41 bf 79 bc b9 a3 37 bd 49 36 ab bd 68 3f 13 3c
       -0.015243352 -0.044833872 -0.083599634 0.008987285
000090 8b 71 c9 bc 3e 16 1d bd 63 96 91 3d 26 c1 8a bc
       -0.024590274 -0.03835129 0.07108762 -0.016937803
0000a0 22 b1 36 3d db f4 96 bd 10 f7 f1 3a 85 77 30 bd
       0.04460252 -0.07370921 0.0018460471 -0.043082733
0000b0 c8 ec 91 bd 74 df a7 bd a6 07 bd bb 0c f7 4d 3d
       -0.071252406 -0.08196917 -0.005768734 0.05028443
0000c0 6f 0f 86 bd 8e 9c c8 bc a1 ea 45 bd 0a e0 76 bc
       -0.065459125 -0.024488714 -0.048319463 -0.0150680635
0000d0 a1 82 2e bd 29 55 f0 bc bf 52 55 bd 39 d0 bf bd
       -0.042605046 -0.029337483 -0.052080866 -0.09365887
0000e0 04 4e 9c bd 43 2e d2 bc 7b 2d 7d 3d 3c 1f 2a ba
       -0.07632068 -0.025656825 0.06181095 -0.00064896396
0000f0 13 c2 91 bc 74 e0 9d bb 58 22 41 3c 23 b3 52 bd
       -0.017792737 -0.0048180167 0.011787973 -0.05144037
000100 ed 2e 83 3d c4 76 ba bd 27 f9 cd bd a6 68 20 3c
       0.06405435 -0.09104684 -0.10057288 0.009790575
000110 a9 ab 42 3d 9a 46 ab 3b 64 d4 d9 3c 43 81 48 3d
       0.04752699 0.005226922 0.026590534 0.0489514
000120 e0 c0 24 3c 01 a7 b3 3c 49 fc 71 3d cd 79 c9 bd
       0.010055751 0.02193022 0.05907849 -0.09837685
000130 b9 f8 b4 bd 25 e0 d9 bd e2 28 8b bc 28 b8 92 bd
       -0.088365026 -0.10638455 -0.016987268 -0.07164031
000140 56 d0 29 bd ab 6d 06 bd ae 36 01 3d ab 08 36 bc
       -0.04145845 -0.03281943 0.031546287 -0.011110465
000150 1b 8f 4b 3d bc db d2 bd 96 61 8d bc c1 65 50 3d
       0.049697023 -0.10295817 -0.017258447 0.05087829
000160 3b fc f1 bc 4e d8 58 bd d1 94 99 3d 40 e9 d5 bd
       -0.029539218 -0.05294066 0.074990876 -0.104448795
000170 1f ce 8f bd 5a 7d 29 3d 4a 23 3a 3d 42 b5 4c bd
       -0.07021736 0.04137931 0.04544381 -0.04997755
000180 40 4e b2 bd fd 2b d4 bd 29 c1 45 3d 23 1a 23 bb
       -0.08706331 -0.103599526 0.048279915 -0.0024887405
000190 45 28 87 bd 1e 4b 22 3d f0 17 fb bd 1b 10 19 3d
       -0.06599478 0.03962242 -0.12260425 0.037368875
0001a0 bd 56 ad 3c b4 8f 90 bd 54 00 45 bc f6 ff 99 3c
       0.021159524 -0.07058659 -0.012024004 0.01879881
0001b0 49 0b 55 bc b9 ff 85 3d 04 9a ad bd 6e 96 bb 3c
       -0.013003179 0.06542916 -0.08476642 0.022898879
0001c0 d8 db 9b bc ef 87 d3 bc 97 c9 aa bd d7 54 8e 3c
       -0.019025728 -0.025821654 -0.083392315 0.01737444
0001d0 93 91 3e bd d3 3f da 3b d8 4c 3f bd c3 9d 2a 3d
       -0.04652555 0.0066604405 -0.046704143 0.04165436
0001e0 d4 06 21 bd 5d 13 18 be 1d d3 98 bc 58 90 80 bd
       -0.039313152 -0.14851137 -0.018655354 -0.062775314
0001f0 d6 ce 16 3d 36 db 0e 3b 2e 24 5c bd e5 a8 0b bd
       0.036818348 0.002179814 -0.05374544 -0.034096617
000200 79 64 4a be cf c9 d3 bd 30 51 8b bc 91 c3 32 3c
       -0.1976489 -0.10341226 -0.017006487 0.0109108845
000210 88 bd 4c 3d c9 b9 45 bd ec 62 5b 3d 1b 98 6c bd
       0.04998544 -0.04827288 0.053561136 -0.057762247
000220 dd 72 cb 3d a0 33 b2 bc db 48 ff bb 7a af 06 3d
       0.09934018 -0.021753132 -0.0077906675 0.03288219
000230 3f 3e a5 3d fc a6 f0 3b bc 54 b7 bd 12 11 3d bc
       0.08068513 0.007344125 -0.08951709 -0.011539714
000240 65 02 c5 3d bc 19 99 3b 80 e6 bd bd 42 97 b2 3c
       0.09619597 0.004672257 -0.0927248 0.021800641
000250 c4 7b 4e bc 1c ba 8f 3c a0 e4 92 bd 05 dd a5 bd
       -0.01260275 0.017544799 -0.07172513 -0.08098797
000260 aa 1d 9d bd 75 0d f8 3c f1 0d 82 3d 5f aa a9 bc
       -0.076716736 0.030279854 0.06350315 -0.020711122
000270 88 67 4b bc 32 6b 86 bd f3 90 9b bd 4c 1c ef bc
       -0.0124148205 -0.06563415 -0.07596006 -0.029188298
000280 2a db 38 3d 74 a5 85 bd 5c 87 b7 bd 3a 0a e2 3d
       0.045130886 -0.06525698 -0.089613646 0.11037107
000290 f3 60 d6 3c 6a 2d 19 bd 9f 6f ff bd 53 6a d3 bd
       0.026169276 -0.037396826 -0.12472462 -0.10323014
0002a0 4b d5 2a bd 90 25 37 3c d0 c2 53 3d 29 66 be bb
       -0.04170732 0.011178389 0.05169946 -0.0058105183
0002b0 bf 56 57 3d 39 47 a7 bd 9f 95 b4 bb fc 15 dc bc
       0.052572962 -0.081678815 -0.0055110003 -0.026865952
0002c0 c4 ff 4e 3d 2b 0d 83 bd 98 42 2f bd 6d 2f f2 bd
       0.050536886 -0.06398996 -0.042788118 -0.11825452
0002d0 e3 95 fd 3d 5b ab d9 bc 6b a5 f8 bd 86 5f a2 bc
       0.12382104 -0.026570966 -0.12140926 -0.01982094
0002e0 f0 28 2c bd 23 e4 f6 3c d7 51 ee bc 3b 28 bf bd
       -0.04203123 0.030138081 -0.029091759 -0.09333845
0002f0 d2 c9 64 3d bb 46 37 bd a0 4f 83 3c 68 31 86 3c
       0.055856533 -0.04474519 0.01602918 0.01638098
000300 4c a8 2b be 14 a4 22 3d cc 29 05 3c c8 7b b6 bd
       -0.16763419 0.03970726 0.008127641 -0.08910328
000310 32 91 96 bc c4 53 97 3d bb b9 d8 bd 58 e6 2c ba
       -0.018379781 0.07389024 -0.105823 -0.0006595603
000320 40 ab 92 3c 82 3c 15 3d a9 5c 8f 3d 88 1c cc bc
       0.017903924 0.036434658 0.070000954 -0.024915949
000330 aa e7 97 ba bc db cd 39 47 00 77 bc dc a8 c9 bd
       -0.0011589427 0.00039264362 -0.01507575 -0.098466605
000340 8d c8 39 3d 8f f5 c1 bd 7c 05 24 bc ee c9 0f 3d
       0.045357276 -0.09470665 -0.010011073 0.035104685
000350 f9 7f 93 bd 3f b4 57 3c 54 22 43 bb 78 99 77 3b
       -0.07202143 0.013165533 -0.00297751 0.0037780683
000360 64 0c 98 3d 85 db 83 3c fa 30 78 3c 29 9a 35 3b
       0.07424238 0.016095886 0.015148396 0.0027710295
000370 f5 bc af 3d aa a5 c4 bc 7d ca 75 bd 99 8d 57 bd
       0.085809626 -0.024004776 -0.06000756 -0.052625272
000380 d8 2d d0 bb 64 cf 42 bd e6 cf f8 bd ca 17 ba 3b
       -0.0063531213 -0.047561064 -0.121490285 0.0056791054
000390 6f cf 80 bd e2 e3 22 bd 7f db 08 be 1a 2d 22 be
       -0.06289565 -0.039768107 -0.13364981 -0.15837517
0003a0 10 f3 36 3c 6d f3 93 3d 4c 6f 72 3d 0c 39 65 3d
       0.011166349 0.07224164 0.059188172 0.055962607
0003b0 2e df 1d be a1 bb 8f bd f4 b1 67 3d 99 74 d9 bd
       -0.15417168 -0.07018209 0.056566194 -0.10617942
0003c0 e9 4c 83 3d 41 a5 00 3d ca 4d 4a 3d c2 2f 15 be
       0.06411154 0.0314076 0.04939059 -0.14569
0003d0 68 3f c1 bd da 08 a5 bd 04 12 0c be cf 6c 3a bd
       -0.09435922 -0.08058329 -0.13678747 -0.045513924
0003e0 ee 09 cc 3d ac a6 d2 bd 7a a3 6a bb 58 87 75 bd
       0.099628314 -0.102856964 -0.0035803006 -0.059943527
0003f0 46 d5 bc bd e8 6b 86 3d 7a 19 33 bd 0d 82 b6 3b
       -0.09220366 0.0656355 -0.04372547 0.0055697025

fc2.bias f4 [128]
000000 d7 bc 49 bd f6 d4 56 bd ed b8 54 bd 5e 87 12 bc
       -0.049252357 -0.05244919 -0.05193417 -0.008943407
000010 87 36 d3 bd e1 41 99 bc 6e 1e dd bd 39 c8 1f bd
       -0.10313135 -0.018708171 -0.107968196 -0.039009307
000020 39 69 b1 bd 4d 76 b5 bd 53 82 79 bd d0 b5 f5 bd
       -0.08662648 -0.08860455 -0.060915302 -0.119975686
000030 8e c1 df 3e 6e 5e 8c bd 96 be c1 bd d5 d4 81 bd
       0.43702358 -0.068539485 -0.094601795 -0.063394226
000040 59 62 49 bd ba b4 cc bd af 13 2d bd 07 6e 3b bd
       -0.049166057 -0.09995408 -0.0422551 -0.045759227
000050 23 1b a1 3e 17 87 86 bb e1 4a b7 3e 75 5e e4 bd
       0.31466016 -0.0041054594 0.35799316 -0.11150829
000060 24 cf c3 bd 8a 29 ba bd 9e 05 de bd 11 78 a1 3e
       -0.09560993 -0.09089954 -0.10840915 0.31536916
000070 f8 5b 24 bd a2 8d aa bc 1c 8c 78 bd 00 8d 9d 3e
       -0.04012677 -0.020819489 -0.060680494 0.30771637
000080 98 d3 45 bd c8 ec 40 bd 19 1b 1b bd f1 d6 06 be
       -0.048297495 -0.047100812 -0.03786764 -0.13167931
000090 f7 d3 70 bc 28 bb 8d bd 21 2a 59 bd a5 43 4f 3e
       -0.014698974 -0.06920463 -0.053018693 0.20240648
0000a0 ec e1 40 bd 3e 26 00 bd 9e 83 a1 bd f0 13 dd bc
       -0.047090456 -0.03128647 -0.07886432 -0.026987046
0000b0 9e a6 15 bd f8 e9 9f 3e 16 85 b3 3d 6e 9f 8f bd
       -0.03653585 0.31233191 0.087656185 -0.07012831
0000c0 97 8b b1 bd 17 33 a7 bc 2f 61 cb bd 29 3c 35 bd
       -0.08669203 -0.020410104 -0.09930646 -0.044246826
0000d0 00 19 9e bd 9d 69 bd bd 85 2f a1 bd 74 a5 34 bd
       -0.07719612 -0.0924866 -0.07870392 -0.0441031
0000e0 1b 72 f7 bd de e2 d3 bd df 37 14 be c9 b0 be bd
       -0.12082311 -0.10346006 -0.14474438 -0.09311063
0000f0 0b 4b 0b bd 6c 03 f4 bb 58 bb 27 bd 1d 23 41 bd
       -0.034007113 -0.007446697 -0.04095015 -0.047152627
000100 9c 7b 08 be 03 e0 c4 bd 63 c9 b7 bc 1d 11 df bd
       -0.13328403 -0.09613039 -0.022434896 -0.10891936
000110 1a 17 7e bd 32 27 75 bd ca 99 6b bd 75 c1 65 bd
       -0.06203375 -0.059851833 -0.05751971 -0.056092698
000120 d3 7a 52 bd 69 60 9d 3d 83 b3 b4 bd a5 d4 e9 bd
       -0.051386666 0.076844044 -0.08823302 -0.11417512
000130 5a c8 5b bd 5e e7 4d bd ad 81 8e bd 13 96 a4 3e
       -0.053657867 -0.050269477 -0.069583274 0.32145748
000140 d2 40 f8 bb aa 64 4b 3e 0d 4f cd bd 4e 8e c6 bd
       -0.0075760866 0.19862619 -0.10024843 -0.09695111
000150 99 61 82 3e d5 6e 20 bd e9 77 25 bd 77 5c 8c bc
       0.25465086 -0.039168198 -0.04039756 -0.017133934
000160 47 fc 2d bd 29 a2 b0 3e f6 c2 33 bd 47 2d df bd
       -0.04247692 0.34498718 -0.0438871 -0.10897308
000170 cd 8a 0b 3e 5a dd d1 bd 02 1b b3 bd fd 7b a4 3e
       0.13627167 -0.102472976 -0.08745386 0.32125846
000180 9d a7 5d bd 03 04 8c 3d 8f af 2b be 6d 7f a4 bc
       -0.054114927 0.06836703 -0.16766189 -0.020080293
000190 20 63 85 bd ed 63 70 bd 47 3f 6c bd 44 c4 8d bd
       -0.06513047 -0.058689047 -0.057677533 -0.069222
0001a0 36 10 eb bd 3d a7 1b be b4 c3 43 bd 89 3e 9b 3e
       -0.11477701 -0.15200515 -0.04779406 0.30321148
0001b0 75 46 8f bd 3a 1f b3 bd 4a a8 8a bd c1 00 de bc
       -0.069958605 -0.0874619 -0.0677038 -0.027099969
0001c0 23 fb 6b 3e d5 c1 39 bd f0 b6 83 3e 7b 51 df bd
       0.2304502 -0.04535087 0.25725508 -0.10904213
0001d0 c6 12 1b bd e3 ea b8 bd a4 16 76 bd 79 79 72 bd
       -0.0378597 -0.09029176 -0.060080186 -0.059197877
0001e0 52 db b7 bd 43 d2 c9 bc 9b 9e 76 3e 62 ad 4c bd
       -0.08977379 -0.024636393 0.2408394 -0.04997004
0001f0 8f 00 11 bd 93 a7 e8 3e 32 61 f3 bb 15 c2 c3 bd
       -0.035400923 0.4544035 -0.007427358 -0.095585026

fc3.weight f4 [7, 128]
000000 7c f8 96 bd cc d3 73 be 40 68 47 bd e8 de 6b 3c
       -0.073716134 -0.23811263 -0.048683405 0.014396407
000010 1a 5a 46 bd ea a1 11 be 30 36 13 3c 79 d2 c9 bd
       -0.04842577 -0.14221922 0.008985087 -0.098545976
000020 37 b4 8f 3d 6a 68 99 3c ba 51 33 bb 40 05 03 bd
       0.07016795 0.018726546 -0.0027361945 -0.03198743
000030 38 31 a9 c0 77 a3 a3 bd 37 d9 6e bc 17 8d a0 3c
       -5.287258 -0.07990163 -0.014578155 0.019598527
000040 23 05 36 bd 01 66 ed 3c 95 d1 60 be a0 f3 16 3d
       -0.044438493 0.028979303 -0.21954949 0.036853433
000050 9a 9a c1 bf 96 9f 47 3d e0 f8 7e c0 57 84 32 3d
       -1.5125306 0.048736177 -3.9839401 0.04358324
000060 6a 95 9c 3d 79 64 29 bd ab 74 1d 3c 15 6b 36 be
       0.07645686 -0.041355584 0.009610335 -0.17814286
000070 a6 e1 4a bc 7b 68 1d 3d 0e 39 9b bc 24 cd 81 be
       -0.0123829 0.03842972 -0.018948104 -0.25351822
000080 82 89 54 3b 8a 24 a6 bd 57 0b c8 be 5d 35 c8 bc
       0.0032430594 -0.08112438 -0.39071152 -0.024439508
000090 78 83 ea bd c8 6a 0b be d6 e3 e0 bc 1e a5 c2 be
       -0.11450857 -0.13614953 -0.02745239 -0.380166
0000a0 6b 03 3b 3d f3 0b 22 3c 2a ae 95 bd 44 7b 9f bd
       0.045657557 0.009890544 -0.0730861 -0.07787183
0000b0 c9 dc 46 3d 94 0f 21 be 81 db bb bd ed f8 59 3c
       0.0485504 -0.15728599 -0.091727264 0.013303977
0000c0 ab 3c f4 bd 63 73 fe 3c ec a6 b3 be 82 d6 cc 3c
       -0.11925634 0.03106088 -0.3508829 0.025004629
0000d0 6a 52 96 3c 08 f6 7a bf 14 34 48 bc f3 78 96 3a
       0.018349845 -0.98031664 -0.012219448 0.0011480137
0000e0 c8 22 ba 3c 96 2e fc bc 3d 5a a6 3c 0f 69 21 3d
       0.022721663 -0.030783933 0.0203067 0.039406832
0000f0 53 d5 05 3d 9b ce 8e 3c 0b b4 de bd 19 2d c7 bb
       0.032674145 0.017432502 -0.10874184 -0.006078374
000100 8d 73 e1 bd cf 5b 78 3d 5e 30 d2 bc 65 f1 9d bc
       -0.11008368 0.06063443 -0.025657829 -0.019280145
000110 a6 c6 05 bd d7 f9 80 bd 7b 12 c7 bb d3 92 0d 3d
       -0.03266015 -0.06297653 -0.006075201 0.03456385
000120 6b 10 48 bd ec 59 37 bf f9 1e cd bd 85 48 b0 3d
       -0.048843782 -0.71621585 -0.10015673 0.08607582
000130 c1 b3 93 bd d1 19 7e bb b8 2d ba 3c b6 ad d1 bd
       -0.0721202 -0.0038772712 0.022726879 -0.10238211
000140 4e ff 94 bd df 6e 89 bd 21 bf 88 bd 05 05 01 bd
       -0.07275258 -0.067106 -0.0667708 -0.031498928
000150 5b 7a bc bf d1 d0 69 bd 08 44 6c bd 86 69 d4 bd
       -1.472484 -0.05708391 -0.057682067 -0.103716895
000160 9c 26 46 be 4c 4b 3f c0 f7 42 48 3c 1d 76 15 bd
       -0.19350666 -2.9889708 0.012222997 -0.036489595
000170 d0 f0 c1 3a 50 71 8e bd 3f b6 fa bb 4b a6 9b be
       0.0014796499 -0.069552064 -0.00765112 -0.3040031
000180 0c 74 33 bd 64 66 45 c0 ae 79 8a 3b 65 d6 13 bc
       -0.043811843 -3.0843744 0.004225931 -0.009023284
000190 fe c8 33 bd 91 f0 29 bd 4f 91 2e bf 22 fd 33 bd
       -0.043892853 -0.041489188 -0.68190473 -0.043942578
0001a0 f7 d0 6c bd f3 dc 0c be 04 46 09 3d 8c 18 3c be
       -0.057816472 -0.1375616 0.033514038 -0.18368739
0001b0 98 26 dd bc 1f 37 8d bc d7 7d 01 bd b9 17 11 3d
       -0.026995942 -0.017238198 -0.03161415 0.035423014
0001c0 7b 04 aa c0 a4 3f a4 bd b1 f7 2c be 43 bb c4 3c
       -5.313047 -0.08019951 -0.16891362 0.024015075
0001d0 73 5f a9 bd 81 87 16 be bf 00 cb 3c 61 43 80 bd
       -0.082701586 -0.14700128 0.02478063 -0.062628515
0001e0 f3 b9 20 be b3 1f f3 bd e8 b8 f4 bd 2c f8 93 3a
       -0.15695934 -0.118712805 -0.119493306 0.0011289171
0001f0 6b dc 0a 3d 50 5e c2 c0 95 7d 98 bd 0f 3a 43 bc
       0.033901613 -6.0740128 -0.07445828 -0.011915698
000200 b3 18 ec bb a9 68 23 3c e9 80 f6 bc 14 98 9a 3d
       -0.007205093 0.009973683 -0.030090766 0.07548538
000210 6e 35 76 be 6f 4c 54 3b d1 f9 84 3c 74 11 da 3b
       -0.2404382 0.003239419 0.016232403 0.0066549126
000220 3a 14 02 be d6 fb 3e 3d 97 65 1e 3d ff 49 93 3d
       -0.12703028 0.04662689 0.038671102 0.07191848
000230 a3 84 be 3d 82 9a 1f bd 80 80 b5 3e 15 d1 91 bd
       0.09302642 -0.03896571 0.354496 -0.07119957
000240 9b 6a 83 3d 99 1c 2c 3d b7 1f 97 bc 47 53 58 bb
       0.06416818 0.04201946 -0.01844774 -0.0033008622
000250 7b d2 19 3e 21 91 a6 3d 99 99 ab 3e 70 2e b1 bd
       0.15021698 0.0813315 0.33515623 -0.086514354
000260 89 08 9a 3d a1 a6 6b 3d 71 ac 27 bd 75 f3 5c 3e
       0.07521159 0.057531957 -0.040935937 0.21577246
000270 00 db 36 bb 90 89 44 bd 3c 0f fb 3c 7a d3 30 3e
       -0.002790153 -0.047982752 0.030646913 0.17268172
000280 b9 95 b3 3a 98 ef e1 3c f5 51 8c bc 71 27 16 be
       0.0013701237 0.027580068 -0.017128924 -0.14663483
000290 36 60 63 bd f2 90 62 bc b4 7e 1f bc 20 a3 2a 3e
       -0.055511676 -0.013828503 -0.009734798 0.1666379
0002a0 dc 51 a7 3d 61 23 03 bd bf 13 85 bd 52 6b 3d 3d
       0.0816991 -0.03201616 -0.06497907 0.046244927
0002b0 1f b1 8e 3c 97 5b 58 3e ac 86 f7 3d b7 87 3f 3d
       0.017418442 0.21128689 0.120862335 0.046760287
0002c0 69 9b 9e bd 78 11 03 3d 59 d1 7d bd b9 ec 49 bc
       -0.07744486 0.03199908 -0.061967228 -0.0123245055
0002d0 6c be c7 bd 82 2c 3b 3e 4f b7 25 3c 0e 03 ac 3d
       -0.09753117 0.18278697 0.010114505 0.0839902
0002e0 24 c1 c5 bc 33 c8 06 bd 43 d2 aa bc 2a aa 56 bd
       -0.024139948 -0.03290577 -0.020852214 -0.052408375
0002f0 65 97 0d bc 3e 97 2a bc f8 0e 0d bc 5b 09 80 bc
       -0.008642052 -0.0104120355 -0.008609526 -0.015629461
000300 b2 87 26 be 1c 72 99 3e d3 58 ac 3b 21 32 15 be
       -0.16262701 0.2996987 0.005259612 -0.14569904
000310 92 c1 7f 3d b4 4f 74 bc 85 0c 51 3d 00 e8 1f 3d
       0.062440462 -0.014911581 0.05103733 0.03903961
000320 49 8e 88 bc 2d 57 8c 3c 5f c1 04 bc ea 9b 4e bd
       -0.01666941 0.017131412 -0.008102744 -0.05044166
000330 0f a8 c3 bc f5 dc bd 3d db 1a a6 bd 3e e6 59 3e
       -0.023883848 0.0927066 -0.08110591 0.21279237
000340 76 5d 8c bd 70 e2 0e 3e 2e eb 80 3d d8 70 87 3c
       -0.06853764 0.13953567 0.06294857 0.0165333
000350 7e e6 18 3e 87 c9 12 3c 03 88 72 3c 65 ac b9 3c
       0.14931676 0.008959181 0.0148029355 0.022665212
000360 e7 68 85 3c 01 9b 69 3e a5 91 24 3d 36 40 a0 3d
       0.016285373 0.22813036 0.04017796 0.07824747
000370 59 d7 e7 3d 0e 91 33 be 91 72 95 bc 22 64 1d 3e
       0.11320371 -0.17535803 -0.018243106 0.15370229
000380 90 b1 e9 bc 32 1f 28 3d cb 01 5f bc a3 7b a4 3d
       -0.028527051 0.041045375 -0.013611267 0.08031394
000390 f4 7d 39 bd 7d 3f 3a bd 5a 59 0d 3d 39 26 b0 3d
       -0.045286134 -0.045470703 0.03450904 0.086010404
0003a0 39 51 2d 3d 2e e0 a4 bd a0 a4 96 bd e5 f8 7e 3e
       0.042313788 -0.080505714 -0.073556185 0.24899633
0003b0 03 c9 e1 3c ee f1 86 3e 94 ed cc 3d e7 f0 30 bc
       0.02756167 0.26356453 0.10006252 -0.010799623
0003c0 79 b7 7a 3d 00 0f 94 bc e3 76 39 3e ab 1e 33 be
       0.06121013 -0.018073559 0.18111758 -0.17492168
0003d0 0b a5 e5 bc 56 86 07 be d6 01 be bc 8b ae 06 bc
       -0.0280328 -0.13234839 -0.023194235 -0.008220325
0003e0 9c 5a 68 bd aa 6f 61 3e 6b b8 1a 3e 82 28 8e bd
       -0.056727037 0.22015253 0.15109412 -0.0694132
0003f0 cb 98 01 bd ff a3 5f 3e 35 cf 09 3d a9 fc 4a 3d
       -0.031639855 0.21839903 0.033644874 0.04955736

fc3.bias f4 [7]
000000 06 0d 03 bf f8 fd 37 3e 4b 61 a3 3e 12 9b 4d 3e
       -0.5119175 0.17967975 0.31910166 0.20078686
000010 8c 8e 95 3e a1 46 06 bf 9d bd 05 bf
       0.29210317 -0.5245152 -0.5224245
