hackathon_toolkit/checkpoints_qlearn/agent_0_episode_1000.pth (torch, 78474 bytes, 6 tensors)

fc1.weight f4 [128, 11]
00000000: 0622 cc3d 50a2 0c3e e1dd c83d 7067 e83d
00000010: cb8d 253e 0751 1b3e 94ab 01be 4361 49be
00000020: c0cf 053e a491 8fbd 8804 be3c 381b 223e
00000030: 9b3b c1bc f37f a93d 8201 0abe e3fb 403e
00000040: c33c a03d 7036 1fbe 087e 203d 2e37 1ebd
00000050: a449 b03e 2600 42be 6f6b 54be 1703 8ebe
00000060: 60b7 56be dc59 af3e 3fd9 393e 58b4 44be
00000070: 5538 b53e 72e1 fabd f147 733e 6623 94be
00000080: 1846 393e e33b 02be 7c26 b43e 9182 9ebd
00000090: 9060 b5bd 4da9 b83e 240d 17be 3646 45be
000000a0: 1000 a13e 07e4 d4bd bfa4 72be b2e9 20be
000000b0: 767e c73e d983 28bc f087 66be 5163 683e
000000c0: 3d86 523d 9cb6 d0bd 9d69 c93d 4917 7c3e
000000d0: 66d9 453e bba2 e9bc bdc2 a3bc 63f2 953d
000000e0: 73ae ad3e 846d 193e 5029 42be d91f b43c
000000f0: 4c60 cabd 9834 2fbe 8f0b 6cbb bd0a 123e
00000100: 26ff 52be 3e8a 3a3e a964 7d3c 2ced 633e
00000110: cf31 533e 9928 b7bc 4210 5bbe 2853 35be
00000120: 51b0 d73b d380 9038 e6a8 f0bd a986 953e
00000130: 6c4b 403d 7e35 99be b1f9 ff3d 626a 8d3e
00000140: 46e4 babd 481c b53e dbcf cc3e 8aad 43be
00000150: 838a 6b3e 3491 6e3d 92ff b3be 6fa5 12be
00000160: 0103 0a3d e33f 41bd 3baa 6fbe a9f9 2bbe
00000170: ab99 cf3d 9a8a 093e 68e3 12bd 060e 8b3e
00000180: fae3 3fbd 4235 00be 5fc1 933e 6bc3 863e
00000190: d253 813e 31ff c93b 1793 1f3e d764 33bd
000001a0: a747 7b3e 5a1e 943e c0ee 38bd 39a3 6abd
000001b0: 70e0 653e d2d4 9b3d 3d87 14be d338 febd
000001c0: 62ed 793d db3e c43c 3046 193e e694 273b
000001d0: 9793 bbbd 15d7 ac3e 6aa6 36be 2ca8 223d
000001e0: d954 473e 2607 aa3e 9f1e 873e 333d e9bc
000001f0: a145 923e 7cba 68be 7cf3 9cbc 8828 6dbe
00000200: 44f4 81bd 8834 12be 575c c2bd 3edc 0b3e
00000210: d1e2 d63e 6207 67be 6733 583e 1fbb 3b3e
00000220: b2c6 023e 1569 593e 17bd 2c3e 8c7f 3abe
00000230: 94f9 2a3e 534e ad3d 0980 3d3e 61ae 8b3e
00000240: dd00 f9bd 74e1 573e 508c 19bb 4ccb 003e
00000250: e608 f0bd 8d5f d23e d056 c63e 963d ab3e
00000260: 8168 ed3e a08d ad3d 9d46 33be a54e b53e
00000270: 1f64 b93d bd5c a8bd 8fa8 a8bd a839 3fbe
00000280: 7412 f7bd cef7 353e 97ba 813d 2688 b2bc
00000290: 0adb 2e3d a616 04be 47c7 953e 9d1f d9bd
000002a0: d2f5 8abd 46de 8e3e aa9a deba 1163 f83d
000002b0: 0a9e 963e 2551 0f3d 659c 86be dbb6 42be
000002c0: a7ca 173e 689c 843d fc3c c9bd 4203 28be
000002d0: 9a00 5fbe f4d9 973e fdc5 943e 31a9 68bd
000002e0: 52e6 95bd fe38 313d 7ec7 d0bd 8df5 883e
000002f0: 1b97 aebc 0778 7f3d e120 dcbc fbf4 e6bd
00000300: af2a 9abd a63e 543e 92f8 5cbe 6950 823e
00000310: dd7e 1d3e b3c2 66be 0ae1 f8bd 0d51 703d
00000320: e0aa ac3c 4dd7 dabb 38df 993e 728b 16bb
00000330: ac1d 293e 15e5 46ba 2fba d63d fa8c 393e
00000340: 2b7e 703e 8704 22be 369a 913e 11cd d23d
00000350: f088 37be 7451 3e3e c69f 1bbd d51d df3c
00000360: 97ee 20be 892a afbd 43a4 983e 3299 84bd
00000370: 7f1e d9bd 357b 44bd 79b2 55be d4f6 7c3e
00000380: a4d9 5abe 6869 a1be e8d1 6f3e eb23 383e
00000390: a4c6 ccbd 7903 3f3e 23f0 ee3d 2238 b73e
000003a0: b412 93be 78bd 9c3d ee53 443e a05f 0bbe
000003b0: 5e12 a73e 2a4a 17be 532f c2bd 7cd6 943e
000003c0: e44f 9f3e 7908 623e a317 01bd 5b49 163d
000003d0: 8e77 02be e569 5a3d 8677 0fbe d0d9 4d3d
000003e0: 5c10 3ebe a668 00bd f300 5b3e 6471 c63e
000003f0: 716f 84be 921e e53c 6fff 803e 4e3c 083d
0.09967427 0.13733792 0.09807945 0.11347854 0.16167371 0.15167628 -0.12663108 -0.19666009
0.13067532 -0.070102006 0.02319552 0.15830696 -0.023587992 0.082763575 -0.13477138 0.18846087
0.078240894 -0.1554811 0.039182693 -0.038626842 0.34431183 -0.18945369 -0.20744108 -0.27736732
-0.2096839 0.34248245 0.18149279 -0.1920942 0.3539454 -0.122500315 0.23757912 -0.28933257
0.18093145 -0.12718157 0.3518561 -0.07739747 -0.088563085 0.36066666 -0.14751107 -0.19265065
0.3144536 -0.10395055 -0.23695658 -0.15714148 0.3896367 -0.010285341 -0.22512794 0.22694136
0.05139755 -0.1019108 0.09834597 0.24618258 0.19321212 -0.028519979 -0.01999032 0.07321622
0.33922157 0.14983183 -0.18961072 0.021987842 -0.098816484 -0.17109907 -0.0036017632 0.14261909
-0.20605144 0.18216798 0.015465894 0.22258443 0.20624469 -0.022358226 -0.2139292 -0.17707503
0.006582298 6.8904505e-05 -0.11750965 0.292043 0.046946928 -0.29923624 0.12498797 0.27620226
-0.09125571 0.3537314 0.4000233 -0.19109169 0.23002057 0.058243945 -0.35155922 -0.1432092
0.03369427 -0.047180068 -0.23404782 -0.16794457 0.10136732 0.13431779 -0.035861403 0.27159137
-0.046848275 -0.12520316 0.28858468 0.26320967 0.25259262 0.0061644544 0.15583454 -0.04379734
0.24539052 0.28929406 -0.045149565 -0.057284568 0.22448897 0.07608952 -0.14504714 -0.12413182
0.0610174 0.023955753 0.1496818 0.0025570928 -0.0915901 0.33757845 -0.1783692 0.039711162
0.1946596 0.3320858 0.2639055 -0.028471565 0.28568748 -0.22727388 -0.019159071 -0.23159993
-0.06345418 -0.14277852 -0.09490269 0.13658234 0.41969922 -0.2256141 0.21113358 0.183331
0.12771109 0.21231492 0.16869007 -0.18212718 0.16696769 0.08462205 0.18505873 0.27281478
-0.12158368 0.21082097 -0.002342958 0.12577552 -0.11720447 0.41088524 0.38738108 0.33445424
0.46368793 0.084742785 -0.17507406 0.35411564 0.090523 -0.082208134 -0.08235275 -0.18674338
-0.120640665 0.17770311 0.06334417 -0.021793436 0.04268936 -0.12899265 0.292536 -0.10601733
-0.06785168 0.27903956 -0.0016983349 0.121282704 0.2941745 0.034989495 -0.26291195 -0.19015066
0.148234 0.064751446 -0.09826085 -0.16407493 -0.21777573 0.29658473 0.29057303 -0.05680198
-0.07319321 0.043267243 -0.101943 0.2674984 -0.021312287 0.062370326 -0.026871147 -0.11277195
-0.075276725 0.20727023 -0.21579197 0.25451973 0.15380426 -0.2253521 -0.12152298 0.058671046
0.021077573 -0.006678498 0.30053115 -0.00229713 0.16515225 -0.00075872365 0.104847305 0.18120185
0.2348563 -0.1582204 0.28437966 0.102930196 -0.17923331 0.1858576 -0.03799417 0.027235905
-0.15716015 -0.08553035 0.29812822 -0.06474532 -0.1060152 -0.047969062 -0.20868863 0.24703532
-0.21372086 -0.3152573 0.23419917 0.17982452 -0.09998825 0.18653668 0.11666896 0.35785013
-0.28725207 0.07653326 0.19172642 -0.13610697 0.326312 -0.14774385 -0.09481683 0.2906989
0.3111564 0.22073545 -0.031516682 0.03669105 -0.12740919 0.053323645 -0.14010438 0.05025655
-0.18560928 -0.0313498 0.21387081 0.38758385 -0.25866273 0.027968679 0.2519488 0.033260636

fc1.bias f4 [128]
00000000: 11a7 b7be 4893 d3bd 89be 89be 4d87 a4be
00000010: bd9d 013e 0acb 503e 5723 1f3e 0414 cbbc
00000020: 3a59 97be 280f 843e 5fd0 6e3c 0a5c 393e
00000030: 1232 823e b4de 9b3e 9ac1 8cbe dee5 2a3c
00000040: f17f 55bd 6a9e 10bd 3159 a8bd 7668 403e
00000050: 9ccf 2fbe d733 d5bc 8155 bbbe 6a81 363e
00000060: 0a16 903e e399 0e3e 58be cf3c d1cd 72be
00000070: 4f81 c3be 0ae9 c3bd f0c5 91be 9db2 2fba
00000080: 4506 40bd 4276 9abe f4d0 073e dc4d 84be
00000090: c565 ebbd 9185 c03e dbe0 0ebd 14b9 09be
000000a0: b1e6 02be 3209 9cbe dd1c b83b 3bbb b23d
000000b0: 03d1 c7bd 13cb 343e 950d c3bd 3a49 713d
000000c0: 5d58 683e cc3e 02be 88ef 2c3d ec66 8c3c
000000d0: 90b5 8a3e 4209 ab3c 8f02 3b3d b567 8fbe
000000e0: 7b47 e23d 3151 a4be 9335 80bd 846e 5d3d
000000f0: c3f0 4abe 46be 93be 8e04 953b 6a68 b23d
00000100: 9b59 04bd 1d74 adbe 4269 bc3d 9afc 3bbe
00000110: 2f9d 883e a9ce c13d f242 723c 21bb 20be
00000120: 5f20 0d3e a5d0 e13d 996e 0c3c 3047 adbc
00000130: d0ce a5bd bc08 bb3d e7e9 84be c402 4fbe
00000140: 282f 66be 5155 45be 5278 1cbe 6034 e7bd
00000150: 193c a63d 9fe6 95be 3463 cbbc e86d 503e
00000160: 7a08 79be f407 503b e9e5 5dbe 38b5 4dbe
00000170: 4fdf 053d 8c8e b23d 94da 91be 7c75 86bd
00000180: cb74 7cbd 223a 393e 13d6 97be 8177 9fbe
00000190: e8e0 ab3d 0af7 2abe 3a44 5dbb 88f1 dcbd
000001a0: 6daf 833e 6d3a 31be b49d 543c d8c1 c83c
000001b0: fb19 ab3d bf2f 933e a191 c9bd 9673 453e
000001c0: daa4 11be 3f26 e53b b442 623e a67d 303e
000001d0: c425 14bd a5e9 8dbe 4a89 16bd 5d25 17be
000001e0: 4899 86bc 5de4 b53d a847 4b3e 85a4 0f3e
000001f0: c42a bbbe 53fd 343e b122 3a3e 4d1c 71be
-0.3586965 -0.10330826 -0.2690318 -0.32134476 0.12657829 0.20389953 0.15540825 -0.024789818
-0.29560262 0.25792813 0.014576047 0.18101516 0.25428826 0.30443347 -0.27491456 0.010430781
-0.052123968 -0.035307325 -0.08220137 0.18789849 -0.1716904 -0.026025696 -0.36588672 0.17822805
0.28141814 0.1392589 0.025359318 -0.23711325 -0.38184592 -0.09565933 -0.28471327 -0.00067023357
-0.04688098 -0.3016835 0.13263303 -0.25840652 -0.114940204 0.37601903 -0.034882408 -0.13449508
-0.12783314 -0.30475765 0.005618675 0.08727118 -0.09756663 0.17655592 -0.09524075 0.058907725
0.22689958 -0.12719268 0.042220622 0.01713892 0.27091646 0.020878438 0.045656737 -0.2800881
0.1104879 -0.32093194 -0.062602185 0.054060474 -0.19818406 -0.28856105 0.004547662 0.08711322
-0.032312017 -0.3387765 0.09199764 -0.18358079 0.26682422 0.094632454 0.014786469 -0.15696384
0.1378188 0.11026124 0.00857129 -0.021152109 -0.08096087 0.09132525 -0.25959703 -0.20215899
-0.22478926 -0.19270827 -0.15280274 -0.112892866 0.081169315 -0.29277512 -0.024827577 0.20354426
-0.2431964 0.0031743022 -0.21669735 -0.2008866 0.032683667 0.08718595 -0.28487074 -0.06565377
-0.06163482 0.18088582 -0.29655513 -0.31145862 0.08392507 -0.166958 -0.003376259 -0.10788256
0.25719777 -0.17307444 0.0129770525 0.024506494 0.08354565 0.28747365 -0.0984223 0.19282374
-0.14223042 0.0069930847 0.22095758 0.17235431 -0.03616883 -0.2771732 -0.036752023 -0.14760347
-0.016430512 0.088814475 0.19851553 0.14027603 -0.36556065 0.1767476 0.18177296 -0.23545952

fc2.weight f4 [128, 128]
00000000: b89a be3c a604 e1bd ae15 093e b55b 1c3d
00000010: 3aa6 89bd 4458 b43b 4a7b 55bd d8bf 113e
00000020: 3c83 2bbc f245 1f3d bea0 d43c 4e97 cdbc
00000030: a571 0bbe c353 4fbe 6655 f13d f7af dd3d
00000040: 0221 a63c 473b 893d 0e84 083c 865c 15bd
00000050: 0e26 8ebd 324f 80bd 910c 673c 0d37 ff3d
00000060: 54ce 1ebe d1ec 82bd a8aa 143e 77aa a4bb
00000070: 9782 ca3b 9dc5 16bd d667 27bd 5b8c 2a3e
00000080: 814e 10bd ddb7 3a3c 2107 ddbd ea80 5e3d
00000090: 01f4 16bd 0c19 1fbe 047f 073e 33ee 0b3e
000000a0: 107f 90bd 8f81 22bd 035e a83c a8f7 abbd
000000b0: cb12 22bd 59b2 41bd 611e 3f3d 06fd a23d
000000c0: dc05 ccbd a029 3138 cde3 2bbe c7cc b93d
000000d0: 3c5f 473e 9740 7abb 6a0f 4c3d f0bc b63d
000000e0: 5789 8d3d d1ce 7f3c 73c4 e3bc 971c 3a3c
000000f0: 5f65 873c 2ac9 393c 2a5e 5b3d f3d6 493e
00000100: 4f31 1b3d 4b82 793d 5f8f b6bc 9eb1 afbb
00000110: c969 663b 92a3 92bd c939 8bbd dda6 993d
00000120: 0769 323d 836a 833c 0d06 533d af88 a83b
00000130: b3e0 a33d 6e03 0bbe e78a 7cbd df94 223e
00000140: f22a cfbb 6794 413e a40e eabc 8d41 dfbb
00000150: 9d4f 1c3e bb83 0a3e a99f 013d a79d e93c
00000160: ec9e 6a3d b7dc 233d e6d9 053c 8622 db3d
00000170: 8617 8d3d 7505 5d3b 9733 abbd 7abd 223c
00000180: 0524 ed3d 0ec7 213b f8cd 2b3e 83d3 19bd
00000190: 0b4e 9e3d 08c1 943b a37b a23c 933e 583d
000001a0: a731 503c 6798 343e b832 093e 2ebe bfbd
000001b0: 22e1 f4bc 7e35 523e c3ae 96bc f436 223e
000001c0: 5f49 823c 4356 8fbd 3da2 043e ce96 12bd
000001d0: 601a f33c 659f 323c ebe6 d8bd dd4c 243c
000001e0: 7187 cb3d 6127 d5ba 9021 6bbd 3f9e 4e3c
000001f0: 9412 2d3d c206 e93c a85b bb3d ca7b 873d
00000200: ac4d aabd a4ba ae3c 1080 c9bb a77f 53bd
00000210: 0edd 9d3d 4cb4 dfbd c46f cf3d 9642 7ebd
00000220: 55e2 b2bc ccad 43bd 6c14 7a3d 43f4 36bd
00000230: a127 1b3d 9770 bf3d f3e0 f8bc d0ce a2bc
00000240: 2353 683d b350 fabb 8779 5b3d 4f32 963d
00000250: e8e6 3c3d 642b 1b3d 0506 4dbb c970 63bd
00000260: 4e98 d4bc 3fe7 273d 0d68 8cbc 2051 c33b
00000270: 1a4b 0dbe 61fc d93d 25bb f4bc b1d8 63bd
00000280: 823b 743c 7588 db3c 3c92 c53d 95dd 523d
00000290: 394a 393d a255 133d 782b 503c 5879 a9bd
000002a0: 9a93 babc af49 f63d 6936 a23c 6133 adbc
000002b0: b5dc 253d 41b3 aebc 5415 13bb 846b b1bd
000002c0: de60 edbc 6ab9 4e3c aa30 9c3d e5be a6bc
000002d0: ff57 1d3d 30e9 bf3d 1c7d ca3c 0c15 1fbd
000002e0: 5d86 d6bd 63be 323d 182c b6bc 26d1 d23b
000002f0: 877a ba3d f2dd cfbd d3c0 60bd 7a74 29bd
00000300: 202e 7a3d 3dc1 89bb ab28 56bd e282 acbc
00000310: d196 89ba 813a 143d 0474 d0bc a04e d63d
00000320: 9d38 463b db02 7f3d e8c0 313d 32bf 253c
00000330: ee58 333d 0a0e ea3d e02c 71bc fc57 b4bd
00000340: 4ae5 94bd bdba f23c 50ba 0fbe eac2 583d
00000350: 9f47 aa3b 4714 883d 7819 ee3c d544 a83d
00000360: 0b9d 903c 2783 473c d96d 863d b051 aa3c
00000370: 9bb6 1bbd 766a 863d 5dd6 7c3c 3860 cbbb
00000380: 3752 11bd 2254 283d 888b 743d 3c89 dd3d
00000390: 9ac1 673c d7f7 49bc 2b9a f73c 5b53 ee3c
000003a0: 34a6 76bd 1d41 d5bd b45d b6bd eaa1 31bd
000003b0: 76c0 8fbd 5a0c 3fbd dbf0 183b b306 77bd
000003c0: 88c8 94bb 5e19 3ebd 2e31 bb3b 7bba 5fbd
000003d0: 7456 ae3c 196b 5b3d bdad ac3d e341 8a3d
000003e0: 2b3a 0dbe e1f1 13bc 31e8 983d 772c 0a3c
000003f0: 6382 f13b d594 c33c 336b d4bd 2ed5 123a
0.023267135 -0.10987215 0.13387176 0.038173396 -0.06721158 0.005503686 -0.05211953 0.14233339
-0.0104683 0.038885064 0.025955554 -0.025096562 -0.1361757 -0.20246796 0.117838666 0.10824578
0.020279411 0.067007594 0.008332266 -0.03646519 -0.06940852 -0.06265105 0.014102117 0.12461672
-0.15508395 -0.063928254 0.14518225 -0.005025204 0.0061801183 -0.036809552 -0.04087051 0.16655104
-0.035231117 0.0113963755 -0.10792375 0.05432216 -0.036853794 -0.15536898 0.13232046 0.13665085
-0.07055485 -0.039674338 0.02055264 -0.08396846 -0.039568704 -0.047289226 0.04665983 0.07958417
-0.09962055 4.2238855e-05 -0.16786118 0.09072261 0.19469923 -0.0038185471 0.049819387 0.08922756
0.06910961 0.015613274 -0.027803635 0.011359355 0.01652783 0.011339465 0.0535566 0.19710903
0.03788882 0.060915273 -0.022285162 -0.00536175 0.0035158268 -0.07160105 -0.06798131 0.0750253
0.043557193 0.016042 0.051519442 0.005143247 0.08001842 -0.13575527 -0.061655905 0.15877102
-0.006322258 0.18904267 -0.028571434 -0.006813234 0.15264745 0.13526814 0.031646404 0.028517557
0.057280466 0.040005412 0.008169627 0.10699944 0.06889252 0.0033725176 -0.08359449 0.00993287
0.11579136 0.0024685296 0.1677779 -0.03755523 0.07729729 0.0045396127 0.019834345 0.05279405
0.012707151 0.17636262 0.13398254 -0.09362446 -0.029892508 0.20528218 -0.01839388 0.15841275
0.015904127 -0.06998875 0.12952514 -0.03578835 0.029675663 0.01090226 -0.10590919 0.010028091
0.09937943 -0.0016262346 -0.057405055 0.012610971 0.042254046 0.028445605 0.091483414 0.06615408
-0.08315596 0.021329232 -0.0061492994 -0.05163541 0.077081785 -0.10923061 0.101287395 -0.06207522
-0.02183644 -0.047773167 0.061054632 -0.04466654 0.03787959 0.09347647 -0.030380702 -0.019874007
0.05671991 -0.0076390146 0.053582694 0.07333814 0.046118647 0.037883177 -0.0031284105 -0.055527482
-0.02595153 0.040992018 -0.017139459 0.0059605986 -0.1379818 0.106438406 -0.029874394 -0.055626575
0.014906766 0.026798466 0.096470326 0.05148085 0.0452368 0.035970338 0.012705676 -0.082750976
-0.02277546 0.12025773 0.019801335 -0.021142663 0.040493686 -0.02132571 -0.0022443132 -0.08663085
-0.028976854 0.012617448 0.076264694 -0.020354697 0.038413998 0.09370649 0.02471786 -0.03883843
-0.104748465 0.0436386 -0.022237822 0.006433624 0.091054015 -0.101497546 -0.05487139 -0.041370846
0.061079144 -0.004203944 -0.052284878 -0.021058504 -0.0010497217 0.036188606 -0.025445946 0.10464215
0.0030246146 0.062258583 0.04339686 0.010116385 0.04378598 0.11428459 -0.014720172 -0.08805844
-0.07270296 0.02963006 -0.14035916 0.05292026 0.005196526 0.066444926 0.029064879 0.08216254
0.017653009 0.012177265 0.065639205 0.020790905 -0.038015943 0.065632746 0.015431968 -0.0062065385
-0.035478797 0.04109586 0.05970338 0.10817191 0.014145279 -0.012327156 0.03022488 0.029092481
-0.060217097 -0.1041281 -0.08904591 -0.043367304 -0.07019131 -0.04664264 0.002333692 -0.060309123
-0.0045405068 -0.04641091 0.00571265 -0.0546212 0.021281458 0.053568933 0.084315754 0.06750848
-0.1379172 -0.009029836 0.07466162 0.008433453 0.0073702796 0.02387468 -0.10372009 0.0005601224

fc2.bias f4 [128]
00000000: fc66 8abd ed6a 97bd 3489 bd3c f1f3 82bd
00000010: 881c 9b3e 9ad8 83bd 49ca 91bc c0be 84bd
00000020: 276c 58bd abf5 a2ba a475 c7bd 47e6 aabd
00000030: aefa 3fbd 483a 0cbd 37ce 49bd 7887 5dbd
00000040: 1c04 903d 2fc1 86bd 3b48 d8bd 0f38 d4bd
00000050: c44f a8bd b95e 64bd 7229 dabd 9178 da3c
00000060: 663e b1bd 4b5f eebd e71a 97bd 6762 bbbd
00000070: de49 043c def2 0bbd 6161 893d 8644 acbd
00000080: 2543 3f3d ccf7 10bc 03c5 3fbc 8607 85bc
00000090: a8d2 1dbc 544d f63b aa84 98bc 00fa 9b3b
000000a0: 183c 9bbd 217c 803c daa4 5ebd 165a 1bbd
000000b0: af6e c6bd 1ba0 3c3d f5e8 52bc 104f 2b3d
000000c0: 99f7 05bd 703f a03e fdfa 723a 3697 c7bd
000000d0: 170e 85bb 5103 a8bc 13ca 05be f0c3 e3bb
000000e0: fd39 02be 646b 05be b47f 91bc b3a1 f13c
000000f0: df41 863c e9c5 d6bd 0ffe c8bd 1eea 49bd
00000100: 5ad3 4cbb 06a8 3fbd 3b59 86bc 8214 b4bd
00000110: e5f1 493e b43a b7bd 95bc 94bd 29eb c3bd
00000120: abdb 5f3d d77a 00be ae7d abbd d829 eb3d
00000130: 6bc4 eb3c b072 b13c f186 8fbc fae0 123e
00000140: cef8 d0bd ef3f a3bd d6e3 55bd 3317 ef3c
00000150: 0a18 4cbd 4229 35bd 5f98 283c 8ef9 25bd
00000160: 4ca8 a63d 65a5 25bd c8fc 553d 03fa 37bc
00000170: 9361 e33c 0da7 943e 882e 6ebb 1f31 ef39
00000180: d216 5b3b e413 373d b361 24bd 8774 2abd
00000190: f9ad 5dbc 8798 143d 5a79 0dbd 4189 b53d
000001a0: dc39 4f3d b1ae 2d3d cc26 e2bc 3700 253d
000001b0: 16de 91bc 2a38 13bd d9f1 a8bd 5f48 cabd
000001c0: 7a53 debc e708 db3b 449b 27bd f70f 56bd
000001d0: b03d 0f3c c8ec 44bd 36bf 163d c7ac 863e
000001e0: 0129 78bd 5675 ccbd 3e64 e0bd e6b4 55bd
000001f0: 5bdb d5bc a216 5c3b 2202 70bd c706 42bd
-0.06757924 -0.07393441 0.023136713 -0.063941844 0.30295205 -0.06437798 -0.017796652 -0.06481695
-0.052837517 -0.0012432834 -0.09739235 -0.08344703 -0.046869926 -0.03423527 -0.049268927 -0.05408427
0.07032034 -0.065798156 -0.10560652 -0.10362255 -0.08218339 -0.055754397 -0.10652436 0.026668819
-0.0865448 -0.116392694 -0.07378178 -0.09149628 0.008074252 -0.034167163 0.06708027 -0.08411507
0.046694893 -0.008848142 -0.011704686 -0.016238939 -0.009632744 0.0075165424 -0.018617947 0.004760027
-0.07579821 0.01568419 -0.054356433 -0.03792771 -0.0968908 0.046051126 -0.012872924 0.041823447
-0.03270683 0.312984 0.00092689676 -0.09745638 -0.0040605175 -0.020509394 -0.13065366 -0.006950848
-0.12717433 -0.13029248 -0.017761089 0.02949605 0.016388832 -0.10486967 -0.09814083 -0.049295537
-0.0031253905 -0.0467911 -0.01639997 -0.08792974 0.19721182 -0.089467436 -0.07262532 -0.095663376
0.05465285 -0.1254686 -0.08373581 0.114825904 0.028780183 0.021661133 -0.0175204 0.14343634
-0.10203706 -0.07971179 -0.052219234 0.029185867 -0.049827613 -0.0442288 0.010290234 -0.040521197
0.08137569 -0.040440936 0.052243024 -0.011229041 0.027756488 0.290337 -0.0036343653 0.0004562223
0.003343035 0.044696704 -0.040132236 -0.041615035 -0.013530248 0.036278274 -0.034539558 0.0886407
0.05059229 0.042402927 -0.02760639 0.040283408 -0.017806094 -0.035942234 -0.08249254 -0.09877085
-0.027139414 0.006684411 -0.040919557 -0.05226132 0.008742735 -0.048077375 0.036803447 0.26303694
-0.06058598 -0.099833176 -0.1095662 -0.05217447 -0.026105573 0.0033582826 -0.058595784 -0.047369745

fc3.weight f4 [7, 128]
00000000: e23c 3abd 8bb9 d5bd 126d 8f3d 234a 3bbd
00000010: 1ec9 70be 1280 c73c d2d3 e6bc b413 373d
00000020: c9d4 8d3c 43f0 0ebe 1438 0dbd e357 2a3d
00000030: d78e 68be 8f55 23be a833 4dbf cb4e fdbd
00000040: bc9b f83c 1f7a 853c 4301 79bd 8629 6ebc
00000050: 0a04 47bd e169 34be 3d56 81bb 12ff a1bd
00000060: afc5 4a3d 4316 a6bd 75da f9bd bc4c 7d3d
00000070: 7da2 863d ef4c 8f3d 9f03 30c0 ba86 18be
00000080: 38f0 67bd d1d4 9fbd fd7c b73c 1588 04bf
00000090: ff1b e2bc 90b1 abbd 6219 92bd cfc0 15be
000000a0: b1e5 ccbc 43e1 49bf 48c0 2bbc 8ad7 b3bb
000000b0: ed66 f33b 6a32 1dbe ee00 44bd 37a3 213d
000000c0: 53e1 1fbe 5458 35c0 a02c d93b 9705 87bd
000000d0: df42 d7bc 690a b8bd 15a8 3e3d a8ad e9bc
000000e0: 0073 95bd a6b0 9e3c 18db 873c a418 07bd
000000f0: 68cc 293d cdad 98bd ea19 5b3d b96d 3f3c
00000100: b271 0fbe 4b59 2dbe feb9 51bd c070 08bb
00000110: 9922 5fc0 c4a1 43bd 8eb3 dc3c bbe5 fbbc
00000120: f444 88bd 3b22 863d 9154 2a3d e326 ef3b
00000130: d2e2 aebc ab90 473c b1f2 8ebd f584 f7bd
00000140: adfe dabc 3283 fcbc 069d 64bc a51f 913d
00000150: dc86 eabd d41a 7f3d c573 23bd 5836 3f3d
00000160: 579e 12bd 740e fcbd e4fe 0c3d 64ce 50bd
00000170: 475d 4e3d ba6c 23c0 5c63 8bbd 94d8 6abd
00000180: 69f2 a53c a744 1cbe d7ee da3c d50b 1ebf
00000190: 5a96 4d3c 742e 9bbc 57cd f1bd ae7c 1bbd
000001a0: b58c 98be 6c0e 76bf d554 ba3c 7acf 4bbd
000001b0: 1ea4 37be 6c22 90bc 4885 bdbd fb5c 0fbe
000001c0: 95b0 73bd b614 983c d220 11bd 182e 4c3d
000001d0: e0e4 6f3d 46a3 913d 9528 9d3d e879 85c0
000001e0: eff3 a4bd 7efa f63c c391 bbbc 9b8b 09bd
000001f0: 696f 64bc 5037 96bc 13e4 c0bd f08c 26bc
00000200: cb17 b8bd d5c3 0c3d 9e16 75bc e14c ee3c
00000210: f24d 953e 7dc1 583c 903e 57bc e1cb e23d
00000220: 74df 3cbe 3be4 cf3c 4aa3 7a3d c29e 13bd
00000230: 0ba4 023c 0e39 12bd 2998 5a3c 16e9 81bd
00000240: 782f 1dbd 3c94 983b 70c7 81bd f905 9abc
00000250: cec3 82bd ed3c 073b 2923 31bd 9ebb 81bd
00000260: 1366 ce3d 4064 b73d 013e 29bd a82c 873b
00000270: 0783 83bd a343 853c f5d8 e83d b030 87bd
00000280: 5d39 333d cccb ad3c 5327 fdbb 9f62 6ebe
00000290: f2c6 8c3b 8e7e a6bc 8560 e93c 59c7 28bc
000002a0: 518c 4dbd 2d2f 61bd b38b 433d cfeb 223d
000002b0: 742a 6abd 8ac4 b13d 8741 793c 4891 4a3e
000002c0: a036 48bd 633c 6e3d 173d f3bc 89bb d6bc
000002d0: 974b 303c ebdf 423e 11e3 d83d cd4a 8f3d
000002e0: a0c4 a5bd 3e64 15bd 26ee 75bd 5d8c 29bd
000002f0: c3db d73c 39da 5dbd e427 d03c 5c7d 813a
00000300: e274 433c a82c adbd 3802 1abc e02f b63c
00000310: 9b3c 663d 8a3f dabc 55c5 55be e3ee a5bc
00000320: 47b1 583e 1df3 e8bd 5b1b 2c3d ccc9 ec3d
00000330: 2dc2 083e fc12 64bd 3f67 8a3d 9b4e 2b3e
00000340: 7778 69bd 841b 48bd e9f0 08ba c518 f3bb
00000350: 6dbd 283d 2041 f2bc de4a 04bd 5bff c43d
00000360: 397a c13d 6f7e 63bd c801 7e3d 149b 08bd
00000370: ebb2 8b3c 051c 313e cbab 823b ba0b e93d
00000380: e76d c53c 4fd5 ef3c ceed db3c 33a6 303e
00000390: 299a 7d3d 48ee 193c 78ab ecbc c483 af3d
000003a0: e191 e9bd 7261 e9ba 4695 b2b9 34a7 073e
000003b0: c2d2 efbd e849 15bc cbe1 a4bb 08a7 8f3d
000003c0: c7df 063d 09c0 d9bc d98d 3abd 642f 9bbd
000003d0: 1302 76bd 8899 13bd cd72 5b3d 4940 123e
000003e0: f5f8 1d3e 4256 363d 69a1 ddbc 8ac6 e9ba
000003f0: 7e7d e43a f017 f6bb 9213 a1bd f0d1 833b
-0.04546822 -0.1043578 0.070032254 -0.045725 -0.2351422 0.02435306 -0.028177176 0.044696525
0.017313378 -0.1395884 -0.03447731 0.04158772 -0.22710739 -0.15950607 -0.80156946 -0.12368544
0.030347697 0.016293583 -0.06079222 -0.014536267 -0.048587836 -0.17618515 -0.003947048 -0.07909979
0.049504932 -0.08109715 -0.121998705 0.061840758 0.06573961 0.06997096 -2.750221 -0.14895144
-0.056625575 -0.078042634 0.022398466 -0.51770145 -0.02760124 -0.08383477 -0.07133748 -0.14624332
-0.02501187 -0.7885935 -0.010482855 -0.0054883407 0.007428041 -0.15351263 -0.04785245 0.039462294
-0.15613298 -2.8335161 0.006627634 -0.06592863 -0.026277004 -0.089863606 0.046547014 -0.028525189
-0.07297325 0.019371342 0.016583964 -0.032982484 0.041454703 -0.07455025 0.05349151 0.011683875
-0.14008215 -0.16928594 -0.051202767 -0.0020819157 -3.4864867 -0.047761694 0.026941087 -0.030749192
-0.06653777 0.06549498 0.041584555 0.007298337 -0.02134839 0.012180488 -0.069798835 -0.120859064
-0.026732767 -0.030824278 -0.013953453 0.07086114 -0.11451504 0.062281445 -0.03990533 0.046682686
-0.035795536 -0.12307444 0.03442277 -0.05097808 0.050381925 -2.5535111 -0.06806061 -0.05733545
0.020257192 -0.15260564 0.026725216 -0.61736804 0.012548054 -0.018943049 -0.118067436 -0.0379607
-0.2979485 -0.96115756 0.02274553 -0.049758412 -0.179337 -0.017594539 -0.09253937 -0.14000313
-0.059494574 0.018564563 -0.03543169 0.049848646 0.05856788 0.0711122 0.07673756 -4.171131
-0.08054339 0.03014874 -0.022896653 -0.033580404 -0.013942578 -0.018336922 -0.09418502 -0.010165438
-0.08988913 0.034366447 -0.014959006 0.029089393 0.2916103 0.013229725 -0.013137475 0.11074043
-0.18444616 0.025377383 0.06119088 -0.036040075 0.007973681 -0.035698943 0.013341942 -0.06343286
-0.038375348 0.004656343 -0.06336868 -0.018801676 -0.06385003 0.002063568 -0.043246422 -0.06334613
0.10078063 0.08954668 -0.041318897 0.0041251965 -0.06421476 0.016267603 0.11369506 -0.06601083
0.043755878 0.021215342 -0.007725635 -0.23279808 0.004296177 -0.020324018 0.028488407 -0.010301434
-0.050182644 -0.05497663 0.04774065 0.039775666 -0.057169393 0.08680065 0.015213377 0.19781983
-0.04888022 0.058163058 -0.029692216 -0.02621247 0.0107602095 0.1903073 0.105901845 0.06996689
-0.08094144 -0.03647255 -0.06004157 -0.041393626 0.026349908 -0.05416319 0.025409646 0.0009879279
0.0119297225 -0.08455783 -0.009399943 0.022239625 0.05621014 -0.026641626 -0.20876057 -0.020255512
0.21161376 -0.11374495 0.042018276 0.11561927 0.13355322 -0.055682167 0.06757974 0.16729204
-0.05699965 -0.048854366 -0.00052238867 -0.0074187242 0.041196276 -0.02957207 -0.03229796 0.09619018
0.0944714 -0.0555405 0.062013417 -0.03335102 0.017053088 0.17295845 0.0039877645 0.1137919
0.024100257 0.029276518 0.026846793 0.172509 0.061914597 0.00939519 -0.028890356 0.08570054
-0.11404777 -0.001780553 -0.00034062023 0.13247377 -0.11710121 -0.009111859 -0.0050317994 0.070142806
0.032928254 -0.026580827 -0.045545433 -0.075773984 -0.060060572 -0.03603509 0.05357628 0.14282335
0.15427001 0.044515856 -0.027054505 -0.0017835659 0.0017432419 -0.007510178 -0.07865061 0.0040228292

fc3.bias f4 [7]
00000000: b011 cdbd 3c51 793e fa7b cf3d c831 3b3e
00000010: 168a 4b3e da6b 81be 9562 a7bd
-0.10013139 0.24347395 0.101310685 0.18280709 0.19876894 -0.25277597 -0.081731
