hackathon_toolkit/checkpoints_qlearn/agent_0_episode_1800.pth (torch, 78474 bytes, 6 tensors)

fc1.weight f4 [128, 11]
0.09254193 0.24073191 0.15141006 0.1292005 0.22353211 0.18698148 -0.094976634 -0.16147874
0.17927928 -0.07807709 0.12643155 0.21509382 -0.008341411 0.057788976 -0.17174909 0.24754885
0.046287242 -0.15470913 0.016051559 -0.09942205 0.4010511 -0.17420705 -0.19526239 -0.33161324
-0.1880098 0.36509234 0.14987057 -0.1912982 0.3797574 -0.11850413 0.24970412 -0.27714226
0.12753838 -0.074853405 0.32537 -0.08331809 -0.1565242 0.3618518 -0.20209631 -0.18327683
0.24955106 -0.14969146 -0.18532601 -0.1836052 0.43629596 0.006880094 -0.25466928 0.22021234
0.1059858 -0.096254796 0.09857586 0.24327755 0.191423 0.018206082 -0.0028248765 0.031613722
0.39800397 0.19029151 -0.14126915 0.054979112 -0.041898146 -0.14276485 0.05489536 0.18020128
-0.24765383 0.24089855 0.011292115 0.22640927 0.20414574 -0.023699436 -0.21628343 -0.17879082
0.006599663 -0.0016390722 -0.117502116 0.28824547 0.05071347 -0.29661646 0.07118584 0.2647185
-0.101957045 0.29377645 0.37283567 -0.19246545 0.2075353 0.042378776 -0.34891093 -0.19668292
-0.021794675 0.006849567 -0.15575358 -0.19120647 0.1797221 0.12946744 0.025550947 0.27646717
-0.035295084 -0.18069175 0.3426258 0.31973147 0.21391948 -0.03334655 0.21800478 -0.00056800776
0.3142706 0.31153557 0.009877398 -0.0042856345 0.28140628 0.03738565 -0.14311485 -0.11561398
0.08567006 -0.033815093 0.09596537 -0.07949868 -0.092700206 0.27050585 -0.17123848 0.04167121
0.20324607 0.27029827 0.34077364 0.032722913 0.35154784 -0.16477804 0.062771216 -0.19987641
0.020546297 -0.07972864 -0.15669036 0.212919 0.4654325 -0.21522829 0.18345474 0.16741389
0.1820019 0.2118629 0.16923341 -0.19050626 0.1630135 0.13038172 0.19544455 0.32140335
-0.11135267 0.15683475 -0.012063045 0.17665572 -0.11268919 0.4061985 0.37970874 0.34033507
0.5123015 0.09497374 -0.21635969 0.41235593 0.15125135 -0.054428004 -0.032231554 -0.13581471
-0.096201286 0.22582756 0.08805839 -0.063079014 0.10066557 -0.08444106 0.23789826 -0.10068238
-0.086742215 0.28709215 -0.009268883 0.14956675 0.28070024 0.0028523342 -0.21861777 -0.24457534
0.2140239 0.05450534 -0.13886309 -0.17017479 -0.16051257 0.2993473 0.31388804 -0.061987918
-0.08098447 0.10927706 -0.11218917 0.3549295 -0.022651345 0.038047448 -0.06032784 -0.021424422
-0.08426554 0.207202 -0.24244453 0.26469624 0.24109173 -0.22669077 -0.18373066 0.14022359
0.083141945 0.058999076 0.3633746 0.07928806 0.19698249 0.083073184 0.16823566 0.11899412
0.31550324 -0.15874943 0.28445467 0.102477945 -0.17973688 0.18586902 -0.038231917 0.026956305
-0.1574298 -0.085818 0.29759943 -0.06467104 -0.10897108 -0.037825264 -0.21061546 0.23081414
-0.21341987 -0.32235044 0.23260516 0.16937463 -0.10136304 0.18358082 0.12680586 0.40386823
-0.27714136 0.048780624 0.18340111 -0.08121316 0.3344157 -0.14730354 -0.09771819 0.2945864
0.35719702 0.23084602 -0.050487068 0.117907256 -0.15227905 -0.01901338 -0.1675806 -0.032347556
-0.21627364 -0.1084411 0.15975265 0.36855897 -0.17744626 0.027973486 0.33994022 0.08920104
00000000: a086 bd3d 6d82 763e 3d0b 1b3e 234d 043e
00000010: 9ae5 643e 1378 3f3e 1c83 c2bd af5a 25be
00000020: fd94 373e e2e6 9fbd 4677 013e 8e41 5c3e
00000030: 6aaa 08bc 22b4 6c3d fede 2fbe 727d 7d3e
00000040: b197 3d3d 126c 1ebe 8f7e 833c ca9d cbbd
00000050: 9256 cd3e 5563 32be ddf2 47be 36c9 a9be
00000060: a485 40be 62ed ba3e ac77 193e ade3 43be
00000070: 906f c23e 4bb2 f2bd 70b2 7f3e 97e5 8dbe
00000080: 6c99 023e be4c 99bd e696 a63e ada2 aabd
00000090: e147 20be a444 b93e 56f2 4ebe ecac 3bbe
000000a0: 508a 7f3e b848 19be 1ac6 3dbe 0003 3cbe
000000b0: 2f62 df3e 6972 e13b 0364 82be 587f 613e
000000c0: 150f d93d 3c21 c5bd 24e2 c93d c01d 793e
000000d0: 6404 443e ec24 953c 9021 39bb 647d 013d
000000e0: 2dc7 cb3e c7db 423e dca8 10be c731 613d
000000f0: 649d 2bbd f330 12be f5d9 603d af86 383e
00000100: f798 7dbe 1cae 763e 9002 393c d5d7 673e
00000110: 950b 513e 5225 c2bc 6779 5dbe f114 37be
00000120: fc41 d83b 23d6 d6ba f3a4 f0bd e994 933e
00000130: edb8 4f3d 1dde 97be e2c9 913d 2f89 873e
00000140: dbce d0bd de69 963e 51e4 be3e aa15 45be
00000150: 2284 543e 5e95 2d3d 74a4 b2be 3f67 49be
00000160: bf8a b2bc 5572 e03b de7d 1fbe a1cb 43be
00000170: 1209 383e 1d93 043e 3850 d13c 1b8d 8d3e
00000180: 9491 10bd 4207 39be a66c af3e d8b3 a33e
00000190: b50d 5b3e 6496 08bd a53c 5f3e 5be6 14ba
000001a0: 13e8 a03e 9781 9f3e cfd4 213c 826e 8cbb
000001b0: 7c14 903e b221 193d b38c 12be 06c7 ecbd
000001c0: c973 af3d b281 0abd 7e89 c43d 34d0 a2bd
000001d0: 9bd9 bdbd be7f 8a3e 2459 2fbe 6eaf 2a3d
000001e0: bd1f 503e 8964 8a3e e279 ae3e 7608 063d
000001f0: 14fe b33e 93bb 28be 328e 803d 67ac 4cbe
00000200: b550 a83c c548 a3bd 7073 20be 7007 5a3e
00000210: 2b4d ee3e ce64 5cbe 8fdb 3b3e 8c6e 2b3e
00000220: b55e 3a3e 97f2 583e 864b 2d3e 1314 43be
00000230: 03ed 263e c982 053e 9e22 483e fb8e a43e
00000240: de0c e4bd 4a99 203e 14a4 45bc 3de5 343e
00000250: 97c9 e6bd 40f9 cf3e 2f69 c23e 6640 ae3e
00000260: 3126 033f 9881 c23d 658d 5dbe 5120 d33e
00000270: a2e1 1a3e e6ef 5ebd 3c05 04bd 0313 0bbe
00000280: 2e05 c5bd 573f 673e f557 b43d 922f 81bd
00000290: c029 ce3d 6fef acbd 9a9b 733e 9032 cebd
000002a0: e7a5 b1bd befd 923e 83dc 17bc 0728 193e
000002b0: f1b7 8f3e 3aee 3a3b 56dd 5fbe f571 7abe
000002c0: 1529 5b3e fe40 5f3d 2032 0ebe 4d42 2ebe
000002d0: 685d 24be 0d44 993e efb5 a03e 0be7 7dbd
000002e0: 30db a5bd a7cc df3d 70c3 e5bd 52b9 b53e
000002f0: 508f b9bc a4d7 1b3d 531a 77bd 4582 afbc
00000300: 6993 acbd c32c 543e 6143 78be 4486 873e
00000310: c0e0 763e a021 68be e423 3cbe c696 0f3e
00000320: 5346 aa3d 04a9 713d 3c0c ba3e c761 a23d
00000330: c7b5 493e 4622 aa3d f845 2c3e 30b3 f33d
00000340: a489 a13e 368f 22be 0ba4 913e f5df d13d
00000350: f20c 38be 7354 3e3e 1299 1cbd 78d3 dc3c
00000360: 4735 21be 59c1 afbd f45e 983e 4072 84bd
00000370: 3b2c dfbd aaee 1abd 94ab 57be 8b5a 6c3e
00000380: bd8a 5abe 1e0b a5be 0c30 6e3e 8b70 2d3e
00000390: 6d97 cfbd 9cfc 3b3e 65d9 013e d1c7 ce3e
000003a0: 79e5 8dbe 31ce 473d 80cd 3b3e 1653 a6bd
000003b0: 8938 ab3e bdd6 16be 7920 c8bd 07d4 963e
000003c0: 87e2 b63e e662 6c3e 87cb 4ebd 5c79 f13d
000003d0: 0aef 1bbe f3c1 9bbc 409a 2bbe df7e 04bd
000003e0: d676 5dbe 5e16 debd 3396 233e c3b3 bc3e
000003f0: 79b4 35be a728 e53c a50c ae3e 09af b63d

fc1.bias f4 [128]
-0.3262814 -0.12522928 -0.30725518 -0.38391933 0.12703362 0.24448612 0.15425622 -0.04434369
-0.2920459 0.32219055 -0.060347915 0.26478213 0.2504263 0.3030877 -0.22606827 -0.040192913
-0.050427515 -0.04645522 0.0015362691 0.18755601 -0.17514515 -0.023388764 -0.44571236 0.24431884
0.3655769 0.20591009 0.0021964405 -0.19700544 -0.38183734 -0.07245472 -0.2805182 0.0027863716
-0.059720144 -0.33681706 0.13849789 -0.29830584 -0.1110263 0.37365225 -0.0727967 -0.18063875
-0.13305157 -0.3390937 -0.078535095 0.13354161 -0.06980291 0.18515955 -0.08590951 0.04593201
0.20636469 -0.19538073 0.056778695 0.03208177 0.2455833 0.0067788255 0.001366607 -0.27278766
0.09639172 -0.2588007 -0.059858803 0.032916624 -0.18878491 -0.32862398 -0.01193747 0.041400876
-0.029860897 -0.34767997 0.11514769 -0.25044173 0.26604983 0.09736895 -0.009511339 -0.22298788
0.121236004 0.12422527 -0.058737017 -0.08020577 -0.06049411 0.14487506 -0.30267128 -0.20216903
-0.26486415 -0.19725208 -0.150132 -0.026308075 0.054307446 -0.2820497 0.013415064 0.16630688
-0.28502983 0.0042889337 -0.19849698 -0.30725 0.02456602 0.086993165 -0.2381309 -0.02511646
-0.02069513 0.22341353 -0.35329685 -0.3822092 0.083522364 -0.14452966 0.08080631 -0.06568972
0.34134716 -0.24816771 -0.04723804 0.08351783 0.075632975 0.2632064 -0.020818368 0.1762911
-0.113889314 0.030746372 0.21331538 0.17888495 -0.0036349825 -0.24417606 0.026256695 -0.11612878
-0.04300928 0.14845762 0.20827644 0.19412082 -0.3927845 0.24284768 0.17756228 -0.29050887
00000000: 5b0e a7be 1b3c 00be 8d50 9dbe 1391 c4be
00000010: 1a15 023e 925a 7a3e 58f5 1d3e bba1 35bd
00000020: 0a87 95be 29f6 a43e 602f 77bd 8691 873e
00000030: e037 803e 502e 9b3e 717e 67be 53a1 24bd
00000040: 158d 4ebd d447 3ebd a35c c93a af0e 403e
00000050: 4059 33be cb99 bfbc 6934 e4be b82e 7a3e
00000060: e52c bb3e 18da 523e 28f2 0f3b cbbb 49be
00000070: 2f80 c3be 2463 94bd 15a0 8fbe 8f9b 363b
00000080: 1c9d 74bd 4973 acbe 64d2 0d3e 8bbb 98be
00000090: c261 e3bd 594f bf3e 7016 95bd 5df9 38be
000000a0: ac3e 08be b09d adbe 02d7 a0bd 22bf 083e
000000b0: d4f4 8ebd 779a 3d3e 53f1 afbd 3423 3c3d
000000c0: 4451 533e e311 48be c790 683d 2d68 033d
000000d0: 307a 7b3e e920 de3b b91f b33a d3aa 8bbe
000000e0: 0669 c53d 8681 84be 812e 75bd 95d3 063d
000000f0: d550 41be 6741 a8be 6195 43bc f793 293d
00000100: d79e f4bc 1c03 b2be 8dd2 eb3d e639 80be
00000110: af37 883e 5f69 c73d 72d5 1bbc ef56 64be
00000120: 954a f83d d169 fe3d 3a96 70bd ec42 a4bd
00000130: acc8 77bd 215a 143e bbf7 9abe 6605 4fbe
00000140: 469c 87be 73fc 49be 34bc 19be 0884 d7bc
00000150: 7c71 5e3d d168 90be dbca 5b3c 5a4c 2a3e
00000160: 6eef 91be 2f8a 8c3b cb42 4bbe df4f 9dbe
00000170: ae3e c93c 7929 b23d 96d8 73be 09c1 cdbc
00000180: d588 a9bc 84c6 643e 53e3 b4be edb0 c3be
00000190: c60d ab3d 95ff 13be c77d a53d 5588 86bd
000001a0: 0ec5 ae3e ad1f 7ebe ad7c 41bd 650b ab3d
000001b0: 76e5 9a3d fdc2 863e 488b aabc a785 343e
000001c0: cd3e e9bd d1df fb3c 596f 5a3e 9e2d 373e
000001d0: e338 6ebb 4a09 7abe 4818 d73c edd4 edbd
000001e0: 802a 30bd 4605 183e 6b46 553e 9cc7 463e
000001f0: 0d1b c9be 10ad 783e e3d2 353e 94bd 94be

fc2.weight f4 [128, 128]
0.0020471513 -0.13341194 0.1588671 0.009864631 -0.07803324 -0.042063385 -0.05236816 0.13500395
-0.040263217 -0.030038923 -0.013436849 -0.05632124 -0.1483046 -0.22515436 0.071088485 0.0943317
-0.01819624 0.054754447 -0.040838778 -0.036473054 -0.05384522 -0.07455767 0.017931832 0.12034536
-0.19236925 -0.12826757 0.13365103 -0.052408133 0.0061797756 -0.052234516 -0.072588965 0.14257866
-0.060246523 0.00827786 -0.15043856 0.064419486 -0.06801882 -0.16989513 0.14387673 0.11125174
-0.07354778 -0.041350294 0.037651204 -0.14163856 -0.06667452 -0.057924226 0.015521227 0.08570557
-0.114383616 0.011491135 -0.1865934 0.06594908 0.19722435 -0.01837695 0.053362112 0.048946004
0.017395006 -0.024160571 -0.04164912 -0.0076185903 0.0077807414 0.02432437 0.014279208 0.1796432
0.037726562 0.045182195 -0.06266483 0.006153845 -0.04674419 -0.13141881 -0.08497551 0.07163122
0.012141703 -0.010770523 0.023929188 -0.012006727 0.03199451 -0.1760966 -0.047663182 0.16543071
-0.032727376 0.1908616 -0.058006465 -0.04455792 0.13700774 0.14869313 -0.0045945416 0.038229506
0.061718404 0.039634667 -0.03752207 0.07800374 0.034737505 0.0033426292 -0.1247101 -0.011543928
0.08607778 -0.0397501 0.1709564 -0.04640072 0.044042822 -0.020499585 -0.022595052 0.055748526
-0.028016802 0.15755765 0.1486422 -0.12936743 -0.048378654 0.19620551 -0.07464184 0.17116508
-0.015827602 -0.10911482 0.087015815 -0.062491067 0.006962437 -0.0003934543 -0.15104893 -0.0049479925
0.0870475 -0.035866477 -0.0744137 0.00060239056 0.032053337 -0.0036079013 0.06319016 0.07865849
-0.08315596 -0.0060186363 -0.023953812 -0.05163541 0.043411564 -0.10923061 0.10128738 -0.079181895
-0.02183644 -0.06468872 0.035304263 -0.04466654 -3.3813216e-05 0.064074956 -0.030380702 -0.01985485
0.026320903 -0.042993914 0.053582694 0.07333814 0.058461525 -0.0031977354 -0.042072695 -0.05550513
-0.04156883 0.021684317 -0.028522259 -0.018831601 -0.1379818 0.106438406 -0.04146886 -0.055626575
0.014906766 -0.01171691 0.07034027 0.03041312 0.017116655 -0.0015197728 -0.025681566 -0.082750976
-0.022911748 0.08354871 -0.019499326 -0.031796936 0.0011968219 -0.057001382 -0.0022443132 -0.124344945
-0.061026286 -0.026351042 0.05066667 -0.020354697 -0.0009659238 0.062624626 -0.020567054 -0.03883843
-0.104748465 0.0436386 -0.06014776 0.03906811 0.091054015 -0.10963632 -0.05487139 -0.06951294
0.061079144 -0.004203944 -0.06620088 -0.05868025 -0.0010497217 0.021352775 -0.05886971 0.067273185
0.0011633215 0.040995024 0.003401933 -0.019042322 0.04378598 0.09186157 -0.023453303 -0.13077152
-0.07270296 -0.014289224 -0.14035916 0.05292026 -0.002247096 0.024930479 0.016831713 0.0450872
0.01501469 0.026072482 0.065639205 0.020790905 -0.063895166 0.065632746 0.015431968 -0.0062065385
-0.035478797 0.04109586 0.019797176 0.071140885 0.014145279 -0.012327156 0.03022488 0.029092481
-0.060217097 -0.10403145 -0.124707535 -0.0750385 -0.091052406 -0.06693963 -0.028129853 -0.07971643
-0.035902653 -0.055156246 0.00571265 -0.09106172 0.021281458 0.053568933 0.059225682 0.06750848
-0.14324994 -0.025917953 0.036214486 0.008433453 -0.019348785 0.02387468 -0.10372009 -0.039179884
00000000: 8029 063b 249d 08be 0fae 223e 439f 213c
00000010: e4cf 9fbd a84a 2cbd ff7f 56bd 7a3e 0a3e
00000020: 0beb 24bd 3014 f6bc 3b26 5cbc 1ab1 66bd
00000030: 29dd 17be dd8e 66be d796 913d fa30 c13d
00000040: 4810 95bc 3346 603d 9046 27bd c564 15bd
00000050: ce8c 5cbd b1b1 98bd c7e5 923c a177 f63d
00000060: 72fc 44be 9358 03be d1db 083e e9a9 56bd
00000070: b77f ca3b dcf3 55bd 86a9 94bd 2400 123e
00000080: 0fc5 76bd dc9f 073c 910c 1abe 5dee 833d
00000090: 734d 8bbd fdf8 2dbe 6c54 133e f4d7 e33d
000000a0: 38a0 96bd ed5e 29bd 2638 1a3d b309 11be
000000b0: a78c 88bd f441 6dbd bf4c 7e3c 6786 af3d
000000c0: f541 eabd 5045 3c3c 5712 3fbe 5010 873d
000000d0: 2ef5 493e 428b 96bc 3b92 5a3d 9b7b 483d
000000e0: f97f 8e3c 64ec c5bc 4598 2abd 5ea5 f9bb
000000f0: 97f5 fe3b e743 c73c 57f3 693c 63f4 373e
00000100: 2b87 1a3d f710 393d 6b56 80bd 32a6 c93b
00000110: d676 3fbd a792 06be a407 aebd 64b3 923d
00000120: feed 463c d976 30bc 2507 c43c ddb7 44bc
00000130: ad0c 033d ab52 34be 783a 43bd ab66 293e
00000140: 240d 06bd 3971 433e 3098 6dbd 5e82 36bd
00000150: c24b 0c3e 0343 183e cf8d 96bb 8b96 1c3d
00000160: 70cc 7c3d f657 223d beb0 19bd 6dc0 9f3d
00000170: ea48 0e3d 0310 5b3b 0268 ffbd be22 3dbc
00000180: 8c49 b03d 00d1 22bd 320f 2f3e ae0e 3ebd
00000190: 3f66 343d bfee a7bc 4219 b9bc 9158 643d
000001a0: 7e83 e5bc cb56 213e a935 183e e578 04be
000001b0: b228 46bd 19ea 483e d2dd 98bd e645 2f3e
000001c0: e3a8 81bc 9777 dfbd 5935 b23d a2f6 7fbd
000001d0: 2825 e43b 8b48 ceb9 92ac 1abe c522 a2bb
000001e0: f645 b23d bae8 12bd 3666 98bd bfe9 1d3a
000001f0: 5c4a 033d 8a72 6cbb d869 813d b417 a13d
00000200: ac4d aabd fb37 c5bb c93a c4bc a77f 53bd
00000210: 53d0 313d 4cb4 dfbd c26f cf3d 1e2a a2bd
00000220: 55e2 b2bc 857b 84bd 349b 103d 43f4 36bd
00000230: aad2 0db8 bb39 833d f3e0 f8bc a3a6 a2bc
00000240: ef9e d73c 631a 30bd 8779 5b3d 4f32 963d
00000250: 5a75 6f3d 1991 51bb 6b54 2cbd 5959 63bd
00000260: 1444 2abd 4fa3 b13c 83a7 e9bc bb44 9abc
00000270: 1a4b 0dbe 61fc d93d 40db 29bd b1d8 63bd
00000280: 823b 743c 48f8 3fbc 8f0e 903d ef24 f93c
00000290: 3a38 8c3c 1d33 c7ba 2662 d2bc 5879 a9bd
000002a0: 6bb1 bbbc 961b ab3d 0dbd 9fbc 813d 02bd
000002b0: aede 9c3a 487a 69bd 5415 13bb 90a8 febd
000002c0: b3f6 79bd 24de d7bc db87 4f3d e5be a6bc
000002d0: 0d36 7dba 5741 803d 3d7c a8bc 0c15 1fbd
000002e0: 5d86 d6bd 63be 323d 7f5d 76bd e205 203d
000002f0: 877a ba3d 0289 e0bd d3c0 60bd cd5c 8ebd
00000300: 202e 7a3d 3dc1 89bb 5494 87bd b45a 70bd
00000310: d196 89ba 04ec ae3c 5d21 71bd 86c6 893d
00000320: 987a 983a 66ea 273d f7f2 5e3b a5fe 9bbc
00000330: ee58 333d eb21 bc3d 2421 c0bc f8e8 05be
00000340: 4ae5 94bd 591d 6abc 50ba 0fbe eac2 583d
00000350: 0444 13bb 013b cc3c a9e2 893c 5bad 383d
00000360: 2d00 763c f595 d53c d96d 863d b051 aa3c
00000370: 78db 82bd 766a 863d 5dd6 7c3c 3860 cbbb
00000380: 3752 11bd 2254 283d b02d a23c 50b2 913d
00000390: 9ac1 673c d7f7 49bc 2b9a f73c 5b53 ee3c
000003a0: 34a6 76bd 710e d5bd aa66 ffbd c9ad 99bd
000003b0: af79 babd a517 89bd 9470 e6bc 5e42 a3bd
000003c0: a90e 13bd 84eb 61bd 2e31 bb3b 917e babd
000003d0: 7456 ae3c 196b 5b3d a196 723d e341 8a3d
000003e0: 1db0 12be e351 d4bc a455 143d 772c 0a3c
000003f0: 5881 9ebc d594 c33c 336b d4bd 167b 20bd

fc2.bias f4 [128]
-0.077873506 -0.10976933 0.023136713 -0.09373568 0.33421502 -0.06437798 -0.008049182 -0.054999575
-0.069554605 -0.0045792977 -0.09739235 -0.12887777 -0.046869926 -0.051725797 -0.058274977 -0.05408427
0.07032034 -0.065798156 -0.10560652 -0.0851489 -0.038752776 -0.055754397 -0.10652436 0.026668819
-0.057432804 -0.116392694 -0.053336248 -0.09149628 0.008074252 -0.034177464 0.045261785 -0.08942335
0.046694893 -0.0004639586 -0.011704686 -0.026150107 -0.004840645 0.0075165424 -0.044156946 -0.039342303
-0.11009543 -0.015703684 -0.04819772 -0.03792771 -0.13895354 0.013345909 -0.012872924 -0.022887262
-0.057622366 0.3658472 0.00092689676 -0.07925595 0.025802016 -0.015744384 -0.13065366 -0.006950848
-0.10411769 -0.13029248 -0.017761089 0.02949605 0.016388832 -0.098793484 -0.09814083 0.008001625
-0.024359278 -0.08719721 -0.01639997 -0.08792974 0.22186066 -0.089467436 -0.06567197 -0.095663376
0.030658765 -0.13855301 -0.101104565 0.14404082 0.013375465 -0.010052241 0.0019924783 0.16457152
-0.10203706 -0.057566803 -0.052219234 -0.010833661 -0.049827613 -0.047750827 0.010290234 -0.040521197
0.09420662 -0.040440936 0.052243024 -0.01886303 0.0028062994 0.3417792 -0.046697676 -0.0010194497
-0.021778254 0.044696704 -0.040132236 -0.06638643 0.010949609 0.036278274 -0.028623633 0.07462406
0.02673511 0.0025119428 -0.02760639 0.06781059 -0.011896682 -0.01737785 -0.08249254 -0.12849219
-0.027759094 -0.025060331 -0.045002975 -0.05226132 0.008742735 -0.048077375 0.025011932 0.3128732
-0.030546373 -0.099833176 -0.1095662 -0.010318038 -0.026105573 0.0033582826 -0.050308708 -0.041969594
00000000: 257c 9fbd bece e0bd 3489 bd3c 7ef8 bfbd
00000010: 3b1e ab3e 9ad8 83bd b7e0 03bc 3c47 61bd
00000020: a572 8ebd ef0d 96bb a475 c7bd 89f8 03be
00000030: aefa 3fbd 6ede 53bd beb1 6ebd 7887 5dbd
00000040: 1c04 903d 2fc1 86bd 3b48 d8bd 8c62 aebd
00000050: 3bbb 1ebd b95e 64bd 7229 dabd 9178 da3c
00000060: a93e 6bbd 4b5f eebd 1c77 5abd 6762 bbbd
00000070: de49 043c abfd 0bbd 6c64 393d 9723 b7bd
00000080: 2543 3f3d 783f f3b9 03c5 3fbc c038 d6bc
00000090: 469e 9ebb 544d f63b eadd 34bd 6525 21bd
000000a0: b679 e1bd 03a5 80bc f96a 45bd 165a 1bbd
000000b0: d649 0ebe cda8 5a3c f5e8 52bc 117e bbbc
000000c0: 6e05 6cbd 5350 bb3e fdfa 723a f250 a2bd
000000d0: c05e d33c 5efa 80bc 13ca 05be f0c3 e3bb
000000e0: a83b d5bd 646b 05be b47f 91bc b3a1 f13c
000000f0: df41 863c 3d54 cabd 0ffe c8bd 3f19 033c
00000100: 1c8d c7bc 7394 b2bd 3b59 86bc 8214 b4bd
00000110: 712f 633e b43a b7bd 077f 86bd 29eb c3bd
00000120: 1728 fb3c d7e0 0dbe e90f cfbd 707f 133e
00000130: c424 5b3c 28b2 24bc 3d94 023b 7085 283e
00000140: cef8 d0bd 2bcb 6bbd d6e3 55bd ab7f 31bc
00000150: 0a18 4cbd 5f96 43bd 5f98 283c 8ef9 25bd
00000160: 66ef c03d 65a5 25bd c8fc 553d a486 9abc
00000170: e4e9 373b affd ae3e 1046 3fbd 0e9f 85ba
00000180: 4f68 b2bc e413 373d b361 24bd 9cf5 87bd
00000190: fd65 333c 8798 143d 1c7c eabc 80d4 983d
000001a0: 9703 db3c 689f 243b cc26 e2bc 47e0 8a3d
000001b0: 4dea 42bc fe5b 8ebc d9f1 a8bd 7593 03be
000001c0: 0a67 e3bc 534b cdbc 0a55 38bd f70f 56bd
000001d0: b03d 0f3c c8ec 44bd d3e5 cc3c eb30 a03e
000001e0: 633c fabc 5675 ccbd 3e64 e0bd fd0c 29bc
000001f0: 5bdb d5bc a216 5c3b 8110 4ebd 4fe8 2bbd

fc3.weight f4 [7, 128]
-0.04546822 -0.1043578 0.070032254 -0.045725 -0.23588412 0.02435306 -0.028177176 0.044696525
0.017313378 -0.1395884 -0.03447731 0.04158772 -0.22710739 -0.15950607 -0.80312693 -0.12368544
0.030347697 0.016293583 -0.06079222 -0.014536267 -0.048587836 -0.17618515 -0.003947048 -0.07909979
0.049504932 -0.08109715 -0.121998705 0.061840758 0.06573961 0.06997096 -2.7517674 -0.14895144
-0.056625575 -0.078042634 0.022398466 -0.51770145 -0.02760124 -0.08383477 -0.07133748 -0.14624332
-0.02501187 -0.7885935 -0.010482855 -0.0054883407 0.007428041 -0.15355042 -0.04785245 0.03921369
-0.15613298 -2.8349655 0.006627634 -0.06592863 -0.026277004 -0.089863606 0.046547014 -0.028525189
-0.07297325 0.019371342 0.016583964 -0.032982484 0.041454703 -0.07455025 0.05349151 0.011683875
-0.14008348 -0.16928594 -0.051202767 -0.0020819157 -3.488039 -0.047761694 0.026941087 -0.030749192
-0.06653777 0.06549498 0.041584555 0.0071933493 -0.02134839 0.012180488 -0.069798835 -0.12096483
-0.026732767 -0.030824278 -0.013953453 0.07086114 -0.11451504 0.062281445 -0.03990533 0.046682686
-0.035924282 -0.12307444 0.03442277 -0.05097808 0.050380386 -2.5565205 -0.06806061 -0.05733545
0.020257192 -0.15260564 0.026725216 -0.61736804 0.012548054 -0.018943049 -0.118067436 -0.0379886
-0.2979485 -0.96115756 0.02274553 -0.049758412 -0.179337 -0.017594539 -0.09253937 -0.14000313
-0.059494574 0.018564563 -0.03543169 0.049848646 0.05856788 0.0711122 0.07673756 -4.173431
-0.08054339 0.03014874 -0.022896653 -0.033580404 -0.013942578 -0.018336922 -0.09418502 -0.010165438
-0.10348903 0.0025999125 -0.014959006 0.028977534 0.27813137 0.013229725 -0.013464017 0.11190603
-0.18982534 -0.0058688237 0.06119088 -0.036024615 0.007973681 -0.035694573 0.004447066 -0.06343286
-0.038375348 0.004656343 -0.06336868 -0.066015445 -0.068383515 0.002063568 -0.043246422 -0.06334613
0.13515703 0.08954668 -0.072963 0.0041251965 -0.06421476 0.016267603 0.08495239 -0.06601083
0.043755878 0.06926636 -0.007725635 -0.23792398 -0.009502586 -0.020324018 0.0448732 -0.010299321
-0.050171576 -0.07465363 0.04931241 0.039775666 -0.057169393 0.024951613 0.015213377 0.11896527
-0.052055534 0.057244826 -0.029692216 -0.019962542 0.019326983 0.1842824 0.105901845 0.06996689
-0.083040066 -0.03647255 -0.06004157 -0.041393626 0.026349908 -0.058106393 0.025409646 0.06487573
-0.024144705 -0.08455783 -0.009399943 0.022239625 0.05365025 -0.026641626 -0.20920971 -0.020255512
0.21045516 -0.116288766 0.049783792 0.09648842 0.13425887 -0.054567497 0.10064698 0.14860289
-0.05699965 -0.0487469 -0.00052238867 -0.0063026166 0.041196276 -0.03548604 -0.03229796 0.09619018
0.06821902 -0.0555405 0.062013417 -0.038387634 0.014191457 0.1644584 0.0052829934 0.10938319
0.019438975 0.029276518 0.026846793 0.17181374 0.12523913 0.00939519 -0.009725913 0.04766391
-0.11913926 -0.032287437 -0.00034062023 0.19388135 -0.14838012 -0.03439925 -0.0050317994 0.07717702
0.032928254 -0.014577026 -0.06161934 -0.075773984 -0.060060572 -0.03603509 -0.0103159575 0.13324267
0.18869255 0.044515856 -0.027054505 -0.033280957 0.0017432419 -0.007510178 -0.07960558 -0.05222686
00000000: e23c 3abd 8bb9 d5bd 126d 8f3d 234a 3bbd
00000010: 9b8b 71be 1280 c73c d2d3 e6bc b413 373d
00000020: c9d4 8d3c 43f0 0ebe 1438 0dbd e357 2a3d
00000030: d78e 68be 8f55 23be ba99 4dbf cb4e fdbd
00000040: bc9b f83c 1f7a 853c 4301 79bd 8629 6ebc
00000050: 0a04 47bd e169 34be 3d56 81bb 12ff a1bd
00000060: afc5 4a3d 4316 a6bd 75da f9bd bc4c 7d3d
00000070: 7da2 863d ef4c 8f3d f51c 30c0 ba86 18be
00000080: 38f0 67bd d1d4 9fbd fd7c b73c 1588 04bf
00000090: ff1b e2bc 90b1 abbd 6219 92bd cfc0 15be
000000a0: b1e5 ccbc 43e1 49bf 48c0 2bbc 8ad7 b3bb
000000b0: ed66 f33b 523c 1dbe ee00 44bd 899e 203d
000000c0: 53e1 1fbe 1370 35c0 a02c d93b 9705 87bd
000000d0: df42 d7bc 690a b8bd 15a8 3e3d a8ad e9bc
000000e0: 0073 95bd a6b0 9e3c 18db 873c a418 07bd
000000f0: 68cc 293d cdad 98bd ea19 5b3d b96d 3f3c
00000100: 0b72 0fbe 4b59 2dbe feb9 51bd c070 08bb
00000110: 083c 5fc0 c4a1 43bd 8eb3 dc3c bbe5 fbbc
00000120: f444 88bd 3b22 863d 9154 2a3d 30b6 eb3b
00000130: d2e2 aebc ab90 473c b1f2 8ebd 69bc f7bd
00000140: adfe dabc 3283 fcbc 069d 64bc a51f 913d
00000150: dc86 eabd d41a 7f3d c573 23bd 5836 3f3d
00000160: 5725 13bd 740e fcbd e4fe 0c3d 64ce 50bd
00000170: aa5b 4e3d 089e 23c0 5c63 8bbd 94d8 6abd
00000180: 69f2 a53c a744 1cbe d7ee da3c d50b 1ebf
00000190: 5a96 4d3c 742e 9bbc 57cd f1bd ef99 1bbd
000001a0: b58c 98be 6c0e 76bf d554 ba3c 7acf 4bbd
000001b0: 1ea4 37be 6c22 90bc 4885 bdbd fb5c 0fbe
000001c0: 95b0 73bd b614 983c d220 11bd 182e 4c3d
000001d0: e0e4 6f3d 46a3 913d 9528 9d3d bf8c 85c0
000001e0: eff3 a4bd 7efa f63c c391 bbbc 9b8b 09bd
000001f0: 696f 64bc 5037 96bc 13e4 c0bd f08c 26bc
00000200: 0ef2 d3bd 4b63 2a3b 9e16 75bc 4b62 ed3c
00000210: 3c67 8e3e 7dc1 583c 2e98 5cbc fd2e e53d
00000220: 9361 42be 434f c0bb 4aa3 7a3d 8c8e 13bd
00000230: 0ba4 023c 7934 12bd b2b8 913b 16e9 81bd
00000240: 782f 1dbd 3c94 983b 70c7 81bd 1b33 87bd
00000250: a80c 8cbd ed3c 073b 2923 31bd 9ebb 81bd
00000260: 9b66 0a3e 4064 b73d a06d 95bd a82c 873b
00000270: 0783 83bd a343 853c 85fb ad3d b030 87bd
00000280: 5d39 333d 85db 8d3d 5327 fdbb 58a2 73be
00000290: bcb0 1bbc 8e7e a6bc f6cc 373d 7cbe 28bc
000002a0: b680 4dbd 01e4 98bd cffb 493d cfeb 223d
000002b0: 742a 6abd 5367 cc3c 8741 793c 10a4 f33d
000002c0: 2f38 55bd 8d79 6a3d 173d f3bc 7c88 a3bc
000002d0: 9f53 9e3c 87b4 3c3e 11e3 d83d cd4a 8f3d
000002e0: e910 aabd 3e64 15bd 26ee 75bd 5d8c 29bd
000002f0: c3db d73c f800 6ebd e427 d03c 91dd 843d
00000300: 1ecb c5bc a82c adbd 3802 1abc e02f b63c
00000310: 5dc0 5b3d 8a3f dabc 123b 56be e3ee a5bc
00000320: 8f81 573e ce28 eebd 17ea 4b3d b99b c53d
00000330: 287b 093e 2b82 5fbd 0120 ce3d 5b2b 183e
00000340: 7778 69bd d4aa 47bd e9f0 08ba 2e86 cebb
00000350: 6dbd 283d cf59 11bd de4a 04bd 5bff c43d
00000360: 6ab6 8b3d 6f7e 63bd c801 7e3d 5a3c 1dbd
00000370: 4983 683c c867 283e f61c ad3b 4b04 e03d
00000380: 7c3e 9f3c 4fd5 ef3c ceed db3c f1ef 2f3e
00000390: b03e 003e 48ee 193c 7059 1fbc 3b3b 433d
000003a0: 49ff f3bd d53f 04bd 4695 b2b9 d588 463e
000003b0: f5f0 17be 3ae6 0cbd cbe1 a4bb fc0e 9e3d
000003c0: c7df 063d 7ad4 6ebc 9064 7cbd 642f 9bbd
000003d0: 1302 76bd 8899 13bd 4304 29bc c470 083e
000003e0: 9f38 413e 4256 363d 69a1 ddbc 9d51 08bd
000003f0: 7e7d e43a f017 f6bb 4008 a3bd d5eb 55bd

fc3.bias f4 [7]
-0.10028674 0.25338566 0.2124151 0.2150849 0.26120228 -0.25277597 -0.08179962
00000000: 2263 cdbd c4bb 813e 5883 593e 373f 5c3e
00000010: 4ebc 853e da6b 81be 8f86 a7bd
