hackathon_toolkit/checkpoints_qlearn/agent_0_episode_300.pth (torch, 78464 bytes, 6 tensors)

fc1.weight f4 [128, 11]
0.06479765 0.12357396 0.21923083 0.25273398 0.18563049 0.27003646 0.008913134 -0.100944646
0.26521993 -0.10478097 0.008855776 0.116866656 -0.017887784 0.019883132 -0.14205794 0.17560203
0.08451399 -0.21515119 0.02611289 -0.03716959 0.30126706 -0.18374766 -0.1775232 -0.2821426
-0.23491715 0.29909006 0.1569952 -0.23646381 0.3075637 -0.17241253 0.20150965 -0.25983992
0.17798136 -0.111465484 0.29397532 -0.09254407 -0.11336443 0.33388084 -0.18944342 -0.21482517
0.28682008 -0.08331868 -0.22087094 -0.21433273 0.31087103 -0.025925746 -0.27580124 0.19368273
0.055321876 -0.11618637 0.0065795304 0.23293675 0.17810944 -0.10757743 -0.035605296 0.040179756
0.31844565 0.12527928 -0.21151449 -0.0050219996 -0.123436384 -0.19548859 -0.028057719 0.11616089
-0.2390884 0.16086999 0.00023992278 0.20076677 0.25474694 0.019891 -0.17668964 -0.12412007
0.024663059 0.054509964 -0.09042474 0.27681777 0.023860937 -0.22323424 0.0667157 0.25829297
-0.12734354 0.28332326 0.349263 -0.26898664 0.17516316 0.0753943 -0.27488607 -0.19915344
0.0037723153 -0.116719894 -0.2802824 -0.16911109 0.060825866 0.11708368 -0.042263653 0.24384813
-0.05804147 -0.15511633 0.21892688 0.23039283 0.26542133 0.01818579 0.1572756 -0.031828642
0.2678133 0.29954225 -0.029937632 -0.04982002 0.19165532 0.08800139 -0.11745873 -0.18118128
0.068168506 0.017717797 0.12701789 -0.025611393 -0.11584851 0.33729455 -0.2105815 0.06825671
0.13980336 0.34003222 0.26441485 -0.017440563 0.2975927 -0.24264531 -0.003557789 -0.21956015
-0.04474334 -0.13753407 -0.08695598 0.13557778 0.34740132 -0.23060788 0.14348681 0.14770702
0.13474955 0.19834231 0.083579056 -0.21295741 0.14618416 0.012226274 0.1800962 0.19526713
-0.120373316 0.13871776 -0.042698756 0.13277578 -0.13680166 0.31867337 0.3465201 0.31220782
0.385887 0.085977495 -0.12935808 0.30444267 0.05666458 -0.122026265 -0.117435604 -0.2359587
-0.14066817 0.13485031 0.034893893 0.023950366 -0.0076690894 -0.077523895 0.26513958 -0.1507391
-0.14791769 0.24128331 -0.096183985 0.08282826 0.21381535 0.033719614 -0.21056722 -0.21561699
0.12426307 0.008213616 -0.11193435 -0.14151537 -0.20856443 0.32743683 0.29903334 -0.027150039
-0.09952 0.019300025 -0.15848018 0.2196797 0.0044730133 -0.010886334 -0.07268075 -0.120863795
-0.10270547 0.21254817 -0.23596635 0.19156481 0.10602624 -0.19948436 -0.14029196 0.084863
0.06916723 0.029137846 0.31435648 0.019758897 0.22434336 0.028004715 0.16283754 0.16246617
0.25964275 -0.14809503 0.27932373 0.14141981 -0.14818944 0.19158818 -0.0039082426 0.036857408
-0.11616583 -0.061634537 0.30825347 -0.07057254 -0.18796995 -0.10566881 -0.15947802 0.3481536
-0.19464357 -0.2352386 0.23563412 0.25926778 -0.12709752 0.10453823 0.05969221 0.28325525
-0.28711525 0.0067891143 0.14293548 -0.12919334 0.30159166 -0.24345443 -0.13072042 0.2668663
0.23576349 0.22090136 -0.07257378 0.07865638 -0.17337905 0.04527929 -0.15990405 0.054304775
-0.20782147 -0.030025486 0.1864521 0.34652814 -0.21669777 0.082363635 0.272175 0.07460434
00000000: a1b4 843d 5814 fd3d 0c7e 603e 5966 813e
00000010: eb15 3e3e 3842 8a3e 6508 123c 11bc cebd
00000020: e8ca 873e 6897 d6bd d117 113c c957 ef3d
00000030: 6789 92bc f3e1 a23c a377 11be 05d1 333e
00000040: ac15 ad3d 9850 5cbe b3ea d53c 243f 18bd
00000050: ad3f 9a3e 5928 3cbe a4c8 35be ff74 90be
00000060: 1f8e 70be 5522 993e 5ac3 203e 9223 72be
00000070: fd78 9d3e e98c 30be 8c58 4e3e bd09 85be
00000080: bf40 363e 0448 e4bd ef83 963e bf87 bdbd
00000090: 9c2b e8bd 6ef2 aa3e 75fd 41be 21fb 5bbe
000000a0: 15da 923e fca2 aabd fe2b 62be 0a7a 5bbe
000000b0: 7d2a 9f3e 3b62 d4bc d235 8dbe c454 463e
000000c0: 3199 623d 1ff3 edbd 1a99 d73b f986 6e3e
000000d0: 5262 363e 8e51 dcbd dcd6 11bd 8793 243d
000000e0: 4f0b a33e 3649 003e 4197 58be 968f a4bb
000000f0: 37cc fcbd 292e 48be 4dd9 e5bc c3e5 ed3d
00000100: 97d3 74be 1abb 243e c893 7b39 ce95 4d3e
00000110: 316e 823e 73f2 a23c 21ee 34be aa32 febd
00000120: 2f0a ca3c d745 5f3d 9b30 b9bd 0fbb 8d3e
00000130: 0378 c33c 8497 64be 3ea2 883d fa3e 843e
00000140: 5866 02be bf0f 913e 9ad2 b23e 9eb8 89be
00000150: f95d 333e 5468 9a3d debd 8cbe e1ee 4bbe
00000160: f338 773b d70a efbd 2d81 8fbe 752b 2dbe
00000170: 8b24 793d 92c9 ef3d a71c 2dbd 53b3 793e
00000180: e4bc 6dbd d1d6 1ebe 5e2e 603e 19ec 6b3e
00000190: 4ee5 873e 5efa 943c db0c 213e c05e 02bd
000001a0: d31e 893e 9a5d 993e c43f f5bc 1410 4cbd
000001b0: 4b41 443e 133a b43d 348e f0bd 9687 39be
000001c0: ee9b 8b3d ea24 913c fa10 023e fcce d1bc
000001d0: fc41 edbd dfb1 ac3e ada2 57be 2dca 8b3d
000001e0: 9d28 0f3e b418 ae3e 6261 873e 83df 8ebc
000001f0: 125e 983e 0378 78be cb29 69bb 60d4 60be
00000200: cb44 37bd bbd5 0cbe fa15 b2bd e7d4 0a3e
00000210: 96de b13e 7924 6cbe 35ee 123e 8240 173e
00000220: c9fb 093e 3f1a 4b3e 7f2b ab3d 8211 5abe
00000230: 4db1 153e b650 483c 236b 383e 1bf4 473e
00000240: 4986 f6bd 070c 0e3e e4e4 2ebd 60f6 073e
00000250: bc15 0cbe 2829 a33e 156b b13e b4d9 9f3e
00000260: fb92 c53e f814 b03d 7276 04be e9df 9b3e
00000270: 1e19 683d e8e8 f9bd 1482 f0bd 289f 71be
00000280: 510b 10be 3316 0a3e e6ec 0e3d 8f33 c43c
00000290: fc4c fbbb d9c4 9ebd 60c0 873e 5a5b 1abe
000002a0: bc77 17be f912 773e 1cfc c4bd dda1 a93d
000002b0: 69f2 5a3e 941d 0a3d ef9e 57be b3ca 5cbe
000002c0: a37d fe3d 6792 063c d63d e5bd 68e9 10be
000002d0: ea91 55be cda5 a73e e61a 993e c269 debc
000002e0: 24d1 cbbd 161b 9e3c a148 22be b7f3 603e
000002f0: 5b92 923b 985c 32bc a5d9 94bd 7087 f7bd
00000300: 3f57 d2bd 3aa6 593e 2aa1 71be 9129 443e
00000310: 4924 d93d a145 4cbe b2a8 0fbe a7cc ad3d
00000320: 8ca7 8d3d 7eb2 ee3c 55f3 a03e 69dd a13c
00000330: 44ba 653e 256a e53c e2be 263e 885d 263e
00000340: e5ef 843e 39a6 17be 8503 8f3e 5bd0 103e
00000350: f9be 17be b12f 443e b710 80bb cbf7 163d
00000360: 5ae8 edbd 7f74 7cbd 66d3 9d3e 5688 90bd
00000370: 327b 40be e468 d8bd 354e 23be 3041 b23e
00000380: a550 47be 63e2 70be 124a 713e bfbe 843e
00000390: da25 02be 2418 d63d d27f 743d d506 913e
000003a0: c500 93be 3877 de3b ae5d 123e 424b 04be
000003b0: 396a 9a3e 1e4c 79be 93db 05be b3a2 883e
000003c0: fc6b 713e f733 623e 90a1 94bd 9916 a13d
000003d0: 478a 31be c776 393d e3bd 23be af6e 5e3d
000003e0: 27cf 54be 02f8 f5bc 4ded 3e3e 236c b13e
000003f0: 05e6 5dbe 44ae a83d 865a 8b3e 29ca 983d

fc1.bias f4 [128]
-0.22970964 -0.1230184 -0.24193738 -0.33452132 0.08867081 0.2307219 0.23550847 -0.01843769
-0.23705444 0.25837 0.07761132 0.23368362 0.20792998 0.25203836 -0.24669497 -0.0648459
0.01826799 -0.057841167 -0.046180446 0.27781373 -0.050336976 -0.080040865 -0.33555603 0.21325938
0.30667338 0.21522355 -0.040329333 -0.21739905 -0.3069144 -0.09750841 -0.29071707 0.031058911
0.022784574 -0.28363967 0.07901435 -0.21065114 -0.09662413 0.31272867 -0.05861597 -0.07050518
-0.096480064 -0.339066 -0.015735943 0.11361349 -0.08820879 0.17867763 -0.056685798 -0.015196272
0.16538082 -0.14461203 0.027492948 0.0723053 0.21623448 0.024778532 0.11646699 -0.2978022
0.14582208 -0.27453864 -0.10526593 0.083261974 -0.09042943 -0.2733227 0.021778952 0.07686479
0.02191433 -0.2307489 0.08956803 -0.16584365 0.2126624 0.10629262 0.033315036 -0.13047172
0.12779787 0.22785386 -0.07085814 -0.01681345 -0.006361919 0.066298194 -0.21891636 -0.21481162
-0.17981477 -0.21900809 -0.05416371 -0.046804693 0.108143024 -0.30921155 0.056697864 0.19348526
-0.2301048 0.084527306 -0.19804828 -0.19965681 0.055190343 0.12306257 -0.25957367 -0.026078662
0.014254805 0.20647258 -0.2831111 -0.29599118 0.10669038 -0.16703227 0.046531156 -0.0627792
0.26885974 -0.20357248 0.031093653 0.09932385 -0.0014633259 0.2965377 -0.09148946 0.19260643
-0.08481791 -0.03956163 0.24924916 0.1850991 0.0009149945 -0.23306857 -0.014933098 -0.07292623
-0.02844738 0.09505935 0.13941313 0.18102954 -0.33198208 0.23862989 0.24371727 -0.27421984
00000000: 0139 6bbe 12f1 fbbd 6fbe 77be 6146 abbe
00000010: 0b99 b53d 5d42 6c3e 2229 713e a30a 97bc
00000020: 66be 72be 1349 843e aff2 9e3d c24a 6f3e
00000030: 99eb 543e 2c0b 813e 9b9d 7cbe edcd 84bd
00000040: c0a6 953c dcea 6cbd b527 3dbd 9a3d 8e3e
00000050: 252e 4ebd 77ec a3bd 00ce abbe ab60 5a3e
00000060: 4b04 9d3e 9063 5c3e 5f30 25bd db9d 5ebe
00000070: e223 9dbe 7db2 c7bd ded8 94be 426f fe3c
00000080: b7a6 ba3c 3839 91be 47d2 a13d efb4 57be
00000090: dfe2 c5bd f91d a03e 4d17 70bd 0565 90bd
000000a0: 5797 c5bd 0f9a adbe aae8 80bc 30ae e83d
000000b0: cfa6 b4bd 45f7 363e 5e2f 68bd c9f9 78bc
000000c0: 9759 293e 2d15 14be e438 e13c cd14 943d
000000d0: 926c 5d3e 59fc ca3c 3f86 ee3d 8879 98be
000000e0: 6252 153e 5490 8cbe aa95 d7bd 4185 aa3d
000000f0: 1133 b9bd f4f0 8bbe c669 b23c 496b 9d3d
00000100: ae85 b33c 7149 6cbe 716f b73d ebd2 29be
00000110: 2cc4 593e f2af d93d 5975 083d 619a 05be
00000120: 72dd 023e 8652 693e 131e 91bd 5cbc 89bc
00000130: a577 d0bb 59c7 873d 9c2b 60be 94f7 5bbe
00000140: 5d21 38be a843 60be c4da 5dbd 47b6 3fbd
00000150: 177a dd3d fa50 9ebe 053c 683d 0021 463e
00000160: 98a0 6bbe a71c ad3d 2bcd 4abe d672 4cbe
00000170: 450f 623d 3b08 fc3d d7e6 84be eba2 d5bc
00000180: fc8c 693c 8c6d 533e f0f3 90be 288c 97be
00000190: 7c80 da3d 820a 2bbe 7497 3e3d 6292 80bd
000001a0: fca7 893e 4e75 50be 1eb8 fe3c 4d6a cb3d
000001b0: 12cd bfba cad3 973e d35e bbbd 9f3a 453e
000001c0: 03b5 adbd 600b 22bd 2c3b 7f3e 9e8a 3d3e
000001d0: 3edc 6f3a 87a9 6ebe f4a9 74bc 595a 95bd
000001e0: 7b0a e9bc 7aae c23d 51c2 0e3e cf5f 393e
000001f0: 8ef9 a9be 655b 743e 0591 793e 8b66 8cbe

fc2.weight f4 [128, 128]
-0.008188895 -0.10433799 0.027981285 -0.022809438 -0.010662591 -0.015964996 -0.07549323 0.027515573
-0.03197156 0.05436425 -0.0659249 -0.053448636 -0.07053747 -0.1156325 0.09664642 0.019463416
-0.012628052 0.03490349 -0.016761117 -0.0714245 -0.084349744 -0.00018102526 -0.01831901 0.10465316
-0.119701184 -0.08888504 0.03159949 -0.032915216 -0.016768252 -0.054962542 -0.02357648 0.08161555
-0.056299407 -0.022156032 -0.0532349 -0.09897595 -0.040642567 -0.1009486 0.00015581342 0.084064454
-0.10089943 -0.0710597 -0.09483723 -0.06552768 -0.03548497 -0.030123224 0.02236164 -0.041601308
-0.12275198 -0.12208918 -0.10483421 0.026517062 0.06885258 0.05326869 -0.036337372 0.06660974
0.017126437 -0.0096348915 0.035168357 0.0010403701 0.015267492 -0.077749975 0.037428647 0.07566999
0.017971072 0.011193161 -0.019850647 -0.09607884 0.014624781 -0.07739747 -0.094978526 0.017310979
-0.06506788 0.049065012 -0.054465927 -0.03760805 0.06090089 -0.0774066 -0.07354143 0.029358132
-0.078320965 0.08852178 -0.058814976 -0.027665151 0.06609957 0.047896322 1.2017468e-06 -0.07998879
-0.037011348 0.0050327387 -0.0127515765 0.06017568 0.06498746 -0.027539281 -0.1042423 -0.015558927
0.112354875 -0.019914888 0.07095341 -0.07000544 0.057535894 -0.01722318 -0.0038100858 0.063009664
-0.010923192 0.10287717 0.021768907 -0.10383218 0.045097236 0.101377845 -0.014967044 0.026315311
0.01416757 -0.011211452 0.10360855 0.020152526 0.0087315915 -0.022357898 -0.049604036 0.010886411
-0.0069158827 0.061831698 0.0012936871 0.009188136 -0.07510909 0.0028283678 0.0670878 -0.061707716
-0.039715834 0.0024421313 0.050816298 0.0006006318 0.049262855 -0.08858058 0.07335024 -0.018924663
-0.014910268 -0.047030613 0.09651573 -0.042273697 0.020010326 0.07864596 -0.029754577 0.028822398
0.043465387 -0.024824396 0.060598798 0.079130225 0.0890684 0.021788862 -0.011703218 -0.077478066
-0.038812563 0.038227193 0.0331232 -0.026442245 -0.06370936 0.08390799 -0.041904703 -0.007849983
0.06823295 0.010825903 0.07734561 0.08735285 0.04239791 0.015532428 0.012146192 -0.022625634
0.004685294 0.10298858 0.03373933 -0.017363025 0.018821219 -0.039711438 -0.007847807 -0.080883205
-0.037891183 0.012337952 0.059859946 0.021524824 0.041405402 0.11374838 0.068851076 -0.00867981
-0.05951353 0.038674276 -0.041228525 0.040794387 0.072768904 -0.05718031 -0.008947328 0.00096019066
0.05045065 0.006518692 -0.056063738 -0.0020600983 0.027938291 0.03292353 -0.048003174 0.08236511
0.05953045 0.097861335 0.07030907 -0.0117002195 0.044681564 0.098754376 0.0055937436 -0.07315187
-0.016121736 0.00012321975 -0.09155333 0.04179083 0.059451252 0.09194328 -0.0001072585 0.09580369
0.07155439 0.030329524 0.07767904 0.07881779 -0.048179455 0.0824975 0.01416235 0.008083509
-0.047893643 0.03260832 0.038883496 0.0935918 0.02765164 0.0020845768 0.036923345 0.015210423
-0.051984277 -0.06212341 -0.08180672 -0.052659295 -0.086522296 -0.0019362157 0.029536704 -0.0116875665
0.003933978 -0.06614855 0.014279996 -0.062388532 0.0097704185 0.060299274 0.08816598 0.06235795
-0.08553699 -0.009447469 0.060716543 -0.0027448563 0.038622927 0.02995932 -0.05795882 0.0068955244
00000000: b72a 06bc 28af d5bd 0239 e53c dcda babc
00000010: 26b2 2ebc 06c9 82bc 329c 9abd 5768 e13c
00000020: 9cf4 02bd 0cad 5e3d a203 87bd f5ec 5abd
00000030: f375 90bd bbd0 ecbd 8fee c53d be71 9f3c
00000040: e4e5 4ebc f6f6 0e3d 9c4e 89bc 0247 92bd
00000050: 8fbf acbd 99d1 3db9 c011 96bc 6554 d63d
00000060: e525 f5bd 5c09 b6bd 786e 013d 1bd2 06bd
00000070: 935d 89bc 6720 61bd 7623 c1bc 0e26 a73d
00000080: 359a 66bd 9180 b5bc d70c 5abd e7b3 cabd
00000090: d278 26bd 24be cebd d961 2339 fc29 ac3d
000000a0: 5ca4 cebd bf87 91bd 063a c2bd 6033 86bd
000000b0: b058 11bd fbc4 f6bc c22f b73c 2266 2abd
000000c0: 6465 fbbd e409 fabd 51b3 d6bd 4f3a d93c
000000d0: 9502 8d3d 4530 5a3d 7fd6 14bd b06a 883d
000000e0: be4c 8c3c aadb 1dbc b20c 103d 075d 883a
000000f0: 8124 7a3c 613b 9fbd c84e 193d def8 9a3d
00000100: 1238 933c 8563 373c d39d a2bc fcc4 c4bd
00000110: c79c 6f3c 9182 9ebd 1a84 c2bd c1cf 8d3c
00000120: 4f42 85bd 65f8 483d aa17 5fbd e60a 1abd
00000130: 3673 793d 5a87 9ebd e49c 96bd 7780 f03c
00000140: be66 a0bd e84a b53d f9e7 70bd 07a2 e2bc
00000150: 365f 873d ef2e 443d b54b a135 2ad1 a3bd
00000160: 3699 17bd ace9 a43b fdeb 50bc c67a 763d
00000170: 2518 853d 0f9a e1bc fd7c d5bd dfea 7ebc
00000180: 501a e63d 8c24 a3bc 0550 913d 035f 8fbd
00000190: c2aa 6b3d a017 8dbc a2b2 79bb 360b 813d
000001a0: 30f7 32bc 44b1 d23d b554 b23c f7a5 d4bd
000001b0: e1b7 383d 309f cf3d 5538 75bc 3593 d73c
000001c0: 181f 683c 3db0 37bc b830 d43d e916 a53c
000001d0: f30e 0f3c e927 b7bc 9a2d 4bbd eb5c 323c
000001e0: a19e e2bb 3c43 7d3d f090 a93a d689 163c
000001f0: cbd2 99bd 235c 393b 5465 893d 3bc1 7cbd
00000200: 12ad 22bd 2a0c 203b c024 503d b873 1d3a
00000210: d9c7 493d bc69 b5bd a738 963d e507 9bbc
00000220: 324a 74bc 2ca3 40bd 0aaa c53d 2f27 2dbd
00000230: b2ec a33c 2211 a13d dfbf f3bc f31c ec3c
00000240: c308 323d 885c cbbc 7236 783d 070f a23d
00000250: 7e69 b63d 8e7e b23c dbbe 3fbc d2ac 9ebd
00000260: ecf9 1ebd 1e94 1c3d 31ac 073d 689d d8bc
00000270: 0e7a 82bd f4d7 ab3d 44a4 2bbd 379d 00bc
00000280: b8bd 8b3d 215f 313c 6067 9e3d 0de6 b23d
00000290: 6ea9 2d3d ba7b 7e3c d200 473c 6559 b9bc
000002a0: 1887 993b adeb d23d 4032 0a3d e73c 8ebc
000002b0: f52e 9a3c 76a8 22bd 1794 00bc 18a6 a5bd
000002c0: c933 1bbd 1f25 4a3c b42f 753d d454 b03c
000002d0: b698 293d e9f4 e83d cb01 8d3d c335 0ebc
000002e0: 76c4 73bd eb68 1e3d 3edf 28bd 0418 273d
000002f0: dd07 953d e735 6abd d097 12bc 4eb5 7b3a
00000300: 57a5 4e3d c09a d53b 17a3 65bd b702 07bb
00000310: d8de e43c d3da 063d fa9e 44bd 0aaf a83d
00000320: 33d6 733d 866b c83d 34fe 8f3d 47b2 3fbc
00000330: 0404 373d bc3f ca3d b94b b73b a6d0 95bd
00000340: bb11 84bc 8d34 0139 5080 bbbd dd2c 2b3d
00000350: 2883 733d c24c bc3d f8ef e0b8 ba34 c43d
00000360: 1c8b 923d 9f75 f83c 3016 9f3d 396b a13d
00000370: d257 45bd 73f4 a83d 3409 683c b270 043c
00000380: 202c 44bd 4d90 053d 4d44 1f3d 0fad bf3d
00000390: b185 e23c 659d 083b ef3c 173d 2335 793c
000003a0: 77ed 54bd 1e75 7ebd 488a a7bd 46b1 57bd
000003b0: 9a32 b1bd 9ec8 fdba f5f6 f13c 357d 3fbc
000003c0: 99e8 803b e478 87bd a5f6 693c 1e8b 7fbd
000003d0: 1b14 203c 5ffc 763d 5e90 b43d 0d6b 7f3d
000003e0: 042e afbd 8fc9 1abc e9b1 783d 0ce3 33bb
000003f0: 1333 1e3d 3f6d f53c 3a66 6dbd daf3 e13b

fc2.bias f4 [128]
-0.05488787 -0.011472785 0.023136713 -0.047107898 0.16965517 -0.032646354 0.020342346 -0.037429392
-0.070692405 0.009750292 -0.09739235 -0.08572877 -0.02773059 -0.013766832 -0.094459906 -0.05408427
0.07032034 -0.065798156 -0.10432449 -0.09328937 -0.06077926 -0.00068369077 -0.10652436 0.026668819
-0.0879899 -0.081465565 -0.055971943 -0.09149628 0.008074252 -0.034167163 -0.009351678 -0.039200265
0.046694893 -0.020417428 0.020002313 -0.014295475 -0.025050554 0.02654633 -0.04718081 0.01801457
-0.040800396 0.031860504 -0.039108504 -0.03792771 -0.058685325 0.011864546 -0.00076420256 -0.042774662
0.01175892 0.23755744 0.00092689676 -0.033603333 0.013654921 -0.020580558 -0.09890862 -0.006950848
-0.07135096 -0.10028923 -0.017761089 0.061259102 0.016388832 -0.113997094 -0.07102353 0.0048521357
0.010090873 -0.0009054693 0.014491583 -0.08792974 0.16896996 -0.057337485 -0.049846202 -0.054303702
-0.02010029 -0.11707881 -0.08373581 0.045394775 0.015678786 0.04235739 -0.08301611 0.028796233
-0.05275386 -0.057437826 -0.037725706 0.049022295 -0.049827613 -0.0459593 0.026498284 -0.040521197
0.072966814 -0.016690651 0.052243024 -0.010947829 0.02131012 0.14695124 -0.045870494 -0.035609875
0.006183387 0.044696704 -0.040132236 -0.020732898 -0.002999936 0.036278334 0.019480366 0.07743246
0.048159488 0.06452764 -0.0021507686 0.048800487 -0.0021012665 -0.013998049 -0.053661846 -0.06786212
0.024081865 0.006684411 -0.029656027 -0.05226132 0.008742735 -0.048077375 0.0057100877 0.18272908
-0.08071199 -0.07259472 -0.054848105 0.015587058 -0.022547362 0.0033582826 -0.002776974 -0.076230176
00000000: 1ad2 60bd 59f8 3bbc 3489 bd3c 36f4 40bd
00000010: 16ba 2d3e 2fb8 05bd fea4 a63c 904f 19bd
00000020: 2ec7 90bd b0bf 1f3c a475 c7bd 9192 afbd
00000030: 432b e3bc 478e 61bc 3274 c1bd 7887 5dbd
00000040: 1c04 903d 2fc1 86bd 14a8 d5bd 7f0e bfbd
00000050: acf3 78bd b639 33ba 7229 dabd 9178 da3c
00000060: 0c34 b4bd 6bd7 a6bd d642 65bd 6762 bbbd
00000070: de49 043c def2 0bbd c837 19bc 7590 20bd
00000080: 2543 3f3d 7342 a7bc e4db a33c 9137 6abc
00000090: d236 cdbc b077 d93c aa40 41bd 4b93 933c
000000a0: 511e 27bd 2980 023d 3d30 20bd 165a 1bbd
000000b0: 0660 70bd 8363 423c c454 48ba 7c34 2fbd
000000c0: 7ca8 403c 4242 733e fdfa 723a a6a3 09bd
000000d0: e4b8 5f3c 8f98 a8bc 9a90 cabd f0c3 e3bb
000000e0: 7420 92bd 7164 cdbd b47f 91bc d3ea 7a3d
000000f0: df41 863c 4f77 e9bd c974 91bd aafe 9e3b
00000100: 3054 253c 045d 6dba 1b6e 6d3c 8214 b4bd
00000110: 7606 2d3e b6da 6abd 882b 4cbd 8f6d 5ebd
00000120: 5da9 a4bc 04c7 efbd ae7d abbd dfef 393d
00000130: cc70 803c f17e 2d3d 5a04 aabd 14e6 eb3c
00000140: 6e14 58bd ed43 6bbd 4586 1abd 9acb 483d
00000150: 0a18 4cbd d23f 3cbd ee12 d93c 8ef9 25bd
00000160: a06f 953d d5ba 88bc c8fc 553d 865e 33bc
00000170: 9092 ae3c 637a 163e b3e2 3bbd a9db 11bd
00000180: 029e ca3b e413 373d b361 24bd 0ad8 a9bc
00000190: 939a 44bb 9798 143d 4a95 9f3c e994 9e3d
000001a0: e242 453d 1127 843d e9f3 0cbb 05e3 473d
000001b0: 67b5 09bb 1358 65bc 86cc 5bbd 4cfb 8abd
000001c0: 5547 c53c e708 db3b 32f1 f2bc f70f 56bd
000001d0: b03d 0f3c c8ec 44bd b01b bb3b 551d 3b3e
000001e0: 544c a5bd 8aac 94bd 68a8 60bd dc60 7f3c
000001f0: 3fb5 b8bc a216 5c3b e5fd 35bb 911e 9cbd

fc3.weight f4 [7, 128]
-0.04546228 -0.1043578 0.070032254 -0.045543924 -0.09185213 0.02435306 -0.028177137 0.044697143
0.017313378 -0.13412726 -0.03447731 0.041591343 -0.20352592 -0.15928853 0.0068309885 -0.12368544
0.030347697 0.016293583 -0.06079222 -0.014536267 -0.048586585 -0.17617765 -0.003947048 -0.07909979
0.049504932 -0.08109715 -0.121998705 0.061840758 0.06573961 0.06997096 -2.280852 -0.14894894
-0.056625575 -0.078042634 0.022398578 -0.5176132 -0.02760124 -0.08383471 -0.07133748 -0.14619122
-0.02257612 -0.7885544 -0.010482855 -0.0054883407 0.007428065 -0.1446118 -0.04785234 0.07749469
-0.15586862 -2.4588077 0.006627634 -0.06592863 -0.026276413 -0.0894975 0.046547122 -0.028525189
-0.07297323 0.019371342 0.016583964 -0.032982342 0.041454703 -0.07455025 0.053667236 0.011687382
-0.13745153 -0.16928594 -0.051202767 -0.0020819157 -2.9824238 -0.047711436 0.026941104 -0.030749192
-0.06653777 0.06549498 0.041584555 0.023046002 -0.02134839 0.012180673 -0.06976648 -0.10613654
-0.026732767 -0.030824278 -0.013953453 0.07086114 -0.11451504 0.062281445 -0.039897814 0.046682686
-0.004870676 -0.122910805 0.03442277 -0.05097808 0.051569205 -1.8247633 -0.06806061 -0.05612676
0.083634675 -0.15260564 0.026725216 -0.61729956 0.012548054 -0.018943049 -0.11806262 -0.031877983
-0.2979485 -0.8949536 0.022746518 -0.049758412 -0.179337 -0.017594539 -0.09253937 -0.14000313
-0.059494574 0.018564563 -0.03539599 0.049848646 0.05856788 0.0711122 0.07673756 -3.4885967
-0.08054339 0.03502861 -0.022896653 -0.03355598 -0.013942578 -0.018336922 -0.09418484 -0.010165438
-0.058711264 0.031110931 -0.014959006 0.047375664 0.18708692 0.044389747 -0.0035406265 0.083728164
-0.16324738 -0.017152356 0.06119088 -0.025621172 0.013570327 -0.04362982 -0.052609857 -0.06343286
-0.038375348 0.004656343 -0.06381509 -0.006506695 -0.056687932 -0.024399394 -0.043246422 -0.06334613
0.122361794 0.05053721 -0.026286393 0.0041251965 -0.06421476 0.016267603 0.062406138 -0.052294232
0.043755878 0.002813159 -0.037325118 -0.21432148 0.0073939157 -0.010191873 0.043173503 0.026838772
-0.0368181 -0.025299007 0.04826617 0.039775666 -0.042705853 0.035005752 0.014970978 0.13569346
-0.045070294 -0.048446115 -0.029692216 -0.004329001 0.028167497 0.1272219 0.078014664 0.06996689
-0.07398127 -0.03369613 -0.06004157 -0.04487846 0.026349908 -0.06258934 0.022075068 0.00076399406
0.004637666 -0.07047043 0.021753227 0.022239625 -0.05894043 -0.05649117 -0.2106622 0.0105602145
0.11908346 -0.075597756 0.042018276 0.019958971 0.08282655 -0.055780627 0.057337184 0.08379117
-0.09028568 -0.033041704 -0.00052238867 -0.011443122 0.041196276 -0.035448585 -0.048044633 0.09619018
0.016401066 -0.05956607 0.062013417 -0.03753102 -0.018973617 0.06941292 -0.0062621986 0.08727631
0.002584884 0.029276518 0.026846793 0.13230118 0.059780236 0.00939519 -0.01903246 -0.0055416217
-0.11555424 0.0010131064 -0.006909429 0.12376857 -0.07914872 0.012332338 0.02623876 0.03674653
0.016075922 -0.026580827 -0.062216252 -0.075773984 -0.060060572 -0.03603509 0.05357628 0.04319141
0.08754629 -0.00909271 0.0020936762 -0.009920549 -0.0078054927 -0.007510178 -0.062673524 0.022768227
00000000: a836 3abd 8bb9 d5bd 126d 8f3d 448c 3abd
00000010: f81c bcbd 1280 c73c bdd3 e6bc 5a14 373d
00000020: c9d4 8d3c a858 09be 1438 0dbd af5b 2a3d
00000030: 1969 50be 881c 23be 7cd6 df3b cb4e fdbd
00000040: bc9b f83c 1f7a 853c 4301 79bd 8629 6ebc
00000050: ba02 47bd ea67 34be 3d56 81bb 12ff a1bd
00000060: afc5 4a3d 4316 a6bd 75da f9bd bc4c 7d3d
00000070: 7da2 863d ef4c 8f3d 7bf9 11c0 1286 18be
00000080: 38f0 67bd d1d4 9fbd 397d b73c 4c82 04bf
00000090: ff1b e2bc 88b1 abbd 6219 92bd 27b3 15be
000000a0: 8ef1 b8bc b3de 49bf 48c0 2bbc 8ad7 b3bb
000000b0: 2067 f33b 1e15 14be d100 44bd 89b5 9e3d
000000c0: 069c 1fbe 1b5d 1dc0 a02c d93b 9705 87bd
000000d0: a241 d7bc 774a b7bd 32a8 3e3d a8ad e9bc
000000e0: fd72 95bd a6b0 9e3c 18db 873c 7e18 07bd
000000f0: 68cc 293d cdad 98bd 2dd2 5b3d 6f7c 3f3c
00000100: 18c0 0cbe 4b59 2dbe feb9 51bd c070 08bb
00000110: 08e0 3ec0 116d 43bd 97b3 dc3c bbe5 fbbc
00000120: f444 88bd 3b22 863d 9154 2a3d f8ca bc3c
00000130: d2e2 aebc 7291 473c bae1 8ebd 1d5e d9bd
00000140: adfe dabc 3283 fcbc 069d 64bc a51f 913d
00000150: dc86 eabd d41a 7f3d e46b 23bd 5836 3f3d
00000160: 319a 9fbb a9b8 fbbd e4fe 0c3d 64ce 50bd
00000170: 3b3a 533d d891 e9bf 5c63 8bbd 2ce5 65bd
00000180: a848 ab3d a744 1cbe d7ee da3c 5807 1ebf
00000190: 5a96 4d3c 742e 9bbc d1ca f1bd 7d92 02bd
000001a0: b58c 98be ae1b 65bf e856 ba3c 7acf 4bbd
000001b0: 1ea4 37be 6c22 90bc 4885 bdbd fb5c 0fbe
000001c0: 95b0 73bd b614 983c 63fb 10bd 182e 4c3d
000001d0: e0e4 6f3d 46a3 913d 9528 9d3d 2b45 5fc0
000001e0: eff3 a4bd 297a 0f3d c391 bbbc ff71 09bd
000001f0: 696f 64bc 5037 96bc fbe3 c0bd f08c 26bc
00000200: 397b 70bd 5adc fe3c 9e16 75bc fc0c 423d
00000210: b793 3f3e 06d2 353d db09 68bb ac79 ab3d
00000220: 522a 27be 1983 8cbc 4aa3 7a3d 7ee3 d1bc
00000230: 1456 5e3c 2fb5 32bd 6f7d 57bd 16e9 81bd
00000240: 782f 1dbd 3c94 983b 7cb1 82bd 1d36 d5bb
00000250: 9b31 68bd 3de1 c7bc 2923 31bd 9ebb 81bd
00000260: d298 fa3d 1b00 4f3d 9056 d7bc a82c 873b
00000270: 0783 83bd a343 853c 949d 7f3d 7a32 56bd
00000280: 5d39 333d fa5c 383b 39e2 18bd 1777 5bbe
00000290: a948 f23b d0fb 26bc b3d6 303d fcdc db3c
000002a0: 93ce 16bd dd3f cfbc bfb2 453d cfeb 223d
000002b0: 55ec 2ebd 3162 0f3d d548 753c 3af3 0a3e
000002c0: a19b 38bd 6f6f 46bd 173d f3bc 4bda 8dbb
000002d0: 86bf e63c 7546 023e 27c6 9f3d cd4a 8f3d
000002e0: 7e83 97bd f404 0abd 26ee 75bd 7ad2 37bd
000002f0: c3db d73c d72e 80bd c6d6 b43c c646 483a
00000300: 90f7 973b cd52 90bd d333 b23c e02f b63c
00000310: 856b 71bd 4963 67bd d5b7 57be c004 2d3c
00000320: 07e2 f33d ffd2 9abd 5b1b 2c3d ff80 a33c
00000330: f7a0 a93d 3a7a 64bd 65da 6a3d b49a ab3d
00000340: b3e7 b8bd bd56 07bd e9f0 08ba ef7b 3bbc
00000350: 6dbd 283d 8932 11bd 73ca 44bd 5bff c43d
00000360: 875b 863c 8dfb 73bd c801 7e3d 20ba 19bd
00000370: 8f6e 9bbc 5c28 8e3d 2133 cdbb ecbd b23d
00000380: 2867 293b 4fd5 ef3c ceed db3c f679 073e
00000390: 1fdc 743d 48ee 193c f6e9 9bbc 7e96 b5bb
000003a0: b4a7 ecbd 36ca 843a 7e68 e2bb 607a fd3d
000003b0: b918 a2bd 930d 4a3c abf2 d63c 8883 163d
000003c0: a7b1 833c 09c0 d9bc 78d6 7ebd 642f 9bbd
000003d0: 1302 76bd 8899 13bd cd72 5b3d 7ae9 303d
000003e0: 784b b33d 97f9 14bc 0f36 093b cc89 22bc
000003f0: 38c5 ffbb f017 f6bb fa5a 80bd 6f84 ba3c

fc3.bias f4 [7]
-0.058236122 0.11895491 0.030046072 0.037072577 0.12605621 -0.21395184 -0.046333257
00000000: 0089 6ebd a29e f33d 2e23 f63c 6ad9 173d
00000010: e114 013e 3116 5bbe f1c7 3dbd
