hackathon_toolkit/checkpoints_qlearn/agent_0_episode_0.pth (torch, 78444 bytes, 6 tensors)

fc1.weight f4 [128, 11]
000000 a0 25 61 3d d8 de 18 3d a6 41 86 3e 54 56 8c 3e
       0.054967523 0.037321895 0.2622196 0.27409613
000010 84 7b 6f 3e a4 0c 98 3e 20 94 52 3d 30 98 a3 bd
       0.23386961 0.29697144 0.051410794 -0.07988012
000020 10 d0 93 3e 62 80 ec bd d8 de 9b bd 0c 5d cc 3d
       0.28869677 -0.115479246 -0.076108634 0.09978685
000030 d0 20 f8 bc 00 51 83 3b 65 bc 2a be 1c d6 50 3e
       -0.030289084 0.0040074587 -0.1667343 0.20394176
000040 00 91 9f 3d d8 ef 69 be d0 17 c2 3c 30 7b f0 bc
       0.077913284 -0.228454 0.023692995 -0.029355615
000050 f6 c9 91 3e b6 44 49 be 34 ed 42 be 6b f3 89 be
       0.28474396 -0.19655117 -0.19035798 -0.26943526
000060 7a 0e 7f be 0e 06 93 3e d8 17 0e 3e b7 9d 81 be
       -0.24907866 0.28715557 0.13876283 -0.2531564
000070 f8 79 95 3e 86 4d 42 be 3c 80 3f 3e 59 f1 8b be
       0.29194617 -0.18974885 0.18701261 -0.2733257
000080 ac c1 44 3e 75 a1 2b be b4 e7 7a 3e a8 f4 12 be
       0.19214505 -0.1676081 0.2450245 -0.14351141
000090 fe d2 26 be a6 00 91 3e 8a 33 73 be b8 c8 88 be
       -0.16291425 0.28320807 -0.2375013 -0.26715636
0000a0 64 f1 70 3e 56 62 08 be af fa 8d be e5 de 86 be
       0.23529583 -0.13318762 -0.2773032 -0.2634193
0000b0 f0 4e 8d 3e e4 4a 7f bd 0e e8 94 be c2 ca 48 3e
       0.27599287 -0.06232728 -0.29083294 0.19608596
0000c0 04 84 df 3d 2c 91 a0 bd 40 6c 47 bc 12 e0 87 3e
       0.10913852 -0.07840189 -0.012171805 0.2653814
0000d0 66 c9 37 3e cd e6 10 be 0e 2a 96 bd 80 10 87 bb
       0.17947921 -0.14150544 -0.0733224 -0.00412184
0000e0 e4 22 90 3e 7c 68 a5 3d 8c bb 84 be d2 7b 83 bd
       0.2815162 0.080765694 -0.25924337 -0.06420101
0000f0 ce ac 2c be 86 1e 83 be f0 25 a5 bd 18 4d 79 3d
       -0.16862795 -0.25609225 -0.08063877 0.060864538
000100 3e cd 91 be 44 59 ff 3d 40 24 ef bb 78 cc 2d 3e
       -0.284769 0.12468198 -0.0072980225 0.1697253
000110 b4 39 71 3e 00 83 15 bb 57 93 3c be 29 c8 10 be
       0.23557168 -0.0022813678 -0.1841558 -0.14138855
000120 a0 f8 06 3c 20 ab cd 3c bc 24 d3 bd 02 b2 8a 3e
       0.008237988 0.025106013 -0.10309741 0.27088934
000130 80 a8 e7 bb 0d 8b 13 be 18 79 dc 3d a4 63 4d 3e
       -0.0070696473 -0.14408512 0.10765284 0.20057541
000140 3e 41 19 be 0c 63 6d 3e be 34 94 3e 57 74 96 be
       -0.14966294 0.23182315 0.2894649 -0.29385635
000150 2c be cf 3d 70 e4 58 3d d5 28 46 be ca 54 25 be
       0.10143694 0.05295223 -0.19351514 -0.16145626
000160 e0 fb 0b bd ec 91 fb bd 0e 7d 96 be 95 f6 36 be
       -0.034175754 -0.12283692 -0.29392284 -0.17867501
000170 20 58 1e 3d 20 9c d2 3d 90 ff 81 bd 74 94 6b 3e
       0.03865826 0.10283685 -0.06347573 0.23005849
000180 b4 99 9d bd 44 64 46 be b0 39 5c 3e fc ca 78 3e
       -0.07695332 -0.19374186 0.21506381 0.24296182
000190 84 d2 86 3e 80 33 b6 3c c8 73 d9 3d b0 4e c2 bc
       0.26332486 0.022241354 0.10617787 -0.023719162
0001a0 b4 35 78 3e 38 1d 96 3e 6c 73 8e bd c8 19 26 bd
       0.24239236 0.29319167 -0.06955609 -0.04055193
0001b0 38 82 50 3e 50 f3 af 3d c8 11 3a be 98 b3 8e be
       0.20362175 0.0859133 -0.18170846 -0.27871394
0001c0 40 c0 70 bc e0 0e 7f bd 70 dd 35 3d 0c 84 dc bd
       -0.0146942735 -0.062270045 0.044400632 -0.107673734
0001d0 44 11 4b be 6a 6e 82 3e 33 59 96 be 40 73 8b 3b
       -0.19830805 0.25474864 -0.2936493 0.004255682
0001e0 88 44 2d 3d 50 a4 99 3e 34 23 50 3e ec f9 88 bd
       0.042301685 0.30008173 0.20325929 -0.06688294
0001f0 a0 c8 78 3e a7 81 94 be 70 e4 5d bd 7e 97 88 be
       0.24295282 -0.29005167 -0.054172933 -0.2667808
000200 c8 6a c4 bd d0 d0 3e be e0 3f 02 be f8 2a 98 3d
       -0.095906794 -0.18634343 -0.12719679 0.07430071
000210 28 af 91 3e 97 d7 73 be 1e b8 12 3e 10 01 ec 3d
       0.28453946 -0.2381271 0.14328048 0.1152364
000220 9c 10 3c 3e ac 6e 65 3e 30 e4 fe 3c 58 d1 4d be
       0.18365711 0.22405499 0.031114668 -0.2009939
000230 7c f8 1f 3e 98 6c 5a bd de 98 2f 3e b8 69 dc 3d
       0.15622133 -0.05332622 0.17148158 0.10762352
000240 30 31 b5 bd a8 dc 09 3d 17 05 22 be ac 48 d5 3d
       -0.088472724 0.0336577 -0.15822254 0.10414252
000250 0d 2c 81 be 0c 7e 65 3e 94 50 7b 3e 8e 27 89 3e
       -0.2522892 0.22411364 0.24542457 0.2678799
000260 d6 46 96 3e 20 dc f0 3d d8 bc 11 be 6e aa 91 3e
       0.2935092 0.117607355 -0.14232194 0.2845034
000270 c8 fd 32 3d 4a 7a 09 be 1c 7a fe bd cc 7e 7e be
       0.043699056 -0.13425556 -0.12425634 -0.24853057
000280 36 4e 16 be 1c 83 ff 3d 10 a6 d8 3c 40 b7 3d 3c
       -0.14678273 0.12476179 0.026446372 0.011579335
000290 10 6b e3 bc 45 ba 10 be fc 1d 79 3e a4 4a 63 be
       -0.027761012 -0.14133556 0.24327844 -0.22196442
0002a0 18 b8 5c be bc 5f 2a 3e a4 16 2b be 80 48 0a 3c
       -0.21554601 0.16638082 -0.16707855 0.008440137
0002b0 9e 0a 11 3e d0 2d 16 bd 9e 78 8c be 1b 57 71 be
       0.14164206 -0.036664784 -0.27435774 -0.23568384
0002c0 98 99 8f 3d d2 6b 95 bd 66 da 34 be 42 05 4e be
       0.070117176 -0.07295956 -0.17661437 -0.20119193
0002d0 e7 3d 8c be 1c 83 87 3e 88 27 6f 3e 16 64 b7 bd
       -0.27390978 0.26467216 0.23354924 -0.08954637
0002e0 25 9f 29 be 80 8e 0d bd 99 a6 75 be 7a 68 37 3e
       -0.16564615 -0.034559727 -0.23989333 0.17910948
0002f0 c0 f4 99 3b c0 19 1c bd 8a fe cc bd 54 82 14 be
       0.004698366 -0.038110495 -0.10009487 -0.14502841
000300 b1 16 02 be f2 1c 3d 3e 33 c5 82 be 30 5e 2b 3e
       -0.12703969 0.18468073 -0.25541076 0.16735148
000310 50 f3 84 3d 30 a6 4c be ec b7 30 be d0 81 08 3d
       0.06491721 -0.1998527 -0.1725766 0.033326924
000320 40 be 27 3d 08 de 58 bd be cf 80 3e 80 14 3c bd
       0.04095292 -0.05294612 0.25158495 -0.045917988
000330 36 60 3d 3e cc 14 70 bd e4 b7 fb 3d 50 94 04 3e
       0.18493733 -0.058613583 0.12290934 0.12947202
000340 2c 12 56 3e be 47 2d be 4c 5a 65 3e 7c 7f 02 3e
       0.2090537 -0.16921899 0.22397727 0.12743944
000350 47 88 37 be 14 5f 31 3e a0 55 f1 bc b0 f3 a9 3c
       -0.1792308 0.17321426 -0.029459774 0.020746082
000360 bc 12 11 be 2c f2 a2 bd 56 2d 93 3e 5d 8a 00 be
       -0.14167303 -0.07956347 0.28745526 -0.12552781
000370 96 87 61 be bf 88 44 be 61 23 5f be 96 0e 99 3e
       -0.22024378 -0.1919279 -0.2179084 0.2989394
000380 08 06 82 be f9 3d 95 be fa 47 36 3e e4 aa 50 3e
       -0.25395226 -0.29148844 0.17800894 0.2037769
000390 80 75 40 be 44 f2 93 3d f0 4f d5 bc b8 45 8a 3e
       -0.18794823 0.07223943 -0.026039094 0.27006316
0003a0 04 80 70 be d0 23 fb bc 28 4f b0 3d c2 5a dd bd
       -0.23486334 -0.030656725 0.08608848 -0.10808326
0003b0 3c 57 8a 3e 23 f5 8e be de 38 11 be a0 ce 86 3e
       0.2701968 -0.279214 -0.1418185 0.26329517
0003c0 9c 04 5f 3e b0 97 8b 3e d3 9d 0c be 00 5a 7d 3a
       0.21779102 0.27264166 -0.1373208 0.0009664595
0003d0 e3 e7 88 be 70 b3 27 bd ad 46 80 be 80 69 0d bd
       -0.26739416 -0.04094261 -0.2505392 -0.03452444
0003e0 6e 94 99 be 96 53 f2 bd 10 20 c0 3d 64 56 90 3e
       -0.29996055 -0.11832349 0.093811154 0.2819091
0003f0 60 b8 96 be a4 51 e6 3d 8c b1 8f 3e 04 a1 d8 3d
       -0.29437542 0.112460405 0.28065145 0.10577586

fc1.bias f4 [128]
000000 fa 5d 4b be 78 3b 08 be 02 05 66 be 56 a7 90 be
       -0.19860068 -0.13303936 -0.22462848 -0.28252667
000010 58 81 dc 3d 1e da 95 3e 2c d6 5d 3e f0 01 77 bd
       0.10766858 0.29267973 0.21663731 -0.060304582
000020 d4 80 55 be 80 fc 74 3e 54 f0 26 3e 26 3f 8e 3e
       -0.20849925 0.23924446 0.16302615 0.27782553
000030 b4 8b 5a 3e 72 fb 1a 3e 45 80 76 be 40 a4 41 3c
       0.21342355 0.15134981 -0.24072368 0.011818945
000040 34 aa b2 3d 00 db e6 bc a0 22 f2 bd c8 6d 97 3e
       0.0872387 -0.0281806 -0.118230104 0.29575944
000050 00 08 7b 3c 98 bd d1 bd b0 1f 78 be 0c 2c 6a 3e
       0.015321732 -0.1024124 -0.24230838 0.22868365
000060 86 35 90 3e a0 32 60 3e 8e a7 e8 bd 0f 3c 1a be
       0.28165835 0.21894312 -0.113600835 -0.15061973
000070 07 8e 95 be d0 37 a9 bd 01 e0 95 be 90 c8 fa 3d
       -0.2920992 -0.082625985 -0.29272464 0.122452855
000080 c8 d8 4e 3d cc 80 66 be 8c 66 81 3d 75 a7 08 be
       0.050499707 -0.2251007 0.063183874 -0.1334513
000090 40 91 8d bb e2 47 8b 3e 28 e8 0c be cc 31 95 bd
       -0.0043202937 0.2720328 -0.13760436 -0.072848886
0000a0 14 b8 a3 bd 68 b8 89 be e0 1a 18 3d 6a 36 4a 3e
       -0.079940945 -0.26898503 0.037135005 0.1974732
0000b0 80 e5 94 bc 04 fc 3a 3e 04 00 ed bd d8 7a 56 bd
       -0.01817584 0.18260199 -0.115722686 -0.052363247
0000c0 b2 16 3a 3e a9 13 59 be b0 94 ff 3c 16 1c 22 3e
       0.1817272 -0.21198906 0.03119883 0.15831026
0000d0 04 d8 64 3e 80 74 a0 3d 7c 3a 57 3e da 52 93 be
       0.22348028 0.078347206 0.21018404 -0.28774148
0000e0 00 c3 81 3e 65 1d 8d be 04 cb d4 bd 84 e9 02 3e
       0.25344086 -0.2756149 -0.10390285 0.12784392
0000f0 d2 21 aa bd 3d f1 65 be 24 f0 c1 3d 5c a4 d0 3d
       -0.08307232 -0.22455306 0.09469631 0.10187599
000100 c0 6f e7 bc 97 55 8c be f8 ec e8 3d fc 99 e7 bd
       -0.028251529 -0.2740905 0.11373323 -0.11308667
000110 9c 4c 7f 3e 7a b6 21 3e c0 3e e9 3b f8 d6 e2 bd
       0.24931568 0.15792266 0.007118076 -0.11076158
000120 ba 40 1a 3e 64 ca 71 3e 88 54 3c bd 70 e7 2c 3d
       0.15063754 0.23612362 -0.045979053 0.042212903
000130 b6 db a2 bd 14 d7 b8 3d e4 02 63 be 8a 20 6c be
       -0.07952063 0.09025398 -0.22169071 -0.23059288
000140 b9 3a 24 be ab 1b 45 be 88 9e 7c bd f0 dd f1 bd
       -0.16038026 -0.19248836 -0.061674625 -0.11809909
000150 72 9d 02 3e a8 18 8d be 20 87 10 3e ac 19 67 3e
       0.12755373 -0.27557874 0.14114046 0.22568387
000160 3f 2b 3e be 7a f4 0e 3e f0 02 8b be e9 ab 32 be
       -0.18571185 0.13960448 -0.2715068 -0.17448391
000170 f2 12 0d 3e 0e 0f 06 3e a6 62 5e be f4 35 7b bd
       0.13776758 0.1309168 -0.21717319 -0.06133075
000180 58 52 3a bd aa 8a 96 3e d2 bc 80 be f2 66 7c be
       -0.045488685 0.29402667 -0.25144058 -0.24648646
000190 dc 2f 17 3e 7c 50 4d be f0 5b b4 bc fe d4 b3 bd
       0.1476435 -0.20050234 -0.022016495 -0.087808594
0001a0 4c f0 4f 3e 79 71 5b be 4c 92 95 3d f8 c0 61 3d
       0.2030651 -0.21430005 0.073032945 0.05511567
0001b0 b0 1b ea bc 62 c8 90 3e 0c 30 69 bd c4 b4 52 3e
       -0.028577656 0.2827788 -0.056930587 0.20576769
0001c0 b8 7d a6 bd 00 e4 ff bc bc 75 37 3e 4c e7 7c 3e
       -0.08129448 -0.031236649 0.17916006 0.24697608
0001d0 80 a6 34 bd ff b1 8c be 84 71 9e 3d 3c ed 0a be
       -0.0441041 -0.2747955 0.07736495 -0.1356706
0001e0 62 6c a8 bd 2a 72 41 3e 9a e4 05 3e 16 ad 09 3e
       -0.082237974 0.18891206 0.13075486 0.13444933
0001f0 1c c1 8b be f6 3b 80 3e a6 ab 44 3e 50 eb 7d be
       -0.27295768 0.25045747 0.19206104 -0.24796796

fc2.weight f4 [128, 128]
000000 66 b7 e4 bc ad 6b 68 bd a8 95 9c 3c 5c 7d c5 bc
       -0.027919482 -0.056743313 0.01911433 -0.024107628
000010 e8 fb a0 3c 00 28 d1 b9 3f cb 7d bd 10 77 68 3c
       0.019651368 -0.0003989339 -0.06196141 0.014188543
000020 ed 6a 29 bd d8 7b 84 3c b8 12 8a bc f3 02 1c bd
       -0.041361738 0.016172335 -0.016854629 -0.03808875
000030 93 0d 49 bd 4d c7 90 bd 4d 68 b3 3d 48 9c 42 3c
       -0.04908521 -0.070692636 0.08760128 0.011878081
000040 c0 ef f0 3b 2a 74 49 3d ef 5d 1c bd 11 29 89 bd
       0.007352799 0.04918305 -0.03817552 -0.06697286
000050 e8 60 9e bd 60 3d 15 3d 20 b4 82 bb ef c4 98 3d
       -0.07733327 0.036435485 -0.0039887577 0.07459437
000060 dc 58 96 bd 50 22 96 bd 38 2d 7d 3c c4 da c1 bc
       -0.07341167 -0.07330763 0.0154526755 -0.023663886
000070 8c dc 10 bd 48 ab cd bc 84 4d d3 3c 0b 90 ab 3d
       -0.03536658 -0.025106087 0.025793798 0.083770834
000080 cc 90 80 bd f8 a6 01 bc 40 a3 bf bb 78 0e a9 bd
       -0.06277618 -0.007913344 -0.0058483183 -0.08254713
000090 34 57 b9 bc 06 a6 6c bd 60 87 e3 bb af 06 84 3d
       -0.02262459 -0.05777552 -0.006943628 0.06446587
0000a0 b5 b3 af bd dc b6 68 bd a6 2c 98 bd 8b eb 42 bd
       -0.08579198 -0.056815013 -0.07430391 -0.047587913
0000b0 46 16 76 bd 05 dd 5e bd 00 ff e2 b9 45 b5 81 bd
       -0.060079835 -0.05441 -0.0004329607 -0.063334025
0000c0 e5 6d 9e bd 6c a2 ad bd 1b d2 b3 bd f0 81 8f 3b
       -0.077358045 -0.08478245 -0.08780309 0.0043795034
0000d0 5b 57 84 3d e9 8f 8a 3d f8 7f 7b bc 0a 06 3f 3d
       0.06461974 0.0676573 -0.015350334 0.04663662
0000e0 e0 c8 a2 3c 74 ec d8 bc af 05 9f 3d 18 d7 71 bc
       0.019871175 -0.026479937 0.07764756 -0.014760755
0000f0 99 3f 1d bd 46 42 f8 bc 8a 36 57 3d 9f b9 9d 3d
       -0.03839073 -0.03030504 0.052542247 0.0770142
000100 1a 96 23 3d 30 26 d2 bb 79 07 71 bd b3 2d 9d bd
       0.03993807 -0.0064132437 -0.058845017 -0.07674732
000110 62 7e 52 3d 1a ab 32 bd fa 13 8b bd 78 3f 01 3d
       0.05139006 -0.043620206 -0.067909196 0.03155467
000120 ee cc a1 bd f2 fb 65 3d f1 8a 4f bd c4 a5 bf bc
       -0.07900415 0.056148477 -0.050669614 -0.023394473
000130 7a 05 16 3d 39 a7 7e bd ab 44 22 bd 7a e8 71 3d
       0.036626317 -0.062171195 -0.039616268 0.059059598
000140 f4 5c b0 bd f3 80 96 3d 73 56 a2 bd 9a 56 67 bd
       -0.086114794 0.07348814 -0.07926645 -0.056479074
000150 5a d8 64 3d 53 b9 8b 3d ce a7 0f 3d c6 43 76 bd
       0.05587039 0.06822457 0.03507214 -0.060123228
000160 0e 0d 4f bd c0 8a 1a 3b 0c 5c 0f bd ba f2 23 3d
       -0.05054956 0.0023581237 -0.034999892 0.040026404
000170 47 40 a3 3d 48 06 43 bc d6 06 9c bd 47 5c 26 bd
       0.07971244 -0.011903353 -0.07618491 -0.040615346
000180 a7 2d b0 3d 00 0c 39 bc f9 6e ae 3d ce 7b 64 bd
       0.086024575 -0.011294365 0.0851726 -0.05578213
000190 2d ef 8e 3d e3 7a 21 bd 4e 49 ff bc e0 f9 5a 3c
       0.06979213 -0.039423835 -0.031162884 0.013365239
0001a0 84 e9 0c bd b7 12 ab 3d 40 8e 94 3c 74 c1 71 bd
       -0.034402385 0.08353179 0.018134236 -0.059022382
0001b0 83 20 8e 3d 29 c6 ae 3d 00 8b 41 ba e8 c7 95 3c
       0.06939795 0.0853389 -0.00073830783 0.0182838
0001c0 9a 19 71 3d 38 bb 65 3c cb 17 aa 3d ba 63 0e 3d
       0.058862306 0.014021687 0.083053194 0.034763075
0001d0 e0 2c 30 bc 53 6f 4c bd 06 99 e7 bc 58 36 42 bc
       -0.0107528865 -0.049910855 -0.02827121 -0.011853777
0001e0 2c fe cc bc 25 d9 a2 3d f2 45 0b 3d 14 08 c3 bc
       -0.025023542 0.07951573 0.034002252 -0.023807563
0001f0 ff 3a 94 bd 68 c8 70 bc 26 61 3d 3d 5f 26 24 bd
       -0.07237815 -0.014696218 0.046235226 -0.040075656
000200 f0 d9 8d bc 90 29 65 3c 7a f3 02 3d e2 c5 d6 bc
       -0.017315835 0.01398696 0.03197048 -0.026217405
000210 d7 17 9b 3d a8 7e 85 bd b5 38 89 3d e0 e9 8e bc
       0.075729065 -0.065182984 0.06700269 -0.017445505
000220 81 1f 2e bd 27 18 52 bd 9b 90 ad 3d 84 05 11 bd
       -0.042510513 -0.051292565 0.08474847 -0.03540565
000230 44 7a f3 3c 37 07 a0 3d b4 e8 05 bd a8 7d 9d 3c
       0.029721387 0.07813876 -0.032692626 0.019224957
000240 50 c3 da 3c 70 db 50 bd 0e d5 62 3d aa e0 5a 3d
       0.02670446 -0.050990522 0.055378966 0.053436913
000250 75 09 85 3d 6c 11 d2 3c 91 3c 16 bd cd a0 a3 bd
       0.064959444 0.025643073 -0.036678854 -0.07989655
000260 6b 51 35 bd 72 62 29 3d 42 69 1f 3d f8 d6 46 bc
       -0.0442671 0.04135365 0.03891874 -0.0121362135
000270 92 ec a2 bd b5 bf a5 3d f0 69 86 bc 2c a9 29 bd
       -0.079552785 0.08093206 -0.016407937 -0.0414211
000280 5a 40 55 3d 9c 5b 87 bc 77 9a a6 3d 3b f1 8d 3d
       0.052063324 -0.016523175 0.081349306 0.06930777
000290 60 30 15 3d c4 ee 95 3c ac 46 91 3c 10 6d 7e bc
       0.036423087 0.018302329 0.017733894 -0.015528932
0002a0 80 da 29 bc b5 46 9a 3d e8 3f 18 3c 29 90 09 bd
       -0.010367036 0.075330175 0.00929258 -0.033584747
0002b0 2a 61 7f 3d f8 93 ab bc 20 56 00 bc d9 41 84 bd
       0.062348522 -0.02094458 -0.007833034 -0.06457872
0002c0 c4 bd 6c bd 30 da 00 3c 42 af 50 3d 82 79 27 3d
       -0.057798162 0.00786452 0.05094839 0.040887363
0002d0 3a 20 47 3d 7b 07 b3 3d 86 73 2f 3d dc a1 80 bc
       0.048614718 0.08741661 0.04283478 -0.01570218
0002e0 cd 8e ae bd 40 39 0b 3d d1 9d 1e bd a5 d0 91 3d
       -0.08523331 0.033990145 -0.038724724 0.07119874
0002f0 b5 12 92 3d e3 e9 31 bd dc 79 8d bc 00 ef f2 b9
       0.07132474 -0.043435942 -0.017270021 -0.00046335906
000300 8a bb 27 3d 80 f3 0f 3d 8b bb 58 bd 60 02 39 bc
       0.040950336 0.03514433 -0.05291323 -0.01129207
000310 7e 66 35 3d e0 e2 c0 3c 67 32 40 bd 4e 5e 76 3d
       0.044287197 0.023545682 -0.046923067 0.06014853
000320 7e cd 7d 3d d9 33 8c 3d ba 6c 3f 3d 6c 68 00 bd
       0.06196355 0.06845827 0.04673455 -0.031349584
000330 5e c6 35 3d 4f 69 a7 3d 2a a5 36 3d 92 55 a5 bd
       0.04437863 0.08174383 0.044591106 -0.08072962
000340 31 53 03 bd 00 34 8a 3a d3 1c af bd be 6e 1e 3d
       -0.03206176 0.0010544062 -0.0855042 0.03867983
000350 16 83 39 3d f5 6d a3 3d 48 e4 ae bc 0f 9b 8c 3d
       0.04529103 0.07979957 -0.021349087 0.068655126
000360 8e 51 39 3d 84 44 b1 3c 9d 38 97 3d 5b 03 b3 3d
       0.045243792 0.021639116 0.07383845 0.087408744
000370 13 2c a6 bd b5 6d 82 3d a8 d1 4a 3c b0 ba df 3b
       -0.08113875 0.06368581 0.0123790875 0.006827675
000380 f6 38 5c bd f0 94 0e 3c ac 8e 99 3c 2d 19 87 3d
       -0.05376526 0.008702502 0.018744789 0.06596599
000390 02 fb 3a 3d 60 5f 82 3b b8 be e0 3c 70 38 8b 3c
       0.045649536 0.0039786547 0.027434692 0.016994685
0003a0 41 a6 60 bd d4 91 7f bd a3 0a 7d bd d4 68 76 bd
       -0.054846052 -0.062394932 -0.061777722 -0.060158566
0003b0 66 e4 ad bd d0 10 ce 3b e0 f9 45 bc e8 ad ab bc
       -0.08490829 0.0062886253 -0.012083501 -0.020956948
0003c0 d4 d6 8c bc 1d f0 77 bd d0 d8 1b 3c 34 46 b4 bd
       -0.017192282 -0.060531724 0.009512141 -0.08802453
0003d0 10 4c 97 3c d2 a1 5e 3d 99 aa 9d 3d 9e d7 63 3d
       0.018468887 0.054353543 0.076985545 0.05562555
0003e0 f1 22 a0 bd 61 8e 05 bd 55 4f 80 3d 88 53 1b bc
       -0.078191645 -0.032606486 0.062651314 -0.009480365
0003f0 30 35 bd 3c 80 5b 1e 3b 5a 86 61 bd 38 6f 5c bc
       0.02309665 0.0024163425 -0.05505977 -0.013454251

fc2.bias f4 [128]
000000 bc e0 86 bc 80 b6 59 3b 90 0f fa 3c 38 87 e2 bc
       -0.016464584 0.003322035 0.030524999 -0.027652368
000010 41 65 a8 3d b0 22 d7 3b b0 51 fd 3c dc 64 b4 bc
       0.08222438 0.0065654144 0.03092274 -0.02202075
000020 8a 3d 59 bd 9c 89 b0 bc c1 73 9e bd 66 48 64 bd
       -0.053037204 -0.021549992 -0.07736922 -0.055733107
000030 2d c5 1b bd 1a 75 03 3d ad e4 ae bd 64 8f 28 bd
       -0.03802984 0.0320941 -0.0853971 -0.041152373
000040 2d 76 b0 3d 38 68 6f bc 90 9a b1 bd ae e8 ac bd
       0.0861629 -0.01461225 -0.086720586 -0.08442818
000050 01 5f 9e bd 71 09 82 3d 1f 99 91 bd 07 05 aa 3d
       -0.07732964 0.06349457 -0.07109284 0.0830174
000060 75 87 7c bd 65 ef a8 bd 23 21 50 bd 3c ff 52 bd
       -0.06165262 -0.08248786 -0.05081285 -0.05151294
000070 58 0f a8 3c 10 c4 fb bb 2a ce 8c bd 59 ab 38 bd
       0.020515129 -0.0076832846 -0.0687526 -0.045085285
000080 ea 25 74 3d 00 61 61 3a 3d 2d b0 3d 36 d8 38 3d
       0.05960647 0.0008597523 0.086023785 0.04512807
000090 5c 98 db 3c f8 c7 c3 3c e0 8a 6d bd a0 d0 05 bc
       0.026806049 0.023899063 -0.05799377 -0.008167416
0000a0 c8 42 15 bc 24 e2 b6 3c c0 31 18 3b 20 7b 94 bc
       -0.00911016 0.02232463 0.0023223013 -0.018125117
0000b0 e9 61 59 bd b0 62 bc bb ea b6 4b 3d 28 be 7b bc
       -0.05307189 -0.005749069 0.049734987 -0.015365161
0000c0 fe 2e 64 3d 7b eb ad 3d c0 95 2a 3c 60 81 9e bd
       0.055708878 0.0849218 0.01041168 -0.0773952
0000d0 24 94 d3 3c 50 46 e5 bb 9c 4f 9d bd f0 c3 e3 bb
       0.025827475 -0.0069969073 -0.076812 -0.006950848
0000e0 3c 5a 89 bd a0 54 87 bd b4 7f 91 bc 7d bf 87 3d
       -0.06706664 -0.06607938 -0.017761089 0.0662832
0000f0 c4 7b be 3c 26 63 a1 bd 6c b1 5c bd e6 82 25 3d
       0.023252375 -0.07880239 -0.05388014 0.040408038
000100 90 7c 9c bc a8 6d 94 3c 92 f9 18 3d 81 e9 8c bd
       -0.019102365 0.018118694 0.037347384 -0.06880475
000110 74 14 b2 3c 8d 61 21 bd e2 25 05 bd c9 bf 4d bd
       0.021738268 -0.039399672 -0.03250683 -0.05023173
000120 40 a9 a3 3a 91 0d a4 bd ae b3 42 bd da 43 3a 3d
       0.0012486354 -0.080104 -0.047534637 0.045474865
000130 91 93 9c 3d 97 ef a2 3d 8f af ae bd c8 02 a4 bc
       0.076453336 0.079558544 -0.08529579 -0.020020857
000140 7e d3 d7 bc ac e7 83 bd c0 fb e4 bc dd ef 99 3d
       -0.026345965 -0.06440672 -0.027952075 0.075164534
000150 d3 0a 57 bd fa 6b 09 3d b3 bc 96 3d 6c 63 f7 bc
       -0.052500557 0.03355024 0.0736021 -0.030198775
000160 ae 19 23 3d f8 58 16 bc f6 f5 78 3d 80 eb 28 3c
       0.039819412 -0.009176485 0.06078144 0.010310054
000170 29 37 96 3d de 27 7f 3d c2 b7 2b bd 00 f4 b8 3c
       0.0733474 0.06229388 -0.041923292 0.022577286
000180 2b 96 83 3d 65 f7 98 3d 9c 22 de bc fd f6 88 bd
       0.06425127 0.07469062 -0.027116112 -0.06687734
000190 f0 00 ae 3c ee bb 7f 3d 4e c0 65 3d df d9 b0 3d
       0.021240681 0.062435083 0.0560916 0.086353056
0001a0 e5 d4 9d 3d 90 bd 26 3c b8 06 13 3d 86 b7 63 3d
       0.07706622 0.010177031 0.03589508 0.055594943
0001b0 d5 36 07 bd 10 61 16 3c 03 b3 41 bd d6 50 21 bd
       -0.033011276 0.009178415 -0.04728986 -0.03938373
0001c0 ee 1b 34 3d 5a f0 53 3d 36 3b 4b 3d f9 c6 13 bd
       0.04397195 0.05174289 0.049617015 -0.036078427
0001d0 14 0b 84 3c c2 94 22 bd 14 e5 9f 3c 8d 41 8a bd
       0.016118564 -0.039692648 0.019518413 -0.06750784
0001e0 ce a2 8a bd 3d 79 45 bd dc 39 95 bd 40 3f 58 bc
       -0.06769334 -0.048211325 -0.072864264 -0.013198674
0001f0 a0 b5 5b bc 2e f7 02 3d a0 39 23 3c 7a 52 8a bd
       -0.013410002 0.03197401 0.009962469 -0.067540124

fc3.weight f4 [7, 128]
000000 d9 4f 87 3d bc c1 c3 bc a5 b9 9b 3d fa 9e 09 bd
       0.066070266 -0.02389609 0.07603768 -0.033598877
000010 80 ad 16 ba 9c b2 f8 3c 40 bd b7 3b ca 62 66 3d
       -0.00057478994 0.030358605 0.005607277 0.056246556
000020 8e 79 1c 3d a2 3e dd bc aa 83 0b bd 5a 9a 7b 3d
       0.03820186 -0.027007405 -0.03406111 0.061426498
000030 5e 77 39 3d 9a 96 7f bd dc ba 0b 3d c3 b2 ae bd
       0.045279853 -0.062399484 0.03411375 -0.0853019
000040 22 46 53 3d 09 8a 8e 3d 2e 04 45 bd 20 d1 35 bb
       0.051580556 0.06959922 -0.04809969 -0.0027743056
000050 69 1a 17 bd aa 78 9f bd f0 8e f5 3b fb 53 a0 bd
       -0.03689042 -0.07786687 0.007493846 -0.07828518
000060 5d 3f 85 3d 22 c7 8d bd 6a d5 7c bd d3 d5 98 3d
       0.06506226 -0.06922747 -0.061726965 0.07462659
000070 79 ae 9b 3d ef 4c 8f 3d e4 53 15 3d a8 72 66 bd
       0.076016374 0.06997096 0.036456957 -0.05626169
000080 e8 bb 3c bc 6c 6d 80 bd 08 52 ef 3c b1 f2 83 3d
       -0.01151941 -0.062708706 0.02921392 0.06442774
000090 b0 0f db 3c 67 13 3d bd 56 9a 72 bd 12 4d 7f bd
       0.026740879 -0.04616108 -0.059229217 -0.06232936
0000a0 19 03 a7 3d c0 da 3d 3b 7a 1c 06 3d 48 c7 1b 3c
       0.08154888 0.0028969496 0.032742 0.009507962
0000b0 76 44 69 3d 08 42 bd bc 80 7d 69 bc ed f2 b3 3d
       0.056950055 -0.023102775 -0.014251113 0.08786569
0000c0 1a 96 3c bd 71 1e 08 bd 9c 94 ea 3c f1 b7 5c bd
       -0.046041586 -0.033232156 0.028635316 -0.053886358
0000d0 20 22 81 bb 8c 43 9a bd 32 a8 3e 3d a8 ad e9 bc
       -0.0039408356 -0.07532415 0.046547122 -0.028525189
0000e0 d0 05 e4 3c d0 ec f9 3c 18 db 87 3c 74 ae ac bc
       0.027834803 0.030508429 0.016583964 -0.02107928
0000f0 8e 65 42 3d e4 58 81 bd 12 b5 5d 3d 6b f0 8c 3d
       0.04746013 -0.06315783 0.05412776 0.068817936
000100 15 d6 47 bd 0a 20 b4 bd e0 b7 69 bb c0 70 08 bb
       -0.04878815 -0.087951735 -0.0035662577 -0.0020819157
000110 08 0d 7e bc 1a 59 04 3d bc 3c f6 3c 7a 6f 4b 3d
       -0.015506037 0.032311536 0.030058257 0.04966686
000120 0e 74 5f bd cb ba 9b 3d a6 bf 3f 3d 5a 8c 3e 3d
       -0.054554038 0.07603987 0.04681363 0.04652057
000130 38 62 bf 3c 1e cb 13 3d d8 ff 76 bc 3b c7 5e bd
       0.023362264 0.03608238 -0.015075646 -0.05438922
000140 a8 81 4f bc 40 cc 96 bc 8c c3 a6 3c bd 93 b3 3d
       -0.01266519 -0.01840794 0.020356916 0.08768413
000150 ac 46 d5 bc 85 1d 8d 3d 56 17 e7 bc 3a 65 69 3d
       -0.026034676 0.06890396 -0.02820937 0.056981303
000160 3e d4 2a 3d a5 88 a2 3d 52 49 2f 3d 9c 78 1f bd
       0.041706316 0.07936219 0.042794533 -0.03893338
000170 1f 99 8d 3d 03 98 9f 3d 10 70 d1 bc f2 ec 01 bd
       0.06913971 0.07792666 -0.02556613 -0.03172011
000180 85 1c aa 3d 56 a5 81 bd a6 05 1d 3d 28 ca fd 3c
       0.08306221 -0.063303635 0.038335465 0.030980185
000190 d0 18 c9 3c 49 b4 aa 3d c4 0d 0b bd 22 d5 37 3d
       0.024547964 0.08335168 -0.033948675 0.044880994
0001a0 9e ab 9f bd f1 c1 92 3d ee e0 14 3d eb 58 1a bd
       -0.07796405 0.07165898 0.036347322 -0.037682455
0001b0 8c d9 0d bd 10 a6 b9 bb e1 03 2a bd f2 6c ae bd
       -0.034631297 -0.005665548 -0.041507605 -0.085168734
0001c0 42 c2 1d bd 08 06 fc 3c ec 29 a9 bc 33 71 82 3d
       -0.038515337 0.030764595 -0.020649873 0.06369247
0001d0 c1 3c 82 3d 05 69 a2 3d bf b1 b4 3d c2 9c 37 3d
       0.06359244 0.07930187 0.08822965 0.04482723
0001e0 b6 88 1a bd a2 c0 5b 3d b9 63 95 3d 45 64 82 3d
       -0.037728034 0.053650506 0.07294411 0.06366781
0001f0 ae df 2e 3d 50 37 96 bc a0 1f c0 bc 80 a9 72 3a
       0.042693786 -0.018336922 -0.02345258 0.0009256825
000200 51 fe 61 bd b6 a7 48 3d 88 44 70 bc 40 c2 d2 bc
       -0.055174176 0.048988067 -0.014664777 -0.025727391
000210 05 93 90 3d 5a 0e 33 3d a8 30 64 3c a8 86 c5 3c
       0.07059292 0.04371486 0.013927616 0.02411206
000220 20 4d f3 bc de ac 15 bd b9 b7 96 3d c0 97 59 bc
       -0.029699862 -0.036541812 0.07359261 -0.013280809
000230 fc f4 a1 3c fd b7 2b bd 28 fa 05 3c e2 45 7c bd
       0.019770138 -0.04192351 0.008177318 -0.061590083
000240 1b be 85 bd 04 73 a1 3c c6 6e a3 bd 95 c1 0d bd
       -0.065304 0.019708164 -0.07980113 -0.034608442
000250 e8 d2 85 bd 24 74 b0 bc af 30 8c bd b2 cc 9e bd
       -0.06534368 -0.021539755 -0.06845223 -0.07753886
000260 ab 37 af 3d 20 e1 ed 3b c8 44 84 3c fb d5 19 bd
       0.0855554 0.007259503 0.016146079 -0.037557583
000270 68 59 9b bd a8 62 e1 3c e0 94 c0 3b 2d 59 52 bd
       -0.07585412 0.027512863 0.0058771223 -0.051354576
000280 39 89 92 3d 34 b6 ea 3c 7c 5d 9a bd 75 22 9a bd
       0.071550794 0.028651334 -0.07537362 -0.075261034
000290 4c 31 13 3d 85 22 06 bd 00 cb 58 3c 3b 9d 90 3d
       0.035935685 -0.032747764 0.013231993 0.07061239
0002a0 b6 a3 7c bd 14 49 eb bc c3 a4 89 3d 7e a7 56 3d
       -0.061679564 -0.02872137 0.06720879 0.052405827
0002b0 ae d7 e1 bc ba 64 3c 3d da 05 40 3d 92 e6 3f 3d
       -0.027568664 0.045994498 0.04688058 0.04685075
0002c0 d0 f2 a4 bd 10 b0 32 bd 88 23 40 bc df 58 40 bd
       -0.08054125 -0.043624938 -0.011727221 -0.046959754
0002d0 12 df 73 3d 4a bf 20 3d 27 c6 9f 3d cd 4a 8f 3d
       0.05953891 0.039244927 0.078014664 0.06996689
0002e0 f2 90 74 bd 60 fb b1 3b 26 ee 75 bd c2 b8 a1 bd
       -0.059708543 0.0054315776 -0.06004157 -0.07896568
0002f0 ca cd 64 3d 3e 05 49 bd aa 6d 18 3d fc 10 af 3c
       0.05586032 -0.049077265 0.03721396 0.021370403
000300 10 8e 44 bc 4d 1a a6 bd e2 79 20 3d e0 2f b6 3c
       -0.011996761 -0.08110485 0.039178737 0.022239625
000310 00 d1 a7 bd e7 3f 68 bd 90 71 cc bb 5e a7 65 3d
       -0.081941605 -0.056701567 -0.0062391236 0.056067817
000320 57 f9 a1 3d 7b fc 8d bd 7c ee ae 3c c4 9f 77 bd
       0.07908886 -0.069329225 0.021353953 -0.0604551
000330 47 0c a6 3d e6 9e 8f bd ad 25 ae 3d dd 67 86 3d
       0.081078105 -0.07012729 0.0850328 0.06562779
000340 b6 6f 6c bd 58 12 7c bd 70 34 0c 3c d8 89 82 bd
       -0.057723723 -0.06154093 0.008557424 -0.06373948
000350 fd 6b a2 3d 3e 89 03 bd e4 d8 68 bd 13 fc af 3d
       0.079307534 -0.032113306 -0.056847468 0.08593001
000360 91 0f 48 bd a5 34 5d bd 3f 08 8c 3d b8 6e d1 bc
       -0.04884297 -0.054005284 0.0683751 -0.02556549
000370 54 4f bc 3c 21 4c 86 bd d0 3e 04 bd 38 c1 0b 3d
       0.022987045 -0.06557489 -0.032286465 0.034119815
000380 22 b6 62 3d f9 3f a2 3d 50 93 d4 3c e1 11 83 3d
       0.055349477 0.07922358 0.02594915 0.063998945
000390 a4 47 8e 3c 48 c4 7d 3c 10 99 6b bc a0 32 63 bd
       0.017368145 0.015488692 -0.014379755 -0.0554682
0003a0 05 c4 60 bd 80 13 83 3a 40 c4 08 3b 5d 02 80 3d
       -0.05487444 0.0010000318 0.0020868927 0.06250451
0003b0 d6 ed 5c bd 00 f1 72 bc 82 6e 60 3d 9e 2d 7e 3d
       -0.053937756 -0.014827967 0.05479289 0.062055223
0003c0 9c 7c e8 3c 00 f7 1c bd 88 34 08 bc 62 f1 b4 bd
       0.02837973 -0.038321495 -0.008313306 -0.088351026
0003d0 a9 6c 3c bd be 34 12 bd e2 da 30 3d 2c 7c dd 3c
       -0.046002064 -0.03569483 0.043177493 0.027036749
0003e0 12 c3 63 3d 2a 23 83 bd e0 eb 93 bb 72 b4 da bc
       0.055605955 -0.064031914 -0.0045142025 -0.026697371
0003f0 00 7b 8f bb f0 17 f6 bb 3a 31 88 bd b8 f8 25 bc
       -0.0043786764 -0.007510178 -0.06650014 -0.0101301

fc3.bias f4 [7]
000000 af b9 9d 3d cf c2 a8 3d 46 89 18 bd 20 df 56 3c
       0.07701432 0.08240282 -0.03724029 0.013114721
000010 ca 79 7f 3d 9e 2d 9a bd d1 eb 96 3d
       0.062372006 -0.07528232 0.07369197
