hackathon_toolkit/checkpoints_qlearn/agent_0_episode_4100.pth (torch, 78474 bytes, 6 tensors)

fc1.weight f4 [128, 11]
00000000: ea66 8e3d 6e45 ad3e e186 373e 7b77 5b3e
00000010: fcfd 503e 9671 803e c3e5 6cbc aa50 b3bd
00000020: ef4d 6d3e 0dff cebd 491f 673e 1c9e 423e
00000030: c3ad 513d 69ce 823d e122 14be 7e52 9a3e
00000040: e693 9d3d 4f23 60be c32e 2c3d 18d8 28bd
00000050: a37c c03e d9cd ebbd 22e4 44be 3bef dbbe
00000060: 7242 1ebe 3391 bd3e 86e5 2e3e dec3 39be
00000070: d876 b63e 046e debd 9f16 733e ff64 8cbe
00000080: 6bd9 f53c 5647 23bd 3a98 c93e 9938 bbbd
00000090: 013e 14be 7f0b ae3e 9066 4cbe c57f 64be
000000a0: 45de 803e a6e1 d5bd 51f3 19be a000 ecbd
000000b0: 0de0 e73e 9efb 6e3d 11d0 adbe 62de 413e
000000c0: 1faf 8e3d d21c e5bd c4ac 413d 06a2 453e
000000d0: fabe 563e 0f9c 0e3d 6823 423d 2457 69bd
000000e0: 2401 f33e 988d 253e 996d f1bd b6f2 fc3c
000000f0: 2162 26bd 63be eebd daa4 aa3d ad2a 2f3e
00000100: 7f24 acbe 6612 a33e e30a e03b 0058 693e
00000110: b601 2b3e 0889 b4bd b047 49be 77e4 5dbe
00000120: bfe1 b83c 03e8 14bd 73c3 04be df50 913e
00000130: 0bcc 5a3d da1a a8be a5a5 a93d 85c4 9b3e
00000140: 76db f0bd c015 863e 44b2 ad3e a6d9 8bbe
00000150: bc76 393e 949e 0f3d 98e4 c2be d7f1 3cbe
00000160: a9ef b3bd 8f76 e33d 49c7 22be beba 18be
00000170: 1816 233e 859a 0a3e 5db5 853d 3ec6 9f3e
00000180: fae7 d8bc 9bb0 7cbe 2247 e63e a1b8 d53e
00000190: a346 a23e b9f1 48bd f49d 5e3e 200d 9ebd
000001a0: 3229 9e3e 8ac6 933e 358b a2bc 2344 1d3d
000001b0: e219 c23e 17ed 0e3e 9a95 eabd 9a36 a7bd
000001c0: e879 8e3d f981 a5bd 3dce 873d 7183 23be
000001d0: e2d0 e8bd 2246 613e 3c1f 6abe 33cd 8f3d
000001e0: 71c7 6f3e 88e4 873e 2522 c03e 955c 0d3d
000001f0: 0a4e d03e 226b 4dbe 93c3 c23d bfcd fcbd
00000200: 5ef1 873d 5c45 a5bd 7569 25be 2d35 7e3e
00000210: 4607 ef3e 6ab1 37be 8c75 bd3d 5f31 f23d
00000220: d415 073e 4540 313e 68fe 923d 75ea 85be
00000230: c2c0 263e 8dfa 063e 5932 6b3e 2d7b 993e
00000240: 6cd6 04bd e8aa 023e 9b54 a8bc d865 433e
00000250: 3b0e e0bd f608 953e 6d86 ba3e b9f8 c73e
00000260: cd2b fb3e c1ab 323e d440 96be 09bc 003f
00000270: a0a0 f63d 87fe e2bc 1b57 64bd e412 09be
00000280: 8200 95bd e574 813e fdc7 933d 3a87 0fbe
00000290: 442f 453e e730 87bc 90d7 0f3e 30cc 233c
000002a0: 0b6f 1bbe e166 7c3e 9205 c2bd c004 923d
000002b0: 6cc6 533e 613f 0cbd 0555 1abe 0edf aebe
000002c0: 38cd 6c3e 1882 fd3d d1c9 42be c2d8 3cbe
000002d0: 4eeb 43be 4514 903e e8ae 283e 40ac d7bd
000002e0: 52e1 44bd 337a 013e 06af 2cbd f510 e13e
000002f0: 1e38 ddbd 876d d13d 4ac3 503d 7ac6 693d
00000300: 40e5 093d 5adc 3c3e e6fa f0bd 53e8 bc3e
00000310: 33c0 a63e f52a a0be 555c 26be 0806 473e
00000320: 805d 183d 65c9 c93d f4cf 8e3e b93e a73d
00000330: 6b64 8a3e 8866 c03d c00d 1d3e 9ca7 0f3e
00000340: 8bc0 bd3e 4c43 ffbd 7102 983e f379 093e
00000350: d645 3ebe ab62 473e 11b5 29bd f017 fa3d
00000360: ae8c 16be 1ae0 e4bd 03d8 a93e 3abd 4dbd
00000370: 7b43 00be 9ca0 2a3d dc3a 3dbe fc69 883e
00000380: 127e 50be 8281 8dbe 8232 c93e 1df5 6d3e
00000390: 2cd8 d5bd b752 2b3e 8972 543e 1926 e43e
000003a0: 43c9 43be cf97 ab3d 84ff 743e f2ae 3fbd
000003b0: b1ac ca3e 7e99 3ebe 814f 20bd 991a d43e
000003c0: 1f34 cc3e 879d a23e 4e6b aa3c 38ee b03d
000003d0: 9348 c7bd a971 803d cb8c 1fbe c7bb 773d
000003e0: 0d8a 8ebe b6a3 72bc 6414 6e3e 142e e13e
000003f0: 6670 56be 55ea 143c da05 bd3e 68dc f13d
0.06953223 0.33842033 0.17922546 0.21432297 0.20409387 0.2508666 -0.014459076 -0.0875562
0.2317426 -0.10107241 0.22570528 0.19005626 0.051191103 0.06387026 -0.1446643 0.30141062
0.07694225 -0.21888469 0.042036783 -0.041221708 0.3759509 -0.11513872 -0.19227651 -0.42955956
-0.15455034 0.3702484 0.17079744 -0.18141124 0.35637546 -0.108608276 0.23739098 -0.27420804
0.0300109 -0.039862953 0.39373952 -0.091416545 -0.14476778 0.33993146 -0.19961 -0.22314365
0.25169578 -0.1044343 -0.15034224 -0.11523557 0.45288125 0.05834543 -0.33947805 0.18932489
0.069669954 -0.11187138 0.047283903 0.19300088 0.2097129 0.034816798 0.047397047 -0.05696787
0.47461808 0.16167295 -0.11788482 0.030877452 -0.040620927 -0.11657407 0.08332224 0.17106123
-0.33621594 0.31849974 0.0068372353 0.22787476 0.16699871 -0.08815199 -0.19656253 -0.21669184
0.022568582 -0.036354076 -0.12965183 0.28382012 0.053417247 -0.32832986 0.08283547 0.3042337
-0.11760609 0.2618847 0.33925068 -0.2731449 0.181117 0.03506334 -0.38065028 -0.1845163
-0.08785946 0.11106598 -0.15896334 -0.14914986 0.15926397 0.13535507 0.06528733 0.31205934
-0.026477803 -0.24676745 0.44976145 0.41742423 0.31694517 -0.04905865 0.21739942 -0.07717347
0.30890805 0.2886241 -0.01984177 0.03839506 0.37910372 0.1395763 -0.114543155 -0.08164711
0.069568455 -0.08081431 0.06631134 -0.1596811 -0.11367966 0.2199941 -0.22863477 0.070215605
0.23415925 0.26541543 0.3752605 0.03451212 0.4068454 -0.20060399 0.09509959 -0.123439305
0.06637834 -0.0806987 -0.1615351 0.24824972 0.46685237 -0.17938772 0.09250936 0.11825823
0.1319192 0.17309673 0.071774304 -0.2615544 0.16284469 0.13181515 0.22968425 0.29976788
-0.03243105 0.12760508 -0.020548156 0.19081819 -0.10940214 0.291084 0.36430684 0.39056948
0.49056855 0.17448331 -0.29346335 0.5028692 0.120423555 -0.027709259 -0.055747133 -0.13386112
-0.072754875 0.25284496 0.07215879 -0.14016429 0.19256312 -0.01650281 0.14047074 0.009997413
-0.15179078 0.2464862 -0.09473719 0.07129812 0.2068116 -0.03424013 -0.15071495 -0.34154552
0.2312516 0.12378329 -0.190223 -0.18442062 -0.1913273 0.28140464 0.16472971 -0.10530901
-0.048066445 0.12644272 -0.042159103 0.4395825 -0.10801719 0.10225969 0.050967492 0.057074048
0.033665895 0.18443432 -0.11766605 0.36896 0.3256851 -0.31282774 -0.1624616 0.19435894
0.037198544 0.09852866 0.2789303 0.0816626 0.27029738 0.09394556 0.15337276 0.14028782
0.3706096 -0.12464008 0.29689363 0.13425426 -0.18581328 0.19471233 -0.041432444 0.12211597
-0.14702103 -0.111755565 0.33172616 -0.05022929 -0.12525742 0.041657075 -0.18479484 0.2664336
-0.20360592 -0.2763787 0.39296347 0.23238035 -0.10441622 0.16730772 0.20746817 0.44560316
-0.19119744 0.083785646 0.23925596 -0.0467977 0.39584878 -0.1861324 -0.03913832 0.41426542
0.39883515 0.3176081 0.02080312 0.086391866 -0.09730639 0.06271679 -0.15581052 0.060481813
-0.278397 -0.01480954 0.23249966 0.43980467 -0.20941314 0.009089072 0.36918527 0.11809617

fc1.bias f4 [128]
00000000: a24c 82be fa1b c7bd cf45 9dbe 6bee d0be
00000010: 69d6 c13d 0fc8 823e 675f 643b 5360 a7bd
00000020: dfce 8abe 27b2 9c3e fc6d 04be e7da 9d3e
00000030: 9211 483e 4141 953e 9de3 5abe 0366 ecbd
00000040: aa1a 9dbd 45f7 8b3d dd34 693c 521f ca3d
00000050: 825c 3abe 164c 123d b015 b9be 65e4 653e
00000060: 78e1 bf3e 011e 5f3e be69 94bd d233 27be
00000070: 68ac babe fcc0 18be db41 afbe d87a 0ebd
00000080: 6faf 82bd f328 9fbe 06ac 383e f629 abbe
00000090: 6164 82bd 53f4 be3e 49e5 96bd 63e5 16be
000000a0: 90f6 d5bd 1c13 73be 24e5 a5bd 8b03 2d3e
000000b0: de7c fdbc a595 5b3e a1e0 9ebd 30da 263d
000000c0: 5c15 963e de8b 04be e93c 1b3d 3d84 d53d
000000d0: 3e99 493e 84b3 68bc 0b41 ad3c 33a9 89be
000000e0: d684 d33d d2f0 89be c90a fbbc 7f32 dd3d
000000f0: e56d 2ebe c723 96be c7d8 d5bc d624 6f3c
00000100: ad60 52bd 4506 b4be 484c 4b3c 1489 a6be
00000110: 6eb2 a93e 2190 643d 897d 633d 7790 22be
00000120: c648 103e 2d0b b33c 76a1 dcbd 628a eb3b
00000130: 03e5 09bd 91a7 003e cff9 b5be 8f5b 45be
00000140: 4daa 6cbe 415b 19be e898 45be 12f1 653c
00000150: 112d 963d e3b1 97be 655f 333b ba4a c03d
00000160: 765d 7bbe bebd 0bbe dafe edbd 1c24 a3be
00000170: 9352 873c a411 0b3e 3d35 99be ccae a4bb
00000180: 4588 50bc f9c7 1f3e 8790 8dbe 580d 92be
00000190: 898b c03d 885f bcbd fcb9 ac3d 7fa1 b1bc
000001a0: 875d c13e 1803 57be fe81 6fbd 72cd dd3d
000001b0: 44df a0bc 4f3f 6c3e f290 a3bd a65b 4a3e
000001c0: e0a4 bebd a852 51bd 6de4 813e 1ce8 623e
000001d0: f43f b83c 8557 36be 138d 183d 13e9 15be
000001e0: 5ba3 cebd 6981 b93d 6268 663e 4b84 8f3e
000001f0: b628 e1be 4cec 8d3e 599a 7a3e 0000 82be
-0.2544909 -0.09722133 -0.30717322 -0.40806898 0.094647236 0.25543258 0.0034846903 -0.08172669
-0.27110955 0.3060467 -0.1293258 0.30831072 0.19537953 0.29151347 -0.2137589 -0.11542895
-0.076711014 0.06834272 0.014233795 0.09869255 -0.18199351 0.035717092 -0.3614936 0.22450407
0.37476707 0.2178879 -0.07246731 -0.16328362 -0.3645966 -0.14917368 -0.3422993 -0.03478512
-0.063811176 -0.3108593 0.18034372 -0.3343045 -0.06366802 0.3729578 -0.073679514 -0.14735942
-0.10447419 -0.23737758 -0.08100346 0.16895883 -0.03094333 0.21443804 -0.07757688 0.040735424
0.2931317 -0.1294398 0.037899885 0.10425613 0.19687364 -0.014202956 0.021149179 -0.268869
0.10328071 -0.26941544 -0.030644791 0.10800647 -0.17034109 -0.2932417 -0.026104344 0.014596185
-0.05136173 -0.35161033 0.012408324 -0.32526457 0.33143944 0.055801515 0.05553964 -0.15875421
0.14090261 0.021855915 -0.10772984 0.0071881274 -0.03366567 0.12563922 -0.3554215 -0.19273208
-0.2311184 -0.14976217 -0.1929661 0.014034526 0.073328145 -0.29627904 0.0027370092 0.09389253
-0.24547371 -0.136466 -0.11620875 -0.31863487 0.016518867 0.13580948 -0.2992343 -0.00502572
-0.012727802 0.15603627 -0.27649328 -0.28525805 0.09401614 -0.09197909 0.08433911 -0.021683453
0.37766668 -0.20997274 -0.05847358 0.10830201 -0.019637711 0.23071025 -0.079866305 0.19761524
-0.09308791 -0.051104218 0.25369588 0.22158855 0.022491433 -0.17806824 0.037243914 -0.14639692
-0.10089751 0.09057886 0.22500756 0.2803062 -0.43976372 0.27719343 0.24472941 -0.25390625

fc2.weight f4 [128, 128]
00000000: 462e e13a 15a2 6fbe 78f2 1c3e 7944 1b3d
00000010: 3d73 d0bd 0b35 8ebd ff7f 56bd 56f6 0f3e
00000020: cded f3bc d80e 95bc 3680 893a eda6 20bd
00000030: c84e 29be 0d36 7dbe d8c0 473d 4586 9f3d
00000040: 0478 f4bb 18f8 3fbd 954f b7bc c564 15bd
00000050: 1382 0fbd dab1 fcbd 1e2e 1dbd 64c5 113e
00000060: 7d72 5abe 4ec3 1bbe 53a1 173e 6fc5 b7bd
00000070: ce3b 1a3d b237 94bd 43f3 22bd ad53 ee3d
00000080: 085c adbd 3dee 48bd 4007 3dbe 9775 db3d
00000090: 2e5b 26be b102 4fbe efc7 fa3d f49f 053e
000000a0: ab04 42bd 68c6 10be c873 833c 9c32 34be
000000b0: 3212 e8bd 25fe 9cbd 7aee 8eba e4e9 873d
000000c0: 707e 5cbe dbc3 7dbc e11f 24be 778a a33d
000000d0: 1845 523e 331b aabd bc58 a53c 69c1 ce3c
000000e0: 7bcb f63b d978 a0bd 1e8b a1bd 2006 483c
000000f0: b378 663d fde9 53bb abea a1bc b4f9 303e
00000100: 498d 1a3d dbf0 f43b 7571 5abd b4c6 19bc
00000110: cfd0 dc3b d344 04be 4730 0bbe dc0e 81bc
00000120: ec8c 193d 2436 473c fdad 8c3c aa81 93bd
00000130: ff0c 3b3d 0221 6cbe 9402 49bd e15b 0e3e
00000140: b360 81bc d506 213e 3f33 a0bd e64f a0bd
00000150: 9c2a 523e 1ee4 013e 9519 a3bb 3949 823c
00000160: 9947 093e e101 783d 19b4 87bd 2e5e 5c3d
00000170: e76e e8bc beef 5a3b 8678 1fbe ad42 a13a
00000180: e3b6 383d 64a1 75bd a0bf 433e 7c0a 12be
00000190: 2f86 a83c bfd1 f9bb 517b 15bd d9dd 553d
000001a0: 06dd 0fbc 281d 3f3e 51a7 003e 3f1f 15be
000001b0: 9ba1 cabc 677d 443e 01bc 7ebd 2682 273e
000001c0: e3a8 81bc c68d aebd e467 cc3d 5cdf debd
000001d0: b2fb 1dbc 11df d3bc b82b 4bbe 89a0 d33c
000001e0: 1bc2 de3d 4ea4 95bb 6c5b ebbd 15ab bb3c
000001f0: 66e9 773d 2afc 21bd 694e 9b3d d831 483d
00000200: c853 dbbd 8b5c 453a 71c2 32bd f64c f0bc
00000210: 3e2d fc3c 266a 74bd ecf2 a93d 41c2 1dbe
00000220: 3a5a bab9 4782 b5bd 106b 6b3d 80e4 8ebd
00000230: 9d2e fe3b 2277 b13d 027d 723c 0f3d a0bc
00000240: e32c 313d 7876 47bd 5944 163d 7c4c 4b3d
00000250: 3e29 f93c e47c 873c a990 22bd 718b a5bd
00000260: 80bd 72bd 100c 15bc d038 b6bd 4d3d 83bc
00000270: 8ff0 40be 4439 1e3e c278 7bbd 5f1d 9cbd
00000280: d04e 7d3d 3d7f eebc b54b 373d b01c 80bd
00000290: ff50 013d a8ab a63c b480 aabd bd69 81bd
000002a0: 0963 4bbd 4437 273d fd64 9dbd 91a4 5fbd
000002b0: 96bf c1bc d52f a2bd 2a0d 453d 85d7 54be
000002c0: 7055 68bd ba68 52bd 297f 2c3d 71af 0cbd
000002d0: e452 b3bd 5666 a23d 83b3 1fbd 0baa 253c
000002e0: 52b6 6cbd 2ec0 bc3d d505 80bd 5fe8 993c
000002f0: 2361 863d 0289 e0bd 1669 48bc d52d 04be
00000300: a851 273d 1a0b 7e3b 35f1 9bbd 1d30 17be
00000310: 5faf 4fbc a573 51bc d9ef 6cbd a23a ec3c
00000320: e18b 813c bfc7 8d3d 9fbc 81bd 5d40 9ebc
00000330: f33e 963c d108 d73d b3d1 54bd 1c36 1cbe
00000340: f271 f5bc 6b90 18bd 86d6 bebd ee9b d93c
00000350: a383 98bd 07e5 0bbd 7473 c1ba 8041 36bd
00000360: b512 77bd 0ecc dbb9 621b 273d 0329 263d
00000370: cba3 4fbd 28b3 3b3d 0a89 793d f8e1 01bd
00000380: 9a39 e5bc f154 af3d bb98 1bbd b19a 9eb9
00000390: 4628 813d 731a 14bd 0329 1b3d 2223 863b
000003a0: 97ad aebd 59ac b4bd 2b4d 5dbe 2857 b3bd
000003b0: 90cb a8bd b7ee abbd 7c85 92bd ef4f 30be
000003c0: 2f53 05bd 5856 8dbd b421 c63c 55af ebbd
000003d0: 0cda 96bb 0e72 003d 24d9 a13d 75fa 373d
000003e0: 8748 3ebe 1951 9cba 5ddb 813c 4beb 6bbc
000003f0: b6e2 50bd 842f 013d 97f3 00be be19 83bd
0.0017179928 -0.23401673 0.1532687 0.037907097 -0.1017823 -0.06943711 -0.05236816 0.14058813
-0.029776478 -0.018195555 0.001049048 -0.039221693 -0.16533959 -0.2472765 0.048767895 0.07789282
-0.007460596 -0.04686746 -0.022376815 -0.036473054 -0.035036158 -0.1233861 -0.03837406 0.14235455
-0.21332736 -0.15211222 0.14807634 -0.08973204 0.03765469 -0.072371855 -0.039782774 0.11637054
-0.08464819 -0.049055327 -0.18459797 0.10715788 -0.1624572 -0.2021587 0.122451656 0.13049299
-0.047367733 -0.14138186 0.01604642 -0.17597431 -0.113315955 -0.07665662 -0.0010904812 0.06636408
-0.21532607 -0.01548859 -0.16027786 0.079853944 0.2053417 -0.08305969 0.020183913 0.02523871
0.007531581 -0.0783555 -0.078878626 0.012208492 0.05626745 -0.0032335513 -0.019765219 0.17282754
0.037732396 0.0074750013 -0.053330857 -0.009385753 0.006738759 -0.1291688 -0.13592635 -0.015754156
0.03748791 0.012158904 0.017172808 -0.07202466 0.04566669 -0.23059466 -0.049074724 0.13902237
-0.01579318 0.15725262 -0.078222744 -0.078277394 0.20524067 0.12684676 -0.004977415 0.015904056
0.13406219 0.060548667 -0.06626148 0.053800754 -0.028373195 0.0033407058 -0.1557332 0.0012303196
0.04509629 -0.059968367 0.19116068 -0.14261812 0.020571796 -0.0076238806 -0.036494557 0.052213524
-0.008780723 0.18663466 0.12563826 -0.145627 -0.024735263 0.19188462 -0.062191013 0.16358241
-0.015827602 -0.08523135 0.09980753 -0.10882446 -0.009642528 -0.025863202 -0.19840896 0.025833385
0.108768664 -0.004566706 -0.11492047 0.022908727 0.06052532 -0.039547123 0.07583315 0.04887566
-0.107093394 0.00075287436 -0.043642465 -0.029333573 0.030783292 -0.059671544 0.08298287 -0.15406133
-0.0003554391 -0.08862739 0.05747515 -0.06977177 0.0077570216 0.08665301 0.014800312 -0.019560365
0.043255698 -0.048696965 0.036686275 0.049633488 0.030415174 0.016539045 -0.03968874 -0.08083237
-0.059262753 -0.009097114 -0.08897555 -0.016020441 -0.18841766 0.15451533 -0.06139446 -0.076227896
0.06184274 -0.029113406 0.044749934 -0.06255472 0.031571385 0.020345524 -0.083253294 -0.06318996
-0.049654994 0.04082419 -0.076852776 -0.054600302 -0.023650926 -0.079192795 0.048108257 -0.20785339
-0.056722105 -0.051369406 0.042113457 -0.034347 -0.087560445 0.07929675 -0.038989555 0.010111342
-0.05779106 0.09216343 -0.06251112 0.018787561 0.06561496 -0.10963632 -0.012232086 -0.12908109
0.040849358 0.0038763941 -0.07614366 -0.14764448 -0.012676089 -0.012783919 -0.057845924 0.028836552
0.01581377 0.06922864 -0.06334805 -0.0193178 0.018340563 0.104997285 -0.051957797 -0.15255016
-0.02996156 -0.037247103 -0.09318261 0.02656361 -0.07446983 -0.034153964 -0.0014759139 -0.04449606
-0.060320575 -0.00041922968 0.0407976 0.040566456 -0.050693315 0.045825154 0.060921706 -0.03170964
-0.027981568 0.08561123 -0.037987452 -0.00030251362 0.0630651 -0.036158036 0.03788091 0.0040935436
-0.085292034 -0.08821935 -0.21611468 -0.08756858 -0.082419515 -0.083951406 -0.071543664 -0.17217992
-0.032550033 -0.069012344 0.024185993 -0.11508051 -0.00460363 0.03135877 0.079027444 0.04491659
-0.18582354 -0.0011926024 0.01585167 -0.01439936 -0.05099746 0.031539455 -0.12592922 -0.06401394

fc2.bias f4 [128]
00000000: 4d3c dcbd 824c 24be 3489 bd3c 7ef8 bfbd
00000010: 6425 023f 9ad8 83bd 6d8f 18bb c44a 33bd
00000020: 9851 97bd b087 8abd a475 c7bd 1929 0cbe
00000030: eb3d 83bd 8e64 debd 87cc 2fbe 7887 5dbd
00000040: bb12 753d 2fc1 86bd cd52 11be b870 cfbd
00000050: dc4a 5bbd b95e 64bd 7229 dabd 9178 da3c
00000060: cfac 93bd 4b5f eebd e11b a8bd 6762 bbbd
00000070: de49 043c 6e1b 0cbd 867d 933c 151f c5bd
00000080: 2543 3f3d 3b8d 83bd 03c5 3fbc 6637 b1bd
00000090: 5e59 933d 544d f63b 38a3 9fbd 6f72 79bc
000000a0: bb6b b4bd d356 52bd e3cf cb3b 165a 1bbd
000000b0: 5446 2fbe 9b14 acbb f5e8 52bc 809b 41bd
000000c0: 554d b4bd 24a0 e93e fdfa 723a c4b3 c9bd
000000d0: 8a64 64bc 93a9 a93d 13ca 05be f0c3 e3bb
000000e0: b113 15be 646b 05be b47f 91bc b3a1 f13c
000000f0: df41 863c a042 97bd 0ffe c8bd 7a21 373d
00000100: eba1 acbd cffd 9bbd 3b59 86bc 8214 b4bd
00000110: 1319 ae3e e9ca d7bd 371a 08be 29eb c3bd
00000120: 9dcb c23d d3fd 2ebe a867 f0bd d303 803e
00000130: 4ef8 513d 28b2 24bc f11e 463c 740b 8f3e
00000140: cef8 d0bd e1dd 24bd 084d 86bd 5bbd a03d
00000150: 0a18 4cbd 72f0 a8bc 5f98 283c 8ef9 25bd
00000160: a55b 053e 65a5 25bd c8fc 553d e415 113c
00000170: 458c aebc 8171 f13e 4c75 453d 1e11 c43a
00000180: 4f68 b2bc e413 373d b361 24bd 6ad2 c6bc
00000190: bb32 283d 8798 143d 4ba1 ea3c 67ad edbc
000001a0: f1cc 08bd c42a 01bd cc26 e2bc 2858 d03d
000001b0: b22b 54bd 4618 5bbd d9f1 a8bd 5f60 d9bd
000001c0: 61bc 72bd 534b cdbc 9dc3 2fbd f70f 56bd
000001d0: b03d 0f3c c8ec 44bd f0f7 cc3c 23b8 f23e
000001e0: 604c 00bd 2e13 d0bd c492 bebd 2255 573d
000001f0: 5bdb d5bc a216 5c3b a279 a7bd a96a 27bd
-0.10753689 -0.1604481 0.023136713 -0.09373568 0.50838304 -0.06437798 -0.0023278848 -0.043772474
-0.0738861 -0.067641616 -0.09739235 -0.13687553 -0.06408294 -0.10859023 -0.17167865 -0.05408427
0.059832316 -0.065798156 -0.14191742 -0.10128921 -0.05353819 -0.055754397 -0.10652436 0.026668819
-0.07210695 -0.116392694 -0.082084425 -0.09149628 0.008074252 -0.034205846 0.01800419 -0.09625069
0.046694893 -0.06423422 -0.011704686 -0.086531445 0.0719478 0.0075165424 -0.077948034 -0.015225037
-0.088096105 -0.051352333 0.0062198504 -0.03792771 -0.17116672 -0.00525148 -0.012872924 -0.047267437
-0.088038124 0.4562999 0.00092689676 -0.09848741 -0.013939986 0.08284297 -0.13065366 -0.006950848
-0.14558293 -0.13029248 -0.017761089 0.02949605 0.016388832 -0.073857546 -0.09814083 0.04470966
-0.08429321 -0.076167695 -0.01639997 -0.08792974 0.34003505 -0.10536749 -0.1329125 -0.095663376
0.095114924 -0.17089014 -0.11738521 0.25002918 0.051262192 -0.010052241 0.012092338 0.27938426
-0.10203706 -0.040250663 -0.06557661 0.07848617 -0.049827613 -0.020622466 0.010290234 -0.040521197
0.13023241 -0.040440936 0.052243024 0.008855317 -0.02130712 0.4715691 0.048207566 0.0014958715
-0.021778254 0.044696704 -0.040132236 -0.024270255 0.041064005 0.036278274 0.028641364 -0.029013349
-0.033398572 -0.031534925 -0.02760639 0.101730645 -0.051799484 -0.053489946 -0.08249254 -0.106140845
-0.059261683 -0.025060331 -0.04291116 -0.05226132 0.008742735 -0.048077375 0.02502057 0.4740611
-0.031322837 -0.10159908 -0.09305337 0.052571423 -0.026105573 0.0033582826 -0.081774965 -0.040873203

fc3.weight f4 [7, 128]
00000000: e23c 3abd 8bb9 d5bd 126d 8f3d 234a 3bbd
00000010: 9b8b 71be 1280 c73c d2d3 e6bc b413 373d
00000020: c9d4 8d3c 43f0 0ebe 1438 0dbd e357 2a3d
00000030: d78e 68be 8f55 23be ba99 4dbf cb4e fdbd
00000040: bc9b f83c 1f7a 853c 4301 79bd 8629 6ebc
00000050: 0a04 47bd e169 34be 3d56 81bb 12ff a1bd
00000060: afc5 4a3d 4316 a6bd 75da f9bd bc4c 7d3d
00000070: 7da2 863d ef4c 8f3d f51c 30c0 ba86 18be
00000080: 38f0 67bd d1d4 9fbd fd7c b73c 1588 04bf
00000090: ff1b e2bc 90b1 abbd 6219 92bd cfc0 15be
000000a0: b1e5 ccbc 43e1 49bf 48c0 2bbc 8ad7 b3bb
000000b0: ed66 f33b 523c 1dbe ee00 44bd 899e 203d
000000c0: 53e1 1fbe 1370 35c0 a02c d93b 9705 87bd
000000d0: df42 d7bc 690a b8bd 15a8 3e3d a8ad e9bc
000000e0: 0073 95bd a6b0 9e3c 18db 873c a418 07bd
000000f0: 68cc 293d cdad 98bd ea19 5b3d b96d 3f3c
00000100: 0b72 0fbe 4b59 2dbe feb9 51bd c070 08bb
00000110: 083c 5fc0 c4a1 43bd 8eb3 dc3c bbe5 fbbc
00000120: f444 88bd 3b22 863d 9154 2a3d 30b6 eb3b
00000130: d2e2 aebc ab90 473c b1f2 8ebd 69bc f7bd
00000140: adfe dabc 3283 fcbc 069d 64bc a51f 913d
00000150: dc86 eabd d41a 7f3d c573 23bd 5836 3f3d
00000160: 5725 13bd 740e fcbd e4fe 0c3d 64ce 50bd
00000170: aa5b 4e3d 089e 23c0 5c63 8bbd 94d8 6abd
00000180: 69f2 a53c a744 1cbe d7ee da3c d50b 1ebf
00000190: 5a96 4d3c 742e 9bbc 57cd f1bd ef99 1bbd
000001a0: b58c 98be 6c0e 76bf d554 ba3c 7acf 4bbd
000001b0: 1ea4 37be 6c22 90bc 4885 bdbd fb5c 0fbe
000001c0: 95b0 73bd b614 983c d220 11bd 182e 4c3d
000001d0: e0e4 6f3d 46a3 913d 9528 9d3d bf8c 85c0
000001e0: eff3 a4bd 7efa f63c c391 bbbc 9b8b 09bd
000001f0: 696f 64bc 5037 96bc 13e4 c0bd f08c 26bc
00000200: 2209 b9bd 7fc5 d23c 9e16 75bc 4b62 ed3c
00000210: d6ce cf3e 7dc1 583c eb92 4bbd 033f 0e3e
00000220: 5580 35be d41d 70bc 4aa3 7a3d cd25 5ebd
00000230: d918 0d3c e93a d2bc a89d 2aba 16e9 81bd
00000240: 782f 1dbd 3c94 983b ab39 94bc 756a 55bd
00000250: 22b0 0fbe ed3c 073b 2923 31bd 9ebb 81bd
00000260: 002b eb3d 4064 b73d d0e1 73bd a82c 873b
00000270: 0783 83bd a343 853c 0736 d13d 6986 bdbc
00000280: 5d39 333d d24d ca3d 5327 fdbb 2bb1 6bbe
00000290: 24e7 923b 8e7e a6bc 441b 413c 7406 3fbc
000002a0: ca5a 613b fd6b 8cbd 5432 d73d cfeb 223d
000002b0: 0985 9ebd dc85 8b3b 8741 793c 0e70 d03d
000002c0: 2f38 55bd 8f4f 483e 173d f3bc 6464 3ebd
000002d0: bd00 63bc eab5 873e 11e3 d83d cd4a 8f3d
000002e0: 78b1 ddbd 3e64 15bd 26ee 75bd 5d8c 29bd
000002f0: c3db d73c 2693 32bd e427 d03c 3bbe a03d
00000300: 4099 41bd 127e f4bd 3802 1abc e02f b63c
00000310: e80d 413e 47d7 a3bd f657 51be e3ee a5bc
00000320: bfc8 843e 8d4d e6bd fb33 0abc 9341 543e
00000330: c0d6 583e 2b82 5fbd edf7 a23d a977 873e
00000340: 7778 69bd b876 b4bd f62a 883b b477 253c
00000350: 6dbd 283d 52eb a8bc de4a 04bd 5bff c43d
00000360: 9151 f73d 6f7e 63bd c801 7e3d 8677 c2bc
00000370: bdff b7bc 949d 963e 94c9 943d cc45 053e
00000380: 7c3e 9f3c 4fd5 ef3c ceed db3c ad98 483e
00000390: baa6 4a3e 48ee 193c 7881 053b 7631 b73c
000003a0: 3e52 e5bd 10a9 96bc 4695 b2b9 a4ae 833e
000003b0: 4fa5 d2bd b13f 89bd cbe1 a4bb ed89 233e
000003c0: c7df 063d 7ad4 6ebc d80a d63c 642f 9bbd
000003d0: 1302 76bd 8899 13bd 4304 29bc 6c78 813e
000003e0: ab8d 243e d71d 8d3c 7347 82bd 37e4 99bc
000003f0: 7e7d e43a f017 f6bb 5d28 eebd 7bf1 edbd
-0.04546822 -0.1043578 0.070032254 -0.045725 -0.23588412 0.02435306 -0.028177176 0.044696525
0.017313378 -0.1395884 -0.03447731 0.04158772 -0.22710739 -0.15950607 -0.80312693 -0.12368544
0.030347697 0.016293583 -0.06079222 -0.014536267 -0.048587836 -0.17618515 -0.003947048 -0.07909979
0.049504932 -0.08109715 -0.121998705 0.061840758 0.06573961 0.06997096 -2.7517674 -0.14895144
-0.056625575 -0.078042634 0.022398466 -0.51770145 -0.02760124 -0.08383477 -0.07133748 -0.14624332
-0.02501187 -0.7885935 -0.010482855 -0.0054883407 0.007428041 -0.15355042 -0.04785245 0.03921369
-0.15613298 -2.8349655 0.006627634 -0.06592863 -0.026277004 -0.089863606 0.046547014 -0.028525189
-0.07297325 0.019371342 0.016583964 -0.032982484 0.041454703 -0.07455025 0.05349151 0.011683875
-0.14008348 -0.16928594 -0.051202767 -0.0020819157 -3.488039 -0.047761694 0.026941087 -0.030749192
-0.06653777 0.06549498 0.041584555 0.0071933493 -0.02134839 0.012180488 -0.069798835 -0.12096483
-0.026732767 -0.030824278 -0.013953453 0.07086114 -0.11451504 0.062281445 -0.03990533 0.046682686
-0.035924282 -0.12307444 0.03442277 -0.05097808 0.050380386 -2.5565205 -0.06806061 -0.05733545
0.020257192 -0.15260564 0.026725216 -0.61736804 0.012548054 -0.018943049 -0.118067436 -0.0379886
-0.2979485 -0.96115756 0.02274553 -0.049758412 -0.179337 -0.017594539 -0.09253937 -0.14000313
-0.059494574 0.018564563 -0.03543169 0.049848646 0.05856788 0.0711122 0.07673756 -4.173431
-0.08054339 0.03014874 -0.022896653 -0.033580404 -0.013942578 -0.018336922 -0.09418502 -0.010165438
-0.09034945 0.02572894 -0.014959006 0.028977534 0.4058749 0.013229725 -0.04970066 0.13891225
-0.17724736 -0.014655549 0.06119088 -0.05423527 0.008611881 -0.025662856 -0.0006508478 -0.06343286
-0.038375348 0.004656343 -0.018093904 -0.05210348 -0.14032033 0.002063568 -0.043246422 -0.06334613
0.11482811 0.08954668 -0.059541523 0.0041251965 -0.06421476 0.016267603 0.10215383 -0.02313538
0.043755878 0.09878124 -0.007725635 -0.23016803 0.0044831205 -0.020324018 0.011786286 -0.011659253
0.003438639 -0.06856535 0.10507646 0.039775666 -0.07740218 0.0042579006 0.015213377 0.10177623
-0.052055534 0.19561599 -0.029692216 -0.04648246 -0.0138551565 0.26505977 0.105901845 0.06996689
-0.10824865 -0.03647255 -0.06004157 -0.041393626 0.026349908 -0.043597363 0.025409646 0.078487836
-0.04726529 -0.119381085 -0.009399943 0.022239625 0.18852961 -0.08000045 -0.2044371 -0.020255512
0.25934407 -0.112452604 -0.008435245 0.2072814 0.2117567 -0.054567497 0.07957444 0.2645848
-0.05699965 -0.08811706 0.004155512 0.01009934 0.041196276 -0.020620022 -0.03229796 0.09619018
0.120761044 -0.0555405 0.062013417 -0.023738634 -0.022460813 0.29417098 0.072650105 0.13014907
0.019438975 0.029276518 0.026846793 0.19589491 0.19790164 0.00939519 0.002037136 0.022362452
-0.11197327 -0.018391162 -0.00034062023 0.25719178 -0.10285436 -0.06701601 -0.0050317994 0.15970583
0.032928254 -0.014577026 0.026128218 -0.075773984 -0.060060572 -0.03603509 -0.0103159575 0.25287187
0.16069667 0.017226143 -0.06361284 -0.01878558 0.0017432419 -0.007510178 -0.116287924 -0.11618324

fc3.bias f4 [7]
00000000: 2263 cdbd d09b d93e da26 c83e 7f13 763e
00000010: 0fdd 3c3f da6b 81be 8f86 a7bd
-0.10028674 0.42501688 0.3909214 0.24030875 0.7377481 -0.25277597 -0.08179962
