hackathon_toolkit/checkpoints_qlearn/agent_0_episode_2600.pth (torch, 78474 bytes, 6 tensors)

fc1.weight f4 [128, 11]
000000 aa ec 1c 3d 23 e2 95 3e 19 a4 4b 3e 4b 63 45 3e
       0.038311638 0.2927409 0.19886817 0.19276159
000010 48 4b 8f 3e be 0d 7b 3e f7 98 3c bd e5 df c6 bd
       0.27987123 0.24516961 -0.046044316 -0.09710673
000020 61 52 47 3e 98 7b 07 be 22 b9 36 3e 30 ef 53 3e
       0.19465019 -0.13230741 0.1784406 0.20696712
000030 88 d9 30 3d bd f5 60 3d 15 17 42 be b8 ac 5c 3e
       0.043176204 0.054921854 -0.18954118 0.21550262
000040 ce ce 12 3d 25 1e 7b be 07 d9 26 bc 2c a7 b3 bd
       0.035841756 -0.24523218 -0.010183579 -0.0877212
000050 79 2d c9 3e a7 44 fb bd a2 06 2b be b8 ec b2 be
       0.39292505 -0.12268954 -0.16701749 -0.34946227
000060 f4 93 4c be d8 9f b0 3e b0 74 06 3e 9d f0 53 be
       -0.19978315 0.3449695 0.1313045 -0.20697255
000070 57 53 b8 3e a5 57 10 be 7e 9a 90 3e a0 e8 7e be
       0.36001083 -0.14095934 0.28242868 -0.24893427
000080 d3 a7 e0 3d 9a 55 68 bd 25 43 ad 3e 93 15 78 bd
       0.1096951 -0.05672226 0.3384029 -0.06056745
000090 7c 13 09 be 46 34 c4 3e 34 f1 3b be 54 79 44 be
       -0.13386339 0.3832113 -0.1835373 -0.19186908
0000a0 16 1d 89 3e e3 e0 d5 bd 27 3a 2b be 76 aa 2e be
       0.26780003 -0.10443284 -0.16721402 -0.17057213
0000b0 3a c9 fd 3e 2f 13 73 3d 1f 3d 9f be 4a f4 51 3e
       0.49567586 0.059344467 -0.3110132 0.20503345
0000c0 a4 d9 49 3d 05 36 d9 bd 43 b5 53 3d b6 27 69 3e
       0.049279824 -0.106060065 0.051686537 0.22769055
0000d0 8b b2 51 3e 2f e5 9e 3d d0 52 4b 3d bc 51 58 bd
       0.20478265 0.07758557 0.049639523 -0.052812323
0000e0 02 c2 dc 3e 76 c7 60 3e a1 7f d7 bd ca 3d e5 3d
       0.43116766 0.21951088 -0.1052239 0.11193426
0000f0 ca c8 29 bc 57 41 ef bd 96 a9 db 3d 35 01 2d 3e
       -0.010362813 -0.116823845 0.10725705 0.16894992
000100 7b 06 aa be e9 51 8c 3e d4 b0 31 3d 7c 13 46 3e
       -0.3320807 0.27406242 0.043381527 0.1934337
000110 1c ca 30 3e 58 c0 78 bd 1f 6d 69 be 13 d5 54 be
       0.17264599 -0.06073031 -0.22795533 -0.20784406
000120 b2 48 ca 3c 22 8f b1 bc 61 97 f7 bd 21 06 a4 3e
       0.024692867 -0.021674696 -0.1208942 0.32035926
000130 83 07 92 3c dd 10 99 be fe 31 85 3d 30 9f 8f 3e
       0.017825847 -0.29895678 0.06503676 0.28051138
000140 fe 09 bd bd 87 6b 9a 3e 25 bb c6 3e 3e fb 5c be
       -0.092304215 0.30160162 0.38814655 -0.21580216
000150 45 31 5c 3e 0d 7f e2 3d a7 da b3 be 78 b1 4f be
       0.2150317 0.11059389 -0.35127756 -0.20282543
000160 63 05 a4 bd c6 cd 86 3d e0 c2 e3 bd 55 f6 12 be
       -0.0800884 0.06582217 -0.11121154 -0.1435178
000170 c4 1c 61 3e b1 72 21 3e 53 31 3d 3d 52 53 a3 3e
       0.2198363 0.15766408 0.046189617 0.31899506
000180 0d 42 10 bd f9 bd 74 be 32 9e cd 3e 2b ae c7 3e
       -0.03521924 -0.23900594 0.40159756 0.39000067
000190 9d 1a 92 3e 29 fc c1 bd 79 93 43 3e 4c 53 7b bd
       0.2853593 -0.09471924 0.19099225 -0.061358735
0001a0 69 f7 98 3e 24 d7 88 3e fe 60 dc bc 4a 66 3a bb
       0.2987626 0.2672664 -0.026901718 -0.0028442317
0001b0 cf 0e b4 3e f2 df de 3d 68 09 3d be 12 ac 85 bd
       0.35167548 0.10882558 -0.1846062 -0.065269604
0001c0 a1 af 02 3e d7 b8 23 3b 40 53 00 3e 52 3a 7e bd
       0.1276231 0.0024982 0.12531757 -0.062067337
0001d0 df 8f 9a bd 7c 8d 98 3e f3 5c 2b be 3b 25 ff 38
       -0.075469725 0.29795444 -0.16734676 0.00012166282
0001e0 57 ca 81 3e 08 97 81 3e 3b 67 b0 3e 30 99 0d 3d
       0.25349686 0.2531054 0.3445376 0.03456992
0001f0 5f 10 c4 3e 15 ea 1a be 84 a0 a0 3d 35 6d 1c be
       0.3829374 -0.15128358 0.07843116 -0.15276034
000200 86 a0 2d 3d 34 bc e6 bd 24 0e 32 be 49 e2 5d 3e
       0.042389415 -0.11266366 -0.17388207 0.21668352
000210 ac 7a 00 3f 0f c8 35 be 2b 08 f2 3d 31 d5 01 3e
       0.5018718 -0.17752098 0.11817964 0.12678982
000220 d7 06 e6 3d 7e 32 3b 3e bf 45 9d 3d fb 63 6f be
       0.11231773 0.1828098 0.07679319 -0.23377983
000230 ba 39 1b 3e 2e d3 2a 3e 4f bf 6e 3e a7 88 a1 3e
       0.1515874 0.16682121 0.23315166 0.3154957
000240 af 7e 43 bd 5d 95 f5 3d 92 6a 0b bd 61 20 13 3e
       -0.047728237 0.119913794 -0.03403718 0.1436782
000250 6f 83 f7 bd 19 e5 96 3e 01 08 b6 3e b9 a9 b1 3e
       -0.12085616 0.29471663 0.35552981 0.346998
000260 0f a3 01 3f 76 67 22 3e 2f 26 98 be 3c e3 e4 3e
       0.5063943 0.1585978 -0.29716632 0.44704616
000270 f1 d2 35 3e 92 c3 95 bc 3c 62 b1 3c b8 74 d7 bd
       0.17756249 -0.018281732 0.021653287 -0.10520309
000280 15 5c 96 bd 45 f3 8d 3e ed a2 8d 3d ab 56 13 be
       -0.07341782 0.27724662 0.06915841 -0.1438853
000290 d2 9a 0a 3e 51 d7 5b bd d7 1f 35 3e 24 7f fd bd
       0.13535622 -0.05367214 0.17687927 -0.12377766
0002a0 07 fa f2 bd 5a fe 80 3e a1 b3 63 bd 3d 09 01 3e
       -0.11864095 0.25194055 -0.05559123 0.1260118
0002b0 bf da 76 3e 5e 7e d3 3b 23 62 40 be 82 75 9c be
       0.24106883 0.006454273 -0.18787436 -0.305584
0002c0 6c 2b 59 3e e3 87 bb 3d ff e3 2b be 43 c5 3e be
       0.2120797 0.09156778 -0.16786192 -0.18629937
0002d0 b5 52 5a be 7d 9e 90 3e cf cf 6f 3e 3f c3 d2 bd
       -0.21320613 0.28245917 0.23419116 -0.102911465
0002e0 ac 3d 9c bd 4c d1 db 3d 0b dc 99 bd c3 97 ba 3e
       -0.076289505 0.107332796 -0.07512673 0.3644391
0002f0 74 ce 02 bd 4d f2 8a 3d f4 1b 3a bd 34 36 71 bd
       -0.03193517 0.067844965 -0.045436814 -0.058889583
000300 c2 d8 89 bd 35 72 21 3e 5c be 60 be a1 69 89 3e
       -0.067307964 0.15766223 -0.21947616 0.268384
000310 d2 4e 80 3e 35 a3 71 be 87 c3 47 be 48 52 08 3e
       0.25060135 -0.23597415 -0.19508182 0.13312638
000320 f3 fe 8d 3d 86 dd 9f 3d 9d fb b8 3e eb 3d a1 3d
       0.06933393 0.07805924 0.36129466 0.07873138
000330 1a df 78 3e 8c 78 b6 3d 07 37 f8 3d 69 71 dc 3d
       0.24303856 0.08909711 0.12119871 0.10763819
000340 d5 e6 9d 3e 03 95 cd bd 86 b3 90 3e b9 e9 e5 3d
       0.30840173 -0.10038187 0.28261966 0.1122622
000350 c2 97 30 be 00 bd 58 3e f8 8a cd bc d6 fb ac 3d
       -0.17245391 0.21165848 -0.02509068 0.084464714
000360 e1 95 11 be 3a ea c2 bd 86 42 b6 3e ec 51 88 bd
       -0.1421733 -0.095173314 0.35597628 -0.0665625
000370 d6 95 a2 bd 70 84 43 bb 96 f9 57 be 49 1c 72 3e
       -0.07938735 -0.0029833578 -0.21091303 0.23643602
000380 6a 7a 4c be e1 b1 9b be 30 b9 99 3e f6 8c 4a 3e
       -0.19968572 -0.30409148 0.300241 0.19780335
000390 45 24 04 be 49 4a 5a 3e ef 86 25 3e 6d 9e ce 3e
       -0.1290446 0.213174 0.16164754 0.40355244
0003a0 e0 af 56 be e3 8c 9a 3c 42 25 32 3e 61 63 c1 bd
       -0.20965528 0.018866008 0.17397025 -0.09442783
0003b0 d1 25 ac 3e e3 49 7a be 0b 54 ca bd c8 da a1 3e
       0.33622602 -0.24442248 -0.09879311 0.3161223
0003c0 23 b9 b6 3e eb be 98 3e 2b 0d 2c bd 88 f6 d0 3d
       0.35688123 0.2983316 -0.042004745 0.10203272
0003d0 3b fc fa bd 13 d1 90 bb 9d 2c 4e be 9f 97 84 bc
       -0.122551404 -0.004419455 -0.20134206 -0.01618558
0003e0 03 06 87 be a5 9d b3 bd 21 0b 26 3e 8b 0b c1 3e
       -0.26371774 -0.08770303 0.16215183 0.3770412
0003f0 db f5 45 be 4e 85 f4 3c 60 63 a5 3e f2 a8 75 3d
       -0.19332068 0.02984872 0.3230238 0.059975572

fc1.bias f4 [128]
000000 22 54 85 be 2c eb 12 be f2 58 a9 be 11 e2 c8 be
       -0.2604075 -0.14347523 -0.33075672 -0.39234975
000010 fc f3 e2 3d 86 22 92 3e 62 83 85 3d 97 ca 0e bd
       0.110816926 0.28541964 0.065192 -0.034861173
000020 a1 83 81 be 99 d8 93 3e ca 03 1a bd eb a6 95 3e
       -0.25295737 0.28876188 -0.03760127 0.2922891
000030 27 75 56 3e ae eb 8e 3e f4 f5 3d be 65 f3 99 bd
       0.20943128 0.27914184 -0.18550855 -0.07517127
000040 c6 8b 9d bd 72 b5 03 bd 62 ee 4c 3c 1e 20 e9 3d
       -0.07692675 -0.03215546 0.012508007 0.11383079
000050 70 41 59 be 6d b7 f9 bc 91 0d dd be 89 15 71 3e
       -0.21216369 -0.030482972 -0.43174413 0.23543371
000060 da 9e b8 3e ce 2f 34 3e 83 b1 98 ba 45 de 5a be
       0.36058694 0.17596361 -0.0011649582 -0.21373852
000070 f4 c7 b1 be 01 0c d9 bd 88 74 94 be d5 d8 3c bd
       -0.34722865 -0.10597993 -0.28995156 -0.046105225
000080 e1 95 e6 bc db 4a b2 be 12 78 05 3e 33 7f a0 be
       -0.02814764 -0.34822735 0.13034084 -0.31347045
000090 50 35 f2 bd 85 0b bb 3e 0d e9 95 bd 67 f0 1b be
       -0.11826575 0.36532226 -0.073198415 -0.15228425
0000a0 8e 01 04 be 04 ff a9 be 6c fd a2 bd 67 f5 f4 3d
       -0.12891218 -0.33202374 -0.07958493 0.11960869
0000b0 16 7d a3 bd 22 35 26 3e 5d 5b 4a bd f0 c4 ec 3c
       -0.079828426 0.16231206 -0.049403537 0.0289025
0000c0 cc af 4f 3e 1e 69 4d be e1 0b 02 3d e6 41 b8 3d
       0.20281905 -0.2005963 0.03174961 0.08996944
0000d0 95 93 51 3e 8b 97 a9 bc 9d 8d 53 bd fe 78 78 be
       0.20466454 -0.020702144 -0.051648725 -0.24264905
0000e0 fc 4b 0a 3e 84 f5 82 be 15 0e 9a bd 70 ba c6 3d
       0.13505548 -0.2557794 -0.07522217 0.09703529
0000f0 09 3b 54 be 37 53 b3 be dd 4a fe 3b bd 15 c6 3c
       -0.20725645 -0.35024425 0.0077603892 0.024180287
000100 40 91 31 bd 09 6b af be 79 b9 87 3d 36 64 9b be
       -0.04335141 -0.3426135 0.06627173 -0.30349892
000110 4b 43 91 3e 4e bc 40 3d b3 31 b9 bb 64 46 5b be
       0.28371653 0.04705458 -0.0056516766 -0.2141357
000120 d7 cc 28 3e cc b0 40 3d 35 40 84 bd 83 4e 70 bd
       0.1648439 0.047043607 -0.06457559 -0.058668625
000130 8a 5d 4d bd 8c 80 f6 3d 46 e6 ab be db 23 79 be
       -0.050138034 0.12036237 -0.33574122 -0.24330084
000140 73 2f 75 be 0a 7b 5a be e8 57 23 be b7 03 ce bc
       -0.23943882 -0.21335998 -0.15951502 -0.025148256
000150 dc 3d 84 3d f7 be 90 be 26 31 bd 3c c7 04 dc 3d
       0.06457111 -0.28270695 0.023094725 0.10743099
000160 f8 a8 8b be fb d2 84 bd b7 79 0b be f0 4a 91 be
       -0.2727735 -0.06485554 -0.1362065 -0.28377485
000170 08 b1 15 bb dd 46 05 3e a5 1b 81 be 7f 52 be bc
       -0.0022841115 0.13015313 -0.25216404 -0.023232697
000180 89 b6 9b bc d4 8d 4b 3e 15 09 94 be 6c 9f b9 be
       -0.019007938 0.19878322 -0.2891318 -0.36254442
000190 38 56 fe 3d 7f f2 de bd ed a2 bc 3d 5c 25 8a bd
       0.12418789 -0.10886096 0.09210763 -0.06745407
0001a0 f1 30 b9 3e b3 6b 8a be bc 18 85 bd b9 87 ad 3d
       0.36170152 -0.27035293 -0.06498858 0.08473153
0001b0 cd cf 05 3d 2f 85 86 3e 3d 3e 18 bd 06 92 35 3e
       0.032668877 0.26273486 -0.03716873 0.17731485
0001c0 8e 11 9d bd 40 92 d3 3b 96 d7 8d 3e c1 e8 28 3e
       -0.07669364 0.0064566433 0.27703542 0.16495039
0001d0 76 45 06 3b 83 50 5b be ef 6f 8a 3b c1 67 12 be
       0.002048818 -0.21417432 0.0042247693 -0.14297391
0001e0 a4 73 4f bd c8 1f 04 3e fd de 37 3e 07 80 76 3e
       -0.050647393 0.12902749 0.17956157 0.24072276
0001f0 9c cc e3 be 8b 28 94 3e 0e 33 75 3e 81 74 a0 be
       -0.44492042 0.28937182 0.23945257 -0.31338885

fc2.weight f4 [128, 128]
000000 82 64 2b bb 24 9d 08 be 23 74 0b 3e ef 69 b1 bc
       -0.0026152437 -0.13341194 0.13618521 -0.021656958
000010 8d 7d 49 bd 82 e4 8d bd ff 7f 56 bd 96 75 e6 3d
       -0.049192 -0.0692835 -0.05236816 0.112528965
000020 34 f6 8f bd 6d 9b 73 bb fc bf 0c bd 3d 17 93 bd
       -0.070293814 -0.0037171498 -0.034362778 -0.07182167
000030 ed 1e fb bd d3 10 4a be 7e 2c 33 3d 18 89 8c 3d
       -0.12261758 -0.1973298 0.043743603 0.06862086
000040 48 10 95 bc b6 8f 6b 3d eb 59 75 bd c5 64 15 bd
       -0.01819624 0.0575101 -0.059900206 -0.036473054
000050 98 47 7a bd 44 6b 8d bd c7 e5 92 3c 1a 50 00 3e
       -0.061103433 -0.06905225 0.017931832 0.12530556
000060 72 fc 44 be 46 de d8 bd a9 3b e4 3d 77 3c 1b bd
       -0.19236925 -0.1058927 0.11144192 -0.03789946
000070 b7 7f ca 3b 04 3f a9 bd 9f 00 92 bd 1a 6c f5 3d
       0.0061797756 -0.082639724 -0.07129025 0.11983509
000080 d1 c0 b4 bd dc 9f 07 3c aa 78 0f be d1 f6 1d 3d
       -0.08825839 0.00827786 -0.14010873 0.03856546
000090 73 4d 8b bd 2a af 18 be d6 5f 0e 3e d1 c5 b4 3d
       -0.06801882 -0.1491057 0.13903746 0.08826793
0000a0 09 72 9a bd 3e 0f 1f bd c2 3d d3 3c 6f be 00 be
       -0.07541282 -0.038832895 0.025786284 -0.12572645
0000b0 3c a2 7c bd 42 b4 ef bc ff 69 e6 bb 05 46 b5 3d
       -0.061678156 -0.029260758 -0.0070316787 0.08851246
0000c0 6b 2c e2 bd ff 23 4b b9 91 6e 21 be 01 06 2e 3d
       -0.11043628 -0.00019372998 -0.15764834 0.042486195
0000d0 85 ee 6b 3e 42 8b 96 bc f2 7d 11 3d 3c e2 97 3c
       0.23040207 -0.01837695 0.0355205 0.018540494
0000e0 65 0f e7 ba 32 ca 64 bd e3 6e dc bc 02 a0 e4 bc
       -0.0017628489 -0.05585689 -0.026908344 -0.027908329
0000f0 9d 8a e4 3c 08 4a e2 ba ab 70 8c bc c8 c2 21 3e
       0.027898127 -0.0017264495 -0.017143568 0.1579696
000100 2b 87 1a 3d 36 b2 8b 3c 25 04 09 bd 56 1e f8 ba
       0.037726562 0.017052751 -0.03345122 -0.0018929939
000110 14 8f a0 bd c0 5a e8 bd 9c d3 a3 bd 5a 47 9a 3d
       -0.0783979 -0.11345434 -0.07999346 0.075331405
000120 0f b8 f7 bb 7c 5d 9d 3c eb 13 a8 ba dd b7 44 bc
       -0.0075597833 0.019209616 -0.0012823319 -0.012006727
000130 c1 9c 7f 3c c6 b9 32 be 2c 5a 42 bd a3 23 18 3e
       0.015601338 -0.1745368 -0.047449276 0.14857344
000140 a2 f0 6a bd 82 c1 32 3e 9c 98 a4 bd 93 9e 67 bd
       -0.05735839 0.1745663 -0.080369204 -0.056547713
000150 d1 81 e9 3d b0 54 10 3e cf 8d 96 bb 2c 56 ec 3c
       0.11401714 0.14094806 -0.0045945416 0.028849684
000160 fd ef 1a 3d 87 c7 a9 3d cf f0 6b bd 13 ff 47 3d
       0.037826527 0.0829001 -0.0576027 0.048827242
000170 ea 48 0e 3d 03 10 5b 3b 53 d1 1f be b7 c8 f1 bc
       0.034737505 0.0033426292 -0.15607195 -0.029514654
000180 fe ec 6a 3d 28 f9 80 bd 0f 9e 57 3e 9d 60 38 bd
       0.05735492 -0.06297523 0.21056388 -0.045014013
000190 43 ff 87 3c ee 9f 39 bd f9 84 5e bd f2 a9 16 3d
       0.01660121 -0.045318536 -0.05432603 0.036783166
0001a0 18 d3 3b bd 62 27 01 3e 7e 15 0e 3e eb 61 ef bd
       -0.04585561 0.1261268 0.13875386 -0.11688598
0001b0 b4 7c 76 bc 6e cf 31 3e c9 af e8 bc 44 6b 1d 3e
       -0.01504438 0.17364284 -0.028404133 0.1537295
0001c0 e3 a8 81 bc 76 c8 a7 bd 28 bf 75 3d a8 64 62 bd
       -0.015827602 -0.08192532 0.059996754 -0.055271775
0001d0 7e 6c 2f bb e9 fc d2 b9 a8 b5 15 be c5 22 a2 bb
       -0.0026767547 -0.00040242754 -0.14620078 -0.0049479925
0001e0 8b 9e 83 3d ba e8 12 bd 0b 9b 75 bd d3 d8 1b 3a
       0.06426724 -0.035866477 -0.059962314 0.000594509
0001f0 ff b6 79 3a 69 fd ab bc 47 26 1d 3d 91 09 83 3d
       0.0009525865 -0.020994859 0.038366582 0.06398309
000200 33 dc a6 bd 34 27 88 bb 71 c2 32 bd e7 54 f0 bc
       -0.081474684 -0.004155064 -0.043642465 -0.02933736
000210 7b 0e 02 3d 0e be 80 bd 34 be cb 3d a9 d0 1d be
       0.03175209 -0.0628625 0.09948388 -0.15411629
000220 77 2b 2d bb c5 d4 95 bd 82 5b 63 3d c5 d6 36 bd
       -0.0026423612 -0.07315973 0.05550719 -0.044638414
000230 c4 93 f3 3a 7b 91 a0 3d 44 50 4c 3c 0f 3d a0 bc
       0.0018583466 0.07840248 0.012470309 -0.019560365
000240 62 9b 17 3d 08 ea 42 bd 37 30 83 3d f9 ad 93 3d
       0.03701342 -0.04758647 0.064056806 0.07210917
000250 7d 46 60 3d 82 ae 0f 3c 31 f4 2a bd 99 92 68 bd
       0.054754723 0.008769633 -0.041736785 -0.05678043
000260 4c 62 4f bd 85 f4 17 3c 5c 46 b6 bd c4 ae b7 bc
       -0.050630853 0.009274607 -0.08900139 -0.022422202
000270 95 a0 2a be af 94 1b 3e 38 3c 58 bd 5f 1d 9c bd
       -0.1666282 0.15193437 -0.052791804 -0.076227896
000280 f5 96 6e 3d 4e 95 cb bc b7 57 6f 3d 4b 2e 0c bd
       0.058249433 -0.024851467 0.05843326 -0.034223836
000290 5b 35 ce 3c f9 7d 33 3c dd 21 53 bd f0 39 84 bd
       0.025171926 0.010955327 -0.051545966 -0.06456363
0002a0 1a 78 bd bc 5c 0e 4c 3d f2 11 39 bd ba 3d 30 bd
       -0.023128558 0.04981838 -0.04518313 -0.043027617
0002b0 22 5e 20 bc a8 4a 90 bd 60 77 32 3d ce 65 38 be
       -0.009788068 -0.070454895 0.043570876 -0.18007585
0002c0 33 54 72 bd 29 56 52 bd 7d b6 29 3d 0d 80 0a bc
       -0.05916233 -0.0513517 0.0414338 -0.008453381
0002d0 b3 93 64 bd 58 17 95 3d 83 b3 1f bd 1c b3 f9 3b
       -0.05580492 0.07279843 -0.038989555 0.0076202285
0002e0 41 83 7c bd 0f d4 b8 3d 66 3b 8a bd 0b e0 36 3d
       -0.06164861 0.09024822 -0.067496106 0.044647258
0002f0 d8 ce b9 3d 02 89 e0 bd 44 a2 6d bc 9c 46 04 be
       0.090726554 -0.10963632 -0.014504019 -0.1291756
000300 02 0c 79 3d c6 77 e8 b9 48 5f 9a bd a9 63 ed bd
       0.060802467 -0.00044339726 -0.07537705 -0.11591274
000310 5f af 4f bc 7a 01 b1 3b 90 2c 72 bd 4b d9 62 3d
       -0.012676089 0.0054017873 -0.05912453 0.055383008
000320 a9 37 81 3c 17 f2 1e 3d 25 ce 81 bd ab 36 9d bc
       0.015773611 0.038805094 -0.06338147 -0.019191107
000330 65 01 35 3d f4 a6 ca 3d 4c 64 d7 bc 1c 36 1c be
       0.044190783 0.09895125 -0.026292942 -0.15255016
000340 cb 26 fe bc 1c 90 18 bd 04 a8 c4 bd fd 3b 5a 3d
       -0.031024357 -0.03724681 -0.09602359 0.053279866
000350 36 98 98 bd a0 a7 1f bb 45 75 2d 3c b8 1c 51 bc
       -0.07450907 -0.0024361387 0.010587041 -0.012763195
000360 0c 39 77 bd 67 61 c6 3c fe 86 89 3d a4 59 1a 3d
       -0.06035714 0.024216367 0.06715201 0.037683144
000370 17 c8 66 bd f2 52 83 3d 47 8e 71 3d 66 c4 c2 bb
       -0.056343164 0.06412305 0.058973577 -0.0059438227
000380 e2 c0 04 bd 29 d6 ab 3d 3a c6 cc bb ff d3 00 3d
       -0.03241051 0.08390457 -0.0062492164 0.031452175
000390 fe d6 74 3d d5 c4 21 bc cd 61 07 3d 93 28 ef 3c
       0.059775345 -0.009873589 0.033052254 0.029194152
0003a0 5c 03 76 bd f5 be b4 bd eb 06 3d be 70 8a b0 bd
       -0.060061797 -0.08825485 -0.1845967 -0.08620155
0003b0 9b fb b5 bd a3 0f ac bd a0 31 23 bd a9 cf 30 be
       -0.088858806 -0.0840142 -0.039842248 -0.17266716
0003c0 ea 17 10 bd 35 62 87 bd ca 7c 99 3c e1 dc d3 bd
       -0.035179056 -0.066105284 0.018736262 -0.10344864
0003d0 75 0a b0 3c 3d f4 57 3d cb a0 91 3d 5c 1f 89 3d
       0.021489361 0.05272316 0.07110747 0.066954345
0003e0 17 4f 3e be ef 82 0b bc 8c 40 ba 3c 25 81 0c 3c
       -0.18584858 -0.008515104 0.022735856 0.008575712
0003f0 0c 53 7d bd 6d a7 d6 3c 89 b1 cb bd 2a 16 83 bd
       -0.061846778 0.026202882 -0.099459715 -0.06400712

fc2.bias f4 [128]
000000 38 33 b6 bd eb 88 0a be 34 89 bd 3c 7e f8 bf bd
       -0.08896488 -0.13528793 0.023136713 -0.09373568
000010 25 88 cd 3e 9a d8 83 bd ec 01 3a 3c a4 ce 98 bd
       0.40142933 -0.06437798 0.011352997 -0.074612886
000020 2f 40 b8 bd 58 82 14 bd a4 75 c7 bd 06 69 d1 bd
       -0.08996617 -0.036257118 -0.09739235 -0.1022511
000030 eb 3d 83 bd d8 ca aa bd 9f d4 b0 bd 78 87 5d bd
       -0.06408294 -0.083394706 -0.08634304 -0.05408427
000040 bb 12 75 3d 2f c1 86 bd a6 b0 e1 bd bf e9 a0 bd
       0.059832316 -0.065798156 -0.11020021 -0.078570835
000050 ac f6 15 bd b9 5e 64 bd 72 29 da bd 91 78 da 3c
       -0.036612198 -0.055754397 -0.10652436 0.026668819
000060 a5 8c 81 bd 4b 5f ee bd 8c e8 ac bd 67 62 bb bd
       -0.06325654 -0.116392694 -0.08442792 -0.09149628
000070 de 49 04 3c 6e 1b 0c bd a1 0e 14 3d 08 80 f0 bd
       0.008074252 -0.034205846 0.036146764 -0.1174317
000080 25 43 3f 3d 2d c9 a5 bc 03 c5 3f bc b0 3e 0d bd
       0.046694893 -0.02023753 -0.011704686 -0.03448361
000090 d1 3d e5 38 54 4d f6 3b 33 1a 8c bd 70 65 67 bc
       0.00010931085 0.0075165424 -0.068409346 -0.014123306
0000a0 81 a5 b0 bd ff 51 73 bc 2c 61 8b bd 16 5a 1b bd
       -0.08625317 -0.014851092 -0.068056434 -0.03792771
0000b0 a4 07 00 be 9b 14 ac bb f5 e8 52 bc 66 c1 8a bd
       -0.12502915 -0.00525148 -0.012872924 -0.06775169
0000c0 55 4d b4 bd d7 80 c7 3e fd fa 72 3a 63 d3 b4 bd
       -0.088038124 0.38965484 0.00092689676 -0.08829381
0000d0 46 4b a6 bb 21 cb 17 3c 13 ca 05 be f0 c3 e3 bb
       -0.0050748913 0.009264738 -0.13065366 -0.006950848
0000e0 1c a0 0a be 64 6b 05 be b4 7f 91 bc b3 a1 f1 3c
       -0.1353764 -0.13029248 -0.017761089 0.02949605
0000f0 df 41 86 3c 90 04 c0 bd 0f fe c8 bd f0 a6 d6 3c
       0.016388832 -0.0937587 -0.09814083 0.026202649
000100 2f 80 1e bd ae 80 bd bd 3b 59 86 bc 82 14 b4 bd
       -0.038696464 -0.09253059 -0.01639997 -0.08792974
000110 5d 77 85 3e b4 3a b7 bd 0e ec aa bd 29 eb c3 bd
       0.2606763 -0.089467436 -0.08345805 -0.095663376
000120 aa 0e 3d 3d 20 0b 05 be e9 0f cf bd 02 b6 30 3e
       0.046156563 -0.12992525 -0.101104565 0.1725693
000130 f3 3e 02 3b 28 b2 24 bc 7b 4c 0f bc a8 62 4e 3e
       0.0019873946 -0.010052241 -0.008746262 0.20154822
000140 ce f8 d0 bd 26 5d 85 bd 08 4d 86 bd 5d 72 48 3c
       -0.10203706 -0.06511907 -0.06557661 0.012234298
000150 0a 18 4c bd f4 c6 2b bd 5f 98 28 3c 8e f9 25 bd
       -0.049827613 -0.041937783 0.010290234 -0.040521197
000160 e2 03 d9 3d 65 a5 25 bd c8 fc 55 3d 0f 97 4f bc
       0.10596444 -0.040440936 0.052243024 -0.0126702925
000170 45 8c ae bc 2d c7 c6 3e 7d 39 a7 bc 93 09 d7 bc
       -0.02130712 0.38823834 -0.020413155 -0.026249683
000180 4f 68 b2 bc e4 13 37 3d b3 61 24 bd 8f fc 67 bd
       -0.021778254 0.044696704 -0.040132236 -0.056637343
000190 e4 24 cd 3b 87 98 14 3d 11 da 29 bd 20 22 83 3d
       0.006260501 0.036278274 -0.04146773 0.06402993
0001a0 2e 7f 04 3d a6 3d ab bc cc 26 e2 bc a8 d8 6c 3d
       0.03234785 -0.02090342 -0.02760639 0.057823807
0001b0 63 68 51 3c 39 60 fe bc d9 f1 a8 bd 3e 4a 15 be
       0.012781235 -0.031051742 -0.08249254 -0.14579102
0001c0 61 bc 72 bd 53 4b cd bc ab 9c 82 bd f7 0f 56 bd
       -0.059261683 -0.025060331 -0.06377538 -0.05226132
0001d0 b0 3d 0f 3c c8 ec 44 bd f0 f7 cc 3c 19 65 b9 3e
       0.008742735 -0.048077375 0.02502057 0.36209944
0001e0 00 fc 58 bd 2e 13 d0 bd fa 6b 60 bd 3f ed b5 bb
       -0.0529747 -0.10159908 -0.054790474 -0.0055519636
0001f0 5b db d5 bc a2 16 5c 3b ce e9 82 bd 34 33 60 3b
       -0.026105573 0.0033582826 -0.06392251 0.0034210207

fc3.weight f4 [7, 128]
000000 e2 3c 3a bd 8b b9 d5 bd 12 6d 8f 3d 23 4a 3b bd
       -0.04546822 -0.1043578 0.070032254 -0.045725
000010 9b 8b 71 be 12 80 c7 3c d2 d3 e6 bc b4 13 37 3d
       -0.23588412 0.02435306 -0.028177176 0.044696525
000020 c9 d4 8d 3c 43 f0 0e be 14 38 0d bd e3 57 2a 3d
       0.017313378 -0.1395884 -0.03447731 0.04158772
000030 d7 8e 68 be 8f 55 23 be ba 99 4d bf cb 4e fd bd
       -0.22710739 -0.15950607 -0.80312693 -0.12368544
000040 bc 9b f8 3c 1f 7a 85 3c 43 01 79 bd 86 29 6e bc
       0.030347697 0.016293583 -0.06079222 -0.014536267
000050 0a 04 47 bd e1 69 34 be 3d 56 81 bb 12 ff a1 bd
       -0.048587836 -0.17618515 -0.003947048 -0.07909979
000060 af c5 4a 3d 43 16 a6 bd 75 da f9 bd bc 4c 7d 3d
       0.049504932 -0.08109715 -0.121998705 0.061840758
000070 7d a2 86 3d ef 4c 8f 3d f5 1c 30 c0 ba 86 18 be
       0.06573961 0.06997096 -2.7517674 -0.14895144
000080 38 f0 67 bd d1 d4 9f bd fd 7c b7 3c 15 88 04 bf
       -0.056625575 -0.078042634 0.022398466 -0.51770145
000090 ff 1b e2 bc 90 b1 ab bd 62 19 92 bd cf c0 15 be
       -0.02760124 -0.08383477 -0.07133748 -0.14624332
0000a0 b1 e5 cc bc 43 e1 49 bf 48 c0 2b bc 8a d7 b3 bb
       -0.02501187 -0.7885935 -0.010482855 -0.0054883407
0000b0 ed 66 f3 3b 52 3c 1d be ee 00 44 bd 89 9e 20 3d
       0.007428041 -0.15355042 -0.04785245 0.03921369
0000c0 53 e1 1f be 13 70 35 c0 a0 2c d9 3b 97 05 87 bd
       -0.15613298 -2.8349655 0.006627634 -0.06592863
0000d0 df 42 d7 bc 69 0a b8 bd 15 a8 3e 3d a8 ad e9 bc
       -0.026277004 -0.089863606 0.046547014 -0.028525189
0000e0 00 73 95 bd a6 b0 9e 3c 18 db 87 3c a4 18 07 bd
       -0.07297325 0.019371342 0.016583964 -0.032982484
0000f0 68 cc 29 3d cd ad 98 bd ea 19 5b 3d b9 6d 3f 3c
       0.041454703 -0.07455025 0.05349151 0.011683875
000100 0b 72 0f be 4b 59 2d be fe b9 51 bd c0 70 08 bb
       -0.14008348 -0.16928594 -0.051202767 -0.0020819157
000110 08 3c 5f c0 c4 a1 43 bd 8e b3 dc 3c bb e5 fb bc
       -3.488039 -0.047761694 0.026941087 -0.030749192
000120 f4 44 88 bd 3b 22 86 3d 91 54 2a 3d 30 b6 eb 3b
       -0.06653777 0.06549498 0.041584555 0.0071933493
000130 d2 e2 ae bc ab 90 47 3c b1 f2 8e bd 69 bc f7 bd
       -0.02134839 0.012180488 -0.069798835 -0.12096483
000140 ad fe da bc 32 83 fc bc 06 9d 64 bc a5 1f 91 3d
       -0.026732767 -0.030824278 -0.013953453 0.07086114
000150 dc 86 ea bd d4 1a 7f 3d c5 73 23 bd 58 36 3f 3d
       -0.11451504 0.062281445 -0.03990533 0.046682686
000160 57 25 13 bd 74 0e fc bd e4 fe 0c 3d 64 ce 50 bd
       -0.035924282 -0.12307444 0.03442277 -0.05097808
000170 aa 5b 4e 3d 08 9e 23 c0 5c 63 8b bd 94 d8 6a bd
       0.050380386 -2.5565205 -0.06806061 -0.05733545
000180 69 f2 a5 3c a7 44 1c be d7 ee da 3c d5 0b 1e bf
       0.020257192 -0.15260564 0.026725216 -0.61736804
000190 5a 96 4d 3c 74 2e 9b bc 57 cd f1 bd ef 99 1b bd
       0.012548054 -0.018943049 -0.118067436 -0.0379886
0001a0 b5 8c 98 be 6c 0e 76 bf d5 54 ba 3c 7a cf 4b bd
       -0.2979485 -0.96115756 0.02274553 -0.049758412
0001b0 1e a4 37 be 6c 22 90 bc 48 85 bd bd fb 5c 0f be
       -0.179337 -0.017594539 -0.09253937 -0.14000313
0001c0 95 b0 73 bd b6 14 98 3c d2 20 11 bd 18 2e 4c 3d
       -0.059494574 0.018564563 -0.03543169 0.049848646
0001d0 e0 e4 6f 3d 46 a3 91 3d 95 28 9d 3d bf 8c 85 c0
       0.05856788 0.0711122 0.07673756 -4.173431
0001e0 ef f3 a4 bd 7e fa f6 3c c3 91 bb bc 9b 8b 09 bd
       -0.08054339 0.03014874 -0.022896653 -0.033580404
0001f0 69 6f 64 bc 50 37 96 bc 13 e4 c0 bd f0 8c 26 bc
       -0.013942578 -0.018336922 -0.09418502 -0.010165438
000200 0e f2 d3 bd 18 71 3e 3b 9e 16 75 bc 4b 62 ed 3c
       -0.10348903 0.0029059108 -0.014959006 0.028977534
000210 e4 b2 a2 3e 7d c1 58 3c 2f 33 38 bc b8 68 e5 3d
       0.31777108 0.013229725 -0.011242672 0.11201614
000220 93 61 42 be 6c 17 8c 3c 4a a3 7a 3d be 93 71 bc
       -0.18982534 0.017101012 0.06119088 -0.014744697
000230 d9 18 0d 3c 79 34 12 bd db 77 27 3b 16 e9 81 bd
       0.008611881 -0.035694573 0.0025553617 -0.06343286
000240 78 2f 1d bd 3c 94 98 3b 60 bf 46 bd 79 2a 2f bd
       -0.038375348 0.004656343 -0.048522353 -0.042765114
000250 ef e5 8b bd ed 3c 07 3b 29 23 31 bd 9e bb 81 bd
       -0.06830966 0.002063568 -0.043246422 -0.06334613
000260 14 4f de 3d 40 64 b7 3d a0 6d 95 bd a8 2c 87 3b
       0.10854927 0.08954668 -0.072963 0.0041251965
000270 07 83 83 bd a3 43 85 3c 6e ad b6 3d 27 fa 84 bd
       -0.06421476 0.016267603 0.08919798 -0.06493025
000280 5d 39 33 3d d9 d4 8d 3d 53 27 fd bb 19 a9 71 be
       0.043755878 0.06925363 -0.007725635 -0.23599662
000290 bc b0 1b bc 8e 7e a6 bc 40 44 39 3d c8 42 0a bc
       -0.009502586 -0.020324018 0.045231104 -0.008438773
0002a0 90 e0 e4 bc 01 e4 98 bd c7 c1 4a 3d cf eb 22 3d
       -0.027939111 -0.07465363 0.049501207 0.039775666
0002b0 31 7f 23 bd dc 85 8b 3b 87 41 79 3c 31 d7 f0 3d
       -0.03991622 0.0042579006 0.015213377 0.117597945
0002c0 2f 38 55 bd 0b 48 d2 3d 17 3d f3 bc 38 d7 e8 bb
       -0.052055534 0.10267647 -0.029692216 -0.007105734
0002d0 a8 66 9e 3c 87 b4 3c 3e 11 e3 d8 3d cd 4a 8f 3d
       0.01933606 0.1842824 0.105901845 0.06996689
0002e0 e9 10 aa bd 3e 64 15 bd 26 ee 75 bd 5d 8c 29 bd
       -0.083040066 -0.03647255 -0.06004157 -0.041393626
0002f0 c3 db d7 3c f8 00 6e bd e4 27 d0 3c cc 13 84 3d
       0.026349908 -0.058106393 0.025409646 0.064490885
000300 92 61 6e bc 84 b4 ac bd 38 02 1a bc e0 2f b6 3c
       -0.01454963 -0.08432868 -0.009399943 0.022239625
000310 f2 af cd 3d 8a 3f da bc de 30 56 be e3 ee a5 bc
       0.100433245 -0.026641626 -0.20917079 -0.020255512
000320 ea 81 57 3e 4c 8b ee bd 17 ea 4b 3d 01 7e 01 3e
       0.21045652 -0.116476625 0.049783792 0.12645723
000330 01 85 09 3e 2b 82 5f bd e7 06 4d 3d f8 09 3a 3e
       0.13429643 -0.054567497 0.05005541 0.18167865
000340 77 78 69 bd 21 f4 40 bd f6 2a 88 3b 2e 86 ce bb
       -0.05699965 -0.04710782 0.004155512 -0.0063026166
000350 6d bd 28 3d cf 59 11 bd de 4a 04 bd 5b ff c4 3d
       0.041196276 -0.03548604 -0.03229796 0.09619018
000360 2e f2 b1 3d 6f 7e 63 bd c8 01 7e 3d 5a 3c 1d bd
       0.0868877 -0.0555405 0.062013417 -0.038387634
000370 bd ff b7 bc 79 19 53 3e f6 1c ad 3b b0 8d df 3d
       -0.022460813 0.20615186 0.0052829934 0.109156966
000380 7c 3e 9f 3c 4f d5 ef 3c ce ed db 3c f1 ef 2f 3e
       0.019438975 0.029276518 0.026846793 0.17181374
000390 da 52 00 3e 48 ee 19 3c 84 93 20 bc 5b db 76 3c
       0.12531605 0.00939519 -0.0098007955 0.015066947
0003a0 49 ff f3 bd eb 54 04 bd 46 95 b2 b9 0b 8b 46 3e
       -0.11913926 -0.032307547 -0.00034062023 0.19388978
0003b0 ad d5 01 be a5 31 08 bd cb e1 a4 bb 58 29 9e 3d
       -0.12679167 -0.03325047 -0.0050317994 0.077227294
0003c0 c7 df 06 3d 7a d4 6e bc 90 64 7c bd 64 2f 9b bd
       0.032928254 -0.014577026 -0.06161934 -0.075773984
0003d0 13 02 76 bd 88 99 13 bd 43 04 29 bc 48 a4 30 3e
       -0.060060572 -0.03603509 -0.0103159575 0.17250168
0003e0 6d 5c 41 3e d7 1d 8d 3c 69 a1 dd bc 9d 51 08 bd
       0.18882914 0.017226143 -0.027054505 -0.033280957
0003f0 7e 7d e4 3a f0 17 f6 bb 38 5a 9f bd 9b 52 54 bd
       0.0017432419 -0.007510178 -0.0778088 -0.05183659

fc3.bias f4 [7]
000000 22 63 cd bd c5 f3 a0 3e b8 a0 7c 3e a1 5f 71 3e
       -0.10028674 0.3143598 0.24670684 0.23571636
000010 70 6e ae 3e da 6b 81 be 8f 86 a7 bd
       0.34068632 -0.25277597 -0.08179962
