hackathon_toolkit/checkpoints_qlearn/agent_0_episode_4200.pth (torch, 78474 bytes, 6 tensors)

fc1.weight f4 [128, 11]
0.06953233 0.30673826 0.17922464 0.24411346 0.20407103 0.28206393 0.015277495 -0.056733377
0.23174222 -0.10107231 0.19402328 0.25113285 0.04149536 0.08091592 -0.13491504 0.29742438
0.08773753 -0.17240763 0.05496352 -0.009517049 0.4370275 -0.12483448 -0.25612378 -0.4477283
-0.16535045 0.40215915 0.19032358 -0.15051408 0.36355448 -0.0788182 0.22425231 -0.338055
0.011839327 -0.039862953 0.39373952 -0.091416545 -0.14476778 0.33993146 -0.19961 -0.22314365
0.25169578 -0.1044343 -0.15034224 -0.11523557 0.48455262 0.05781297 -0.307716 0.17316458
0.069669954 -0.12802221 0.03112315 0.17684273 0.2097129 0.06648803 0.046864565 -0.056953013
0.47461808 0.16157119 -0.11791922 0.0307939 -0.04067185 -0.11657407 0.083299816 0.17101319
-0.33620125 0.31849974 0.0068372353 0.22787476 0.16699871 -0.08815199 -0.19656253 -0.21669184
0.022568582 -0.036354076 -0.12965183 0.28382012 0.053417247 -0.40110156 0.05241661 0.30101198
-0.06847203 0.25188437 0.38260326 -0.26035014 0.22543073 -0.008876401 -0.45342198 -0.21493828
-0.087801635 0.11106598 -0.1592187 -0.14936681 0.15907092 0.13512199 0.06528733 0.3119734
-0.026689908 -0.24670972 0.44976145 0.41742438 0.34308267 -0.049093302 0.18568648 -0.07718624
0.27726075 0.25686267 -0.051554136 0.038393438 0.37910387 0.16571377 -0.114543155 -0.08164711
0.069568455 -0.08081431 0.06631134 -0.1596811 -0.11367966 0.2199941 -0.22863477 0.070215605
0.23415925 0.26541653 0.34355292 0.034503885 0.43667984 -0.20138283 0.12631206 -0.093642995
0.097227134 -0.08070278 -0.16153398 0.2165421 0.50164545 -0.18974172 0.14381112 0.10975702
0.16362312 0.16824564 0.066912845 -0.26641288 0.19450086 0.16660833 0.21933033 0.35901907
-0.019644242 0.14431013 -0.05311824 0.18620235 -0.13909125 0.2883049 0.33480352 0.42225063
0.5498199 0.18727002 -0.29335827 0.5028692 0.11980633 -0.02798791 -0.05625224 -0.13424593
-0.072754875 0.25268424 0.07179001 -0.14005922 0.19256312 -0.08447724 0.12041377 -0.009550743
-0.12216891 0.23961963 -0.070248514 0.064678416 0.232586 -0.06795452 -0.21868928 -0.36160538
0.26301387 0.092019044 -0.15846151 -0.1526581 -0.1913273 0.31316605 0.19648741 -0.073546775
-0.048066445 0.15820503 -0.07392334 0.50102633 -0.09661076 0.11941745 0.017569127 0.05199103
0.0033530376 0.18116516 -0.14779219 0.400656 0.38712904 -0.30142123 -0.1624596 0.16262427
0.037184294 0.12980284 0.27851164 0.11327557 0.30155146 0.1254817 0.15336567 0.14028981
0.33887494 -0.12464008 0.29689363 0.13425426 -0.18581328 0.19471233 -0.041432444 0.12211597
-0.14702103 -0.111755565 0.33172616 -0.05022929 -0.12525742 0.038474407 -0.18479484 0.2907835
-0.20360592 -0.25647455 0.4244226 0.25679177 -0.10441622 0.16730772 0.2042855 0.5028161
-0.1792254 0.10008456 0.2066109 -0.052049328 0.36595786 -0.18911175 -0.0688636 0.4459237
0.45604816 0.32957998 0.05616364 0.043918256 -0.04465688 0.10618853 -0.12406012 0.109180994
-0.22970031 0.033893194 0.26424235 0.47516525 -0.25188679 0.009089169 0.37519017 0.11808574
00000000: f766 8e3d cc0c 9d3e aa86 373e e1f8 793e
00000010: fff7 503e af6a 903e 754e 7a3c 4261 68bd
00000020: d54d 6d3e 00ff cebd 0aae 463e 7c94 803e
00000030: 0af7 293d 3fb7 a53d 2b27 0abe 0248 983e
00000040: bcaf b33d a08b 30be 6e21 613d 66ed 1bbc
00000050: 12c2 df3e 38a9 ffbd a822 83be a53c e5be
00000060: a151 29be cee7 cd3e 2fe4 423e 5d20 1abe
00000070: d023 ba3e 706b a1bd 66a2 653e 8c15 adbe
00000080: bdf9 413c 5647 23bd 3a98 c93e 9938 bbbd
00000090: 013e 14be 7f0b ae3e 9066 4cbe c57f 64be
000000a0: 45de 803e a6e1 d5bd 51f3 19be a000 ecbd
000000b0: 4817 f83e 4bcd 6c3d f48c 9dbe 0e52 313e
000000c0: 1faf 8e3d 4118 03be faf5 fe3c 4316 353e
000000d0: fabe 563e e02a 883d 0ff5 3f3d 9047 69bd
000000e0: 2401 f33e eb72 253e a27f f1bd 7d43 fc3c
000000f0: 8797 26bd 63be eebd 1899 aa3d 151e 2f3e
00000100: 9222 acbe 6612 a33e e30a e03b 0058 693e
00000110: b601 2b3e 0889 b4bd b047 49be 77e4 5dbe
00000120: bfe1 b83c 03e8 14bd 73c3 04be df50 913e
00000130: 0bcc 5a3d 2f5d cdbe cdb2 563d 3e1e 9a3e
00000140: 103b 8cbd fdf6 803e 93e4 c33e 9d4c 85be
00000150: 50d7 663e 536e 11bc ed26 e8be c818 5cbe
00000160: 58d1 b3bd 8f76 e33d 3a0a 23be 9df3 18be
00000170: 7de3 223e 6b5d 0a3e 5db5 853d faba 9f3e
00000180: cba4 dabc 79a1 7cbe 2247 e63e a6b8 d53e
00000190: 88a8 af3e 0f16 49bd 9924 3e3e d213 9ebd
000001a0: 1ff5 8d3e 8183 833e 6e2a 53bd 7042 1d3d
000001b0: e719 c23e dfb0 293e 9a95 eabd 9a36 a7bd
000001c0: e879 8e3d f981 a5bd 3dce 873d 7183 23be
000001d0: e2d0 e8bd 2246 613e 3c1f 6abe 33cd 8f3d
000001e0: 71c7 6f3e ade4 873e 2be6 af3e f253 0d3d
000001f0: 8094 df3e 4d37 4ebe f357 013e e6c7 bfbd
00000200: 051f c73d 8047 a5bd 2a69 25be 36bd 5d3e
00000210: d66b 003f a74b 42be 3943 133e 4ac8 e03d
00000220: d28c 273e 9648 2c3e 9a09 893d 4567 88be
00000230: 3c2b 473e 609b 2a3e 2198 603e 59d1 b73e
00000240: f6ec a0bc 09c6 133e 8392 59bd d4ab 3e3e
00000250: f06d 0ebe b39c 933e 5e6b ab3e 3c31 d83e
00000260: ffc0 0c3f b6c3 3f3e 0e33 96be 09bc 003f
00000270: 055d f53d e746 e5bc c068 66bd c477 09be
00000280: 8200 95bd d45f 813e a406 933d af6b 0fbe
00000290: 442f 453e 6702 adbd 7f9b f63d b87a 1cbc
000002a0: b233 fabd d95e 753e 74de 8fbd 1e76 843d
000002b0: 062b 6e3e bd2b 8bbd 15f0 5fbe 5724 b9be
000002c0: c1a9 863e 7b74 bc3d bc43 22be 6852 1cbe
000002d0: 4eeb 43be 4d57 a03e ff33 493e b19f 96bd
000002e0: 52e1 44bd 8000 223e 1f65 97bd 4343 003f
000002f0: dddb c5bd 2391 f43d 21ed 8f3c 8cf4 543d
00000300: a3be 5b3b 5c83 393e d656 17be c922 cd3e
00000310: c735 c63e e253 9abe cf5b 26be fa86 263e
00000320: 8f4e 183d 09eb 043e 1499 8e3e 06fd e73d
00000330: f464 9a3e 467e 003e e40b 1d3e 22a8 0f3e
00000340: 0481 ad3e 4c43 ffbd 7102 983e f379 093e
00000350: d645 3ebe ab62 473e 11b5 29bd f017 fa3d
00000360: ae8c 16be 1ae0 e4bd 03d8 a93e 3abd 4dbd
00000370: 7b43 00be 5797 1d3d dc3a 3dbe 93e1 943e
00000380: 127e 50be a250 83be eb4d d93e 367a 833e
00000390: 2cd8 d5bd b752 2b3e 3830 513e 8eb8 003f
000003a0: dd86 37be 22f9 cc3d cf91 533e ad31 55bd
000003b0: d45e bb3e 83a6 41be 5c08 8dbd 1c50 e43e
000003c0: 257f e93e b5be a83e d80b 663d a1e3 333d
000003d0: 22ea 36bd 5f79 d93d 3b13 febd 499a df3d
000003e0: 8f36 6bbe 97d3 0a3d c64a 873e dc48 f33e
000003f0: 4ef7 80be bdea 143c ed18 c03e f0d6 f13d

fc1.bias f4 [128]
-0.22475497 -0.084291734 -0.2846836 -0.40806898 0.07848991 0.2553882 0.0034846903 -0.025378566
-0.27127713 0.27433643 -0.1293258 0.33810377 0.19052076 0.26201493 -0.21408382 -0.07190885
-0.044953387 0.038226005 0.04548292 0.09869255 -0.15766707 0.005995832 -0.31279898 0.19541681
0.34303316 0.16889495 -0.03134196 -0.19460179 -0.3645966 -0.14917368 -0.37403 -0.022071425
-0.06381901 -0.27910292 0.13849397 -0.3216617 -0.05022745 0.3413624 -0.14278476 -0.115634374
-0.10045677 -0.2701701 -0.122940354 0.12323863 -0.049242117 0.17703074 -0.07778111 -0.010634837
0.26728374 -0.1979408 0.027671825 0.13590224 0.12296389 0.0324172 -0.019456167 -0.26901278
0.10321147 -0.26962805 -0.06211098 0.13874155 -0.13860397 -0.2725562 -0.026337925 0.041217446
-0.05136173 -0.3199823 0.044149753 -0.3952544 0.3349792 0.024100244 0.068971485 -0.19008549
0.18679388 0.021855915 -0.0762066 0.020961775 -0.00324675 0.17207924 -0.38666412 -0.22944015
-0.17301403 -0.1901985 -0.1929761 0.04547819 0.09878535 -0.36175722 0.0027370092 0.04304154
-0.2192787 -0.136466 -0.14712146 -0.31845048 0.063777894 0.13580948 -0.2992343 0.026636325
-0.044512227 0.15579955 -0.34607986 -0.27171457 0.1257642 -0.12174762 0.116042085 0.010001504
0.40904734 -0.1660148 -0.13072976 0.15643346 0.027449312 0.25604317 -0.112816006 0.22393152
-0.09308791 -0.06872555 0.28535935 0.17918903 0.046291985 -0.14649603 0.0054265517 -0.11777374
-0.054253038 0.09057886 0.19171743 0.31201923 -0.41517803 0.2769644 0.2763246 -0.30980143
00000000: 2b26 66be 25a1 acbd 0cc2 91be 6bee d0be
00000010: 51bf a03d 3ec2 823e 675f 643b b6e6 cfbc
00000020: d6e4 8abe d375 8c3e fc6d 04be f01b ad3e
00000030: e017 433e d226 863e ca38 5bbe f244 93bd
00000040: 0b21 38bd df92 1c3d 4c4c 3a3d 521f ca3d
00000050: 7a73 21be af78 c43b 3027 a0be 581b 483e
00000060: 0ba2 af3e ccf2 2c3e 6d60 00bd b145 47be
00000070: 68ac babe fcc0 18be dc80 bfbe 22cf b4bc
00000080: 8bb3 82bd 94e6 8ebe 5dd1 0d3e d8b0 a4be
00000090: 4cbb 4dbd 0dc7 ae3e 2b36 12be b7d1 ecbd
000000a0: 47bc cdbd bc53 8abe 27c8 fbbd 8964 fc3d
000000b0: 1ab2 49bd 8c47 353e b44b 9fbd bd3d 2ebc
000000c0: 6ad9 883e feb0 4abe 06b0 e23c f529 0b3e
000000d0: 7ed4 fb3d e6c7 043d 8a62 9fbc 0bbc 89be
000000e0: 8960 d33d b00c 8abe 1568 7ebd 4412 0e3e
000000f0: 33ee 0dbe 7c8c 8bbe a2c2 d7bc a0d3 283d
00000100: ad60 52bd b8d4 a3be 5fd6 343d c95e cabe
00000110: 6582 ab3e e06d c53c ec40 8d3d c5a5 42be
00000120: e546 3f3e 2d0b b33c 3512 9cbd 07b8 ab3c
00000130: 6dc7 54bb 8a35 303e d7f8 c5be 5cf2 6abe
00000140: 972a 31be 65c3 42be 879b 45be 5747 3a3d
00000150: f94f ca3d 3e38 b9be 655f 333b 534c 303d
00000160: 988a 60be bebd 0bbe 02a7 16be f10b a3be
00000170: fc9d 823d a411 0b3e 3d35 99be 6c34 da3c
00000180: 7452 36bd eb89 1f3e 6131 b1be 2c1e 8bbe
00000190: 55c8 003e d156 f9bd 79a7 ed3d 59dd 233c
000001a0: a76e d13e c9ff 29be 06de 05be 1830 203e
000001b0: 61dd e03c 1718 833e 140c e7bd 4e4e 653e
000001c0: e0a4 bebd fbbf 8cbd 9f1a 923e 547d 373e
000001d0: aa9c 3d3d 0e03 16be 37d1 b13b 5c33 f1bd
000001e0: 6f38 5ebd 6981 b93d 9351 443e fcc0 9f3e
000001f0: 3792 d4be 47ce 8d3e 6b7a 8d3e 4b9e 9ebe

fc2.weight f4 [128, 128]
0.033628304 -0.2475444 0.17325006 0.037907097 -0.09146271 -0.06929343 -0.05236816 0.15960735
-0.02971443 0.013579047 0.001049048 -0.007328021 -0.16923608 -0.22769107 0.04884871 0.081425756
-0.039075438 -0.029194744 0.0094851935 -0.036473054 -0.0032803628 -0.09922402 -0.07444136 0.1743104
-0.18163864 -0.110849455 0.16254263 -0.0695491 0.03765469 -0.072371855 -0.008209244 0.12805735
-0.08454121 -0.08079682 -0.15029924 0.1331781 -0.16674025 -0.17511114 0.13935797 0.16222572
-0.04164438 -0.1312495 0.033724006 -0.14360444 -0.09791783 -0.05041756 -0.00090413436 0.08680471
-0.21387981 0.0029405262 -0.1563757 0.11165956 0.22488372 -0.12172607 0.036586434 0.025347339
0.0076468233 -0.07835148 -0.06257524 0.04406203 0.0879522 0.013887624 -0.019736107 0.17501566
0.037732396 0.03922123 -0.0850533 0.013961026 0.027581353 -0.11430843 -0.14230803 -0.010323117
0.08436446 0.012158904 0.046938628 -0.07853577 0.0775961 -0.26609462 -0.017345771 0.1527332
0.041913528 0.17126289 -0.07816527 -0.046334445 0.23378389 0.14504452 -0.004977415 0.035406176
0.15855022 0.060548667 -0.034338694 0.05385824 -0.065783754 0.0033407058 -0.1557332 0.033091865
0.07681325 -0.059961516 0.21049783 -0.1497624 0.052371632 0.024230376 -0.0047807805 0.08406882
0.023099838 0.23621048 0.14406969 -0.1840252 -0.061791293 0.21436104 -0.06481358 0.18403475
-0.015827602 -0.06599621 0.13158895 -0.07430832 0.04670208 0.00598131 -0.17168775 0.05750411
0.14450859 -0.004566706 -0.09264895 0.054804854 0.08412141 -0.039344806 0.10770952 0.06644022
-0.107093394 0.00075287436 -0.043642465 -0.029333573 0.030783292 -0.059671544 0.08298287 -0.15406133
-0.0003554391 -0.08862739 0.05747515 -0.06977177 0.0077570216 0.08665301 0.014800312 -0.019560365
0.043255698 -0.048696965 0.036686275 0.049633488 0.030415174 0.016539045 -0.03968874 -0.08083237
-0.059262753 -0.009097114 -0.08897555 -0.016020441 -0.18841766 0.15451533 -0.06139446 -0.076227896
0.06184274 -0.029113406 0.044749934 -0.06255472 0.031571385 0.020345524 -0.083253294 -0.06318996
-0.049654994 0.04082419 -0.076852776 -0.054600302 -0.023650926 -0.079192795 0.048108257 -0.20785339
-0.056722105 -0.051369406 0.042113457 -0.034347 -0.087560445 0.07929675 -0.038989555 0.010111342
-0.05779106 0.09216343 -0.06251112 0.018787561 0.06561496 -0.10963632 -0.012232086 -0.12908109
0.040849358 0.0038763941 -0.07614366 -0.14764448 -0.012676089 -0.012783919 -0.057845924 0.028836552
0.01581377 0.06922864 -0.06334805 -0.0193178 0.018340563 0.104997285 -0.051957797 -0.15255016
-0.02996156 -0.037247103 -0.09318261 0.02656361 -0.07446983 -0.034153964 -0.0014759139 -0.04449606
-0.060320575 -0.00041922968 0.0407976 0.040566456 -0.050693315 0.045825154 0.060921706 -0.03170964
-0.027981568 0.08561123 -0.037987452 -0.00030251362 0.0630651 -0.036158036 0.03788091 0.0040935436
-0.085292034 -0.08821935 -0.21611468 -0.08756858 -0.082419515 -0.083951406 -0.071543664 -0.17217992
-0.032550033 -0.069012344 0.024185993 -0.11508051 -0.00460363 0.03135877 0.079027444 0.04491659
-0.18582354 -0.0011926024 0.01585167 -0.01439936 -0.05099746 0.031539455 -0.12592922 -0.06401394
00000000: d5bd 093d 477c 7dbe 7768 313e 7944 1b3d
00000010: cd50 bbbd b7e9 8dbd ff7f 56bd 1c70 233e
00000020: ad6b f3bc a77a 5e3c 3680 893a e51f f0bb
00000030: 394c 2dbe d927 69be 9615 483d 8cc2 a63d
00000040: 910d 20bd d129 efbc c967 1b3c c564 15bd
00000050: 5bfb 56bb f735 cbbd b674 98bd 6d7e 323e
00000060: 7bff 39be 0a05 e3bd 9371 263e c26f 8ebd
00000070: ce3b 1a3d b237 94bd 1180 06bc 7721 033e
00000080: f123 adbd ce78 a5bd 0be8 19be d75f 083e
00000090: f5bd 2abe 5650 33be dbb3 0e3e 801e 263e
000000a0: 4c93 2abd 4566 06be 2f22 0a3d 0b0d 13be
000000b0: 2589 c8bd a582 4ebd 6e03 6dba abc6 b13d
000000c0: 4f03 5bbe d8b5 403b f420 20be c4ad e43d
000000d0: eb47 663e 854b f9bd a8db 153d 39a5 cf3c
000000e0: 3492 fa3b be76 a0bd 7327 80bd 637a 343d
000000f0: 4820 b43d eb88 633c 9ead a1bc 4e37 333e
00000100: 498d 1a3d 71a6 203d 6d30 aebd cabc 643c
00000110: 4af2 e13c 8a1a eabd 32b9 11be 4a22 29bc
00000120: 46c7 ac3d 2436 473c b842 403d 5dd7 a0bd
00000130: b4ea 9e3d 8e3d 88be b818 8ebc 1866 1c3e
00000140: 85ad 2b3d 8a5f 2f3e 1d15 a0bd 30c9 3dbd
00000150: 0b65 6f3e 8d86 143e 9519 a3bb 1106 113d
00000160: fd5a 223e e101 783d bba6 0cbd 759a 5c3d
00000170: a2b9 86bd beef 5a3b 8678 1fbe 568b 073d
00000180: 4450 9d3d 359a 75bd be8c 573e 515b 19be
00000190: a383 563d c87e c63c 18a8 9cbb 462c ac3d
000001a0: df3b bd3c 29e1 713e 0187 133e 1a71 3cbe
000001b0: de18 7dbd 7681 5b3e fbbc 84bd 9b73 3c3e
000001c0: e3a8 81bc 0529 87bd 41bf 063e f62e 98bd
000001d0: ae4a 3f3d ddfe c33b eace 2fbe 6e89 6b3d
000001e0: 0ffa 133e 4ea4 95bb bcbe bdbd 0e7b 603d
000001f0: d947 ac3d 0528 21bd cf96 dc3d cf11 883d
00000200: c853 dbbd 8b5c 453a 71c2 32bd f64c f0bc
00000210: 3e2d fc3c 266a 74bd ecf2 a93d 41c2 1dbe
00000220: 3a5a bab9 4782 b5bd 106b 6b3d 80e4 8ebd
00000230: 9d2e fe3b 2277 b13d 027d 723c 0f3d a0bc
00000240: e32c 313d 7876 47bd 5944 163d 7c4c 4b3d
00000250: 3e29 f93c e47c 873c a990 22bd 718b a5bd
00000260: 80bd 72bd 100c 15bc d038 b6bd 4d3d 83bc
00000270: 8ff0 40be 4439 1e3e c278 7bbd 5f1d 9cbd
00000280: d04e 7d3d 3d7f eebc b54b 373d b01c 80bd
00000290: ff50 013d a8ab a63c b480 aabd bd69 81bd
000002a0: 0963 4bbd 4437 273d fd64 9dbd 91a4 5fbd
000002b0: 96bf c1bc d52f a2bd 2a0d 453d 85d7 54be
000002c0: 7055 68bd ba68 52bd 297f 2c3d 71af 0cbd
000002d0: e452 b3bd 5666 a23d 83b3 1fbd 0baa 253c
000002e0: 52b6 6cbd 2ec0 bc3d d505 80bd 5fe8 993c
000002f0: 2361 863d 0289 e0bd 1669 48bc d52d 04be
00000300: a851 273d 1a0b 7e3b 35f1 9bbd 1d30 17be
00000310: 5faf 4fbc a573 51bc d9ef 6cbd a23a ec3c
00000320: e18b 813c bfc7 8d3d 9fbc 81bd 5d40 9ebc
00000330: f33e 963c d108 d73d b3d1 54bd 1c36 1cbe
00000340: f271 f5bc 6b90 18bd 86d6 bebd ee9b d93c
00000350: a383 98bd 07e5 0bbd 7473 c1ba 8041 36bd
00000360: b512 77bd 0ecc dbb9 621b 273d 0329 263d
00000370: cba3 4fbd 28b3 3b3d 0a89 793d f8e1 01bd
00000380: 9a39 e5bc f154 af3d bb98 1bbd b19a 9eb9
00000390: 4628 813d 731a 14bd 0329 1b3d 2223 863b
000003a0: 97ad aebd 59ac b4bd 2b4d 5dbe 2857 b3bd
000003b0: 90cb a8bd b7ee abbd 7c85 92bd ef4f 30be
000003c0: 2f53 05bd 5856 8dbd b421 c63c 55af ebbd
000003d0: 0cda 96bb 0e72 003d 24d9 a13d 75fa 373d
000003e0: 8748 3ebe 1951 9cba 5ddb 813c 4beb 6bbc
000003f0: b6e2 50bd 842f 013d 97f3 00be be19 83bd

fc2.bias f4 [128]
-0.06991142 -0.1604481 0.023136713 -0.09373568 0.5120307 -0.06437798 0.027960975 -0.0755077
-0.07226105 -0.067641616 -0.09739235 -0.105457686 -0.06408294 -0.12584351 -0.17167865 -0.05408427
0.059832316 -0.065798156 -0.14191742 -0.06964445 -0.07472335 -0.055754397 -0.10652436 0.026668819
-0.10365998 -0.116392694 -0.09441013 -0.09149628 0.008074252 -0.034205846 -0.008308132 -0.0962518
0.046694893 -0.06423422 -0.011704686 -0.065527484 0.024692046 0.0075165424 -0.09510485 -0.019669928
-0.088098474 -0.025367936 -0.0016658234 -0.03792771 -0.17119928 -0.00525148 -0.01887772 -0.08147978
-0.088038124 0.4616272 0.00092689676 -0.06820987 0.0040921965 0.05281797 -0.13065366 -0.006950848
-0.15629974 -0.13029248 -0.017761089 0.02949605 0.016388832 -0.0918422 -0.09814083 0.008959865
-0.114564456 -0.076282814 -0.01639997 -0.08792974 0.34401047 -0.10536749 -0.107629105 -0.095663376
0.06389016 -0.17806095 -0.11738521 0.25384396 0.019786624 -0.010052241 0.012092338 0.28429806
-0.10203706 -0.008520862 -0.06557661 0.024831967 -0.049827613 -0.01303335 0.010290234 0.0063525396
0.11904966 -0.040440936 0.052243024 0.012525166 -0.02130712 0.47767878 0.011974153 -0.031156102
-0.021778254 0.044696704 -0.040132236 -0.056156546 0.053840544 0.036278274 -0.036873817 -0.029013349
-0.009711745 -0.06141467 -0.02760639 0.07059812 -0.021915833 -0.053756483 -0.08249254 -0.09294635
-0.059261683 -0.025060331 -0.059549525 -0.05226132 0.008742735 -0.048077375 0.02502057 0.48019055
-0.06307239 -0.10159908 -0.09361999 0.049294718 -0.026105573 0.0033582826 -0.08199889 -0.009324474
00000000: b82d 8fbd 824c 24be 3489 bd3c 7ef8 bfbd
00000010: 7214 033f 9ad8 83bd 6a0e e53c c8a3 9abd
00000020: 9afd 93bd b087 8abd a475 c7bd 33fa d7bd
00000030: eb3d 83bd 1fdd 00be 87cc 2fbe 7887 5dbd
00000040: bb12 753d 2fc1 86bd cd52 11be c0a1 8ebd
00000050: 8e08 99bd b95e 64bd 7229 dabd 9178 da3c
00000060: af4b d4bd 4b5f eebd 195a c1bd 6762 bbbd
00000070: de49 043c 6e1b 0cbd d51e 08bc aa1f c5bd
00000080: 2543 3f3d 3b8d 83bd 03c5 3fbc 4633 86bd
00000090: f946 ca3c 544d f63b 55c6 c2bd d422 a1bc
000000a0: f96c b4bd 6bd0 cfbc c257 daba 165a 1bbd
000000b0: dd4e 2fbe 9b14 acbb 73a5 9abc dfde a6bd
000000c0: 554d b4bd 665a ec3e fdfa 723a 9eb1 8bbd
000000d0: d517 863b a857 583d 13ca 05be f0c3 e3bb
000000e0: 0a0d 20be 646b 05be b47f 91bc b3a1 f13c
000000f0: df41 863c c317 bcbd 0ffe c8bd 66cc 123c
00000100: c5a0 eabd 2a3a 9cbd 3b59 86bc 8214 b4bd
00000110: 2422 b03e e9ca d7bd a66c dcbd 29eb c3bd
00000120: d8d8 823d 9c55 36be a867 f0bd d6f7 813e
00000130: 8f17 a23c 28b2 24bc f11e 463c 848f 913e
00000140: cef8 d0bd 169b 0bbc 084d 86bd 696c cb3c
00000150: 0a18 4cbd d589 55bc 5f98 283c f728 d03b
00000160: 4fd0 f33d 65a5 25bd c8fc 553d 5b36 4d3c
00000170: 458c aebc 5092 f43e 3d2f 443c 153b ffbc
00000180: 4f68 b2bc e413 373d b361 24bd 6804 66bd
00000190: e787 5c3d 8798 143d 0009 17bd 67ad edbc
000001a0: 031e 1fbc f38d 7bbd cc26 e2bc bf95 903d
000001b0: d588 b3bc c22f 5cbd d9f1 a8bd a85a bebd
000001c0: 61bc 72bd 534b cdbc 34ea 73bd f70f 56bd
000001d0: b03d 0f3c c8ec 44bd f0f7 cc3c 89db f53e
000001e0: 192c 81bd 2e13 d0bd d6bb bfbd 42e9 493d
000001f0: 5bdb d5bc a216 5c3b 09ef a7bd aec5 18bc

fc3.weight f4 [7, 128]
-0.04546822 -0.1043578 0.070032254 -0.045725 -0.23588412 0.02435306 -0.028177176 0.044696525
0.017313378 -0.1395884 -0.03447731 0.04158772 -0.22710739 -0.15950607 -0.80312693 -0.12368544
0.030347697 0.016293583 -0.06079222 -0.014536267 -0.048587836 -0.17618515 -0.003947048 -0.07909979
0.049504932 -0.08109715 -0.121998705 0.061840758 0.06573961 0.06997096 -2.7517674 -0.14895144
-0.056625575 -0.078042634 0.022398466 -0.51770145 -0.02760124 -0.08383477 -0.07133748 -0.14624332
-0.02501187 -0.7885935 -0.010482855 -0.0054883407 0.007428041 -0.15355042 -0.04785245 0.03921369
-0.15613298 -2.8349655 0.006627634 -0.06592863 -0.026277004 -0.089863606 0.046547014 -0.028525189
-0.07297325 0.019371342 0.016583964 -0.032982484 0.041454703 -0.07455025 0.05349151 0.011683875
-0.14008348 -0.16928594 -0.051202767 -0.0020819157 -3.488039 -0.047761694 0.026941087 -0.030749192
-0.06653777 0.06549498 0.041584555 0.0071933493 -0.02134839 0.012180488 -0.069798835 -0.12096483
-0.026732767 -0.030824278 -0.013953453 0.07086114 -0.11451504 0.062281445 -0.03990533 0.046682686
-0.035924282 -0.12307444 0.03442277 -0.05097808 0.050380386 -2.5565205 -0.06806061 -0.05733545
0.020257192 -0.15260564 0.026725216 -0.61736804 0.012548054 -0.018943049 -0.118067436 -0.0379886
-0.2979485 -0.96115756 0.02274553 -0.049758412 -0.179337 -0.017594539 -0.09253937 -0.14000313
-0.059494574 0.018564563 -0.03543169 0.049848646 0.05856788 0.0711122 0.07673756 -4.173431
-0.08054339 0.03014874 -0.022896653 -0.033580404 -0.013942578 -0.018336922 -0.09418502 -0.010165438
-0.0831202 0.02572894 -0.014959006 0.028977534 0.39212134 0.013229725 -0.081465885 0.107147165
-0.16797946 -0.014655549 0.06119088 -0.08599999 0.008611881 0.0060056215 -0.0006508478 -0.06343286
-0.038375348 0.004656343 -0.018093904 -0.08386841 -0.13732705 0.002063568 -0.043246422 -0.06334613
0.08306253 0.08954668 -0.019633992 0.0041251965 -0.06421476 0.016267603 0.07038831 -0.02313538
0.043755878 0.09878124 -0.007725635 -0.22374392 0.010162686 -0.020324018 -0.01997931 -0.043419372
0.003438639 -0.06028465 0.094430335 0.039775666 -0.07740218 0.0042579006 0.013536939 0.10234967
-0.052055534 0.19743355 -0.029692216 -0.07824694 -0.045620598 0.2695036 0.105901845 0.06996689
-0.070305556 -0.03647255 -0.06004157 -0.041393626 0.026349908 -0.036777973 0.025409646 0.08531677
-0.04726529 -0.119381085 -0.009399943 0.022239625 0.19234692 -0.08000045 -0.19679418 -0.020255512
0.2624379 -0.11161409 -0.008435245 0.21060345 0.21652125 -0.054567497 0.07957444 0.26820624
-0.05699965 -0.11988258 0.004155512 0.0140881585 0.041196276 -0.01368686 -0.03229796 0.15325822
0.11790728 -0.0555405 0.062013417 -0.01682254 -0.022460813 0.29801852 0.077802144 0.13497446
0.019438975 0.029276518 0.026846793 0.20031583 0.23510541 0.00939519 0.0076084365 0.022362452
-0.10407188 -0.018391162 -0.00034062023 0.26220223 -0.09847804 -0.06701601 -0.0050317994 0.19712192
0.032928254 -0.014577026 -0.0057888827 -0.075773984 -0.060060572 -0.03603509 -0.0103159575 0.26173958
0.12893403 0.017226143 -0.06361284 -0.012187687 0.0017432419 -0.007510178 -0.116287924 -0.1479488
00000000: e23c 3abd 8bb9 d5bd 126d 8f3d 234a 3bbd
00000010: 9b8b 71be 1280 c73c d2d3 e6bc b413 373d
00000020: c9d4 8d3c 43f0 0ebe 1438 0dbd e357 2a3d
00000030: d78e 68be 8f55 23be ba99 4dbf cb4e fdbd
00000040: bc9b f83c 1f7a 853c 4301 79bd 8629 6ebc
00000050: 0a04 47bd e169 34be 3d56 81bb 12ff a1bd
00000060: afc5 4a3d 4316 a6bd 75da f9bd bc4c 7d3d
00000070: 7da2 863d ef4c 8f3d f51c 30c0 ba86 18be
00000080: 38f0 67bd d1d4 9fbd fd7c b73c 1588 04bf
00000090: ff1b e2bc 90b1 abbd 6219 92bd cfc0 15be
000000a0: b1e5 ccbc 43e1 49bf 48c0 2bbc 8ad7 b3bb
000000b0: ed66 f33b 523c 1dbe ee00 44bd 899e 203d
000000c0: 53e1 1fbe 1370 35c0 a02c d93b 9705 87bd
000000d0: df42 d7bc 690a b8bd 15a8 3e3d a8ad e9bc
000000e0: 0073 95bd a6b0 9e3c 18db 873c a418 07bd
000000f0: 68cc 293d cdad 98bd ea19 5b3d b96d 3f3c
00000100: 0b72 0fbe 4b59 2dbe feb9 51bd c070 08bb
00000110: 083c 5fc0 c4a1 43bd 8eb3 dc3c bbe5 fbbc
00000120: f444 88bd 3b22 863d 9154 2a3d 30b6 eb3b
00000130: d2e2 aebc ab90 473c b1f2 8ebd 69bc f7bd
00000140: adfe dabc 3283 fcbc 069d 64bc a51f 913d
00000150: dc86 eabd d41a 7f3d c573 23bd 5836 3f3d
00000160: 5725 13bd 740e fcbd e4fe 0c3d 64ce 50bd
00000170: aa5b 4e3d 089e 23c0 5c63 8bbd 94d8 6abd
00000180: 69f2 a53c a744 1cbe d7ee da3c d50b 1ebf
00000190: 5a96 4d3c 742e 9bbc 57cd f1bd ef99 1bbd
000001a0: b58c 98be 6c0e 76bf d554 ba3c 7acf 4bbd
000001b0: 1ea4 37be 6c22 90bc 4885 bdbd fb5c 0fbe
000001c0: 95b0 73bd b614 983c d220 11bd 182e 4c3d
000001d0: e0e4 6f3d 46a3 913d 9528 9d3d bf8c 85c0
000001e0: eff3 a4bd 7efa f63c c391 bbbc 9b8b 09bd
000001f0: 696f 64bc 5037 96bc 13e4 c0bd f08c 26bc
00000200: ec3a aabd 7fc5 d23c 9e16 75bc 4b62 ed3c
00000210: 21c4 c83e 7dc1 583c 96d7 a6bd f96f db3d
00000220: cf02 2cbe d41d 70bc 4aa3 7a3d c320 b0bd
00000230: d918 0d3c ceca c43b a89d 2aba 16e9 81bd
00000240: 782f 1dbd 3c94 983b ab39 94bc 33c3 abbd
00000250: 769f 0cbe ed3c 073b 2923 31bd 9ebb 81bd
00000260: b01c aa3d 4064 b73d 77d7 a0bc a82c 873b
00000270: 0783 83bd a343 853c bf27 903d 6986 bdbc
00000280: 5d39 333d d24d ca3d 5327 fdbb 201d 65be
00000290: 6581 263c 8e7e a6bc a6ab a3bc 83d8 31bd
000002a0: ca5a 613b 0aed 76bd b164 c13d cfeb 223d
000002b0: 0985 9ebd dc85 8b3b 0aca 5d3c b49c d13d
000002c0: 2f38 55bd 052c 4a3e 173d f3bc ef3f a0bd
000002d0: aadc 3abd 60fc 893e 11e3 d83d cd4a 8f3d
000002e0: 5cfc 8fbd 3e64 15bd 26ee 75bd 5d8c 29bd
000002f0: c3db d73c 80a4 16bd e427 d03c 8fba ae3d
00000300: 4099 41bd 127e f4bd 3802 1abc e02f b63c
00000310: 97f6 443e 47d7 a3bd 6a84 49be e3ee a5bc
00000320: 435e 863e ee95 e4bd fb33 0abc 6ea8 573e
00000330: bfb7 5d3e 2b82 5fbd edf7 a23d 5452 893e
00000340: 7778 69bd 0085 f5bd f62a 883b 05d2 663c
00000350: 6dbd 283d da3e 60bc de4a 04bd b9ef 1c3e
00000360: 5f79 f13d 6f7e 63bd c801 7e3d 6ccf 89bc
00000370: bdff b7bc e295 983e bb56 9f3d bf36 0a3e
00000380: 7c3e 9f3c 4fd5 ef3c ceed db3c 981f 4d3e
00000390: 79bf 703e 48ee 193c 3150 f93b 7631 b73c
000003a0: a323 d5bd 10a9 96bc 4695 b2b9 5f3f 863e
000003b0: dbae c9bd b13f 89bd cbe1 a4bb 54da 493e
000003c0: c7df 063d 7ad4 6ebc abb0 bdbb 642f 9bbd
000003d0: 1302 76bd 8899 13bd 4304 29bc bb02 863e
000003e0: 4807 043e d71d 8d3c 7347 82bd ddae 47bc
000003f0: 7e7d e43a f017 f6bb 5d28 eebd e47f 17be

fc3.bias f4 [7]
-0.10028674 0.42799652 0.41952217 0.24537794 0.80096865 -0.25277597 -0.08179962
00000000: 2263 cdbd 5c22 db3e 9ccb d63e 5b44 7b3e
00000010: 480c 4d3f da6b 81be 8f86 a7bd
