hackathon_toolkit/checkpoints_qlearn/agent_1_episode_500.pth (torch, 78464 bytes, 6 tensors)

fc1.weight f4 [128, 11]
-0.09877501 -0.1935857 0.29226005 0.18051422 0.13211985 0.055346955 -0.09061697 -0.17429307
-0.28724015 0.2259342 0.20370701 0.0575641 0.041263208 -0.03753198 0.26827723 -0.014739439
0.21178453 0.36988887 0.01288599 0.12216388 -0.4017302 -0.22424637 -0.25875658 -0.25949797
0.11034018 -0.1975764 0.031854656 0.10939882 0.22953291 0.3371143 0.17089753 0.10037483
-0.20104288 0.065793924 0.19156393 -0.21649665 0.14357232 -0.15717551 0.26970974 0.14003572
-0.23371051 -0.0819295 -0.18662645 -0.18566252 0.16561373 0.07832521 -0.061426964 -0.2352858
0.009474449 -0.22609633 0.25331914 0.13481604 -0.13085197 -0.21452783 0.16961434 -0.15390648
-0.24626343 0.2699775 0.124497294 0.2951729 0.14824192 -0.16172378 -0.00054262223 0.3057413
0.1263385 0.00034276512 0.022337954 -0.038924202 0.0021303778 0.13624673 -0.1117054 -0.01277992
-0.117152855 0.020715512 0.16887954 0.19986016 -0.10845011 0.054819547 0.30719778 -0.13816817
0.28013733 0.1880711 -0.026446825 0.24804902 0.17198944 0.019843655 -0.29693273 0.2787671
-0.25738367 0.29486203 0.30424148 -0.2030173 -0.26128206 -0.026706925 0.1592115 -0.050139222
-0.1627916 -0.07154737 0.32744172 -0.18823105 0.01362866 0.16786893 -0.20366494 -0.029767433
-0.17771429 -0.16890246 0.058589973 0.10860162 0.2509299 -0.029969709 -0.0074004736 -0.18408939
0.19293068 0.07767554 0.011710499 0.18604131 -0.15601021 -0.14029749 0.010198816 0.31566364
0.076813735 0.10125634 -0.10913617 -0.13457267 -0.094685584 0.270841 -0.004254426 -0.027820535
-0.16334574 0.3050655 -0.20070712 -0.13498208 0.12549175 -0.05531334 -0.07322866 -0.25654352
0.029916048 -0.196834 0.07162662 0.052675713 0.17400634 0.16195865 -0.19348952 0.14614779
-0.16789147 -0.031450335 -0.2338501 0.1742518 0.17141475 0.14887059 0.10192218 0.11161945
-0.33940893 0.15734194 0.19614208 -0.19598879 0.25753394 -0.24929446 0.15767992 -0.013890665
-0.22681 0.110297635 0.32860473 0.14688559 -0.21865325 -0.09329773 -0.23358287 -0.21164618
0.35354638 0.3660174 -0.1709894 0.24457806 -0.22490352 0.31350255 0.39611456 -0.17557447
-0.10090399 0.08444494 -0.15561824 -0.075701095 0.308271 -0.10234998 -0.25645638 0.04213143
0.2338252 -0.03412949 -0.18761519 0.36009133 0.23853357 0.1586517 -0.05635682 0.017867895
0.25535464 -0.16798341 0.22563629 -0.2186533 -0.10010211 -0.18168317 0.24861336 -0.32368997
0.12575655 0.2329899 0.13546892 0.18912978 0.30238068 -0.16824451 -0.10395958 0.15352176
-0.24804328 0.0767753 0.12494332 0.13066871 0.17087308 -0.033215154 0.23518288 0.11171489
-0.043624476 -0.27836236 0.13868748 0.32937145 -0.12154131 -0.28401455 -0.18167856 0.17927925
0.0871302 -0.17160723 0.07065599 0.287733 -0.10487848 -0.09981703 0.23538958 0.29251876
0.26824003 0.12305856 -0.14185145 -0.32822242 0.15164162 0.09941457 0.13053294 -0.031780332
-0.04205814 0.13973795 0.2581468 0.019907085 -0.0411683 0.3104302 -0.10704962 -0.022970196
0.017371213 0.33409294 -0.029295377 0.09368793 -0.08511048 -0.09974807 0.27294463 -0.2727179
00000000: 8d4a cabd 543b 46be 1ca3 953e b8d8 383e
00000010: 6d4a 073e 7db3 623d 6495 b9bd e279 32be
00000020: 2411 93be 4c5b 673e 9298 503e 55c8 6b3d
00000030: 9c03 293d 22bb 19bd a25b 893e b07d 71bc
00000040: 0bde 583e 1362 bd3e c21f 533c 0e31 fa3d
00000050: 95af cdbe d7a0 65be be7b 84be ebdc 84be
00000060: 08fa e13d 7851 4abe 077a 023d 7d0c e03d
00000070: ad0a 6b3e 3f9a ac3e c3ff 2e3e 5291 cd3d
00000080: 2fde 4dbe f7be 863d 5629 443e 4cb1 5dbe
00000090: 9f04 133e 9ef2 20be 6517 8a3e 8665 0f3e
000000a0: cf51 6fbe a7ca a7bd 011b 3fbe 511e 3ebe
000000b0: a596 293e f868 a03d d79a 7bbd c3ee 70be
000000c0: b83a 1b3c cc85 67be 0cb3 813e 370d 0a3e
000000d0: 0ffe 05be 2fad 5bbe 62af 2d3e a999 1dbe
000000e0: 7b2c 7cbe 7e3a 8a3e 70f8 fe3d e720 973e
000000f0: bbcc 173e eb9a 25be c33e 0eba 208a 9c3e
00000100: e15e 013e 28b5 b339 16fe b63c fc6e 1fbd
00000110: cf9d 0b3b 4384 0b3e cdc5 e4bd df62 51bc
00000120: d6ed efbd 94b3 a93c c2ee 2c3e 24a8 4c3e
00000130: 171b debd 768a 603d 0749 9d3e f57b 0dbe
00000140: 296e 8f3e b695 403e 03a7 d8bc 9000 7e3e
00000150: 001e 303e 298f a23c 9107 98be 90ba 8e3e
00000160: cbc7 83be 28f8 963e 8ac5 9b3e c4e3 4fbe
00000170: c3c6 85be 7bc8 dabc 5708 233e c95e 4dbd
00000180: d7b2 26be 6d87 92bd 71a6 a73e a4bf 40be
00000190: be4a 5f3c d5e5 2b3e 8b8d 50be d5da f3bc
000001a0: bcfa 35be c4f4 2cbe 0afc 6f3d 876a de3d
000001b0: e279 803e 0983 f5bc ac7f f2bb ee81 3cbe
000001c0: 9f8f 453e 5a14 9f3d 65dd 3f3c 9d81 3e3e
000001d0: 24c1 1fbe 25aa 0fbe ef18 273c aa9e a13e
000001e0: 8550 9d3d 7c5f cf3d c982 dfbd 6bcd 09be
000001f0: 84ea c1bd acab 8a3e b668 8bbb e4e7 e3bc
00000200: 1b44 27be 8c31 9c3e 2b86 4dbe be38 0abe
00000210: e980 003e 3e90 62bd e8f8 95bd ac59 83be
00000220: 8012 f53c da8e 49be fab0 923d 7dc2 573d
00000230: b82e 323e 7dd8 253e 1e22 46be c4a7 153e
00000240: beeb 2bbe 11d2 00bd 6776 6fbe 106f 323e
00000250: 5987 2f3e 8871 183e 93bc d03d bd98 e43d
00000260: 02c7 adbe 3f1e 213e 78d9 483e 49b1 48be
00000270: 7ddb 833e 0c47 7fbe d876 213e ac95 63bc
00000280: e140 68be bae3 e13d e13e a83e 2d69 163e
00000290: a3e6 5fbe e112 bfbd 5930 6fbe c7b9 58be
000002a0: 0804 b53e a266 bb3e d817 2fbe ac72 7a3e
000002b0: 1c4d 66be 6883 a03e 87cf ca3e cbc9 33be
000002c0: c0a6 cebd 78f1 ac3d 635a 1fbe 2d09 9bbd
000002d0: b2d5 9d3e de9c d1bd 404e 83be 0292 2c3d
000002e0: e06f 6f3e 5dcb 0bbd 321e 40be e45d b83e
000002f0: 2542 743e 9775 223e 69d6 66bd b15f 923c
00000300: d8bd 823e d803 2cbe 330d 673e a7e6 5fbe
00000310: 5602 cdbd 270b 3abe 8094 7e3e b1ba a5be
00000320: 53c6 003e e894 6e3e 5db8 0a3e 3dab 413e
00000330: a4d1 9a3e 4a48 2cbe c3e8 d4bd cf34 1d3e
00000340: 0fff 7dbe 5e3c 9d3d 49e2 ff3d 05ce 053e
00000350: 5af9 2e3e 9d0c 08bd c8d3 703e c7ca e43d
00000360: 94af 32bd 8385 8ebe 1704 0e3e 60a3 a83e
00000370: a6ea f8bd 5b6a 91be f209 3abe fb94 373e
00000380: 5171 b23d ceb9 2fbe 16b4 903d bd51 933e
00000390: 87ca d6bd df6c ccbd f709 713e 05c5 953e
000003a0: c256 893e 2006 fc3d 8241 11be c50c a8be
000003b0: f147 1b3e de99 cb3d 6daa 053e 182c 02bd
000003c0: 2845 2cbd 7717 0f3e d12b 843e 2f14 a33c
000003d0: 17a0 28bd b5f0 9e3e d53c dbbd fe2b bcbc
000003e0: 134e 8e3c 3b0e ab3e dcfc efbc 75df bf3d
000003f0: 674e aebd b748 ccbd 66bf 8b3e aea1 8bbe

fc1.bias f4 [128]
-0.056534 0.165369 -0.18226895 -0.27694198 -0.1767918 0.2158198 0.07039263 0.24887049
-0.14110987 0.07493334 0.16376537 -0.025150195 -0.21955004 -0.3076006 0.0054168496 0.19928871
-0.38168868 0.07071535 0.10203609 -0.07453986 -0.11832361 -0.012581888 -0.030009959 -0.1823273
0.12739132 0.20985642 -0.24968058 -0.21005252 -0.26241457 -0.2694716 -0.32329363 -0.120308295
0.15295523 -0.15328619 -0.17564724 0.042421475 -0.27199867 0.08281179 -0.23204562 -0.32879186
-0.34179226 0.3100992 0.04200557 -0.020073712 0.1859961 0.34515753 0.08189562 -0.088405445
0.031105144 -0.025484512 -0.26653904 0.17493063 -0.3288821 -0.0016854058 0.20421438 0.25856
-0.25714034 0.14421295 0.05221781 -0.057609815 0.029087855 0.19212942 0.11034171 0.12689817
0.3587199 -0.07293711 -0.041122325 -0.12922764 -0.12984939 0.016363338 0.28261346 -0.13912773
-0.24893327 -0.109953985 -0.24263428 -0.02001756 -0.08566175 -0.025952885 0.06731915 0.094320655
0.14043075 0.19931431 -0.32675597 0.026465103 0.30269694 -0.11996112 0.15836224 -0.3665836
-0.3203302 -0.045786187 -0.16301052 -0.31688103 0.14453368 -0.06765902 -0.10322319 -0.2081028
0.06351438 0.10575853 -0.10986502 -0.24702731 -0.060581125 0.30928648 0.35506514 -0.01642673
-0.29122135 0.16882864 -0.019699115 -0.12365402 0.22721593 0.032856293 0.16327098 -0.17099766
0.24252035 -9.073587e-05 -0.19924612 0.29949832 -0.25769293 0.17907786 -0.24248305 0.18585491
0.16803926 0.018807778 -0.2679798 -0.009133778 0.12274444 -0.09683805 0.18427557 -0.17501602
00000000: 3290 67bd 7e56 293e b6a4 3abe 57cb 8dbe
00000010: e908 35be deff 5c3e 032a 903d e8d7 7e3e
00000020: 1b7f 10be a776 993d 1cb2 273e c807 cebc
00000030: bad1 60be d37d 9dbe d47f b13b 5712 4c3e
00000040: b36c c3be 36d3 903d 4cf8 d03d 5ba8 98bd
00000050: a653 f2bd 4324 4ebc 72d7 f5bc 02b4 3abe
00000060: df72 023e 9ae4 563e 44ac 7fbe 0218 57be
00000070: 345b 86be 2ef8 89be be86 a5be 3264 f6bd
00000080: 4ca0 1c3e 0ef7 1cbe dfdc 33be 24c2 2d3d
00000090: 6943 8bbe 3a99 a93d 5e9d 6dbe 6857 a8be
000000a0: 65ff aebe 53c5 9e3e 080e 2c3d a071 a4bc
000000b0: c375 3e3e 7db8 b03e e4b8 a73d ea0d b5bd
000000c0: 37d0 fe3c e5c4 d0bc ce77 88be 0421 333e
000000d0: 3c63 a8be d6e8 dcba 931d 513e fa61 843e
000000e0: e6a7 83be 8fac 133e 58e2 553d 45f8 6bbd
000000f0: a749 ee3c 93bd 443e d6fa e13d 98f1 013e
00000100: 22aa b73e 0d60 95bd e26f 28bd 4054 04be
00000110: 3df7 04be 680c 863c b6b2 903e 8077 0ebe
00000120: 5de8 7ebe 8e2f e1bd 1f75 78be defb a3bc
00000130: 6d6f afbd 259b d4bc 9fde 893d 302b c13d
00000140: 14cd 0f3e 0d19 4c3e 8f4c a7be 58cd d83c
00000150: 18fb 9a3e 2dae f5bd b629 223e d8b0 bbbe
00000160: 5202 a4be 4c8a 3bbd 3bec 26be 3b3e a2be
00000170: a300 143e d090 8abd ae66 d3bd e718 55be
00000180: d413 823d ee97 d83d e900 e1bd baf4 7cbe
00000190: ea23 78bd cc5a 9e3e 19cb b53e 5a91 86bc
000001a0: f71a 95be 6ae1 2c3e 0a60 a1bc 523e fdbd
000001b0: 4bab 683e 5294 063d 8230 273e 031a 2fbe
000001c0: 4157 783e 7349 beb8 2d07 4cbe d857 993e
000001d0: 54f0 83be 3060 373e 7a4d 78be c050 3e3e
000001e0: 7c12 2c3e c512 9a3c a634 89be d7a5 15bc
000001f0: 7061 fb3d 0753 c6bd bcb2 3c3e 6637 33be

fc2.weight f4 [128, 128]
0.048647452 0.028835235 -0.008003937 0.060695022 -0.09048089 -0.03185508 0.0043887855 -0.019698694
-0.019915082 -0.04353084 -0.07447902 0.024853371 -0.084697865 0.06541391 -0.025079472 0.020792844
0.013820931 0.022846796 0.06992331 0.0016230041 -0.0125611 -0.038489603 0.0015174669 -0.07179323
-0.035384454 -0.0815224 -0.003057331 0.026458325 0.025081187 -0.018908009 0.042649113 -0.048645876
-0.0064632655 -0.044833872 -0.063062884 0.008987285 0.0040259096 -0.03177398 0.101209864 -0.0057506734
0.0733134 -0.07370921 0.0018460471 -0.025087414 -0.050055165 -0.08196917 0.024417127 0.05028443
-0.065181635 -0.023268031 -0.02739619 -0.0150680635 -0.042605046 -0.029337483 -0.03932164 -0.0642558
-0.07546164 -0.005257964 0.08845742 0.027452802 -0.017792737 -0.0048180167 0.011787973 -0.034633946
0.0792894 -0.086205766 -0.07197555 0.009790575 0.04752699 0.010179433 0.026590534 0.06979402
0.03276479 0.0468718 0.066538565 -0.09837685 -0.088365026 -0.10638455 -0.016987268 -0.07164031
-0.033327166 -0.03281943 0.031546287 -0.011110465 0.049697023 -0.10295817 -0.006554041 0.07835713
-0.02364779 -0.05294066 0.074990876 -0.09462632 -0.057192788 0.04137931 0.04544381 -0.029170766
-0.057089716 -0.103599526 0.06674291 -0.0024887405 -0.052990723 0.047407992 -0.12260425 0.053665746
0.022922825 -0.057349537 -0.012024004 0.01879881 -0.013003179 0.09336205 -0.08476642 0.022898879
-0.019025728 -0.010431822 -0.083392315 0.01737444 -0.019665355 0.0066604405 -0.046704143 0.06108985
-0.039313152 -0.14851137 -0.018655334 -0.056193586 0.036818348 0.0021799763 -0.035616145 -0.034096617
-0.1976489 -0.10341226 -0.017006487 0.0109108845 0.049832754 -0.04827288 0.053561136 -0.057762247
0.09934018 -0.0048943143 -0.0077906675 0.06744234 0.08068513 0.007344125 -0.08951709 -0.011539714
0.09619597 0.004672257 -0.0927248 0.021800641 -0.01260275 0.017544799 -0.07172513 -0.08098797
-0.076716736 0.031000523 0.06350315 0.043753624 -0.0124148205 -0.06563415 -0.066604614 -0.029188298
0.04448473 -0.06525698 -0.089613646 0.11037107 0.026169276 -0.037396826 -0.12472462 -0.060191553
-0.04170732 0.011178389 0.05169946 -0.0058105183 0.052977722 -0.081678815 -0.0055110003 -0.008983467
0.07778525 -0.06398996 -0.042788118 -0.11825452 0.12382104 -0.026570966 -0.12140926 -0.01982094
0.019667225 0.030138081 -0.029091759 -0.09333845 0.055856533 -0.04474519 0.01602918 0.06006485
-0.16763419 0.03970726 0.008127641 -0.08910328 -0.018379781 0.07389024 -0.105823 -0.0006595603
0.018441724 0.036434658 0.070000954 -0.024915949 -0.0011589427 0.00039264362 -0.01507575 -0.098466605
0.045357276 -0.09470665 -0.010011073 0.10393942 -0.035035618 0.013165533 0.04105171 0.0037780683
0.07424238 0.04549032 0.015148396 0.0027710295 0.085809626 -0.024004776 -0.06000756 -0.052625272
-0.0063531213 -0.047561064 -0.121490285 0.015363922 -0.06289565 -0.039768107 -0.13364981 -0.15837517
0.011166349 0.07224164 0.059188172 0.055962607 -0.15417168 -0.07018209 0.056566194 -0.10617942
0.07087746 0.0314076 0.04939059 -0.14569 -0.09435922 -0.08058329 -0.13678747 -0.050826754
0.09361572 -0.102856964 -0.0035803006 -0.059943527 -0.09220366 0.060232628 -0.04372547 0.0055697025
00000000: 8d42 473d df37 ec3c f222 03bc 589b 783d
00000010: 0b4e b9bd 797a 02bd cdcf 8f3b 285f a1bc
00000020: f424 a3bc 654d 32bd 7588 98bd 4c99 cb3c
00000030: 1376 adbd baf7 853d 7773 cdbc c155 aa3c
00000040: 3071 623c 3429 bb3c f433 8f3d fbba d43a
00000050: 12cd 4dbc 46a7 1dbd bde5 c63a 5408 93bd
00000060: 4aef 10bd 37f5 a6bd 815d 48bb 21bf d83c
00000070: 1077 cd3c f8e4 9abc d6b0 2e3d e640 47bd
00000080: cdc9 d3bb b9a3 37bd 1d27 81bd 683f 133c
00000090: c7eb 833b 6f25 02bd 1e47 cf3d 2570 bcbb
000000a0: 5625 963d dbf4 96bd 10f7 f13a 1f84 cdbc
000000b0: a506 4dbd 74df a7bd 6d06 c83c 0cf7 4d3d
000000c0: f37d 85bd 999c bebc fa6d e0bc 0ae0 76bc
000000d0: a182 2ebd 2955 f0bc ba0f 21bd 8b98 83bd
000000e0: a28b 9abd 004b acbb 2a29 b53d b3e4 e03c
000000f0: 13c2 91bc 74e0 9dbb 5822 413c 53dc 0dbd
00000100: 7b62 a23d a68c b0bd eb67 93bd a668 203c
00000110: a9ab 423d a3c7 263c 64d4 d93c 2bf0 8e3d
00000120: 5f34 063d a5fc 3f3d 5f45 883d cd79 c9bd
00000130: b9f8 b4bd 25e0 d9bd e228 8bbc 28b8 92bd
00000140: 1182 08bd ab6d 06bd ae36 013d ab08 36bc
00000150: 1b8f 4b3d bcdb d2bd 48c3 d6bb b479 a03d
00000160: 03b9 c1bc 4ed8 58bd d194 993d 72cb c1bd
00000170: fc42 6abd 5a7d 293d 4a23 3a3d 88f7 eebc
00000180: e8d6 69bd fd2b d4bd 82b0 883d 231a 23bb
00000190: cd0c 59bd e22e 423d f017 fbbd 9dd0 5b3d
000001a0: a6c8 bb3c 59e7 6abd 5400 45bc f6ff 993c
000001b0: 490b 55bc 9a34 bf3d 049a adbd 6e96 bb3c
000001c0: d8db 9bbc 3cea 2abc 97c9 aabd d754 8e3c
000001d0: 3d19 a1bc d33f da3b d84c 3fbd 5a39 7a3d
000001e0: d406 21bd 5d13 18be 12d3 98bc 3f2b 66bd
000001f0: d6ce 163d efdd 0e3b 3ce2 11bd e5a8 0bbd
00000200: 7964 4abe cfc9 d3bd 3051 8bbc 91c3 323c
00000210: 6e1d 4c3d c9b9 45bd ec62 5b3d 1b98 6cbd
00000220: dd72 cb3d 7c60 a0bb db48 ffbb 361f 8a3d
00000230: 3f3e a53d fca6 f03b bc54 b7bd 1211 3dbc
00000240: 6502 c53d bc19 993b 80e6 bdbd 4297 b23c
00000250: c47b 4ebc 1cba 8f3c a0e4 92bd 05dd a5bd
00000260: aa1d 9dbd cff4 fd3c f10d 823d 0037 333d
00000270: 8867 4bbc 326b 86bd 0068 88bd 4c1c efbc
00000280: 9f35 363d 74a5 85bd 5c87 b7bd 3a0a e23d
00000290: f360 d63c 6a2d 19bd 9f6f ffbd 6b8b 76bd
000002a0: 4bd5 2abd 9025 373c d0c2 533d 2966 bebb
000002b0: 2bff 583d 3947 a7bd 9f95 b4bb 642f 13bc
000002c0: e04d 9f3d 2b0d 83bd 9842 2fbd 6d2f f2bd
000002d0: e395 fd3d 5bab d9bc 6ba5 f8bd 865f a2bc
000002e0: 291d a13c 23e4 f63c d751 eebc 3b28 bfbd
000002f0: d2c9 643d bb46 37bd a04f 833c 8f06 763d
00000300: 4ca8 2bbe 14a4 223d cc29 053c c87b b6bd
00000310: 3291 96bc c453 973d bbb9 d8bd 58e6 2cba
00000320: 1913 973c 823c 153d a95c 8f3d 881c ccbc
00000330: aae7 97ba bcdb cd39 4700 77bc dca8 c9bd
00000340: 8dc8 393d 8ff5 c1bd 7c05 24bc 31de d43d
00000350: 8281 0fbd 3fb4 573c d625 283d 7899 773b
00000360: 640c 983d 0f54 3a3d fa30 783c 299a 353b
00000370: f5bc af3d aaa5 c4bc 7dca 75bd 998d 57bd
00000380: d82d d0bb 64cf 42bd e6cf f8bd f6b8 7b3c
00000390: 6fcf 80bd e2e3 22bd 7fdb 08be 1a2d 22be
000003a0: 10f3 363c 6df3 933d 4c6f 723d 0c39 653d
000003b0: 2edf 1dbe a1bb 8fbd f4b1 673d 9974 d9bd
000003c0: 3428 913d 41a5 003d ca4d 4a3d c22f 15be
000003d0: 683f c1bd da08 a5bd 0412 0cbe b72f 50bd
000003e0: 99b9 bf3d aca6 d2bd 7aa3 6abb 5887 75bd
000003f0: 46d5 bcbd 7db6 763d 7a19 33bd 0d82 b63b

fc2.bias f4 [128]
-0.04564632 0.0031847616 0.03870445 0.010787255 -0.03033722 0.02140247 -0.107968196 0.023785926
-0.03529683 -0.012348491 -0.030838352 -0.097769946 0.32124454 -0.068539485 -0.06628784 -0.06656313
-0.0009138001 -0.0614536 0.0028229689 0.022924885 0.11942426 -0.043421593 0.076914676 -0.04360962
-0.042439807 -0.09089954 0.007367414 0.052745257 0.0072051617 0.0062734117 0.019472465 0.040409382
-0.048297495 -0.047100812 0.02874443 -0.10325069 -0.052423555 0.009739965 -0.04147491 0.06127353
-0.047090456 0.014381197 -0.07886432 0.03355634 -0.0055067423 0.05250302 0.029908279 -0.07012831
0.0216991 -0.08546321 -0.108139485 -0.044246826 -0.02710685 0.032685798 -0.07870392 -0.012340493
-0.12082311 -0.10346006 -0.08604987 0.019970195 0.04875253 0.0018126336 -0.009216815 0.015322634
-0.02021258 -0.0044744625 -0.022434896 -0.095394306 -0.016150136 -0.03130695 -0.025771314 -0.024328668
-0.00647197 -0.005945367 -0.040859777 -0.09555473 -0.09252579 -0.050269477 -0.069583274 0.009677335
-0.010578152 0.015286688 -0.0411002 -0.09695111 0.032510813 -0.03532616 -0.008698846 0.029377839
0.027605813 0.02656358 -0.0438871 0.014768793 0.0153207965 -0.0003768933 -0.058724437 0.11016981
0.0030370257 0.12812316 -0.103300296 -0.020080293 -0.06513047 -0.026928948 0.06772829 -0.069222
-0.046044365 -0.102895714 -0.04779406 0.013138097 -0.06053935 0.0016293091 -0.049993467 -0.012029052
0.08862277 -0.016332876 0.040138096 -0.07792938 -0.066768475 0.016564963 -0.0007815171 -0.059197877
-0.03204655 -0.060929682 0.05846114 -0.04997004 -0.021848155 0.16812603 0.03946197 0.0117735835
00000000: a3f7 3abd 6fb7 503b 8f88 1e3d 07bd 303c
00000010: c385 f8bc 3c54 af3c 6e1e ddbd b4da c23c
00000020: 6993 10bd 5351 4abc b6a0 fcbc 9c3b c8bd
00000030: 2a7a a43e 6e5e 8cbd ebc1 87bd 4052 88bd
00000040: 168c 6fba c5b6 7bbd 8f01 393b f8cc bb3c
00000050: b594 f43d d7da 31bd 7185 9d3d 00a0 32bd
00000060: 5dd5 2dbd 8a29 babd 596a f13b 690b 583d
00000070: 4719 ec3b 3191 cd3b b884 9f3c 4f84 253d
00000080: 98d3 45bd c8ec 40bd 7079 eb3c 1975 d3bd
00000090: 15ba 56bd 6094 1f3c 98e1 29bd f4f9 7a3d
000000a0: ece1 40bd 1d9f 6b3c 9e83 a1bd 5f72 093d
000000b0: e771 b4bb 680d 573d 3502 f53c 6e9f 8fbd
000000c0: 50c2 b13c 5607 afbd 3c78 ddbd 293c 35bd
000000d0: 2f0f debc 8be1 053d 852f a1bd c72f 4abc
000000e0: 1b72 f7bd dee2 d3bd ea3a b0bd 8998 a33c
000000f0: bcb0 473d e495 ed3a 2002 17bc c90b 7b3c
00000100: da94 a5bc 839e 92bb 63c9 b7bc 175e c3bd
00000110: 4a4d 84bc b73b 00bd 5d1e d3bc ea4c c7bc
00000120: d212 d4bb 5ad1 c2bb 955c 27bd 33b2 c3bd
00000130: 297e bdbd 5ee7 4dbd ad81 8ebd af8d 1e3c
00000140: fc4f 2dbc 0475 7a3c af58 28bd 4e8e c6bd
00000150: 0f2a 053d 2ab2 10bd 9b85 0ebc cba9 f03c
00000160: 9625 e23c dd9b d93c f6c2 33bd cff8 713c
00000170: 1404 7b3c c399 c5b9 0989 70bd b6a0 e13d
00000180: d608 473b b832 033e 1b8f d3bd 6d7f a4bc
00000190: 2063 85bd 199a dcbc 21b5 8a3d 44c4 8dbd
000001a0: 0499 3cbd fdba d2bd b4c3 43bd 2c41 573c
000001b0: 1cf8 77bd 8b8e d53a f3c5 4cbd 8015 45bc
000001c0: db7f b53d 86cc 85bc d867 243d 7099 9fbd
000001d0: e9bd 88bd 3fb3 873c bade 4cba 7979 72bd
000001e0: 3e43 03bd 6791 79bd f374 6f3d 62ad 4cbd
000001f0: e7fa b2bc 3b29 2c3e e0a2 213d fde5 403c

fc3.weight f4 [7, 128]
-0.073716134 -0.23794013 -0.048676677 0.014422389 -0.048425782 -0.14216758 0.008985087 -0.0980815
0.07016795 0.018728504 -0.0027361945 -0.03198743 -4.494114 -0.07990163 -0.014578155 0.019598527
-0.044438493 0.030069422 -0.19128092 0.038413405 -0.92683506 0.048736177 -2.3222623 0.04358324
0.07645686 -0.041355584 0.009841238 -0.16040513 -0.012380401 0.03845578 -0.01894806 -0.20329058
0.0032430594 -0.08112438 -0.39056465 -0.024439508 -0.11450848 -0.12059013 -0.02745239 -0.31997058
0.045657557 0.025191715 -0.0730861 -0.07570033 0.048594866 -0.12492879 -0.068520665 0.013303977
-0.11908167 0.031062027 -0.3508829 0.025004629 0.018355975 -0.92362666 -0.012219448 0.0011480137
0.022721663 -0.030783933 0.0203067 0.03962863 0.032850765 0.017444074 -0.10874184 -0.006068565
-0.1100837 0.060933776 -0.025657829 -0.019280145 -0.03265651 -0.06297653 -0.0059899874 0.034563947
-0.048841413 -0.4878505 -0.10015671 0.08607582 -0.0721202 -0.0038772712 0.022726879 0.06981089
-0.072752245 -0.047636606 -0.06677073 -0.031498928 -0.07967553 -0.05708391 -0.057682067 -0.04836642
-0.14865333 -0.94312185 0.012222997 -0.036489595 0.008882554 -0.069551855 -0.007650586 -0.23664308
-0.043811515 -2.536936 0.004225931 -0.009023284 -0.043892853 -0.041489188 -0.5632472 -0.043942578
-0.057816472 -0.1375616 0.033514038 -0.07255865 -0.026995495 -0.015409477 -0.03160948 0.035463456
-4.372671 -0.077903934 -0.13476063 0.024015075 -0.082701586 -0.14699914 0.027065309 -0.062628515
-0.15695934 -0.110702544 -0.08584538 0.0011289171 0.034332827 -4.7880325 -0.07204599 -0.011993587
-0.007205093 0.009155789 0.018885676 0.038546562 -0.12570487 -0.013699199 0.016232403 -0.031915627
-0.0870775 0.052700855 0.07153719 0.061189618 -0.06835983 -0.03896571 0.18917817 0.0064748367
0.010413355 0.045900445 0.10133556 -0.05479157 -0.0063687204 0.026531601 0.22267158 -0.04055412
0.052464955 0.057531957 -0.02818787 0.0076181535 -0.046705045 -0.08209587 -0.014001738 0.02974596
0.0013701237 0.027580068 0.021282075 -0.098676495 -0.040694956 0.020437004 -0.009734798 0.016107002
0.0816991 0.025029399 -0.06497907 0.047395375 0.020407667 0.07138352 0.0909269 0.046760287
-0.018307446 0.052140195 -0.04092582 -0.0123245055 -0.05355838 0.1362092 0.010114505 0.053031467
-0.024139948 -0.03290577 -0.016156353 -0.008516351 0.030005468 0.11472909 0.01686094 -0.04718365
-0.08979123 0.18389596 0.005259612 -0.05514107 0.087603346 0.0031668579 0.01947698 0.07069566
0.009485604 -0.07875238 -0.02627586 -0.057183925 -0.027485475 0.0927066 -0.08110591 -0.008041757
-0.053833812 0.059631873 0.04193608 0.0165333 -0.09042704 0.008959181 -0.015527448 0.11805037
0.03647341 0.03842984 0.04017796 0.014828226 -0.043692585 -0.12516898 -0.011874898 0.0056404667
-8.9159745e-05 -0.072110794 -0.024291985 0.08031394 -0.045286134 -0.020235075 -0.02316382 0.086010404
0.033432502 -0.09228108 -0.073556185 0.09526804 0.043460745 0.18367705 0.13805312 -0.012053873
-0.104222655 0.00018939532 -0.0007132042 -0.06755806 -0.0028859058 -0.036893684 0.0076562925 -0.008220325
-0.010503334 0.117289744 0.011025512 -0.0694132 0.04028843 0.034244385 0.01762433 0.0018682925
00000000: 7cf8 96bd 94a6 73be 3261 47bd e24b 6c3c
00000010: 1d5a 46bd 6194 11be 3036 133c f4de c8bd
00000020: 37b4 8f3d 856c 993c ba51 33bb 4005 03bd
00000030: c8cf 8fc0 77a3 a3bd 37d9 6ebc 178d a03c
00000040: 2305 36bd 2654 f63c 25df 43be 6057 1d3d
00000050: 1045 6dbf 969f 473d f29f 14c0 5784 323d
00000060: 6a95 9c3d 7964 29bd 253d 213c 3e41 24be
00000070: 2ad7 4abc cf83 1d3d f638 9bbc 682b 50be
00000080: 8289 543b 8a24 a6bd 17f8 c7be 5d35 c8bc
00000090: 6c83 eabd f5f7 f6bd d6e3 e0bc 2fd3 a3be
000000a0: 6b03 3b3d db5e ce3c 2aae 95bd c608 9bbd
000000b0: 690b 473d aada ffbd 9054 8cbd edf8 593c
000000c0: 17e1 f3bd cb75 fe3c eca6 b3be 82d6 cc3c
000000d0: 455f 963c cc72 6cbf 1434 48bc f378 963a
000000e0: c822 ba3c 962e fcbc 3d5a a63c a151 223d
000000f0: 868e 063d e0e6 8e3c 0bb4 debd d0da c6bb
00000100: 9073 e1bd b295 793d 5e30 d2bc 65f1 9dbc
00000110: d5c2 05bd d7f9 80bd a847 c4bb ed92 0d3d
00000120: ef0d 48bd 8ac7 f9be f61e cdbd 8548 b03d
00000130: c1b3 93bd d119 7ebb b82d ba3c 03f9 8e3d
00000140: 21ff 94bd 9a1e 43bd 18bf 88bd 0505 01bd
00000150: ed2c a3bd d1d0 69bd 0844 6cbd de1b 46bd
00000160: 9438 18be 6f70 71bf f742 483c 1d76 15bd
00000170: 2288 113c 3471 8ebd c4b1 fabb 9052 72be
00000180: b473 33bd 295d 22c0 ae79 8a3b 65d6 13bc
00000190: fec8 33bd 91f0 29bd f830 10bf 22fd 33bd
000001a0: f7d0 6cbd f3dc 0cbe 0446 093d a199 94bd
000001b0: a825 ddbc 0878 7cbc f178 01bd 2142 113d
000001c0: ecec 8bc0 198c 9fbd b1fe 09be 43bb c43c
000001d0: 735f a9bd f186 16be 11b8 dd3c 6143 80bd
000001e0: f3b9 20be 04b8 e2bd b4cf afbd 2cf8 933a
000001f0: 94a0 0c3d 9037 99c0 d98c 93bd c080 44bc
00000200: b318 ecbb 2a02 163c 22b6 9a3c 00e3 1d3d
00000210: c7b8 00be 9b72 60bc d1f9 843c f6b9 02bd
00000220: b055 b2bd dadc 573d 1782 923d f7a1 7a3d
00000230: 3d00 8cbd 829a 1fbd ecb7 413e de2a d43b
00000240: c79c 2a3c 1b02 3c3d 0589 cf3d 206d 60bd
00000250: b3b0 d0bb cd58 d93c 0504 643e 141c 26bd
00000260: 7ee5 563d a1a6 6b3d 3fea e6bc b4a1 f93b
00000270: ca4d 3fbd e121 a8bd 8c67 65bc cdad f33c
00000280: b995 b33a 98ef e13c bf57 ae3c e716 cabd
00000290: c1af 26bd 816b a73c b47e 1fbc d5f2 833c
000002a0: dc51 a73d 740a cd3c bf13 85bd a721 423d
000002b0: fb2d a73c 8631 923d e237 ba3d b787 3f3d
000002c0: 7ff9 95bc f590 553d d5a1 27bd b9ec 49bc
000002d0: 0860 5bbd 6d7a 0b3e 4fb7 253c 8637 593d
000002e0: 24c1 c5bc 33c8 06bd 545a 84bc 2a88 0bbc
000002f0: 07ce f53c 16f7 ea3d f41f 8a3c a543 41bd
00000300: 77e4 b7bd 394f 3c3e d358 ac3b 9adb 61bd
00000310: 6269 b33d 0f8b 4f3b 308e 9f3c e3c8 903d
00000320: 8269 1b3c ee48 a1bd 7940 d7bc b139 6abd
00000330: 3829 e1bc f5dc bd3d db1a a6bd 93c1 03bc
00000340: d880 5cbd 8d40 743d 2bc5 2b3d d870 873c
00000350: d031 b9bd 87c9 123c d666 7ebc 64c4 f13d
00000360: 2465 153d 9c68 1d3d a591 243d 16f2 723c
00000370: fff6 32bd 4c2c 00be ef8e 42bc aad3 b83b
00000380: 46fb bab8 d3ae 93bd fcff c6bc a37b a43d
00000390: f47d 39bd 07c4 a5bc 0dc2 bdbc 3926 b03d
000003a0: 85f0 083d ddfd bcbd a0a4 96bd e41b c33d
000003b0: e503 323d d615 3c3e cc5d 0d3e 9c7d 45bc
000003c0: b072 d5bd 6b98 4639 53f6 3aba e15b 8abd
000003d0: 7721 3dbb d51d 17bd a3e1 fa3b 8bae 06bc
000003e0: 2d16 2cbc 9b35 f03d 59a4 343c 8228 8ebd
000003f0: 7b05 253d d743 0c3d e660 903c 7ee1 f43a

fc3.bias f4 [7]
-0.26466814 -0.04717687 0.021644406 0.0052944156 -0.00089456583 -0.21263707 -0.2702308
00000000: 9582 87be 893c 41bd 9c4f b13c c77c ad3b
00000010: 4c81 6aba 88bd 59be b15b 8abe
