hackathon_toolkit/checkpoints_qlearn/agent_1_episode_3500.pth (torch, 78474 bytes, 6 tensors)

fc1.weight f4 [128, 11]
000000 4a 8a 08 bc a4 69 6b be 76 15 14 3e 38 71 ce 3c
       -0.008333752 -0.22989517 0.14461312 0.025200471
000010 73 f7 c2 3d 00 32 04 bd 27 7c db bd 29 28 96 be
       0.095198534 -0.032274246 -0.107170396 -0.29327515
000020 8c 8f 88 be 62 f2 a2 3e de 3a 2a 3e d4 f6 01 be
       -0.26672018 0.31825548 0.16624019 -0.12691814
000030 1f 23 75 3d f8 76 eb 3c 7a 6b ac 3e 96 c1 98 bd
       0.059847947 0.028743252 0.33675748 -0.074587986
000040 12 48 4a 3e 70 a0 cd 3e 89 d9 9e 3c 43 36 7d 3e
       0.19754055 0.40161467 0.019390838 0.2472773
000050 a0 4f 1e bf 56 fb 4c be f4 e9 87 be 5c 6e bf be
       -0.6184025 -0.20017752 -0.2654568 -0.37388885
000060 14 a3 c6 3d 18 1b 28 be 4d b1 49 bd e4 7d f5 3d
       0.096990734 -0.16416585 -0.049241353 0.11986902
000070 b6 04 8d 3e 90 01 b9 3e 3d 84 39 3e 82 04 98 3d
       0.27542657 0.36134005 0.18116851 0.07422735
000080 71 6d 98 be eb 4d 25 bc 91 c5 57 3e 6d 4a da 3c
       -0.29770997 -0.010089378 0.2107146 0.026646817
000090 7d d9 3a 3e 40 13 1d be 26 4f 9a 3e 2c d4 05 3e
       0.18247028 -0.15339375 0.3013851 0.13069218
0000a0 fd 96 5e be 2b 8b 24 bd c2 5a 97 be 9e 83 20 be
       -0.21737285 -0.040171783 -0.2956143 -0.15675208
0000b0 d3 0b 2a 3e 9a 2a 46 3e c8 b8 66 3d 53 25 e2 bd
       0.16606073 0.19352189 0.056328565 -0.11042275
0000c0 13 65 0f 3e 4c 1e 98 bd ae fe 97 3e df 12 98 3e
       0.140034 -0.07427654 0.29686493 0.29701898
0000d0 ef e5 38 be 35 38 63 be 22 e9 90 3e 0b 06 52 be
       -0.18056463 -0.2218941 0.28302866 -0.20510118
0000e0 93 d2 c6 be 80 ee 88 3e a4 35 1d 3e 3e 2f 38 3e
       -0.3883253 0.2674446 0.15352494 0.17986771
0000f0 0f 6c 10 3e 57 8d 30 be 26 a4 12 bc 80 79 a3 3e
       0.14103721 -0.17241417 -0.008950269 0.31928635
000100 3e 8e 3a 3d 0d 32 f6 bd de 8b 01 3e d4 c5 84 bd
       0.04554581 -0.12021265 0.12651011 -0.06483045
000110 c6 f5 bd bc ef 29 5e 3d 56 e7 d0 bd e3 b6 ee ba
       -0.023188483 0.05423921 -0.10200374 -0.0018212463
000120 c3 15 17 be e2 46 a8 bc ac 13 8c 3e d3 e3 9a 3e
       -0.14754395 -0.020541612 0.27358758 0.3025194
000130 a8 b8 f2 bd 65 3f bf 3d 35 68 f5 3e 82 14 89 bd
       -0.11851627 0.093382634 0.47931066 -0.06693365
000140 e7 04 98 3e f9 02 8b 3e ae fb 50 bc 4e 69 77 3e
       0.2969124 0.27150705 -0.012755318 0.24161264
000150 2e 39 4e 3e 0f e0 9c bd 40 75 6e be a1 8d d8 3e
       0.20139 -0.07659923 -0.23286915 0.42295554
000160 9c 09 c4 be 00 2f f3 3e b3 52 da 3e dc 29 f3 bd
       -0.3828858 0.47496796 0.4264122 -0.118732184
000170 cd e1 33 be ba b8 ed 3c 14 92 4f 3e 27 c5 9d 3c
       -0.17566605 0.029018749 0.20270568 0.019259049
000180 11 32 31 be 5a d0 2b be 22 1b f6 3e 4e 71 02 be
       -0.17304255 -0.16778699 0.48067576 -0.12738535
000190 8b 17 3b 3e 0e 9b 3a 3e 2e 2b 66 be 77 9a 0e bd
       0.182707 0.18223211 -0.22477409 -0.034815278
0001a0 ec 26 30 be 8e 1c 00 be aa f5 5b 3d dc f1 09 3e
       -0.17202348 -0.12510893 0.05370108 0.13471168
0001b0 0d cf 9e 3e 52 e7 0d 3e 18 d3 66 3e 21 19 08 be
       0.31017342 0.13857773 0.22541463 -0.13290836
0001c0 60 43 ac 3d 60 f6 7e 3c b1 15 68 3c 06 28 22 3e
       0.08411288 0.01556167 0.014165328 0.1583558
0001d0 c7 78 29 be 1d 1e 32 be 6b 91 ce 3d af ea 12 3f
       -0.16549979 -0.173943 0.1008633 0.5738935
0001e0 83 49 ec 3d 1d 02 45 3d 16 9f f7 bd c8 93 10 bd
       0.11537459 0.04809772 -0.1209089 -0.035297185
0001f0 73 e7 50 bd 09 ff 5e 3e 08 23 1d 3d 4f 8a 30 3d
       -0.051001977 0.21776976 0.038363487 0.04310065
000200 cd e0 ad bd da 09 a6 3e 3f eb 94 be 2f 95 05 be
       -0.08490143 0.3242939 -0.2908573 -0.1304519
000210 80 df bc 3e c0 a9 45 be 70 c2 1c 3a 2c 59 25 be
       0.36889267 -0.19303036 0.0005979901 -0.16147298
000220 91 f5 28 3e 4a fa 43 bd 9c de 2a 3d 41 f4 2f 3e
       0.16499926 -0.047846116 0.041716203 0.17183019
000230 2b 0f 9c 3e be 52 dc 3e dd d6 a7 be 43 31 e8 3d
       0.30480322 0.43031877 -0.32781115 0.11337521
000240 32 2a 08 be c1 71 91 3d 91 f9 74 be d1 aa 76 3e
       -0.13297346 0.07101775 -0.23923327 0.24088599
000250 2d ce 35 3e d5 10 1b 3e 86 a6 b2 3d 6c c9 80 3e
       0.17754431 0.1514314 0.08723168 0.25153673
000260 cd 6d be be 4e 48 43 3e 49 3a 75 3e 7b fd f3 bd
       -0.37193146 0.19070551 0.23948015 -0.11913582
000270 f1 28 5b 3e 55 c6 cd be 47 a6 40 3e eb 5e 91 bd
       0.21402337 -0.40190378 0.1881343 -0.07098182
000280 9b 27 a3 be ee 1d 1e 3d b9 cd 89 3e 21 f4 5c 3e
       -0.31866154 0.038602762 0.26914766 0.21577503
000290 50 ff 0a be a7 08 3b be ad b1 99 be 0f 67 24 be
       -0.13573956 -0.1826502 -0.30018368 -0.16054939
0002a0 a7 da b6 3e 9c 52 bb 3e 33 15 a6 bd 81 3c 87 3e
       0.35713693 0.36586463 -0.08109512 0.26413348
0002b0 cd a7 22 be c2 c6 a4 3e 50 31 92 3e 3c a5 43 be
       -0.15884323 0.3218289 0.28553247 -0.19106
0002c0 30 14 f4 bd c3 3d 7e bd 32 0a 01 be e9 17 b6 3c
       -0.11917913 -0.06207062 -0.12601545 0.022228198
0002d0 52 ad 5d 3e 0d 8d 76 bd fa c7 c4 bd 46 9c c3 3d
       0.21648148 -0.06019311 -0.09608455 0.09551291
0002e0 1b 72 91 3e 8a 35 90 bd cd 62 ad be 60 84 f6 3e
       0.28407368 -0.07041462 -0.33864442 0.4814787
0002f0 4b bd 88 3e d8 19 48 3d ac a0 2c be 9f 66 1d 3c
       0.2670692 0.04885277 -0.16858166 0.009606986
000300 05 0a 1c 3e 78 65 05 be 07 33 25 3e 89 3f c9 be
       0.15238197 -0.13026989 0.16132747 -0.39306286
000310 b1 15 1c 3d 6c 9b 2f be e8 98 0d 3e f3 11 b0 be
       0.038106624 -0.17149132 0.1382786 -0.34388694
000320 07 82 b9 3d 0c 16 76 3e ee 65 14 3e 76 b7 8a 3e
       0.09058004 0.24031848 0.14492008 0.27093095
000330 c3 e1 99 3e de 07 d6 bd d2 29 f4 bd ab 2c e1 3c
       0.30055055 -0.10450719 -0.11922039 0.02748712
000340 82 75 63 be c5 96 84 3c ad c9 9d 3e f1 dd e9 3d
       -0.22212794 0.016185174 0.3081793 0.11419285
000350 c1 2e 26 3e 48 73 91 3d 48 77 90 3e 41 63 c8 3d
       0.16228773 0.07102066 0.28216004 0.09784556
000360 e5 b9 15 ba 4a ab d9 be c2 a4 ee 3d 05 5d f5 3e
       -0.00057115994 -0.42513496 0.11652519 0.4792253
000370 b8 46 44 be f5 ae 6d be 54 7b 19 bd ca 5d 6d 3e
       -0.19167602 -0.23211272 -0.03747113 0.23180309
000380 ab 34 a1 3d 25 e7 3f be 6a 44 cf 3c 65 e9 97 3e
       0.07871374 -0.18740518 0.025301177 0.29670253
000390 f2 f0 bf 3b 86 9b 3d be e9 51 92 3e 35 5d 4f 3e
       0.0058575803 -0.18516359 0.28578117 0.202504
0003a0 28 01 01 3f 85 d4 e6 3d d4 0c c9 bd e5 ad 5a be
       0.5039239 0.11271004 -0.098169 -0.21355398
0003b0 35 9c 6e 3e 00 21 b9 3d f4 26 58 3e a4 ea 05 be
       0.23301776 0.090394974 0.2110861 -0.1307779
0003c0 6e 0c c1 bd 3b a8 af 3e e3 06 0d 3f fa 06 ab 3c
       -0.09426199 0.34308037 0.55088633 0.02087735
0003d0 55 87 7e be bb da 41 3e 6b ee d5 bd fb 62 b2 bd
       -0.24856313 0.18931095 -0.10445865 -0.08710285
0003e0 b1 eb 49 bd 85 56 80 3e 8c fc 00 3c de ba da 3e
       -0.04929704 0.2506601 0.007872712 0.42720693
0003f0 85 95 b6 bd 76 bb 20 be f4 f4 ad 3e 44 3f 48 be
       -0.08915237 -0.1569651 0.33975947 -0.19555384

fc1.bias f4 [128]
000000 2e f3 90 be b4 db 16 3e 05 54 68 be a1 f7 a7 be
       -0.2831053 0.14732248 -0.22688301 -0.32806113
000010 4e a1 b4 bd 1a 9d d6 3d fd c9 03 bd c3 e6 81 3e
       -0.08819829 0.104791835 -0.032175053 0.2537137
000020 40 a3 be bd 2d d5 d6 bd 30 d9 10 3e 81 2c 9a bd
       -0.09308481 -0.10489879 0.1414535 -0.0752802
000030 88 df 37 be 78 6e a2 be fa 3e 10 be ab 99 79 3e
       -0.17956364 -0.31724906 -0.14086524 0.24375026
000040 18 d5 c3 be e1 71 c8 bc ec 03 3b 3e cf e2 46 bd
       -0.38248515 -0.024468364 0.18263215 -0.048556145
000050 ca 42 40 be b8 ac 4f 3d eb c9 dd bd 36 a9 08 be
       -0.18775478 0.050701827 -0.108295284 -0.13345799
000060 3d c9 c0 bc c0 e4 f5 3d 64 4f 1b be 97 fa ab be
       -0.023533458 0.12006521 -0.15167004 -0.33589622
000070 6f 10 58 be 94 0d 04 bf b0 23 d2 be f6 46 8d be
       -0.21100019 -0.5158322 -0.41042852 -0.275932
000080 ad b8 4e 3d 21 b9 10 be 3c 87 23 be 70 98 2e 3e
       0.05046909 -0.14133121 -0.15969557 0.17050338
000090 29 21 80 be 2c 84 81 3d e2 9b 50 be 65 d4 fc be
       -0.250253 0.06324038 -0.20371965 -0.49380794
0000a0 01 1c bf be 6e 51 a8 3e 0a b3 11 3e 50 90 11 be
       -0.37326053 0.32874626 0.14228454 -0.14215207
0000b0 88 ab c0 bd d5 a1 d5 3e 08 6f 09 be 46 3a 96 bd
       -0.09407717 0.4172503 -0.13421261 -0.073353335
0000c0 1f c5 99 bc af 60 3f bd 26 63 84 be 81 03 48 3e
       -0.018770752 -0.046723064 -0.25856894 0.19532587
0000d0 12 62 cc be 74 ec 95 3b 2a 48 45 3e 17 74 91 3e
       -0.39918572 0.0045753065 0.1926581 0.28408882
0000e0 d7 41 b5 be ab fb 64 3a 4d 95 0f 3e b1 47 85 3d
       -0.35401794 0.0008735011 0.14021797 0.06507815
0000f0 c4 f9 ac 3c aa 75 58 3e b9 e8 51 3d c4 e5 29 3d
       0.021115191 0.21138635 0.051247332 0.041478887
000100 4c cc 39 3e 35 d4 47 be 96 e3 8b bd 90 4a 9a bd
       0.1814434 -0.19514544 -0.06830518 -0.07533753
000110 a8 4f a4 bd b7 f9 06 3d f7 8d cb 3e 89 1f 90 be
       -0.08023006 0.03295299 0.39756748 -0.2814906
000120 2a e3 c9 be 66 ce 91 be cd 72 a2 be 33 6a d6 bc
       -0.39431125 -0.28477782 -0.3172821 -0.026173687
000130 a6 46 65 bd 00 5b 8a bd 13 0e 81 3d c9 83 c5 3b
       -0.05597558 -0.06755638 0.063015126 0.006027673
000140 b0 09 19 bd af 8e 8c 3e 00 79 47 be ca 9e c5 bd
       -0.037362754 0.2745261 -0.19479752 -0.09649427
000150 b7 43 b7 3e 89 6d 1a be 1b 4e 40 bc 4a 5a e8 be
       0.3579385 -0.15080847 -0.011737372 -0.45381385
000160 65 7b b5 be 5e b8 ab bd bf 80 92 bd 61 1d ca be
       -0.35445705 -0.083847746 -0.071534626 -0.3947554
000170 96 04 13 3e a8 0e fe bd fe 73 32 bc 77 80 82 be
       0.14357218 -0.12405139 -0.0108919125 -0.25488636
000180 78 cf ae 3d ec 49 bb 3d 9c 68 0a be e9 05 8f be
       0.08535665 0.09144959 -0.13516468 -0.27934197
000190 ed 86 f9 bd 13 13 1a 3e 6a 19 a4 3e d1 8d fc bd
       -0.12183938 0.15046339 0.3205064 -0.12331737
0001a0 18 f9 5d be 3f f4 b6 3b 80 ce c7 bd 34 f3 c5 bd
       -0.21677053 0.0055833156 -0.097561836 -0.09665528
0001b0 08 de 11 3e a9 ee 53 3d 22 5c 60 3e 13 fa 10 be
       0.14244854 0.051741276 0.21910146 -0.14157896
0001c0 db 59 5d 3e d9 01 46 be 0e 45 3a be 11 f8 a1 3e
       0.21616308 -0.19336642 -0.18190405 0.31634572
0001d0 f8 3d 82 be ad ef 08 3e f7 99 35 be e4 df e7 3d
       -0.25437903 0.13372679 -0.17734514 0.113220006
0001e0 87 9c 13 3e 07 2c 9b 3d c2 26 9a be c4 4b 4a be
       0.14415179 0.07576757 -0.30107695 -0.19755465
0001f0 27 12 05 3c f8 83 f9 bd 17 0f d0 3d cb 35 50 be
       0.008122004 -0.12183374 0.10159128 -0.2033302

fc2.weight f4 [128, 128]
000000 ce c4 3f 3d 13 dd 5a ba da c7 ef bc da 59 73 3d
       0.046818547 -0.00083489827 -0.029270101 0.05941186
000010 0b 4e b9 bd b5 07 59 bd ef 45 85 bb 28 5f a1 bc
       -0.09048089 -0.052985866 -0.0040671746 -0.019698694
000020 f4 24 a3 bc 65 4d 32 bd 75 88 98 bd 11 81 90 3c
       -0.019915082 -0.04353084 -0.07447902 0.017639669
000030 13 76 ad bd 3a df 15 3d 8e ea 07 bd a1 63 5c 3c
       -0.084697865 0.03658984 -0.033182673 0.013451488
000040 3a 42 cd ba 34 29 bb 3c 68 26 79 3d fb ba d4 3a
       -0.0015659996 0.022846796 0.060827643 0.0016230041
000050 2f 67 1e bd 46 a7 1d bd bd e5 c6 3a 54 08 93 bd
       -0.038672622 -0.038489603 0.0015174669 -0.07179323
000060 f9 1d 2a bd 68 c3 ca bd d3 8f 02 bd 21 bf d8 3c
       -0.04153249 -0.09900552 -0.031875443 0.026458325
000070 e8 8c 86 ba f7 13 27 bd b2 55 e2 3c ad 71 98 bd
       -0.0010265382 -0.040790524 0.027628753 -0.07443557
000080 41 bf 79 bc b9 a3 37 bd 49 36 ab bd 68 3f 13 3c
       -0.015243352 -0.044833872 -0.083599634 0.008987285
000090 8b 71 c9 bc 3e 16 1d bd 63 96 91 3d 26 c1 8a bc
       -0.024590274 -0.03835129 0.07108762 -0.016937803
0000a0 22 b1 36 3d db f4 96 bd 10 f7 f1 3a 85 77 30 bd
       0.04460252 -0.07370921 0.0018460471 -0.043082733
0000b0 c8 ec 91 bd 74 df a7 bd a6 07 bd bb 0c f7 4d 3d
       -0.071252406 -0.08196917 -0.005768734 0.05028443
0000c0 6f 0f 86 bd 8e 9c c8 bc a1 ea 45 bd 0a e0 76 bc
       -0.065459125 -0.024488714 -0.048319463 -0.0150680635
0000d0 a1 82 2e bd 29 55 f0 bc bf 52 55 bd 39 d0 bf bd
       -0.042605046 -0.029337483 -0.052080866 -0.09365887
0000e0 04 4e 9c bd 43 2e d2 bc 7b 2d 7d 3d 3c 1f 2a ba
       -0.07632068 -0.025656825 0.06181095 -0.00064896396
0000f0 13 c2 91 bc 74 e0 9d bb 58 22 41 3c 23 b3 52 bd
       -0.017792737 -0.0048180167 0.011787973 -0.05144037
000100 ed 2e 83 3d c4 76 ba bd 27 f9 cd bd a6 68 20 3c
       0.06405435 -0.09104684 -0.10057288 0.009790575
000110 a9 ab 42 3d 9a 46 ab 3b 64 d4 d9 3c 43 81 48 3d
       0.04752699 0.005226922 0.026590534 0.0489514
000120 e0 c0 24 3c 01 a7 b3 3c 49 fc 71 3d cd 79 c9 bd
       0.010055751 0.02193022 0.05907849 -0.09837685
000130 b9 f8 b4 bd 25 e0 d9 bd e2 28 8b bc 28 b8 92 bd
       -0.088365026 -0.10638455 -0.016987268 -0.07164031
000140 56 d0 29 bd ab 6d 06 bd ae 36 01 3d ab 08 36 bc
       -0.04145845 -0.03281943 0.031546287 -0.011110465
000150 1b 8f 4b 3d bc db d2 bd 96 61 8d bc c1 65 50 3d
       0.049697023 -0.10295817 -0.017258447 0.05087829
000160 3b fc f1 bc 4e d8 58 bd d1 94 99 3d 40 e9 d5 bd
       -0.029539218 -0.05294066 0.074990876 -0.104448795
000170 1f ce 8f bd 5a 7d 29 3d 4a 23 3a 3d 42 b5 4c bd
       -0.07021736 0.04137931 0.04544381 -0.04997755
000180 40 4e b2 bd fd 2b d4 bd 29 c1 45 3d 23 1a 23 bb
       -0.08706331 -0.103599526 0.048279915 -0.0024887405
000190 45 28 87 bd 1e 4b 22 3d f0 17 fb bd 1b 10 19 3d
       -0.06599478 0.03962242 -0.12260425 0.037368875
0001a0 bd 56 ad 3c b4 8f 90 bd 54 00 45 bc f6 ff 99 3c
       0.021159524 -0.07058659 -0.012024004 0.01879881
0001b0 49 0b 55 bc b9 ff 85 3d 04 9a ad bd 6e 96 bb 3c
       -0.013003179 0.06542916 -0.08476642 0.022898879
0001c0 d8 db 9b bc ef 87 d3 bc 97 c9 aa bd d7 54 8e 3c
       -0.019025728 -0.025821654 -0.083392315 0.01737444
0001d0 93 91 3e bd d3 3f da 3b d8 4c 3f bd c3 9d 2a 3d
       -0.04652555 0.0066604405 -0.046704143 0.04165436
0001e0 d4 06 21 bd 5d 13 18 be 1d d3 98 bc 58 90 80 bd
       -0.039313152 -0.14851137 -0.018655354 -0.062775314
0001f0 d6 ce 16 3d 36 db 0e 3b 2e 24 5c bd e5 a8 0b bd
       0.036818348 0.002179814 -0.05374544 -0.034096617
000200 79 64 4a be cf c9 d3 bd 30 51 8b bc 91 c3 32 3c
       -0.1976489 -0.10341226 -0.017006487 0.0109108845
000210 88 bd 4c 3d c9 b9 45 bd ec 62 5b 3d 1b 98 6c bd
       0.04998544 -0.04827288 0.053561136 -0.057762247
000220 dd 72 cb 3d a0 33 b2 bc db 48 ff bb 7a af 06 3d
       0.09934018 -0.021753132 -0.0077906675 0.03288219
000230 3f 3e a5 3d fc a6 f0 3b bc 54 b7 bd 12 11 3d bc
       0.08068513 0.007344125 -0.08951709 -0.011539714
000240 65 02 c5 3d bc 19 99 3b 80 e6 bd bd 42 97 b2 3c
       0.09619597 0.004672257 -0.0927248 0.021800641
000250 c4 7b 4e bc 1c ba 8f 3c a0 e4 92 bd 05 dd a5 bd
       -0.01260275 0.017544799 -0.07172513 -0.08098797
000260 aa 1d 9d bd 75 0d f8 3c f1 0d 82 3d 5f aa a9 bc
       -0.076716736 0.030279854 0.06350315 -0.020711122
000270 88 67 4b bc 32 6b 86 bd f3 90 9b bd 4c 1c ef bc
       -0.0124148205 -0.06563415 -0.07596006 -0.029188298
000280 2a db 38 3d 74 a5 85 bd 5c 87 b7 bd 3a 0a e2 3d
       0.045130886 -0.06525698 -0.089613646 0.11037107
000290 f3 60 d6 3c 6a 2d 19 bd 9f 6f ff bd 53 6a d3 bd
       0.026169276 -0.037396826 -0.12472462 -0.10323014
0002a0 4b d5 2a bd 90 25 37 3c d0 c2 53 3d 29 66 be bb
       -0.04170732 0.011178389 0.05169946 -0.0058105183
0002b0 bf 56 57 3d 39 47 a7 bd 9f 95 b4 bb fc 15 dc bc
       0.052572962 -0.081678815 -0.0055110003 -0.026865952
0002c0 c4 ff 4e 3d 2b 0d 83 bd 98 42 2f bd 6d 2f f2 bd
       0.050536886 -0.06398996 -0.042788118 -0.11825452
0002d0 e3 95 fd 3d 5b ab d9 bc 6b a5 f8 bd 86 5f a2 bc
       0.12382104 -0.026570966 -0.12140926 -0.01982094
0002e0 f0 28 2c bd 23 e4 f6 3c d7 51 ee bc 3b 28 bf bd
       -0.04203123 0.030138081 -0.029091759 -0.09333845
0002f0 d2 c9 64 3d bb 46 37 bd a0 4f 83 3c 68 31 86 3c
       0.055856533 -0.04474519 0.01602918 0.01638098
000300 4c a8 2b be 14 a4 22 3d cc 29 05 3c c8 7b b6 bd
       -0.16763419 0.03970726 0.008127641 -0.08910328
000310 32 91 96 bc c4 53 97 3d bb b9 d8 bd 58 e6 2c ba
       -0.018379781 0.07389024 -0.105823 -0.0006595603
000320 40 ab 92 3c 82 3c 15 3d a9 5c 8f 3d 88 1c cc bc
       0.017903924 0.036434658 0.070000954 -0.024915949
000330 aa e7 97 ba bc db cd 39 47 00 77 bc dc a8 c9 bd
       -0.0011589427 0.00039264362 -0.01507575 -0.098466605
000340 8d c8 39 3d 8f f5 c1 bd 7c 05 24 bc ee c9 0f 3d
       0.045357276 -0.09470665 -0.010011073 0.035104685
000350 f9 7f 93 bd 3f b4 57 3c 54 22 43 bb 78 99 77 3b
       -0.07202143 0.013165533 -0.00297751 0.0037780683
000360 64 0c 98 3d 85 db 83 3c fa 30 78 3c 29 9a 35 3b
       0.07424238 0.016095886 0.015148396 0.0027710295
000370 f5 bc af 3d aa a5 c4 bc 7d ca 75 bd 99 8d 57 bd
       0.085809626 -0.024004776 -0.06000756 -0.052625272
000380 d8 2d d0 bb 64 cf 42 bd e6 cf f8 bd ca 17 ba 3b
       -0.0063531213 -0.047561064 -0.121490285 0.0056791054
000390 6f cf 80 bd e2 e3 22 bd 7f db 08 be 1a 2d 22 be
       -0.06289565 -0.039768107 -0.13364981 -0.15837517
0003a0 10 f3 36 3c 6d f3 93 3d 4c 6f 72 3d 0c 39 65 3d
       0.011166349 0.07224164 0.059188172 0.055962607
0003b0 2e df 1d be a1 bb 8f bd f4 b1 67 3d 99 74 d9 bd
       -0.15417168 -0.07018209 0.056566194 -0.10617942
0003c0 e9 4c 83 3d 41 a5 00 3d ca 4d 4a 3d c2 2f 15 be
       0.06411154 0.0314076 0.04939059 -0.14569
0003d0 68 3f c1 bd da 08 a5 bd 04 12 0c be cf 6c 3a bd
       -0.09435922 -0.08058329 -0.13678747 -0.045513924
0003e0 ee 09 cc 3d ac a6 d2 bd 7a a3 6a bb 58 87 75 bd
       0.099628314 -0.102856964 -0.0035803006 -0.059943527
0003f0 46 d5 bc bd e8 6b 86 3d 7a 19 33 bd 0d 82 b6 3b
       -0.09220366 0.0656355 -0.04372547 0.0055697025

fc2.bias f4 [128]
000000 d7 bc 49 bd f6 d4 56 bd ed b8 54 bd 86 77 b7 bc
       -0.049252357 -0.05244919 -0.05193417 -0.02239586
000010 e3 78 9e bd 9e 73 0d bc 6e 1e dd bd 39 c8 1f bd
       -0.07737901 -0.008633522 -0.107968196 -0.039009307
000020 a5 e7 6d bd 4d 76 b5 bd 53 82 79 bd d5 f1 92 bd
       -0.05808224 -0.08860455 -0.060915302 -0.07175032
000030 ae 98 eb 3e 6e 5e 8c bd 68 d1 ad bd 2a cc 81 bd
       0.46014923 -0.068539485 -0.08487207 -0.06337769
000040 11 c0 94 bc 6a eb 4c bd af 13 2d bd 07 6e 3b bd
       -0.01815799 -0.050029196 -0.0422551 -0.045759227
000050 3c bb a9 3e 17 87 86 bb 38 50 b1 3e 51 37 a6 bd
       0.3315066 -0.0041054594 0.34631515 -0.081160195
000060 83 7e 10 bd 8a 29 ba bd e9 1f 29 bd 83 29 a0 3e
       -0.0352769 -0.09089954 -0.041290198 0.3128167
000070 f8 5b 24 bd a2 8d aa bc 1c 8c 78 bd ee a5 9f 3e
       -0.04012677 -0.020819489 -0.060680494 0.31181282
000080 98 d3 45 bd c8 ec 40 bd 19 1b 1b bd b5 ea d8 bd
       -0.048297495 -0.047100812 -0.03786764 -0.10591642
000090 11 4e 40 bd 28 bb 8d bd 21 2a 59 bd 5c 8b 51 3e
       -0.04694945 -0.06920463 -0.053018693 0.20463318
0000a0 ec e1 40 bd 3e 26 00 bd 9e 83 a1 bd 1b 76 70 bd
       -0.047090456 -0.03128647 -0.07886432 -0.058706384
0000b0 9e a6 15 bd ac fd 9f 3e 0c dc bd 3d 6e 9f 8f bd
       -0.03653585 0.31248224 0.09270486 -0.07012831
0000c0 3e 41 07 bd 7e 91 58 bd 75 7d ce bd 29 3c 35 bd
       -0.033021204 -0.052873127 -0.10082523 -0.044246826
0000d0 8a 0d 9e bd 44 36 e5 bd 85 2f a1 bd 74 a5 34 bd
       -0.07717426 -0.11191991 -0.07870392 -0.0441031
0000e0 1b 72 f7 bd de e2 d3 bd 52 58 f5 bd 22 08 06 bd
       -0.12082311 -0.10346006 -0.119797364 -0.0327226
0000f0 0b 4b 0b bd 87 07 f6 bb 58 bb 27 bd 1d 23 41 bd
       -0.034007113 -0.0075082215 -0.04095015 -0.047152627
000100 f6 37 db bd 5e fa b9 bd 63 c9 b7 bc 2a e1 9e bd
       -0.10704033 -0.09080957 -0.022434896 -0.077577904
000110 1a 17 7e bd 32 27 75 bd ca 99 6b bd 75 c1 65 bd
       -0.06203375 -0.059851833 -0.05751971 -0.056092698
000120 d3 7a 52 bd 44 b4 f1 3d ce 11 83 bd a5 d4 e9 bd
       -0.051386666 0.11801961 -0.0639988 -0.11417512
000130 52 a4 19 bd 5e e7 4d bd ad 81 8e bd a3 0b a4 3e
       -0.037510224 -0.050269477 -0.069583274 0.32040128
000140 de 90 e1 bc 1d 74 43 3e 91 72 88 bd 4e 8e c6 bd
       -0.027534898 0.19087262 -0.06662477 -0.09695111
000150 ff b4 87 3e d5 6e 20 bd e9 77 25 bd 77 5c 8c bc
       0.26505277 -0.039168198 -0.04039756 -0.017133934
000160 47 fc 2d bd b2 27 ad 3e f6 c2 33 bd 2c aa 6e bd
       -0.04247692 0.33819348 -0.0438871 -0.058267757
000170 63 2c 15 3e 7b ee 99 bd 02 1b b3 bd 95 d2 ac 3e
       0.14567713 -0.0751619 -0.08745386 0.3375441
000180 7e 8d b9 bc e0 e0 00 3e 95 cb 1c be 6d 7f a4 bc
       -0.022650477 0.12585783 -0.15312035 -0.020080293
000190 20 63 85 bd ed 63 70 bd 5e 4a 6c bd 44 c4 8d bd
       -0.06513047 -0.058689047 -0.05768811 -0.069222
0001a0 36 10 eb bd 81 ae fc bd b4 c3 43 bd 3e aa 96 3e
       -0.11477701 -0.123379715 -0.04779406 0.2942676
0001b0 31 b3 d1 bd e0 a2 be bd cd c0 98 bd c1 00 de bc
       -0.10239256 -0.0930841 -0.07458649 -0.027099969
0001c0 66 2c 82 3e d5 c1 39 bd 0d f9 83 3e 19 a7 a7 bd
       0.25424498 -0.04535087 0.25775948 -0.08186168
0001d0 bf 23 bb bc 0c be 98 bd cb 12 76 bd 79 79 72 bd
       -0.022844194 -0.074581236 -0.060076516 -0.059197877
0001e0 f4 c1 89 bd a1 3f f5 bc 04 db 7d 3e 62 ad 4c bd
       -0.06726447 -0.029937567 0.24790579 -0.04997004
0001f0 8f 00 11 bd 64 cc e8 3e bf 10 1c bc f9 d8 5e bd
       -0.035400923 0.45468438 -0.009525477 -0.05440614

fc3.weight f4 [7, 128]
000000 7c f8 96 bd cc d3 73 be 40 68 47 bd e8 de 6b 3c
       -0.073716134 -0.23811263 -0.048683405 0.014396407
000010 1a 5a 46 bd ea a1 11 be 30 36 13 3c 79 d2 c9 bd
       -0.04842577 -0.14221922 0.008985087 -0.098545976
000020 37 b4 8f 3d 6a 68 99 3c ba 51 33 bb 40 05 03 bd
       0.07016795 0.018726546 -0.0027361945 -0.03198743
000030 38 31 a9 c0 77 a3 a3 bd 37 d9 6e bc 17 8d a0 3c
       -5.287258 -0.07990163 -0.014578155 0.019598527
000040 23 05 36 bd 01 66 ed 3c 95 d1 60 be a0 f3 16 3d
       -0.044438493 0.028979303 -0.21954949 0.036853433
000050 9a 9a c1 bf 96 9f 47 3d e0 f8 7e c0 57 84 32 3d
       -1.5125306 0.048736177 -3.9839401 0.04358324
000060 6a 95 9c 3d 79 64 29 bd ab 74 1d 3c 15 6b 36 be
       0.07645686 -0.041355584 0.009610335 -0.17814286
000070 a6 e1 4a bc 7b 68 1d 3d 0e 39 9b bc 24 cd 81 be
       -0.0123829 0.03842972 -0.018948104 -0.25351822
000080 82 89 54 3b 8a 24 a6 bd 57 0b c8 be 5d 35 c8 bc
       0.0032430594 -0.08112438 -0.39071152 -0.024439508
000090 78 83 ea bd c8 6a 0b be d6 e3 e0 bc 1e a5 c2 be
       -0.11450857 -0.13614953 -0.02745239 -0.380166
0000a0 6b 03 3b 3d f3 0b 22 3c 2a ae 95 bd 44 7b 9f bd
       0.045657557 0.009890544 -0.0730861 -0.07787183
0000b0 c9 dc 46 3d 94 0f 21 be 81 db bb bd ed f8 59 3c
       0.0485504 -0.15728599 -0.091727264 0.013303977
0000c0 ab 3c f4 bd 63 73 fe 3c ec a6 b3 be 82 d6 cc 3c
       -0.11925634 0.03106088 -0.3508829 0.025004629
0000d0 6a 52 96 3c 08 f6 7a bf 14 34 48 bc f3 78 96 3a
       0.018349845 -0.98031664 -0.012219448 0.0011480137
0000e0 c8 22 ba 3c 96 2e fc bc 3d 5a a6 3c 0f 69 21 3d
       0.022721663 -0.030783933 0.0203067 0.039406832
0000f0 53 d5 05 3d 9b ce 8e 3c 0b b4 de bd 19 2d c7 bb
       0.032674145 0.017432502 -0.10874184 -0.006078374
000100 8d 73 e1 bd cf 5b 78 3d 5e 30 d2 bc 65 f1 9d bc
       -0.11008368 0.06063443 -0.025657829 -0.019280145
000110 a6 c6 05 bd d7 f9 80 bd 7b 12 c7 bb d3 92 0d 3d
       -0.03266015 -0.06297653 -0.006075201 0.03456385
000120 6b 10 48 bd ec 59 37 bf f9 1e cd bd 85 48 b0 3d
       -0.048843782 -0.71621585 -0.10015673 0.08607582
000130 c1 b3 93 bd d1 19 7e bb b8 2d ba 3c b6 ad d1 bd
       -0.0721202 -0.0038772712 0.022726879 -0.10238211
000140 4e ff 94 bd df 6e 89 bd 21 bf 88 bd 05 05 01 bd
       -0.07275258 -0.067106 -0.0667708 -0.031498928
000150 5b 7a bc bf d1 d0 69 bd 08 44 6c bd 86 69 d4 bd
       -1.472484 -0.05708391 -0.057682067 -0.103716895
000160 9c 26 46 be 4c 4b 3f c0 f7 42 48 3c 1d 76 15 bd
       -0.19350666 -2.9889708 0.012222997 -0.036489595
000170 d0 f0 c1 3a 50 71 8e bd 3f b6 fa bb 4b a6 9b be
       0.0014796499 -0.069552064 -0.00765112 -0.3040031
000180 0c 74 33 bd 64 66 45 c0 ae 79 8a 3b 65 d6 13 bc
       -0.043811843 -3.0843744 0.004225931 -0.009023284
000190 fe c8 33 bd 91 f0 29 bd 4f 91 2e bf 22 fd 33 bd
       -0.043892853 -0.041489188 -0.68190473 -0.043942578
0001a0 f7 d0 6c bd f3 dc 0c be 04 46 09 3d 8c 18 3c be
       -0.057816472 -0.1375616 0.033514038 -0.18368739
0001b0 98 26 dd bc 1f 37 8d bc d7 7d 01 bd b9 17 11 3d
       -0.026995942 -0.017238198 -0.03161415 0.035423014
0001c0 7b 04 aa c0 a4 3f a4 bd b1 f7 2c be 43 bb c4 3c
       -5.313047 -0.08019951 -0.16891362 0.024015075
0001d0 73 5f a9 bd 81 87 16 be bf 00 cb 3c 61 43 80 bd
       -0.082701586 -0.14700128 0.02478063 -0.062628515
0001e0 f3 b9 20 be b3 1f f3 bd e8 b8 f4 bd 2c f8 93 3a
       -0.15695934 -0.118712805 -0.119493306 0.0011289171
0001f0 6b dc 0a 3d 50 5e c2 c0 95 7d 98 bd 0f 3a 43 bc
       0.033901613 -6.0740128 -0.07445828 -0.011915698
000200 b3 18 ec bb a9 68 23 3c e9 80 f6 bc 50 57 94 3d
       -0.007205093 0.009973683 -0.030090766 0.07243216
000210 e6 9d 7e be 11 a6 4e bd d1 f9 84 3c 74 11 da 3b
       -0.24864921 -0.050451342 0.016232403 0.0066549126
000220 d4 fa 12 be d6 fb 3e 3d 97 65 1e 3d 5e 55 24 3d
       -0.14353496 0.04662689 0.038671102 0.040120475
000230 ee 94 83 3d 82 9a 1f bd 68 d1 aa 3e 36 f1 91 bd
       0.064248905 -0.03896571 0.3336289 -0.071260855
000240 3e 46 f9 3c 4e 86 70 3c b7 1f 97 bc 47 53 58 bb
       0.030429002 0.014680458 -0.01844774 -0.0033008622
000250 63 88 fb 3d 21 91 a6 3d 7a eb 9b 3e f5 0c ed bd
       0.12281873 0.0813315 0.30453092 -0.11574737
000260 3a 5c 3e 3d a1 a6 6b 3d 8f 64 a2 bd 74 ff 40 3e
       0.046474673 0.057531957 -0.07929336 0.18847448
000270 00 db 36 bb 90 89 44 bd 3c 0f fb 3c 4c 1d 15 3e
       -0.002790153 -0.047982752 0.030646913 0.14561957
000280 b9 95 b3 3a 98 ef e1 3c f5 51 8c bc fe b5 27 be
       0.0013701237 0.027580068 -0.017128924 -0.16378018
000290 31 b5 63 bd f2 90 62 bc b4 7e 1f bc 0e e3 0f 3e
       -0.05559272 -0.013828503 -0.009734798 0.14051458
0002a0 dc 51 a7 3d 61 23 03 bd bf 13 85 bd 9c 18 3d 3d
       0.0816991 -0.03201616 -0.06497907 0.046166047
0002b0 1f b1 8e 3c 8d a0 3c 3e 21 ad cc 3d b7 87 3f 3d
       0.017418442 0.1842062 0.09993959 0.046760287
0002c0 79 f1 e3 bd 0f c4 02 3d 3b d4 c6 bd b9 ec 49 bc
       -0.11130042 0.031925257 -0.097084485 -0.0123245055
0002d0 89 d7 c7 bd 19 8b 1a 3e 4f b7 25 3c 0e 03 ac 3d
       -0.09757907 0.15092124 0.010114505 0.0839902
0002e0 24 c1 c5 bc 33 c8 06 bd 55 3c 58 bd 4e a5 ac bd
       -0.024139948 -0.03290577 -0.052791912 -0.08429967
0002f0 65 97 0d bc 48 82 2b bc f8 0e 0d bc 5b 09 80 bc
       -0.008642052 -0.010468073 -0.008609526 -0.015629461
000300 06 50 37 be 24 df 8b 3e d3 58 ac 3b f1 ae 35 be
       -0.1790162 0.2731868 0.005259612 -0.17742516
000310 92 c1 7f 3d b4 4f 74 bc 85 0c 51 3d 00 e8 1f 3d
       0.062440462 -0.014911581 0.05103733 0.03903961
000320 49 8e 88 bc c2 6a 6e bc 67 f6 23 bd ea 9b 4e bd
       -0.01666941 -0.01455182 -0.04002991 -0.05044166
000330 7e 93 8d bd f5 dc bd 3d db 1a a6 bd 43 48 3d 3e
       -0.069128975 0.0927066 -0.08110591 0.18484597
000340 d0 67 91 bd 71 d0 d6 3d 23 94 ff 3c d8 70 87 3c
       -0.07099879 0.10488976 0.031198567 0.0165333
000350 b3 56 f8 3d 87 c9 12 3c 03 88 72 3c 65 ac b9 3c
       0.121259116 0.008959181 0.0148029355 0.022665212
000360 e7 68 85 3c b7 d3 4d 3e a5 91 24 3d 0c 4c 58 3d
       0.016285373 0.20100294 0.04017796 0.0528069
000370 6f 80 b3 3d 69 7d 40 be 91 72 95 bc 2c ca 01 3e
       0.08764731 -0.1879784 -0.018243106 0.12674779
000380 a9 13 2e ba 3c 14 ad 3c ab 7f 3a bd a3 7b a4 3d
       -0.0006640503 0.021127813 -0.04553191 0.08031394
000390 f4 7d 39 bd 7d 3f 3a bd 6b 33 0d 3d 39 26 b0 3d
       -0.045286134 -0.045470703 0.034472864 0.086010404
0003a0 39 51 2d 3d a3 3f e6 bd a0 a4 96 bd aa 25 63 3e
       0.042313788 -0.112426065 -0.073556185 0.22182336
0003b0 71 25 e1 3c 97 8c 80 3e d8 d0 cc 3d e7 f0 30 bc
       0.027483674 0.25107262 0.10000771 -0.010799623
0003c0 c7 1e e8 3c 00 0f 94 bc cb c6 1d 3e 69 54 3f be
       0.028334988 -0.018073559 0.15407865 -0.18684544
0003d0 b7 3d 74 bd 5b 2d 17 be aa 5b be bc 8b ae 06 bc
       -0.05962917 -0.14763395 -0.023237068 -0.008220325
0003e0 e2 81 b5 bd 5e 91 40 3e e4 2f fe 3d 82 28 8e bd
       -0.08862664 0.18805453 0.12411478 -0.0694132
0003f0 cb 98 01 bd 12 2c 43 3e 63 88 09 3d 4d 4c 86 3c
       -0.031639855 0.1905978 0.033577334 0.016393805

fc3.bias f4 [7]
000000 06 0d 03 bf bc c2 19 3e 17 5e a2 3e 3b f4 86 3e
       -0.5119175 0.15015692 0.3171241 0.26358208
000010 3e 75 8e 3e a1 46 06 bf 9d bd 05 bf
       0.27823824 -0.5245152 -0.5224245
