hackathon_toolkit/checkpoints_qlearn/agent_1_episode_900.pth (torch, 78464 bytes, 6 tensors)

fc1.weight f4 [128, 11]
000000 86 fd ad bd b3 0c 89 be 12 6a a6 3e d2 1e fe 3d
       -0.084956214 -0.267675 0.325028 0.12408222
000010 c8 82 0a 3e 72 26 4a 3d 8c cb b6 bd bd 6f 46 be
       0.13526452 0.04935307 -0.08925542 -0.19378562
000020 ca 83 a4 be 02 86 77 3e 4e af 05 3e f6 bf 9c 3c
       -0.32131797 0.24172214 0.13055155 0.019134503
000030 69 b6 73 3d 09 4b 5f bd 49 76 9c 3e 21 4e b1 bc
       0.05950013 -0.05451492 0.30558994 -0.0216437
000040 8d 4f 61 3e ec db bb 3e 3b 58 d7 3c 77 e1 2e 3e
       0.22003002 0.36691225 0.026287189 0.17078196
000050 06 4a e1 be f4 d6 53 be 3c f8 84 be 60 b6 a9 be
       -0.44001788 -0.20687467 -0.25970638 -0.33146954
000060 2d b2 d3 3d d9 ab 75 be c2 76 4f bb 13 70 b6 3d
       0.10336719 -0.23991336 -0.0031656479 0.08908095
000070 92 66 2d 3e a3 ec 9d 3e 74 b0 10 3e bb b4 cb 3d
       0.16933659 0.30844602 0.14129812 0.09946581
000080 08 d6 8a be bb 32 ae 3d 3c 5e 5e 3e 48 c1 5b be
       -0.27116418 0.0850577 0.21715635 -0.2146045
000090 32 d3 1c 3e 25 7e 25 be cc d8 89 3e 81 65 0f 3e
       0.1531494 -0.16161402 0.26923215 0.14003564
0000a0 79 ca 73 be 41 cd a4 bd 2c b4 2c be 84 f9 23 be
       -0.23807706 -0.080469616 -0.16865605 -0.16013151
0000b0 be c6 43 3e a4 27 ee 3d 8d 6a 87 bc 25 3f 1d be
       0.19118783 0.116286546 -0.0165303 -0.15356119
0000c0 b5 78 96 3d 52 4d 28 be 58 70 a2 3e 93 af 53 3e
       0.07347242 -0.16435745 0.31726336 0.20672445
0000d0 cf 67 ec bd 7f 80 47 be 63 51 56 3e b6 b6 34 be
       -0.115432374 -0.19482611 0.20929484 -0.17647824
0000e0 70 68 a9 be bc 94 8f 3e 9f c5 03 3e 5c dc 92 3e
       -0.33087492 0.28043163 0.12868355 0.28683746
0000f0 58 3d 1e 3e 5c 4b 49 be 6e ff 99 3b 21 06 a9 3e
       0.15453088 -0.19657654 0.004699639 0.33012488
000100 02 79 d5 3d ea b2 a9 bd 10 8f 2e 3b ee d9 8c bd
       0.10423471 -0.08286078 0.0026635565 -0.06877504
000110 12 b7 a6 3d b7 c6 c1 3d 33 ff ec bd 6f 48 4c 3b
       0.08140387 0.0946173 -0.11572113 0.0031171103
000120 b5 df 06 be 80 3a 94 3b 14 87 2a 3e 5a a7 37 3e
       -0.13171275 0.0045235753 0.1665309 0.17934933
000130 e4 10 0c be f6 7b 95 3d 9c 0e a3 3e 76 a5 19 be
       -0.13678318 0.07299034 0.31847084 -0.15004525
000140 c5 f9 9b 3e df 5e 63 3e d1 35 9a bc 45 30 91 3e
       0.30463997 0.22204159 -0.01882449 0.2835714
000150 d0 fe 3f 3e d3 01 36 bc 0d a6 8f be 6b 42 95 3e
       0.18749547 -0.011108833 -0.28056374 0.29152235
000160 60 e8 91 be bb 90 ae 3e 7a 01 b2 3e cd f8 ed bd
       -0.284976 0.34094796 0.34766752 -0.116197206
000170 7d 0a 66 be c1 26 e8 3c 51 28 42 3e b5 d6 3b 3c
       -0.22464938 0.028338792 0.18960692 0.011464764
000180 d7 51 32 be b1 a6 ce bd a0 31 c0 3e 4b f9 29 be
       -0.17414032 -0.100903876 0.3753786 -0.16599004
000190 a3 c0 1b 3d 12 d8 43 3e 0d 41 38 be 5a 81 c1 bb
       0.03802551 0.19125393 -0.17993565 -0.0059053125
0001a0 da ec 1d be db 85 14 be ae 19 a8 3d 07 c8 07 3e
       -0.15422383 -0.14504187 0.08208023 0.13259898
0001b0 2a c2 8b 3e 25 4f b3 bb 58 52 0d bd 2c a0 1a be
       0.27296573 -0.0054720812 -0.034502357 -0.15100163
0001c0 fc fe 25 3e 28 ba d5 3c b8 f3 07 bd 64 5a 09 3e
       0.1621055 0.026089743 -0.033191413 0.13413388
0001d0 e7 81 46 be 24 5f 4a be ac 18 2a 3d a4 c3 95 3e
       -0.19385491 -0.19762856 0.041527435 0.29250824
0001e0 0d 6b df 3d 7c f0 f2 3d 5e f1 c6 bd 90 e1 f5 bd
       0.1090909 0.11862275 -0.09714006 -0.12005913
0001f0 f7 89 a5 bd 62 cc 91 3e a4 64 26 3c 26 27 63 bc
       -0.08082955 0.28476244 0.0101558305 -0.013864314
000200 e5 9d 18 be 31 32 a3 3e b4 bd 3b be 30 e1 fb bd
       -0.14903982 0.3187423 -0.18334085 -0.122988105
000210 d3 3e 25 3e 4d 93 d3 bc e7 ea 35 bd 5d 0f 93 be
       0.16137247 -0.025827074 -0.044413473 -0.2872266
000220 13 07 c6 39 7d a9 63 be da 49 2c 3d d4 32 c5 3c
       0.00037770774 -0.22232623 0.042062618 0.024072088
000230 33 d2 11 3e 0c 96 4a 3e 88 f0 27 be 38 15 19 3e
       0.14240341 0.19783801 -0.16400349 0.149495
000240 d7 3e 1b be 37 76 8b bc 5a 40 3a be 20 b1 62 3e
       -0.1516069 -0.017024143 -0.1818861 0.2213788
000250 a8 cc 69 3e 92 01 4c 3e 96 01 1d 3e 50 97 10 3e
       0.22831976 0.19922474 0.15332636 0.14120221
000260 4f 3f ac be 0f f5 2f 3e 90 76 51 3e 60 60 67 be
       -0.3364205 0.17183326 0.20455384 -0.22595358
000270 03 e3 a8 3e 1d 42 78 be 36 a6 3a 3e 26 42 d2 3c
       0.32985696 -0.2424397 0.18227467 0.025666308
000280 45 f1 66 be 84 2d 15 3e 76 4d 98 3e 52 09 1f 3e
       -0.22552975 0.14568144 0.29746598 0.15530899
000290 8f af 7c be 2d 56 e0 bd ae ca 92 be 3f 50 0e be
       -0.24676345 -0.10953937 -0.28670257 -0.13897799
0002a0 f9 52 a4 3e 13 0e b5 3e 04 eb 21 be fa 2a 5f 3e
       0.32094553 0.353623 -0.15812308 0.21793738
0002b0 6f ce 68 be 24 89 90 3e 7e 59 c2 3e 34 6e 68 be
       -0.22734998 0.2822963 0.37958902 -0.22698289
0002c0 fa 73 d6 bd af 0b 9b 3d 34 4e 41 be 83 57 6e bd
       -0.104713395 0.07570588 -0.18877488 -0.058188926
0002d0 d2 f2 a3 3e fb ab d6 bd 40 f5 6d be fe 95 42 3d
       0.32021195 -0.104820214 -0.23238087 0.047506325
0002e0 6a 46 85 3e 5f 41 1c bd a2 99 49 be e2 eb b8 3e
       0.26030284 -0.03814828 -0.19687513 0.36117464
0002f0 04 73 86 3e bd 61 21 3e 6c d2 9c bd 7f 38 43 3d
       0.26259625 0.1575994 -0.07657322 0.0476613
000300 d5 83 80 3e a2 48 ff bd 60 92 64 3e 86 6c 6c be
       0.2510058 -0.124650255 0.22321463 -0.23088273
000310 aa e4 c2 bd 68 d1 21 be 6d f5 7d 3e cf c7 be be
       -0.095162705 -0.15802538 0.24800654 -0.37261817
000320 15 d7 f5 3d 66 80 40 3e 2c 88 c3 3d ce b7 24 3e
       0.12003914 0.1879898 0.09547457 0.16085741
000330 78 a3 71 3e c0 49 51 be 52 4e 0a be 93 99 1c 3e
       0.23597515 -0.2043829 -0.1350644 0.15292959
000340 af 19 97 be b6 f5 f2 3d 4a 19 20 3e bd 67 10 3e
       -0.29511783 0.11863272 0.15634647 0.14102073
000350 d9 c3 37 3e 4a 96 f0 3c ce cd 7f 3e 6f 1f 38 3e
       0.17945804 0.029368538 0.24980852 0.17980741
000360 f9 55 ba bc 2f 5d 95 be f9 11 3e 3e 89 7e b8 3e
       -0.022746073 -0.29172656 0.18561544 0.3603404
000370 b5 30 12 be 9e 59 7f be de 6d 27 be 55 67 72 3e
       -0.14276393 -0.2493653 -0.16350505 0.2367223
000380 f0 0b e4 3d 80 3c 00 be 88 28 d8 3d 7a 42 ac 3e
       0.111350894 -0.12523079 0.10554606 0.33644468
000390 81 e2 3f bd 71 97 f8 bd 41 87 89 3e 49 c7 a5 3e
       -0.04684687 -0.1213826 0.26861003 0.32378605
0003a0 d6 2c 9f 3e d3 12 06 3e 5a b7 e7 bd cb fb 86 be
       0.31088895 0.13093118 -0.113142684 -0.26363978
0003b0 a3 d2 33 3e c9 0d 26 3e c5 37 2b 3e 99 10 0a bd
       0.1756082 0.16216196 0.16720493 -0.033707235
0003c0 9f 37 1e bc c1 a1 3a 3e 67 13 9f 3e e2 36 0b 3d
       -0.009656816 0.18225767 0.3106949 0.033987887
0003d0 48 f4 d9 bd bf 42 5e 3e bd 3e 2f be 8b 9a ee bd
       -0.10642296 0.21705149 -0.17113777 -0.116505705
0003e0 88 e6 d6 bc e9 10 71 3e ab 20 8c bd 6b 53 18 3e
       -0.026232973 0.23541607 -0.068421684 0.14875571
0003f0 f4 5d 93 bd 5b f9 fc bd 68 f5 98 3e 53 77 62 be
       -0.071956545 -0.12352248 0.2987473 -0.22115831

fc1.bias f4 [128]
000000 70 14 8d bd 39 5c 35 3e ca 93 5e be 16 fa 8d be
       -0.06888664 0.17710961 -0.21736065 -0.27729863
000010 42 02 21 be 40 71 63 3e 5e 7a 9f 3c 0e c0 84 3e
       -0.15723518 0.2221117 0.019467529 0.25927776
000020 06 60 c5 bd 13 3e 4f 3d 94 91 f5 3d d3 e0 1e bd
       -0.09637456 0.050596308 0.119906574 -0.038788628
000030 46 13 7f be 16 a7 85 be fe 5b f1 3c 2e ff 3f 3e
       -0.24909696 -0.2610404 0.02946281 0.18749687
000040 40 3f bd be aa ad 91 3d 5d bd 7b 3d d6 0c 62 bd
       -0.36962318 0.07113202 0.061459888 -0.055188023
000050 e9 b1 8e bd 97 f6 a1 3c 83 c2 ed bd b6 de 0d be
       -0.069675274 0.019770904 -0.11609366 -0.13854489
000060 aa ed aa 3d 76 85 60 3e b6 43 7b be 17 6e 8b be
       0.08346112 0.21925911 -0.24537548 -0.2723243
000070 81 07 73 be 2e de 9d be 27 f6 ac be d5 41 df bd
       -0.23733331 -0.30833572 -0.3378155 -0.10901228
000080 e6 c3 16 3e 2d f9 01 be 20 06 3f be 26 4a 05 3e
       0.14723167 -0.1269271 -0.1865468 0.13016567
000090 8e a7 72 be 1d 5b 1c 3d 47 a0 65 be cd 69 ac be
       -0.2369673 0.03817283 -0.22424422 -0.3367447
0000a0 6b cd aa be 65 d4 a7 3e 0b 6a 02 3e f4 a8 9d bb
       -0.33359846 0.32779232 0.12735765 -0.0048114005
0000b0 1d c5 30 3e 12 43 be 3e 43 40 9d 3d df 4f a6 bd
       0.17262693 0.37160546 0.076782726 -0.08120703
0000c0 d7 b1 aa 3c ff d6 6f bd 03 a7 6b be c4 b6 13 3e
       0.020836754 -0.058554646 -0.23012929 0.14425188
0000d0 6c 5b 9d be 96 b4 25 bd b4 09 26 3e e1 87 85 3e
       -0.30733812 -0.040455423 0.16214639 0.2608023
0000e0 b9 3f 8f be 71 af c2 3d 1b f5 cd 3d d6 9a 03 bd
       -0.27978304 0.09506119 0.10056516 -0.032130085
0000f0 63 ae 8b bd 5c f4 2a 3e 7a 60 b3 3d 6b e3 eb 3d
       -0.06820371 0.16694778 0.08758636 0.11517986
000100 3c ed 8a 3e fd 12 95 bd a9 1c 62 bd f8 e5 d3 bd
       0.2713412 -0.07279012 -0.055203114 -0.103465974
000110 af a4 13 be 9b 99 fb 3c 01 0e a0 3e c2 78 1c be
       -0.1441829 0.030712893 0.31260684 -0.1528044
000120 c2 b3 88 be 52 64 31 be bb 11 53 be 29 f3 9a bc
       -0.26699644 -0.17323425 -0.20612232 -0.018914776
000130 91 34 c7 bd 97 59 ef bd 06 f9 b6 3d 87 38 9f 3d
       -0.09726823 -0.1168701 0.08934216 0.077744536
000140 a5 ff 96 3d fe 3f 69 3e 2e e8 aa be ac 30 d0 3c
       0.07372979 0.22778317 -0.33380264 0.025413834
000150 44 22 98 3e 58 d4 26 be b2 59 f6 3d 29 77 b2 be
       0.29713643 -0.1629194 0.12028827 -0.34856537
000160 35 fd a3 be 6f 94 96 bd fd ac 38 be 97 e8 bf be
       -0.3202912 -0.0735253 -0.1803474 -0.3748214
000170 a2 69 24 3e d0 94 17 bd 5e 12 d7 bd e0 74 68 be
       0.1605592 -0.037007153 -0.1050155 -0.22700834
000180 85 8e 87 3d ef 35 d8 3d 65 52 1f be f0 d4 87 be
       0.0661898 0.10557162 -0.15558775 -0.26529646
000190 e7 1d 69 bd f7 9d 6a 3e d0 22 9a 3e a5 06 87 bd
       -0.056913283 0.22911821 0.30104685 -0.06593064
0001a0 e7 f2 8c be 67 39 d8 3d 52 65 10 bd 7c ef 03 be
       -0.2752907 0.10557824 -0.035252877 -0.12884325
0001b0 05 07 61 3e b8 98 1b 3d a1 08 24 3e 84 d5 0d be
       0.21975334 0.03798744 0.16018917 -0.13850981
0001c0 2a 9d 7a 3e d3 2f 4f bd 30 2f 54 be 66 4d 89 3e
       0.24474016 -0.050582718 -0.20721126 0.26816863
0001d0 1f 8f 42 be 31 a8 bb 3d 77 14 75 be c3 0a 48 3e
       -0.18999909 0.09162939 -0.23933588 0.19535355
0001e0 14 1a 2d 3e f8 53 8e bc 02 ef 84 be 04 c0 6b bd
       0.1690448 -0.017374024 -0.25963598 -0.057556167
0001f0 42 a6 31 3d 1f 8d 9c bd 18 04 72 3e 4b 5a 70 be
       0.043371446 -0.07644104 0.23634374 -0.23471944

fc2.weight f4 [128, 128]
000000 ce c4 3f 3d 13 dd 5a ba da c7 ef bc da 59 73 3d
       0.046818547 -0.00083489827 -0.029270101 0.05941186
000010 0b 4e b9 bd b5 07 59 bd ef 45 85 bb 28 5f a1 bc
       -0.09048089 -0.052985866 -0.0040671746 -0.019698694
000020 f4 24 a3 bc 65 4d 32 bd 75 88 98 bd 11 81 90 3c
       -0.019915082 -0.04353084 -0.07447902 0.017639669
000030 13 76 ad bd 3a df 15 3d 8e ea 07 bd a1 63 5c 3c
       -0.084697865 0.03658984 -0.033182673 0.013451488
000040 3a 42 cd ba 34 29 bb 3c 68 26 79 3d fb ba d4 3a
       -0.0015659996 0.022846796 0.060827643 0.0016230041
000050 2f 67 1e bd 46 a7 1d bd bd e5 c6 3a 54 08 93 bd
       -0.038672622 -0.038489603 0.0015174669 -0.07179323
000060 f9 1d 2a bd 68 c3 ca bd d3 8f 02 bd 21 bf d8 3c
       -0.04153249 -0.09900552 -0.031875443 0.026458325
000070 e8 8c 86 ba f7 13 27 bd b2 55 e2 3c ad 71 98 bd
       -0.0010265382 -0.040790524 0.027628753 -0.07443557
000080 41 bf 79 bc b9 a3 37 bd 49 36 ab bd 68 3f 13 3c
       -0.015243352 -0.044833872 -0.083599634 0.008987285
000090 8b 71 c9 bc 3e 16 1d bd 63 96 91 3d 26 c1 8a bc
       -0.024590274 -0.03835129 0.07108762 -0.016937803
0000a0 22 b1 36 3d db f4 96 bd 10 f7 f1 3a 85 77 30 bd
       0.04460252 -0.07370921 0.0018460471 -0.043082733
0000b0 c8 ec 91 bd 74 df a7 bd a6 07 bd bb 0c f7 4d 3d
       -0.071252406 -0.08196917 -0.005768734 0.05028443
0000c0 6f 0f 86 bd 8e 9c c8 bc a1 ea 45 bd 0a e0 76 bc
       -0.065459125 -0.024488714 -0.048319463 -0.0150680635
0000d0 a1 82 2e bd 29 55 f0 bc bf 52 55 bd 39 d0 bf bd
       -0.042605046 -0.029337483 -0.052080866 -0.09365887
0000e0 04 4e 9c bd 43 2e d2 bc 7b 2d 7d 3d 3c 1f 2a ba
       -0.07632068 -0.025656825 0.06181095 -0.00064896396
0000f0 13 c2 91 bc 74 e0 9d bb 58 22 41 3c 23 b3 52 bd
       -0.017792737 -0.0048180167 0.011787973 -0.05144037
000100 ed 2e 83 3d c4 76 ba bd 27 f9 cd bd a6 68 20 3c
       0.06405435 -0.09104684 -0.10057288 0.009790575
000110 a9 ab 42 3d 9a 46 ab 3b 64 d4 d9 3c 43 81 48 3d
       0.04752699 0.005226922 0.026590534 0.0489514
000120 e0 c0 24 3c 01 a7 b3 3c 49 fc 71 3d cd 79 c9 bd
       0.010055751 0.02193022 0.05907849 -0.09837685
000130 b9 f8 b4 bd 25 e0 d9 bd e2 28 8b bc 28 b8 92 bd
       -0.088365026 -0.10638455 -0.016987268 -0.07164031
000140 56 d0 29 bd ab 6d 06 bd ae 36 01 3d ab 08 36 bc
       -0.04145845 -0.03281943 0.031546287 -0.011110465
000150 1b 8f 4b 3d bc db d2 bd 96 61 8d bc c1 65 50 3d
       0.049697023 -0.10295817 -0.017258447 0.05087829
000160 3b fc f1 bc 4e d8 58 bd d1 94 99 3d 40 e9 d5 bd
       -0.029539218 -0.05294066 0.074990876 -0.104448795
000170 1f ce 8f bd 5a 7d 29 3d 4a 23 3a 3d 42 b5 4c bd
       -0.07021736 0.04137931 0.04544381 -0.04997755
000180 40 4e b2 bd fd 2b d4 bd 29 c1 45 3d 23 1a 23 bb
       -0.08706331 -0.103599526 0.048279915 -0.0024887405
000190 45 28 87 bd 1e 4b 22 3d f0 17 fb bd 1b 10 19 3d
       -0.06599478 0.03962242 -0.12260425 0.037368875
0001a0 bd 56 ad 3c b4 8f 90 bd 54 00 45 bc f6 ff 99 3c
       0.021159524 -0.07058659 -0.012024004 0.01879881
0001b0 49 0b 55 bc b9 ff 85 3d 04 9a ad bd 6e 96 bb 3c
       -0.013003179 0.06542916 -0.08476642 0.022898879
0001c0 d8 db 9b bc ef 87 d3 bc 97 c9 aa bd d7 54 8e 3c
       -0.019025728 -0.025821654 -0.083392315 0.01737444
0001d0 93 91 3e bd d3 3f da 3b d8 4c 3f bd c3 9d 2a 3d
       -0.04652555 0.0066604405 -0.046704143 0.04165436
0001e0 d4 06 21 bd 5d 13 18 be 1d d3 98 bc 58 90 80 bd
       -0.039313152 -0.14851137 -0.018655354 -0.062775314
0001f0 d6 ce 16 3d 36 db 0e 3b 2e 24 5c bd e5 a8 0b bd
       0.036818348 0.002179814 -0.05374544 -0.034096617
000200 79 64 4a be cf c9 d3 bd 30 51 8b bc 91 c3 32 3c
       -0.1976489 -0.10341226 -0.017006487 0.0109108845
000210 88 bd 4c 3d c9 b9 45 bd ec 62 5b 3d 1b 98 6c bd
       0.04998544 -0.04827288 0.053561136 -0.057762247
000220 dd 72 cb 3d a0 33 b2 bc db 48 ff bb 54 cb 6b 3d
       0.09934018 -0.021753132 -0.0077906675 0.057566956
000230 3f 3e a5 3d fc a6 f0 3b bc 54 b7 bd 12 11 3d bc
       0.08068513 0.007344125 -0.08951709 -0.011539714
000240 65 02 c5 3d bc 19 99 3b 80 e6 bd bd 42 97 b2 3c
       0.09619597 0.004672257 -0.0927248 0.021800641
000250 c4 7b 4e bc 1c ba 8f 3c a0 e4 92 bd 05 dd a5 bd
       -0.01260275 0.017544799 -0.07172513 -0.08098797
000260 aa 1d 9d bd 75 0d f8 3c f1 0d 82 3d 5f aa a9 bc
       -0.076716736 0.030279854 0.06350315 -0.020711122
000270 88 67 4b bc 32 6b 86 bd f3 90 9b bd 4c 1c ef bc
       -0.0124148205 -0.06563415 -0.07596006 -0.029188298
000280 2a db 38 3d 74 a5 85 bd 5c 87 b7 bd 3a 0a e2 3d
       0.045130886 -0.06525698 -0.089613646 0.11037107
000290 f3 60 d6 3c 6a 2d 19 bd 9f 6f ff bd 6b 8b 76 bd
       0.026169276 -0.037396826 -0.12472462 -0.060191553
0002a0 4b d5 2a bd 90 25 37 3c d0 c2 53 3d 29 66 be bb
       -0.04170732 0.011178389 0.05169946 -0.0058105183
0002b0 bf 56 57 3d 39 47 a7 bd 9f 95 b4 bb fc 15 dc bc
       0.052572962 -0.081678815 -0.0055110003 -0.026865952
0002c0 c4 ff 4e 3d 2b 0d 83 bd 98 42 2f bd 6d 2f f2 bd
       0.050536886 -0.06398996 -0.042788118 -0.11825452
0002d0 e3 95 fd 3d 5b ab d9 bc 6b a5 f8 bd 86 5f a2 bc
       0.12382104 -0.026570966 -0.12140926 -0.01982094
0002e0 f0 28 2c bd 23 e4 f6 3c d7 51 ee bc 3b 28 bf bd
       -0.04203123 0.030138081 -0.029091759 -0.09333845
0002f0 d2 c9 64 3d bb 46 37 bd a0 4f 83 3c 8f 06 76 3d
       0.055856533 -0.04474519 0.01602918 0.06006485
000300 4c a8 2b be 14 a4 22 3d cc 29 05 3c c8 7b b6 bd
       -0.16763419 0.03970726 0.008127641 -0.08910328
000310 32 91 96 bc c4 53 97 3d bb b9 d8 bd 58 e6 2c ba
       -0.018379781 0.07389024 -0.105823 -0.0006595603
000320 40 ab 92 3c 82 3c 15 3d a9 5c 8f 3d 88 1c cc bc
       0.017903924 0.036434658 0.070000954 -0.024915949
000330 aa e7 97 ba bc db cd 39 47 00 77 bc dc a8 c9 bd
       -0.0011589427 0.00039264362 -0.01507575 -0.098466605
000340 8d c8 39 3d 8f f5 c1 bd 7c 05 24 bc ee c9 0f 3d
       0.045357276 -0.09470665 -0.010011073 0.035104685
000350 f9 7f 93 bd 3f b4 57 3c d6 25 28 3d 78 99 77 3b
       -0.07202143 0.013165533 0.04105171 0.0037780683
000360 64 0c 98 3d 85 db 83 3c fa 30 78 3c 29 9a 35 3b
       0.07424238 0.016095886 0.015148396 0.0027710295
000370 f5 bc af 3d aa a5 c4 bc 7d ca 75 bd 99 8d 57 bd
       0.085809626 -0.024004776 -0.06000756 -0.052625272
000380 d8 2d d0 bb 64 cf 42 bd e6 cf f8 bd ca 17 ba 3b
       -0.0063531213 -0.047561064 -0.121490285 0.0056791054
000390 6f cf 80 bd e2 e3 22 bd 7f db 08 be 1a 2d 22 be
       -0.06289565 -0.039768107 -0.13364981 -0.15837517
0003a0 10 f3 36 3c 6d f3 93 3d 4c 6f 72 3d 0c 39 65 3d
       0.011166349 0.07224164 0.059188172 0.055962607
0003b0 2e df 1d be a1 bb 8f bd f4 b1 67 3d 99 74 d9 bd
       -0.15417168 -0.07018209 0.056566194 -0.10617942
0003c0 e9 4c 83 3d 41 a5 00 3d ca 4d 4a 3d c2 2f 15 be
       0.06411154 0.0314076 0.04939059 -0.14569
0003d0 68 3f c1 bd da 08 a5 bd 04 12 0c be cf 6c 3a bd
       -0.09435922 -0.08058329 -0.13678747 -0.045513924
0003e0 ee 09 cc 3d ac a6 d2 bd 7a a3 6a bb 58 87 75 bd
       0.099628314 -0.102856964 -0.0035803006 -0.059943527
0003f0 46 d5 bc bd e8 6b 86 3d 7a 19 33 bd 0d 82 b6 3b
       -0.09220366 0.0656355 -0.04372547 0.0055697025

fc2.bias f4 [128]
000000 d7 bc 49 bd 6d ac a1 bc 4e a0 ca bc c5 83 97 bc
       -0.049252357 -0.01973554 -0.024734642 -0.01849545
000010 0e 6e 8e bd e4 1b fc bb 6e 1e dd bd 39 c8 1f bd
       -0.06954585 -0.0076937545 -0.107968196 -0.039009307
000020 69 93 10 bd 80 d5 25 bd b6 a0 fc bc 67 8b e6 bd
       -0.03529683 -0.040486813 -0.030838352 -0.11257058
000030 68 ab b8 3e 6e 5e 8c bd 35 d8 a4 bd 06 20 97 bd
       0.36068273 -0.068539485 -0.08049051 -0.07379155
000040 40 2d 19 bd 54 d9 3b bd f1 15 1f 3d 95 11 b1 bb
       -0.03739667 -0.045861557 0.038839284 -0.0054037073
000050 be aa 44 3e ae d3 31 bd 38 0f 4f 3e e2 65 92 bd
       0.19205758 -0.043414764 0.20220649 -0.07148339
000060 b4 a6 ee bd 8a 29 ba bd e7 50 a6 bc b1 93 19 3e
       -0.1165289 -0.09089954 -0.02030225 0.14997746
000070 f8 5b 24 bd a2 8d aa bc 3c 4f 49 bc e4 70 21 3e
       -0.04012677 -0.020819489 -0.012286957 0.1576572
000080 98 d3 45 bd c8 ec 40 bd a4 d1 52 bc 57 78 d6 bd
       -0.048297495 -0.047100812 -0.012867365 -0.10472172
000090 63 ea 10 bd d2 cb 5a 3d 98 e1 29 bd 5d 1c d6 3d
       -0.03537978 0.053417034 -0.04147491 0.104546286
0000a0 ec e1 40 bd 84 93 3c bc 9e 83 a1 bd 1f ab 94 bb
       -0.047090456 -0.01150978 -0.07886432 -0.004537001
0000b0 e7 71 b4 bb 6e f7 2a 3e da 80 8c 3d 6e 9f 8f bd
       -0.0055067423 0.1669595 0.06860514 -0.07012831
0000c0 a8 2f 54 bb c4 f5 63 bc 96 26 d9 bd 29 3c 35 bd
       -0.0032377038 -0.013913576 -0.10603063 -0.044246826
0000d0 12 e7 f9 bc 1b 2c 2c bc 85 2f a1 bd c7 2f 4a bc
       -0.03050569 -0.010508562 -0.07870392 -0.012340493
0000e0 1b 72 f7 bd de e2 d3 bd 75 a1 de bd ad 2d 31 bc
       -0.12082311 -0.10346006 -0.10870639 -0.010814113
0000f0 fb 2f 9d bc b9 5e 8e bb 20 02 17 bc 23 ae 86 bc
       -0.019187918 -0.004344788 -0.009216815 -0.016440457
000100 15 65 86 bd 00 4c 85 bc 63 c9 b7 bc f7 6c 5e bd
       -0.065622486 -0.016271591 -0.022434896 -0.054303136
000110 8e b4 fc bc 19 03 10 bd ca 99 6b bd ea 4c c7 bc
       -0.030847814 -0.035159204 -0.05751971 -0.024328668
000120 d3 7a 52 bd d2 9f 77 3d 8e 9b 4f bd 33 b2 c3 bd
       -0.051386666 0.06045515 -0.050685458 -0.09555473
000130 c2 b2 e5 bd 5e e7 4d bd ad 81 8e bd 8c b7 1a 3e
       -0.11215736 -0.050269477 -0.069583274 0.1510908
000140 d1 7c 36 bd 60 d0 ce 3d 02 e7 3b bd 4e 8e c6 bd
       -0.044552628 0.10098338 -0.045874603 -0.09695111
000150 19 c0 fb 3d 2a b2 10 bd 9b 85 0e bc dd f4 44 3d
       0.12292499 -0.03532616 -0.008698846 0.048085082
000160 1f d8 81 3c a2 f8 33 3e f6 c2 33 bd 38 5f c5 bb
       0.015850125 0.17575315 -0.0438871 -0.006023314
000170 fd 07 96 3d 55 da 0e bd 02 1b b3 bd 58 d9 43 3e
       0.073257424 -0.034876186 -0.08745386 0.19125879
000180 7e 8d b9 bc f3 76 db 3d aa a0 d3 bd 6d 7f a4 bc
       -0.022650477 0.10716047 -0.103333786 -0.020080293
000190 20 63 85 bd 19 9a dc bc 84 ed 83 3d 44 c4 8d bd
       -0.06513047 -0.026928948 0.06441787 -0.069222
0001a0 82 73 8d bd 4d a9 ea bd b4 c3 43 bd 7f a7 11 3e
       -0.06906797 -0.11458073 -0.04779406 0.14224051
0001b0 d6 97 78 bd 27 df 85 bb f9 f7 0c bc c1 00 de bc
       -0.060691677 -0.0040854397 -0.008604043 -0.027099969
0001c0 46 aa 1e 3e be c6 3d bc db c0 f3 3d 21 38 2d bd
       0.15494642 -0.011583028 0.11902019 -0.042289857
0001d0 40 ba b9 bd 83 b1 0e bc 9f 03 98 bb 79 79 72 bd
       -0.090687275 -0.008709314 -0.0046391035 -0.059197877
0001e0 f1 6a 29 bd d8 1f d6 bb 4c f2 ff 3d 62 ad 4c bd
       -0.041361753 -0.006534558 0.12497386 -0.04997004
0001f0 80 33 8d bb bf e8 99 3e a5 ad 44 bb 10 a4 19 bd
       -0.004309118 0.30060384 -0.0030010727 -0.037509978

fc3.weight f4 [7, 128]
000000 7c f8 96 bd cc d3 73 be 40 68 47 bd d2 e1 6b 3c
       -0.073716134 -0.23811263 -0.048683405 0.0143971015
000010 1a 5a 46 bd c4 95 11 be 30 36 13 3c 79 d2 c9 bd
       -0.04842577 -0.14217287 0.008985087 -0.098545976
000020 37 b4 8f 3d 85 6c 99 3c ba 51 33 bb 40 05 03 bd
       0.07016795 0.018728504 -0.0027361945 -0.03198743
000030 54 64 a8 c0 77 a3 a3 bd 37 d9 6e bc 17 8d a0 3c
       -5.262247 -0.07990163 -0.014578155 0.019598527
000040 23 05 36 bd d6 66 ed 3c 68 d1 5f be a0 f3 16 3d
       -0.044438493 0.0289797 -0.21857226 0.036853433
000050 fa 82 bd bf 96 9f 47 3d 69 96 7b c0 57 84 32 3d
       -1.4805596 0.048736177 -3.9310553 0.04358324
000060 6a 95 9c 3d 79 64 29 bd 25 3d 21 3c 40 07 33 be
       0.07645686 -0.041355584 0.009841238 -0.17483234
000070 a6 e1 4a bc 7b 68 1d 3d f6 38 9b bc 48 d8 7e be
       -0.0123829 0.03842972 -0.01894806 -0.24887192
000080 82 89 54 3b 8a 24 a6 bd 57 0b c8 be 5d 35 c8 bc
       0.0032430594 -0.08112438 -0.39071152 -0.024439508
000090 78 83 ea bd 56 6e 0a be d6 e3 e0 bc 90 8d bf be
       -0.11450857 -0.13518652 -0.02745239 -0.3741269
0000a0 6b 03 3b 3d f3 0b 22 3c 2a ae 95 bd 44 7b 9f bd
       0.045657557 0.009890544 -0.0730861 -0.07787183
0000b0 69 0b 47 3d 84 6c 1e be 07 62 b9 bd ed f8 59 3c
       0.048594866 -0.15471083 -0.090519 0.013303977
0000c0 ab 3c f4 bd 63 73 fe 3c ec a6 b3 be 82 d6 cc 3c
       -0.11925634 0.03106088 -0.3508829 0.025004629
0000d0 45 5f 96 3c a3 f5 7a bf 14 34 48 bc f3 78 96 3a
       0.018355975 -0.9803106 -0.012219448 0.0011480137
0000e0 c8 22 ba 3c 96 2e fc bc 3d 5a a6 3c 6e 51 22 3d
       0.022721663 -0.030783933 0.0203067 0.03962844
0000f0 53 d5 05 3d ba d9 8e 3c 0b b4 de bd 4a 2c c7 bb
       0.032674145 0.017437804 -0.10874184 -0.0060782777
000100 8d 73 e1 bd b8 5c 78 3d 5e 30 d2 bc 65 f1 9d bc
       -0.11008368 0.0606353 -0.025657829 -0.019280145
000110 d5 c2 05 bd d7 f9 80 bd 7b 12 c7 bb ed 92 0d 3d
       -0.03265651 -0.06297653 -0.006075201 0.034563947
000120 6b 10 48 bd c5 aa 2a bf f9 1e cd bd 85 48 b0 3d
       -0.048843782 -0.66666824 -0.10015673 0.08607582
000130 c1 b3 93 bd d1 19 7e bb b8 2d ba 3c 1f f6 a1 bd
       -0.0721202 -0.0038772712 0.022726879 -0.07908272
000140 45 ff 94 bd 48 0f 86 bd 18 bf 88 bd 05 05 01 bd
       -0.07275251 -0.065458834 -0.06677073 -0.031498928
000150 34 9c b0 bf d1 d0 69 bd 08 44 6c bd 6c 4f ca bd
       -1.379767 -0.05708391 -0.057682067 -0.0987843
000160 79 0d 45 be 8c 68 39 c0 f7 42 48 3c 1d 76 15 bd
       -0.1924342 -2.897006 0.012222997 -0.036489595
000170 e6 d8 90 3b 50 71 8e bd 3f b6 fa bb c9 63 99 be
       0.0044203876 -0.069552064 -0.00765112 -0.29958943
000180 0c 74 33 bd a4 54 44 c0 ae 79 8a 3b 65 d6 13 bc
       -0.043811843 -3.067666 0.004225931 -0.009023284
000190 fe c8 33 bd 91 f0 29 bd 01 9e 2d bf 22 fd 33 bd
       -0.043892853 -0.041489188 -0.6781922 -0.043942578
0001a0 f7 d0 6c bd f3 dc 0c be 04 46 09 3d a1 f3 31 be
       -0.057816472 -0.1375616 0.033514038 -0.17378093
0001b0 98 26 dd bc d2 33 8d bc f1 78 01 bd b9 17 11 3d
       -0.026995942 -0.017236624 -0.03160948 0.035423014
0001c0 9f f8 a8 c0 78 39 a4 bd 35 de 26 be 43 bb c4 3c
       -5.2803493 -0.08018774 -0.16295703 0.024015075
0001d0 73 5f a9 bd 81 87 16 be d1 00 cb 3c 61 43 80 bd
       -0.082701586 -0.14700128 0.024780663 -0.062628515
0001e0 f3 b9 20 be 6a 12 f3 bd 9d 44 ee bd 2c f8 93 3a
       -0.15695934 -0.118687466 -0.11634181 0.0011289171
0001f0 70 dc 0a 3d f6 dc c0 c0 95 7d 98 bd 0f 3a 43 bc
       0.03390163 -6.026973 -0.07445828 -0.011915698
000200 b3 18 ec bb 45 56 33 3c f5 f8 80 3a 7d de 27 3c
       -0.007205093 0.010945861 0.000983982 0.010245916
000210 07 18 3b be ab b0 f3 bc d1 f9 84 3c 74 11 da 3b
       -0.18270884 -0.029747328 0.016232403 0.0066549126
000220 b0 55 b2 bd 7d e5 ad 3c 17 82 92 3d f0 0b f3 3c
       -0.0870775 0.021227593 0.07153719 0.029668778
000230 db 85 e1 3b 82 9a 1f bd c4 61 5a 3e 8b 3b 90 bc
       0.006882412 -0.03896571 0.21326357 -0.017606517
000240 29 82 aa bc 83 ff a3 39 dd 57 e2 3d 5a 24 a1 bb
       -0.020814018 0.00031280154 0.11051915 -0.0049176635
000250 85 a7 97 3d cd 58 d9 3c ad 28 8c 3e f5 4d b1 bd
       0.07404999 0.026531601 0.27374783 -0.08657447
000260 63 9c aa 3c a1 a6 6b 3d ec 50 74 bd 1a 27 f5 3d
       0.020826524 0.057531957 -0.059647486 0.11970349
000270 00 db 36 bb 90 89 44 bd 11 3d 65 bc ba f2 94 3d
       -0.002790153 -0.047982752 -0.01399161 0.07272859
000280 b9 95 b3 3a 98 ef e1 3c e8 37 b2 3c bb 48 03 be
       0.0013701237 0.027580068 0.021755174 -0.12820713
000290 a9 68 91 bd 0f e0 8d 3d b4 7e 1f bc fb f2 bf 3d
       -0.071000405 0.069275014 -0.009734798 0.09372517
0002a0 dc 51 a7 3d 1c 9b e6 3c bf 13 85 bd 72 c2 8f 3d
       0.0816991 0.028150134 -0.06497907 0.070195094
0002b0 fb 2d a7 3c c2 68 f7 3d ac 7c f7 3d b7 87 3f 3d
       0.020407667 0.12080528 0.12084326 0.046760287
0002c0 12 a1 4b bd 88 c1 6c 3d 0e 9a 94 bd b9 ec 49 bc
       -0.049714155 0.057801753 -0.07255946 -0.0123245055
0002d0 99 60 bb bd 72 61 bb 3d 4f b7 25 3c 86 37 59 3d
       -0.09149284 0.091494456 0.010114505 0.053031467
0002e0 24 c1 c5 bc 33 c8 06 bd 82 fb 43 bd 61 36 a3 bd
       -0.024139948 -0.03290577 -0.04784728 -0.07969356
0002f0 d3 72 77 bc 49 af ad 3d f4 1f 8a 3c 7f d6 30 bd
       -0.01510306 0.084806986 0.01686094 -0.04317331
000300 c8 dc 15 be 04 70 41 3e d3 58 ac 3b 12 86 c5 bd
       -0.14635003 0.18890387 0.005259612 -0.096447125
000310 d6 50 67 3d 05 98 45 3b 85 0c 51 3d e3 c8 90 3d
       0.056473576 0.0030150425 0.05103733 0.07069566
000320 49 8e 88 bc a5 65 82 bd b0 38 2d bd b1 39 6a bd
       -0.01666941 -0.063670434 -0.04229039 -0.057183925
000330 71 05 72 bd f5 dc bd 3d db 1a a6 bd 1d d4 e5 3d
       -0.05908722 0.0927066 -0.08110591 0.11222098
000340 49 bf 8d bd a1 70 8c 3d e6 3f 29 3c d8 70 87 3c
       -0.069212504 0.0685742 0.010330176 0.0165333
000350 2a 02 22 3d 87 c9 12 3c d6 66 7e bc 35 d9 e9 3d
       0.039552845 0.008959181 -0.015527448 0.11418382
000360 4a dd 07 3d 71 2a 04 3e a5 91 24 3d 42 49 89 bc
       0.033170022 0.12906815 0.04017796 -0.016758565
000370 96 04 08 3d d6 27 39 be 91 72 95 bc 6c 87 94 3d
       0.0332075 -0.18081602 -0.018243106 0.07252392
000380 a9 13 2e ba d4 4f 4a 3a 8e d8 64 bd a3 7b a4 3d
       -0.0006640503 0.0007717584 -0.055870585 0.08031394
000390 f4 7d 39 bd 07 c4 a5 bc 0b dd 03 3d 39 26 b0 3d
       -0.045286134 -0.020235075 0.032193225 0.086010404
0003a0 4b 63 2b 3c c9 76 fd bd a0 a4 96 bd ed c6 27 3e
       0.010460685 -0.12376172 -0.073556185 0.16384478
0003b0 aa 8d 5e 3d 99 07 2d 3e b5 25 18 3e e7 f0 30 bc
       0.05433432 0.1689743 0.14858134 -0.010799623
0003c0 ee 88 17 bd 68 9e 3a bd 18 e2 b7 3d f7 7d d2 bd
       -0.03699582 -0.045561224 0.08978671 -0.10277932
0003d0 c5 14 0d bd 74 04 b7 bd a8 52 d9 bc 8b ae 06 bc
       -0.034443635 -0.08936396 -0.026528671 -0.008220325
0003e0 56 cc 18 bd 00 68 bd 3d e3 63 84 3d 82 28 8e bd
       -0.037304245 0.09248352 0.064643644 -0.0694132
0003f0 3b 24 12 bd d8 69 de 3d 74 1e 3f 3d 52 c6 f3 bc
       -0.035679083 0.10860032 0.0466599 -0.029757652

fc3.bias f4 [7]
000000 ad 9e 00 bf cf 06 33 3d c1 df eb 3d de 6e c8 3d
       -0.5024212 0.043707665 0.11517287 0.09786771
000010 69 70 f1 3d 4b 2c f7 be 05 4f 00 bf
       0.11789019 -0.4827598 -0.50120574
