hackathon_toolkit/checkpoints_qlearn/agent_1_episode_3200.pth (torch, 78474 bytes, 6 tensors)

fc1.weight f4 [128, 11]
00000000: 99c4 923c 3959 79be e66b 143e 044a 683d
00000010: 66c9 013e 6596 b0ba 7cc2 9abd 30fd 85be
00000020: 8c8f 88be 0e63 b03e 2541 1d3e c044 a0bd
00000030: 1ecb 123d 9de6 29b8 802d ac3e 8967 60bd
00000040: ec4b 3c3e 9c0d be3e 1c50 ab3c 8a1b 4f3e
00000050: 77da 11bf 2ff4 65be 5e41 87be 0ce1 a0be
00000060: ec42 073e d551 34be 1872 99bc 1998 f33d
00000070: e604 6e3e b0e3 b73e 4866 003e e9a6 9a3d
00000080: baf9 73be 2796 d03b f0e3 113e ffa5 52bd
00000090: 6b64 643e f158 32be b31b ad3e a4ea 2d3e
000000a0: 1479 2fbe 778b f6bb 19ee 8ebe e38a 66be
000000b0: 64e7 4a3e 3305 293e 22c7 173d e66a eabd
000000c0: da49 0d3e 3099 a5bd 9c9f a93e fec0 943e
000000d0: 8c6b f0bd a45c 42be d632 823e 2123 4ebe
000000e0: 8294 a9be a234 973e f7a7 233e 8bd8 5e3e
000000f0: ffef 143e bc30 37be 1af8 483a c06b 973e
00000100: ee19 4a3d 4066 82bd cbfc fb3d d071 d4bd
00000110: 2ebf d23b 6562 513d 3218 bdbd b8ce 0e3c
00000120: 4226 2cbe 1073 32bc 620a 703e b92b 993e
00000130: 939b 20be 9a88 8d3d 4890 ea3e 410f babd
00000140: 4f50 b23e d76b 933e 1484 b63c 98f3 a13e
00000150: 2d2f 743e efb9 4abb 57a8 83be 253e cd3e
00000160: d3ca d2be 5f61 e73e 4189 dc3e 43c2 c2bd
00000170: 7932 37be 9df5 3e3d 46cd 7a3e f2d6 f73c
00000180: dff6 05be b752 49be e5d4 e93e b518 20be
00000190: 1f34 0d3e a8f7 153e 8866 84be 8902 8dbd
000001a0: 8e6d 55be 653c 1dbe a085 913c eae4 d23d
000001b0: 00fa 8f3e 1b09 c03d deeb 3f3e a601 06be
000001c0: 009a e23d b69e 87bc 698d 47bb 4eb1 0e3e
000001d0: 4603 5abe 064e 45be 621f 6b3d ec30 093f
000001e0: b966 f13d 0a65 9f3d c85c c8bd 96c2 1ebd
000001f0: 47f0 3ebd 7190 6c3e de88 c23c ff9c e13c
00000200: 7907 b9bd a711 9e3e 45b2 85be 4188 dcbd
00000210: 504e a93e 5ff2 41be 9515 d63c 4603 48be
00000220: 874c 173e 0146 89bd b349 a7bb 2e47 1c3e
00000230: d0c5 853e 91c1 c83e 14c1 a5be f9a3 ce3d
00000240: a2bc 3ebe 8431 8c3d c281 66be 700e 803e
00000250: 6fc4 443e 2c31 1e3e ea8c cd3d ae2b 823e
00000260: 27d1 c4be 0f37 0d3e 0c26 803e bc9a 11be
00000270: 7f70 773e 967f c6be b4e0 5e3e dfce 29bd
00000280: 8827 a3be e70f 893d b9cd 893e 7f12 683e
00000290: f9d8 21be 2d2e 28be 8e2f 90be f313 11be
000002a0: edc9 9a3e 3129 b93e 4d0b 07be 7903 543e
000002b0: 6540 56be fc05 853e 909e 9b3e 1fb3 30be
000002c0: dffc eabd b6c6 3abb df9c dbbd 819d 283d
000002d0: f44f 7c3e 8c0e 63bd 2960 b0bd 9eef d43d
000002e0: f282 8f3e 461e 87bd 6faf 8fbe 2525 ec3e
000002f0: b19e 883e f1a1 ab3d 3c1d 39be bb10 813c
00000300: bee5 273e dba9 26be d67d 2b3e 893f c9be
00000310: dc36 923c a0b1 2fbe ce3d 263e 412f a8be
00000320: 05fc c73d e366 443e c6ed 0d3e 4c02 693e
00000330: 91b8 7e3e 3988 19be 7d9a 38be fe29 533d
00000340: e2d2 53be 0b1e 703d 4dc4 843e d209 a33d
00000350: 797c 103e 4f24 613d 7110 853e 01f2 f03d
00000360: 2056 c9bc 5584 b9be e8c6 223e 997d dc3e
00000370: 43ad 3abe 1a25 8bbe 12f4 7dbd 3dd1 943e
00000380: 3227 de3d b617 06be ba57 8b3d b8e0 b13e
00000390: 673b 173d 3103 34be 9764 7c3e c34c 7d3e
000003a0: 47e8 e73e d153 9f3d b66a e3bd b5f8 63be
000003b0: c98d 5b3e d8e6 f33d a3f9 453e 1809 8abd
000003c0: f95a 4abd 95ab 953e ab16 033f 245d c43c
000003d0: b9a7 64be b69d 1f3e 0449 fabd a386 dabd
000003e0: e2dc c5bd a2d3 6c3e bd0c 14bd 62da c63e
000003f0: f25d afbd f805 3cbe f170 a13e 1503 18be
0.01791601 -0.24350442 0.14494285 0.05671121 0.12674484 -0.0013472555 -0.07556626 -0.2616973
-0.26672018 0.34450573 0.15356882 -0.07825613 0.03583824 -4.0507515e-05 0.33628464 -0.05478624
0.18388337 0.37119758 0.020912223 0.20225349 -0.56973976 -0.2245643 -0.2641706 -0.31421697
0.13209122 -0.17609341 -0.018731162 0.11894245 0.23244056 0.359159 0.12539017 0.07551367
-0.23825732 0.006365556 0.14247108 -0.051427837 0.22303931 -0.17416741 0.33810195 0.1698404
-0.17136031 -0.0075239497 -0.2791603 -0.22513919 0.19814831 0.1650589 0.037055142 -0.114461705
0.13797703 -0.08085859 0.33129585 0.2905349 -0.11739263 -0.18980652 0.2542941 -0.20130588
-0.33121115 0.29532343 0.15982042 0.21762292 0.14544676 -0.17889684 0.00076663645 0.29574394
0.049341135 -0.06367159 0.12304076 -0.103732705 0.006431482 0.051119227 -0.092331305 0.008716278
-0.16811469 -0.010891691 0.2344146 0.2991617 -0.15684347 0.0691082 0.45813203 -0.09084941
0.34826896 0.28793213 0.022279777 0.3163116 0.23846121 -0.003093358 -0.2571437 0.40086475
-0.41170368 0.45191476 0.43073466 -0.09509709 -0.17890348 0.046620954 0.24492368 0.030253861
-0.13082455 -0.1966046 0.45670238 -0.15634425 0.13789414 0.14645255 -0.25859475 -0.06885249
-0.20842573 -0.1535507 0.017763913 0.10297568 0.28120422 0.09376737 0.1874232 -0.13086566
0.110645294 -0.016555171 -0.0030449277 0.13934824 -0.21290311 -0.19268045 0.057402976 0.53590274
0.11787171 0.077829435 -0.097833216 -0.03875979 -0.046615865 0.23101975 0.023746904 0.027540682
-0.090346284 0.30872843 -0.2611257 -0.10768176 0.3306756 -0.18940113 0.026133338 -0.19532499
0.14775287 -0.06702805 -0.005105221 0.15261528 0.2612748 0.3921018 -0.3237387 0.10089869
-0.18626645 0.06845382 -0.22510436 0.25011015 0.19215558 0.15448445 0.10036643 0.2542395
-0.3844082 0.13790534 0.25029027 -0.14219183 0.24164008 -0.38769215 0.21765405 -0.041457053
-0.31866097 0.06692486 0.26914766 0.22663306 -0.15805425 -0.16423865 -0.2816128 -0.14167766
0.30232182 0.3616424 -0.13187905 0.2070445 -0.20923002 0.25981128 0.3039441 -0.1725583
-0.114740126 -0.0028499789 -0.1072328 0.041165832 0.24639875 -0.055433795 -0.08612091 0.10397266
0.2802959 -0.06597571 -0.28063533 0.4612209 0.26683572 0.08380497 -0.18077558 0.015755048
0.16396233 -0.16275732 0.16747221 -0.39306286 0.017848425 -0.17157602 0.16234514 -0.32848552
0.09764866 0.19179873 0.13860235 0.22754782 0.24875094 -0.14993371 -0.18027683 0.05155372
-0.20685914 0.0586224 0.25931016 0.079608575 0.14109983 0.054966267 0.25989106 0.117649086
-0.0245772 -0.36233774 0.15896189 0.43064573 -0.18230157 -0.27176744 -0.06200034 0.29065886
0.1084732 -0.13094983 0.06803842 0.3474176 0.036921885 -0.17579342 0.24647747 0.24736314
0.452944 0.077796586 -0.11104338 -0.22262843 0.21440805 0.11909264 0.1933351 -0.06740016
-0.049403165 0.2923247 0.51206464 0.023970194 -0.22329606 0.15587506 -0.12220958 -0.10670211
-0.09661271 0.23127607 -0.03614496 0.38838488 -0.085628405 -0.18361652 0.3153148 -0.14844926

fc1.bias f4 [128]
00000000: fad1 80be c36c 2a3e 21b3 6fbe 83f1 92be
00000010: efb3 b6bd 80b0 ea3d 8bff c1bc 3a7c 983e
00000020: ab96 9ebd 4b17 95bd 47e6 fc3d d06e 99bd
00000030: b4d8 4abe 143b 9abe e4af e6bd e400 403e
00000040: ff03 bdbe 9b28 96bc fc48 063e a6d5 8abd
00000050: a156 04be 9a37 1e3d 0601 02be 2e41 f4bd
00000060: c4f6 0cbd 0b22 4b3e fe2e 17be 97fa abbe
00000070: b870 4dbe 17df f7be 1cf7 d2be fa74 66be
00000080: 387a 963d 8216 dabd e675 3cbe 5527 253e
00000090: a480 76be 97a8 923d ef1f 4bbe 65d4 fcbe
000000a0: fbf2 bbbe 6362 9f3e e6ca 0c3e 276b d2bd
000000b0: 23be 773c 5902 cf3e 5ba9 b2bd 428c 46bd
000000c0: 0f14 5abc 8700 83bd 2d2f 82be a66c 183e
000000d0: 807c c5be d659 4bbc d2ea 163e 2b01 983e
000000e0: 40ed b6be a3be db3c 050a 0f3e 35fb 803d
000000f0: a82a 533b 2e19 463e c497 8e3b 6522 d33d
00000100: 428e 313e 23bd 4fbe 4bd8 7bbd 35a0 f7bd
00000110: 4c9a 01be e56a d23a e2b2 db3e ab84 96be
00000120: 08f3 9cbe 66ce 91be c230 93be e0d8 97bd
00000130: 55b4 73bd 0127 afbd 5f51 fd3d e327 0d3d
00000140: e985 85bd b45f 8b3e abaf 59be 23ad 62bd
00000150: 661a ce3e e3a6 2dbe 27f1 89bb 15e9 e4be
00000160: 2bfe ccbe 44f9 86bd ee35 f2bd c1dc bcbe
00000170: 578d b63d f9f0 b5bd 820d 6dbd 2599 88be
00000180: 2dce ba3d 538e 943d 6bc1 10be e905 8fbe
00000190: 0b0c e9bd 02b6 093e e41e 9b3e 39c9 0abe
000001a0: 1411 6cbe 1836 513c 959d bbbd c763 e9bd
000001b0: edc6 fe3d 8265 723d 122f 2e3e deea 09be
000001c0: e865 8a3e d901 46be 8ba0 0abe a50d 8a3e
000001d0: 356f 51be 83b2 ed3d 30f5 64be 157c 233e
000001e0: 4e1d 283e 40b0 6c3d c226 9abe 3863 0ebe
000001f0: 090e 23bc 00ea aebd d1af 1d3e 9154 62be
-0.251602 0.16643052 -0.23408176 -0.28699884 -0.08921038 0.11459446 -0.023681423 0.29782277
-0.077435814 -0.072798334 0.123486094 -0.07491839 -0.19809228 -0.30123198 -0.11264017 0.1875034
-0.3691711 -0.01832991 0.13113779 -0.067790315 -0.12923671 0.038627245 -0.12695703 -0.119264945
-0.03441502 0.19837205 -0.1476402 -0.33589622 -0.2006253 -0.48412392 -0.41204154 -0.2250556
0.0734753 -0.10648824 -0.1840435 0.16128285 -0.2407251 0.07161062 -0.198364 -0.49380794
-0.36708817 0.3112975 0.13749275 -0.10274344 0.015121016 0.4043148 -0.08723708 -0.048473604
-0.013310446 -0.06396585 -0.25426617 0.14885196 -0.38571548 -0.012411555 0.14738014 0.2968839
-0.35727882 0.026824301 0.13968666 0.06297914 0.003222147 0.19345543 0.004351588 0.103092946
0.17339423 -0.20286994 -0.06148557 -0.12091104 -0.12656516 0.0016053586 0.42909914 -0.29398093
-0.30654168 -0.28477782 -0.28748137 -0.074144125 -0.05949815 -0.08552361 0.12369036 0.034461867
-0.06519682 0.27221453 -0.21258418 -0.055340897 0.40254515 -0.16958193 -0.004209656 -0.44709077
-0.40037665 -0.065905124 -0.118266925 -0.36887172 0.08913677 -0.088838525 -0.05787421 -0.2667934
0.09121356 0.07253709 -0.14136283 -0.27934197 -0.1137925 0.13448337 0.30297005 -0.13553323
-0.2305339 0.012769245 -0.09160916 -0.11395984 0.12440286 0.059178837 0.17010143 -0.13468501
0.27030873 -0.19336642 -0.13537805 0.26963535 -0.20452578 0.11606314 -0.22359157 0.15965302
0.16417429 0.057785273 -0.30107695 -0.13905036 -0.009952077 -0.08540726 0.153991 -0.22102572

fc2.weight f4 [128, 128]
00000000: cec4 3f3d 13dd 5aba dac7 efbc da59 733d
00000010: 0b4e b9bd b507 59bd ef45 85bb 285f a1bc
00000020: f424 a3bc 654d 32bd 7588 98bd 1181 903c
00000030: 1376 adbd 3adf 153d 8eea 07bd a163 5c3c
00000040: 3a42 cdba 3429 bb3c 6826 793d fbba d43a
00000050: 2f67 1ebd 46a7 1dbd bde5 c63a 5408 93bd
00000060: f91d 2abd 68c3 cabd d38f 02bd 21bf d83c
00000070: e88c 86ba f713 27bd b255 e23c ad71 98bd
00000080: 41bf 79bc b9a3 37bd 4936 abbd 683f 133c
00000090: 8b71 c9bc 3e16 1dbd 6396 913d 26c1 8abc
000000a0: 22b1 363d dbf4 96bd 10f7 f13a 8577 30bd
000000b0: c8ec 91bd 74df a7bd a607 bdbb 0cf7 4d3d
000000c0: 6f0f 86bd 8e9c c8bc a1ea 45bd 0ae0 76bc
000000d0: a182 2ebd 2955 f0bc bf52 55bd 39d0 bfbd
000000e0: 044e 9cbd 432e d2bc 7b2d 7d3d 3c1f 2aba
000000f0: 13c2 91bc 74e0 9dbb 5822 413c 23b3 52bd
00000100: ed2e 833d c476 babd 27f9 cdbd a668 203c
00000110: a9ab 423d 9a46 ab3b 64d4 d93c 4381 483d
00000120: e0c0 243c 01a7 b33c 49fc 713d cd79 c9bd
00000130: b9f8 b4bd 25e0 d9bd e228 8bbc 28b8 92bd
00000140: 56d0 29bd ab6d 06bd ae36 013d ab08 36bc
00000150: 1b8f 4b3d bcdb d2bd 9661 8dbc c165 503d
00000160: 3bfc f1bc 4ed8 58bd d194 993d 40e9 d5bd
00000170: 1fce 8fbd 5a7d 293d 4a23 3a3d 42b5 4cbd
00000180: 404e b2bd fd2b d4bd 29c1 453d 231a 23bb
00000190: 4528 87bd 1e4b 223d f017 fbbd 1b10 193d
000001a0: bd56 ad3c b48f 90bd 5400 45bc f6ff 993c
000001b0: 490b 55bc b9ff 853d 049a adbd 6e96 bb3c
000001c0: d8db 9bbc ef87 d3bc 97c9 aabd d754 8e3c
000001d0: 9391 3ebd d33f da3b d84c 3fbd c39d 2a3d
000001e0: d406 21bd 5d13 18be 1dd3 98bc 5890 80bd
000001f0: d6ce 163d 36db 0e3b 2e24 5cbd e5a8 0bbd
00000200: 7964 4abe cfc9 d3bd 3051 8bbc 91c3 323c
00000210: 88bd 4c3d c9b9 45bd ec62 5b3d 1b98 6cbd
00000220: dd72 cb3d a033 b2bc db48 ffbb 7aaf 063d
00000230: 3f3e a53d fca6 f03b bc54 b7bd 1211 3dbc
00000240: 6502 c53d bc19 993b 80e6 bdbd 4297 b23c
00000250: c47b 4ebc 1cba 8f3c a0e4 92bd 05dd a5bd
00000260: aa1d 9dbd 750d f83c f10d 823d 5faa a9bc
00000270: 8867 4bbc 326b 86bd f390 9bbd 4c1c efbc
00000280: 2adb 383d 74a5 85bd 5c87 b7bd 3a0a e23d
00000290: f360 d63c 6a2d 19bd 9f6f ffbd 536a d3bd
000002a0: 4bd5 2abd 9025 373c d0c2 533d 2966 bebb
000002b0: bf56 573d 3947 a7bd 9f95 b4bb fc15 dcbc
000002c0: c4ff 4e3d 2b0d 83bd 9842 2fbd 6d2f f2bd
000002d0: e395 fd3d 5bab d9bc 6ba5 f8bd 865f a2bc
000002e0: f028 2cbd 23e4 f63c d751 eebc 3b28 bfbd
000002f0: d2c9 643d bb46 37bd a04f 833c 6831 863c
00000300: 4ca8 2bbe 14a4 223d cc29 053c c87b b6bd
00000310: 3291 96bc c453 973d bbb9 d8bd 58e6 2cba
00000320: 40ab 923c 823c 153d a95c 8f3d 881c ccbc
00000330: aae7 97ba bcdb cd39 4700 77bc dca8 c9bd
00000340: 8dc8 393d 8ff5 c1bd 7c05 24bc eec9 0f3d
00000350: f97f 93bd 3fb4 573c 5422 43bb 7899 773b
00000360: 640c 983d 85db 833c fa30 783c 299a 353b
00000370: f5bc af3d aaa5 c4bc 7dca 75bd 998d 57bd
00000380: d82d d0bb 64cf 42bd e6cf f8bd ca17 ba3b
00000390: 6fcf 80bd e2e3 22bd 7fdb 08be 1a2d 22be
000003a0: 10f3 363c 6df3 933d 4c6f 723d 0c39 653d
000003b0: 2edf 1dbe a1bb 8fbd f4b1 673d 9974 d9bd
000003c0: e94c 833d 41a5 003d ca4d 4a3d c22f 15be
000003d0: 683f c1bd da08 a5bd 0412 0cbe cf6c 3abd
000003e0: ee09 cc3d aca6 d2bd 7aa3 6abb 5887 75bd
000003f0: 46d5 bcbd e86b 863d 7a19 33bd 0d82 b63b
0.046818547 -0.00083489827 -0.029270101 0.05941186 -0.09048089 -0.052985866 -0.0040671746 -0.019698694
-0.019915082 -0.04353084 -0.07447902 0.017639669 -0.084697865 0.03658984 -0.033182673 0.013451488
-0.0015659996 0.022846796 0.060827643 0.0016230041 -0.038672622 -0.038489603 0.0015174669 -0.07179323
-0.04153249 -0.09900552 -0.031875443 0.026458325 -0.0010265382 -0.040790524 0.027628753 -0.07443557
-0.015243352 -0.044833872 -0.083599634 0.008987285 -0.024590274 -0.03835129 0.07108762 -0.016937803
0.04460252 -0.07370921 0.0018460471 -0.043082733 -0.071252406 -0.08196917 -0.005768734 0.05028443
-0.065459125 -0.024488714 -0.048319463 -0.0150680635 -0.042605046 -0.029337483 -0.052080866 -0.09365887
-0.07632068 -0.025656825 0.06181095 -0.00064896396 -0.017792737 -0.0048180167 0.011787973 -0.05144037
0.06405435 -0.09104684 -0.10057288 0.009790575 0.04752699 0.005226922 0.026590534 0.0489514
0.010055751 0.02193022 0.05907849 -0.09837685 -0.088365026 -0.10638455 -0.016987268 -0.07164031
-0.04145845 -0.03281943 0.031546287 -0.011110465 0.049697023 -0.10295817 -0.017258447 0.05087829
-0.029539218 -0.05294066 0.074990876 -0.104448795 -0.07021736 0.04137931 0.04544381 -0.04997755
-0.08706331 -0.103599526 0.048279915 -0.0024887405 -0.06599478 0.03962242 -0.12260425 0.037368875
0.021159524 -0.07058659 -0.012024004 0.01879881 -0.013003179 0.06542916 -0.08476642 0.022898879
-0.019025728 -0.025821654 -0.083392315 0.01737444 -0.04652555 0.0066604405 -0.046704143 0.04165436
-0.039313152 -0.14851137 -0.018655354 -0.062775314 0.036818348 0.002179814 -0.05374544 -0.034096617
-0.1976489 -0.10341226 -0.017006487 0.0109108845 0.04998544 -0.04827288 0.053561136 -0.057762247
0.09934018 -0.021753132 -0.0077906675 0.03288219 0.08068513 0.007344125 -0.08951709 -0.011539714
0.09619597 0.004672257 -0.0927248 0.021800641 -0.01260275 0.017544799 -0.07172513 -0.08098797
-0.076716736 0.030279854 0.06350315 -0.020711122 -0.0124148205 -0.06563415 -0.07596006 -0.029188298
0.045130886 -0.06525698 -0.089613646 0.11037107 0.026169276 -0.037396826 -0.12472462 -0.10323014
-0.04170732 0.011178389 0.05169946 -0.0058105183 0.052572962 -0.081678815 -0.0055110003 -0.026865952
0.050536886 -0.06398996 -0.042788118 -0.11825452 0.12382104 -0.026570966 -0.12140926 -0.01982094
-0.04203123 0.030138081 -0.029091759 -0.09333845 0.055856533 -0.04474519 0.01602918 0.01638098
-0.16763419 0.03970726 0.008127641 -0.08910328 -0.018379781 0.07389024 -0.105823 -0.0006595603
0.017903924 0.036434658 0.070000954 -0.024915949 -0.0011589427 0.00039264362 -0.01507575 -0.098466605
0.045357276 -0.09470665 -0.010011073 0.035104685 -0.07202143 0.013165533 -0.00297751 0.0037780683
0.07424238 0.016095886 0.015148396 0.0027710295 0.085809626 -0.024004776 -0.06000756 -0.052625272
-0.0063531213 -0.047561064 -0.121490285 0.0056791054 -0.06289565 -0.039768107 -0.13364981 -0.15837517
0.011166349 0.07224164 0.059188172 0.055962607 -0.15417168 -0.07018209 0.056566194 -0.10617942
0.06411154 0.0314076 0.04939059 -0.14569 -0.09435922 -0.08058329 -0.13678747 -0.045513924
0.099628314 -0.102856964 -0.0035803006 -0.059943527 -0.09220366 0.0656355 -0.04372547 0.0055697025

fc2.bias f4 [128]
00000000: d7bc 49bd f6d4 56bd edb8 54bd c8dc 29bd
00000010: 7e26 7fbd 9e73 0dbc 6e1e ddbd 39c8 1fbd
00000020: 4c9f 2abd 4d76 b5bd 5382 79bd 8919 90bd
00000030: f24d e33e 6e5e 8cbd a7cb b4bd 0080 29be
00000040: 8621 77bd 030b 8cbd 190c 50bc 076e 3bbd
00000050: 9e37 a03e 41e6 80bb 547f a73e 71ea 86bd
00000060: 43d0 60bd 8a29 babd dad9 25bd 6520 953e
00000070: f85b 24bd a28d aabc 1c8c 78bd a2ac 943e
00000080: 98d3 45bd c8ec 40bd 191b 1bbd a50f a0bd
00000090: 1da1 49bd 7247 c1bc 212a 59bd e383 413e
000000a0: ece1 40bd e740 c4bb 9e83 a1bd b064 5cbd
000000b0: 9ea6 15bd 6899 953e 3128 b13d 6e9f 8fbd
000000c0: e65f 7fbd 27ab 22bd 0075 9fbd 293c 35bd
000000d0: db04 42bd 9742 06be 852f a1bd 74a5 34bd
000000e0: 1b72 f7bd dee2 d3bd c578 f9bd f005 0bbd
000000f0: 0b4b 0bbd baeb 433c 58bb 27bd 1d23 41bd
00000100: b4d0 96bd bc1a b7bd 63c9 b7bc 73b0 eebd
00000110: 1a17 7ebd 3227 75bd ca99 6bbd 75c1 65bd
00000120: d37a 52bd b80f d53d 4fef 86bd a5d4 e9bd
00000130: a1e6 94bd 5ee7 4dbd ad81 8ebd f9db 983e
00000140: 4052 2ebd 00f5 323e f798 8ebd 4e8e c6bd
00000150: 4ce1 7c3e d56e 20bd e977 25bd 775c 8cbc
00000160: 47fc 2dbd 404a a23e f6c2 33bd 9146 2ebd
00000170: 67d5 093e fb45 0cbd 021b b3bd 7234 a23e
00000180: 7e8d b9bc a6e0 e73d bdb5 1ebe 6d7f a4bc
00000190: 2063 85bd ed63 70bd 50d8 03bd 44c4 8dbd
000001a0: 3610 ebbd feb6 f8bd b4c3 43bd 6d5b 8b3e
000001b0: 9c5f a5bd 1a67 e9bd dbad 01be c100 debc
000001c0: d786 773e d5c1 39bd 164f 743e 121d 7abd
000001d0: c729 76bd 0408 d2bc 6d0a 00bd 7979 72bd
000001e0: 9c89 63bd a1b4 50bd 606a 693e 62ad 4cbd
000001f0: 8f00 11bd bd22 de3e f164 40bd 90c5 30bd
-0.049252357 -0.05244919 -0.05193417 -0.04147032 -0.06229257 -0.008633522 -0.107968196 -0.039009307
-0.041655824 -0.08860455 -0.060915302 -0.070361204 0.44395405 -0.068539485 -0.08827906 -0.16552734
-0.060334705 -0.06838038 -0.012698197 -0.045759227 0.31292433 -0.0039336984 0.3271433 -0.06587685
-0.054886114 -0.09089954 -0.040490963 0.29126278 -0.04012677 -0.020819489 -0.060680494 0.29037958
-0.048297495 -0.047100812 -0.03786764 -0.07815484 -0.049225915 -0.023593638 -0.053018693 0.18897967
-0.047090456 -0.0059891823 -0.07886432 -0.05380696 -0.03653585 0.29218602 0.08650244 -0.07012831
-0.062347315 -0.039714005 -0.07785988 -0.044246826 -0.04736791 -0.1311134 -0.07870392 -0.0441031
-0.12082311 -0.10346006 -0.12181238 -0.03394121 -0.034007113 0.011958057 -0.04095015 -0.047152627
-0.07364026 -0.08940646 -0.022434896 -0.11654749 -0.06203375 -0.059851833 -0.05751971 -0.056092698
-0.051386666 0.10403389 -0.06588613 -0.11417512 -0.072705515 -0.050269477 -0.069583274 0.29855326
-0.04255891 0.17476273 -0.069627695 -0.09695111 0.24695319 -0.039168198 -0.04039756 -0.017133934
-0.04247692 0.31697273 -0.0438871 -0.042547766 0.13460313 -0.034246426 -0.08745386 0.31680638
-0.022650477 0.11322145 -0.15499015 -0.020080293 -0.06513047 -0.058689047 -0.032188714 -0.069222
-0.11477701 -0.12144278 -0.04779406 0.2721819 -0.08074877 -0.11396618 -0.12663977 -0.027099969
0.24172531 -0.04535087 0.23858294 -0.06106288 -0.060098436 -0.025638588 -0.031259943 -0.059197877
-0.055551156 -0.05095351 0.22794485 -0.04997004 -0.035400923 0.43385878 -0.046971265 -0.04315716

fc3.weight f4 [7, 128]
00000000: 7cf8 96bd ccd3 73be 4068 47bd e8de 6b3c
00000010: 1a5a 46bd eaa1 11be 3036 133c 79d2 c9bd
00000020: 37b4 8f3d 6a68 993c ba51 33bb 4005 03bd
00000030: 3831 a9c0 77a3 a3bd 37d9 6ebc 178d a03c
00000040: 2305 36bd 0166 ed3c 95d1 60be a0f3 163d
00000050: 9a9a c1bf 969f 473d e0f8 7ec0 5784 323d
00000060: 6a95 9c3d 7964 29bd ab74 1d3c 156b 36be
00000070: a6e1 4abc 7b68 1d3d 0e39 9bbc 24cd 81be
00000080: 8289 543b 8a24 a6bd 570b c8be 5d35 c8bc
00000090: 7883 eabd c86a 0bbe d6e3 e0bc 1ea5 c2be
000000a0: 6b03 3b3d f30b 223c 2aae 95bd 447b 9fbd
000000b0: c9dc 463d 940f 21be 81db bbbd edf8 593c
000000c0: ab3c f4bd 6373 fe3c eca6 b3be 82d6 cc3c
000000d0: 6a52 963c 08f6 7abf 1434 48bc f378 963a
000000e0: c822 ba3c 962e fcbc 3d5a a63c 0f69 213d
000000f0: 53d5 053d 9bce 8e3c 0bb4 debd 192d c7bb
00000100: 8d73 e1bd cf5b 783d 5e30 d2bc 65f1 9dbc
00000110: a6c6 05bd d7f9 80bd 7b12 c7bb d392 0d3d
00000120: 6b10 48bd ec59 37bf f91e cdbd 8548 b03d
00000130: c1b3 93bd d119 7ebb b82d ba3c b6ad d1bd
00000140: 4eff 94bd df6e 89bd 21bf 88bd 0505 01bd
00000150: 5b7a bcbf d1d0 69bd 0844 6cbd 8669 d4bd
00000160: 9c26 46be 4c4b 3fc0 f742 483c 1d76 15bd
00000170: d0f0 c13a 5071 8ebd 3fb6 fabb 4ba6 9bbe
00000180: 0c74 33bd 6466 45c0 ae79 8a3b 65d6 13bc
00000190: fec8 33bd 91f0 29bd 4f91 2ebf 22fd 33bd
000001a0: f7d0 6cbd f3dc 0cbe 0446 093d 8c18 3cbe
000001b0: 9826 ddbc 1f37 8dbc d77d 01bd b917 113d
000001c0: 7b04 aac0 a43f a4bd b1f7 2cbe 43bb c43c
000001d0: 735f a9bd 8187 16be bf00 cb3c 6143 80bd
000001e0: f3b9 20be b31f f3bd e8b8 f4bd 2cf8 933a
000001f0: 6bdc 0a3d 505e c2c0 957d 98bd 0f3a 43bc
00000200: b318 ecbb a968 233c e980 f6bc 28c3 623d
00000210: cfbb 5ebe 11a6 4ebd d1f9 843c 7411 da3b
00000220: 181d e7bd d6fb 3e3d 9765 1e3d 4074 653d
00000230: 6ef0 a03d 829a 1fbd 6a00 aa3e 9500 22bd
00000240: 6452 d23c f571 a63c 1e4d 1639 4753 58bb
00000250: 15a4 0a3e 2191 a63d e129 a53e 01a0 adbd
00000260: d4f2 423d a1a6 6b3d 023c 84bd 9976 353e
00000270: 00db 36bb 9089 44bd 3c0f fb3c 8616 093e
00000280: b995 b33a 98ef e13c f551 8cbc 3f47 08be
00000290: 5bf2 cbbc 5ff0 923c b47e 1fbc af7c 073e
000002a0: dc51 a73d 3030 7ebd bf13 85bd 1d5f 9d3d
000002b0: 1fb1 8e3c d1ec 303e 86a4 d13d b787 3f3d
000002c0: 8254 dfbd 4099 803d 9562 a3bd b9ec 49bc
000002d0: c24f 89bd 228e 153e 4fb7 253c 0e03 ac3d
000002e0: 24c1 c5bc 33c8 06bd 19c4 febc 5f38 a5bd
000002f0: 6597 0dbc 67c0 b73c f80e 0dbc 5b09 80bc
00000300: d692 17be e1e8 913e d358 ac3b ceae 11be
00000310: 92c1 7f3d b44f 74bc 850c 513d 00e8 1f3d
00000320: 498e 88bc 2594 3c3c 0383 d7bc ea9b 4ebd
00000330: 4c01 64bd f5dc bd3d db1a a6bd 1b7c 313e
00000340: cd47 25bd 5fdd eb3d 2ae6 463d d870 873c
00000350: c98e e03d 87c9 123c 0388 723c 65ac b93c
00000360: e768 853c a013 423e a591 243d 5665 4a3d
00000370: 447b a43d ec42 20be 9172 95bc cb33 123e
00000380: a913 2eba 5619 553d f811 f1bc a37b a43d
00000390: f47d 39bd 7d3f 3abd a886 873d 3926 b03d
000003a0: 3951 2d3d 2aeb c3bd a0a4 96bd d042 583e
000003b0: e972 6f3d 07a0 703e 1415 063e e7f0 30bc
000003c0: e9fa 303d 000f 94bc b513 133e f979 1fbe
000003d0: 182d 66bd 0363 efbd edcb 053c 8bae 06bc
000003e0: 7aae 9abd f692 353e 3b32 e83d 8228 8ebd
000003f0: cb98 01bd e2b5 353e bbbd 843d 5506 953c
-0.073716134 -0.23811263 -0.048683405 0.014396407 -0.04842577 -0.14221922 0.008985087 -0.098545976
0.07016795 0.018726546 -0.0027361945 -0.03198743 -5.287258 -0.07990163 -0.014578155 0.019598527
-0.044438493 0.028979303 -0.21954949 0.036853433 -1.5125306 0.048736177 -3.9839401 0.04358324
0.07645686 -0.041355584 0.009610335 -0.17814286 -0.0123829 0.03842972 -0.018948104 -0.25351822
0.0032430594 -0.08112438 -0.39071152 -0.024439508 -0.11450857 -0.13614953 -0.02745239 -0.380166
0.045657557 0.009890544 -0.0730861 -0.07787183 0.0485504 -0.15728599 -0.091727264 0.013303977
-0.11925634 0.03106088 -0.3508829 0.025004629 0.018349845 -0.98031664 -0.012219448 0.0011480137
0.022721663 -0.030783933 0.0203067 0.039406832 0.032674145 0.017432502 -0.10874184 -0.006078374
-0.11008368 0.06063443 -0.025657829 -0.019280145 -0.03266015 -0.06297653 -0.006075201 0.03456385
-0.048843782 -0.71621585 -0.10015673 0.08607582 -0.0721202 -0.0038772712 0.022726879 -0.10238211
-0.07275258 -0.067106 -0.0667708 -0.031498928 -1.472484 -0.05708391 -0.057682067 -0.103716895
-0.19350666 -2.9889708 0.012222997 -0.036489595 0.0014796499 -0.069552064 -0.00765112 -0.3040031
-0.043811843 -3.0843744 0.004225931 -0.009023284 -0.043892853 -0.041489188 -0.68190473 -0.043942578
-0.057816472 -0.1375616 0.033514038 -0.18368739 -0.026995942 -0.017238198 -0.03161415 0.035423014
-5.313047 -0.08019951 -0.16891362 0.024015075 -0.082701586 -0.14700128 0.02478063 -0.062628515
-0.15695934 -0.118712805 -0.119493306 0.0011289171 0.033901613 -6.0740128 -0.07445828 -0.011915698
-0.007205093 0.009973683 -0.030090766 0.055361897 -0.21751331 -0.050451342 0.016232403 0.0066549126
-0.11284846 0.04662689 0.038671102 0.056019068 0.07858358 -0.03896571 0.3320344 -0.039551336
0.025674053 0.02031801 0.00014333843 -0.0033008622 0.13539155 0.0813315 0.32258514 -0.08477784
0.04759486 0.057531957 -0.06456758 0.17721023 -0.002790153 -0.047982752 0.030646913 0.13387498
0.0013701237 0.027580068 -0.017128924 -0.13308428 -0.024895838 0.017936883 -0.009734798 0.13231157
0.0816991 -0.062057674 -0.06497907 0.07684157 0.017418442 0.17277838 0.102364585 0.046760287
-0.109047905 0.0627923 -0.079777874 -0.0123245055 -0.06704666 0.14605 0.010114505 0.0839902
-0.024139948 -0.03290577 -0.031099366 -0.080673926 -0.008642052 0.022430612 -0.008609526 -0.015629461
-0.14802107 0.28497985 0.005259612 -0.14226839 0.062440462 -0.014911581 0.05103733 0.03903961
-0.01666941 0.01150993 -0.026307588 -0.05044166 -0.0556653 0.0927066 -0.08110591 0.17332499
-0.040351678 0.115168326 0.048559345 0.0165333 0.10964734 0.008959181 0.0148029355 0.022665212
0.016285373 0.18952799 0.04017796 0.049413048 0.080313236 -0.15650529 -0.018243106 0.1427757
-0.0006640503 0.052026115 -0.029427513 0.08031394 -0.045286134 -0.045470703 0.066174805 0.086010404
0.042313788 -0.09566338 -0.073556185 0.21119237 0.058459196 0.23498546 0.13093978 -0.010799623
0.043208037 -0.018073559 0.14362986 -0.15573873 -0.05619535 -0.11688807 0.0081662955 -0.008220325
-0.0755281 0.17731842 0.11337706 -0.0694132 -0.031639855 0.17745164 0.06481501 0.018191496

fc3.bias f4 [7]
00000000: 060d 03bf 1528 093e 88e6 8a3e a770 833e
00000010: b832 8a3e a146 06bf 9dbd 05bf
-0.5119175 0.13394196 0.27129006 0.25671884 0.2699182 -0.5245152 -0.5224245
