hackathon_toolkit/checkpoints_qlearn/agent_0_episode_400.pth (torch, 78464 bytes, 6 tensors)

fc1.weight f4 [128, 11]
00000000: 6501 853d 89f6 fc3d a462 5f3e 87f2 803e
00000010: bdd6 3d3e 48f7 893e 0659 043c e54f d0bd
00000020: 2044 873e 8944 d6bd 4d30 103c 3330 ef3d
00000030: 0120 92bc ecd5 a23c e884 11be 26cf 333e
00000040: dd14 ad3d ef62 5cbe c370 d53c 9545 18bd
00000050: ee34 9a3e 281b 3cbe 72e4 35be b577 90be
00000060: bc8b 70be 9128 993e a0c4 203e 181b 72be
00000070: 7779 9d3e ad83 30be a058 4e3e 8e17 85be
00000080: 543b 363e 334b e4bd e884 963e 3b87 bdbd
00000090: e828 e8bd 69f2 aa3e f5fc 41be e8fa 5bbe
000000a0: 70da 923e fca2 aabd 8f2d 62be 1f78 5bbe
000000b0: d033 9f3e 2db5 d0bc 07bb 8cbe 59e2 463e
000000c0: 459d 623d 0982 edbd 6450 ee3b 72e8 6e3e
000000d0: 43b1 373e 3a2b dcbd 4bff 0fbd a982 1a3d
000000e0: c2c8 a13e 6589 fb3d 0d1c 5bbe ef0f f5bb
000000f0: 48ea 00be 5cb2 4abe abfb f9bc 05dd e83d
00000100: d857 77be 1f36 223e 0685 8b39 0559 4e3e
00000110: eb4b 833e e443 b63c e2ee 34be f22c fdbd
00000120: f543 d43c be75 633d 4c54 b5bd 17bf 8d3e
00000130: 647c c93c efea 64be da98 883d 4e44 843e
00000140: 8840 02be 041a 913e 88ef b23e 08b0 89be
00000150: 188f 333e c86a 9a3d a1e7 8cbe 97f3 4bbe
00000160: cd20 783b f6f8 eebd 3e81 8fbe e12a 2dbe
00000170: 0b22 793d a7c7 ef3d 861a 2dbd f4b2 793e
00000180: f4bc 6dbd 26d3 1ebe 2b37 603e 5ad5 6b3e
00000190: 12a9 883e cfc9 a93c 8c17 233e 4186 02bd
000001a0: 3c68 893e 566d 9a3e 891f ecbc a9a2 3bbd
000001b0: 842a 443e 1a38 b73d 5c8f f0bd 6098 39be
000001c0: 7b8f 8b3d cfdd 903c 0c11 023e f1db d1bc
000001d0: 5b45 edbd 4fb0 ac3e dca6 57be d2c8 8b3d
000001e0: d317 0f3e f919 ae3e 6066 873e 8db8 8ebc
000001f0: d661 983e 0378 78be 40cc 68bb e0d2 60be
00000200: ff38 37bd 84d2 0cbe cc10 b2bd e2de 0a3e
00000210: ebd8 b13e 9a9b 6bbe 67cf 133e 7ce3 173e
00000220: b1fa 093e 4666 4b3e be6e ac3d 9f9e 59be
00000230: 54e0 163e b3aa 473c 5df4 383e c3f3 473e
00000240: 7ab0 f4bd d397 0f3e aadc 2abd f0f3 073e
00000250: f386 0bbe 2ba8 a33e f5cc b13e bdcc a03e
00000260: a393 c53e deeb b13d ed7a 04be e7d4 9b3e
00000270: 19f0 673d 5a09 fabd 1482 f0bd 3ea2 71be
00000280: 930e 10be de0f 0a3e 8dd1 0e3d 360f c43c
00000290: 110a febb 62e2 9ebd 9ac0 873e a95a 1abe
000002a0: b670 17be a713 773e 51f3 c4bd 69a3 a93d
000002b0: 6ff7 5a3e be1d 0a3d acad 57be 4dca 5cbe
000002c0: 2e7f fe3d d984 063c c13d e5bd 0de9 10be
000002d0: ea91 55be d6a5 a73e e61a 993e af67 debc
000002e0: 23d1 cbbd 5f21 9e3c 6e49 22be ef9e 613e
000002f0: f29e 813b afd7 31bc 3130 94bd 1582 f7bd
00000300: e81b d2bd c9bf 593e c163 71be 122c 443e
00000310: 7972 da3d 0cce 4cbe c098 0fbe 1e8f ae3d
00000320: cea6 8f3d de62 f13c 63f3 a03e c4b4 a23c
00000330: c80c 673e b129 e73c 2dec 273e 7f6e 263e
00000340: 691f 853e d293 17be 6e40 8f3e 3114 113e
00000350: 3c5d 17be b12f 443e 22d0 7abb 8051 173d
00000360: b193 edbd b2bf 7bbd aadc 9d3e bc93 8fbd
00000370: 8dbb 40be d77b d8bd 8361 23be 082a b23e
00000380: a84f 47be 6be9 70be 0d3f 713e 7eb4 843e
00000390: 5d33 02be 0299 d53d c359 743d b317 913e
000003a0: e2ba 92be 3a7a 023c da25 133e a849 04be
000003b0: 71a1 9a3e 1d79 78be fb38 05be 8750 893e
000003c0: 758f 713e 06c0 623e cd97 94bd db0a a13d
000003d0: ce89 31be 4b80 393d c9bd 23be d273 5e3d
000003e0: 93ce 54be c9ea f5bc 65ed 3e3e 736e b13e
000003f0: e2eb 5dbe 06f0 a73d 5675 8b3e 03af 973d
0.064944066 0.1235171 0.21814972 0.25185034 0.18538947 0.26946473 0.0080778655 -0.10171489
0.26419163 -0.10462291 0.008800578 0.11679115 -0.017837526 0.019877397 -0.14210856 0.1755949
0.08451245 -0.21522115 0.026054746 -0.037175734 0.30118507 -0.18369734 -0.17762926 -0.2821633
-0.23490804 0.29913762 0.15700006 -0.23643148 0.30756733 -0.1723773 0.20150995 -0.25994533
0.1779607 -0.111471556 0.29398274 -0.09254309 -0.11335927 0.3338807 -0.18944152 -0.21482432
0.2868228 -0.08331868 -0.22087692 -0.21432541 0.31094217 -0.025477016 -0.2748644 0.19422282
0.055325765 -0.11597068 0.007272767 0.23330858 0.17938714 -0.10750432 -0.035155576 0.037722263
0.3159848 0.12282065 -0.2139742 -0.007478706 -0.12589371 -0.19794601 -0.030515512 0.11370281
-0.24154603 0.15840958 0.00026611256 0.20151146 0.25643858 0.02224917 -0.17669252 -0.12362088
0.02591131 0.05553221 -0.08853969 0.27684852 0.024595447 -0.22355245 0.06669779 0.25833362
-0.12719929 0.2834016 0.34948373 -0.26892114 0.17535055 0.07539898 -0.2752047 -0.19917141
0.0037861348 -0.11668579 -0.2802829 -0.16910888 0.06082348 0.117080025 -0.042261623 0.24384671
-0.058041528 -0.15510234 0.21896045 0.23030606 0.2669149 0.020726113 0.15926951 -0.031866316
0.26837337 0.30161542 -0.02882363 -0.04580942 0.19156843 0.089462474 -0.11746094 -0.18124533
0.06814476 0.017683892 0.12701815 -0.025617572 -0.11585494 0.33728263 -0.21059746 0.06825413
0.13973932 0.3400419 0.26445293 -0.017421985 0.29762143 -0.24264531 -0.0035522133 -0.21955442
-0.04473209 -0.1375218 -0.0869461 0.13561586 0.34735808 -0.23008576 0.14434586 0.14832872
0.13474537 0.19863233 0.0841956 -0.21251915 0.14734012 0.012186694 0.18061967 0.19526581
-0.11947723 0.1402276 -0.041714348 0.13276649 -0.13625698 0.3196424 0.34726682 0.31406203
0.385892 0.08687566 -0.12937517 0.3043587 0.05662546 -0.12208815 -0.117435604 -0.23597047
-0.1406806 0.13482615 0.034867812 0.023933034 -0.007752665 -0.07758023 0.2651413 -0.15073647
-0.1478909 0.2412859 -0.096167214 0.08283121 0.21383451 0.03371977 -0.21062344 -0.21561547
0.12426601 0.008210384 -0.11193419 -0.14151402 -0.20856443 0.3274371 0.29903334 -0.02714905
-0.09951999 0.019303022 -0.15848324 0.22033285 0.0039557153 -0.010854646 -0.07235754 -0.12085358
-0.10259229 0.21264566 -0.2357321 0.19157436 0.10666365 -0.20000476 -0.14023113 0.08523391
0.07014237 0.029466089 0.3143569 0.019861586 0.2256347 0.028218122 0.16398688 0.16253088
0.26000527 -0.14802483 0.27978843 0.14167859 -0.1478166 0.19158818 -0.003827103 0.03694296
-0.116004355 -0.06146211 0.30832416 -0.070106 -0.18821545 -0.105704956 -0.15955167 0.34797692
-0.1946398 -0.23526542 0.23559208 0.25918955 -0.12714906 0.104295745 0.059655916 0.28338394
-0.28658205 0.007963711 0.14369908 -0.12918723 0.30201295 -0.24264951 -0.13010018 0.2681925
0.23589881 0.22143564 -0.07255516 0.07863399 -0.17337725 0.045288365 -0.15990366 0.054309674
-0.20781927 -0.03001918 0.18645246 0.3465458 -0.21672013 0.08200078 0.27237958 0.07406428

fc1.bias f4 [128]
00000000: cf10 6cbe 5507 fcbd 49bb 77be 4546 abbe
00000010: dc9c b63d 39c6 6e3e 6146 723e 84ca 95bc
00000020: 82be 72be e707 853e 2bef 9e3d 434c 6f3e
00000030: 4576 553e 0c80 813e dfa0 7cbe 83ca 84bd
00000040: 65a7 953c cc94 6cbd 74e2 3bbd c648 8e3e
00000050: 3352 4ebd 187e a2bd c9cd abbe 5aaf 593e
00000060: 0266 9d3e 4a7c 5c3e 08b9 2abd 6a9a 5ebe
00000070: fb25 9dbe 4fb2 c7bd 4244 94be f432 fe3c
00000080: 1397 ba3c e837 91be fe47 a33d 3ebb 57be
00000090: c2e1 c5bd ba5c a03e 942c 6ebd be6d 93bd
000000a0: 8a3e c5bd 3591 adbe 40bf 80bc 31ac e83d
000000b0: 4a38 b4bd b091 373e 9064 66bd 43ff 70bc
000000c0: d786 293e c318 12be 428c e13c 911f 943d
000000d0: 410c 5e3e 92da ca3c 2188 ee3d 73bf 98be
000000e0: 4a44 153e 4d91 8cbe 297f d6bd 669f aa3d
000000f0: 8def b8bd 8be8 88be ca5d b23c 43fc 9d3d
00000100: 66f3 b93c 39df 6cbe 5dd2 b83d b9d0 29be
00000110: 9002 6a3e 2aaf d93d 5e7a 083d 9c8f 05be
00000120: 83c9 023e 6350 693e 560a 91bd 48d7 88bc
00000130: 9bd0 c4bb 20d4 873d b185 5fbe 8f60 5abe
00000140: 6328 38be 248b 5fbe a312 61bd 30ab 3ebd
00000150: c16c dd3d e54e 9ebe 5239 683d bf26 463e
00000160: 75be 6bbe b615 ad3d b154 4abe 834c 4dbe
00000170: df12 623d 0831 fc3d 0ae7 84be ee09 d3bc
00000180: 3ead 7a3c b863 533e f4f1 90be 6485 97be
00000190: 3306 eb3d 3895 2abe 6b51 3f3d c7df 80bd
000001a0: 2ac6 893e ead4 51be 760f 023d 9897 cf3d
000001b0: c046 82ba 197c 973e 935c bbbd 9d34 453e
000001c0: 2665 adbd 8fb8 1fbd 0ba6 7f3e ca8d 3d3e
000001d0: d955 a23a 9486 6ebe 78ad 74bc 4486 95bd
000001e0: d79c f8bc 05af c23d f5aa 0f3e 7bc1 393e
000001f0: 24f9 a9be 385c 743e 534b 793e d55c 8cbe
-0.23053287 -0.12306086 -0.24192537 -0.3345205 0.08916637 0.23317803 0.2365966 -0.018285044
-0.23705485 0.25982592 0.077604614 0.23368935 0.20845897 0.25293005 -0.24670742 -0.064839385
0.018268296 -0.05775909 -0.04587026 0.27789897 -0.05037136 -0.07934207 -0.3355544 0.21258298
0.30741888 0.21531788 -0.041680366 -0.21738592 -0.3069304 -0.097508065 -0.28958327 0.031030156
0.022777116 -0.28362966 0.07972716 -0.21067521 -0.096622005 0.31320745 -0.05814798 -0.07198666
-0.09631069 -0.33899847 -0.015716195 0.11360968 -0.08799799 0.17926669 -0.056248248 -0.014709297
0.16555344 -0.14267258 0.0275327 0.07232583 0.21684362 0.024762426 0.11647058 -0.29833564
0.14576831 -0.27454606 -0.104734726 0.08331184 -0.09030066 -0.26739916 0.021773238 0.07714131
0.02269907 -0.23132028 0.090244986 -0.16583528 0.2285254 0.10629113 0.033319823 -0.13043064
0.12772183 0.22784571 -0.070820495 -0.016704217 -0.006006313 0.066322565 -0.21828343 -0.21325897
-0.17984156 -0.21830422 -0.054949414 -0.046549976 0.10811759 -0.30919567 0.05669529 0.19350718
-0.23021872 0.08451407 -0.1975887 -0.20048718 0.055193778 0.123140395 -0.2595752 -0.02576157
0.015300093 0.20643508 -0.28309596 -0.29593956 0.11475792 -0.16658485 0.046708506 -0.06292682
0.26909 -0.20491377 0.031753026 0.10136336 -0.0009939298 0.29586866 -0.091485165 0.19258352
-0.08466558 -0.03899437 0.24965684 0.1851112 0.0012385204 -0.23293525 -0.014933936 -0.07301
-0.030348225 0.095060386 0.14030059 0.18140213 -0.33197892 0.23863304 0.2434514 -0.27414575

fc2.weight f4 [128, 128]
00000000: e6b6 21bc 28af d5bd 23f6 e53c 8837 babc
00000010: 7789 f8bc 5ed5 83bc fa28 cabd 5d27 e23c
00000020: e495 02bd 0253 0e3d 5909 87bd 725d 5cbd
00000030: b203 c1bd 4d6e 0dbe f509 c53d a117 a03c
00000040: e4e5 4ebc f6f6 0e3d a4c6 93bc 382f 95bd
00000050: 4fa9 adbd 8541 84bc c011 96bc d84d ca3d
00000060: 345e 11be 1167 b7bd 6964 013d 1bd2 06bd
00000070: 02bd 87bc c718 61bd 7f98 d8bc 8814 a73d
00000080: d089 68bd 9180 b5bc 113b 5bbd 2dec cabd
00000090: e578 26bd c9aa e3bd d961 2339 68ca aa3d
000000a0: 6cfa dbbd bf87 91bd 063a c2bd aef8 86bd
000000b0: ee88 15bd 82a3 65bd 5fe8 a63c 2266 2abd
000000c0: 5e69 fbbd e409 fabd 95fa d8bd 9b55 d23c
000000d0: 9502 8d3d b02f 5a3d 8fd6 14bd 2d26 883d
000000e0: 8d2a 893c 06d1 27bc 28f2 773c fab0 6eba
000000f0: 25ec 1dbb 613b 9fbd 4b64 183d 77f8 9a3d
00000100: 94bb 35bb 8b77 263c 3d47 e0bc fcc4 c4bd
00000110: 2dac 6f3c 0a9c 9ebd 1a84 c2bd c1cf 8d3c
00000120: 3cc1 85bd abfd 453d a717 5fbd e60a 1abd
00000130: 26ee 703d 8387 9ebd a9a0 96bd 7780 f03c
00000140: 6d6a a1bd f63e b53d f9d6 73bd 5ddb 00bd
00000150: 4790 863d ef2e 443d a7da 40b9 2ad1 a3bd
00000160: 4e89 18bd d565 883b a26e 62bc 5a36 753d
00000170: cc17 853d 29d6 e7bc 35cf d5bd add7 8abc
00000180: b86e d23d dc63 a5bc 0550 913d 035f 8fbd
00000190: fe90 6a3d 1b7e 93bc b742 b0bb a98c 373d
000001a0: b798 54bc 8941 d23d 8ab5 803c e22f edbd
000001b0: 158b 073d fed2 cf3d 5538 75bc 9325 d73c
000001c0: c1a4 84bb 70d0 fdbc fa76 d23d b44d a23c
000001d0: d3d0 e23b 46bf cbbc a62d 4bbd 6a19 32bc
000001e0: 8b5b e9bb 2943 7d3d 5e34 8abc f246 34bc
000001f0: 2bb6 99bd 0fa6 cf3a 69b5 873d 3bc1 7cbd
00000200: 9925 21bd 653b 3e3b 4086 503d 2412 223a
00000210: f3cd 4b3d 2f64 b5bd dd90 963d 06b7 98bc
00000220: 2004 74bc 88f2 3fbd b9ae c53d 3504 2dbd
00000230: 803c a73c 69e7 a13d 6b99 f3bc 2559 ec3c
00000240: e92f 323d df47 c9bc fb36 793d 442e a23d
00000250: dc9b b63d 450f b53c 652a 3ebc 9f50 9ebd
00000260: 9a67 1ebd 6734 1d3d f6c7 083d 414d d3bc
00000270: 0867 82bd 16d8 ab3d feda 2abd 6e3c 00bc
00000280: 12ce 8b3d 5706 333c 6eff 9e3d 9002 b33d
00000290: 64ce 2d3d 05f4 813c 9459 503c 6fd5 b6bc
000002a0: c63d a33b 97a1 d33d ea88 0a3d e6f1 8dbc
000002b0: 5861 9c3c c68e 20bd d6ed f7bb 9b60 a4bd
000002c0: 2a04 1abd df56 513c c18d 763d 0223 b23c
000002d0: 5139 2c3d c40e e93d 4709 8d3d 9e49 0cbc
000002e0: cfaa 73bd 2b7d 1e3d 0690 27bd 41c8 283d
000002f0: 8f4a 953d e12f 6abd ad5e 12bc b25d 993a
00000300: 680a 4f3d ff34 e43b 869b 64bd 00ad 01bb
00000310: 46df e43c 526e 073d 2197 42bd a941 a93d
00000320: f736 743d 3487 c83d 7547 903d 4d6e 3abc
00000330: 06d6 373d 107f ca3d 4e77 b73b 33d3 94bd
00000340: 68ab 83bc b9ee c539 0eed babd fbff 2b3d
00000350: 99be 733d 3a62 bc3d 295f d2b8 83f4 c43d
00000360: 09db 923d 5bb3 f83c 6c92 9f3d 7ad4 a13d
00000370: 37ed 44bd 1504 a93d dc1c 683c c15f 073c
00000380: d17f 43bd c298 053d 0deb 203d 3d19 c03d
00000390: 2aae e23c d36e 193b b0ca 173d e259 7c3c
000003a0: 2a28 54bd 3c68 7dbd c485 a6bd 9071 57bd
000003b0: 8a18 b0bd fc1e dcba b632 f23c 07c3 3dbc
000003c0: 0531 833b 8cd1 86bd 4a3e 6d3c 2f1b 7fbd
000003d0: c03a 263c d5bd 773d e99d b43d 9311 803d
000003e0: 9dab aebd 5ba5 1abc 4bc3 793d 8a8f 2cbb
000003f0: da46 1e3d 303c f63c 1a5d 6cbd 756f ea3b
-0.009870267 -0.10433799 0.028071469 -0.022731557 -0.030338986 -0.016092952 -0.09871097 0.02760666
-0.031881228 0.03474713 -0.0659358 -0.053800054 -0.09424533 -0.13811608 0.0962104 0.019542517
-0.012628052 0.03490349 -0.018039055 -0.07284397 -0.08479559 -0.016144523 -0.01831901 0.09878129
-0.14196092 -0.08955205 0.0315899 -0.032915216 -0.016569618 -0.05495527 -0.026439903 0.08158213
-0.056772053 -0.022156032 -0.053523127 -0.09908328 -0.040642638 -0.11116559 0.00015581342 0.08339387
-0.107411236 -0.0710597 -0.09483723 -0.06590401 -0.03650754 -0.056064136 0.020374475 -0.041601308
-0.122759566 -0.12208918 -0.1059467 0.025675585 0.06885258 0.053268135 -0.03633743 0.066479065
0.016743923 -0.010242706 0.015133418 -0.0009105351 -0.0024097052 -0.077749975 0.03720502 0.07566922
-0.0027730213 0.010160337 -0.027377719 -0.09607884 0.014628452 -0.07744606 -0.094978526 0.017310979
-0.06530997 0.04833762 -0.054465916 -0.03760805 0.058820866 -0.077406906 -0.07354862 0.029358132
-0.07881627 0.088498995 -0.059531186 -0.0314592 0.065704875 0.047896322 -0.00018392001 -0.07998879
-0.03724032 0.00416253 -0.013820322 0.059866287 0.064986795 -0.028300362 -0.10439912 -0.016948545
0.10275024 -0.020189218 0.07095341 -0.07000544 0.05726718 -0.018004468 -0.005379047 0.04481188
-0.012975863 0.10266406 0.015711565 -0.115813985 0.033091623 0.101476654 -0.014967044 0.026263034
-0.0040479605 -0.03098318 0.10276599 0.019812442 0.0069218664 -0.02487148 -0.04960408 -0.010870317
-0.0071215085 0.061831627 -0.016870674 -0.011003243 -0.07505449 0.0015842336 0.06626398 -0.061707716
-0.039342497 0.00290271 0.05090928 0.0006182513 0.049756955 -0.08856999 0.07351849 -0.01864196
-0.014893562 -0.046862155 0.09652466 -0.04224034 0.02041459 0.07905466 -0.029736241 0.028851101
0.043502722 -0.024570404 0.06084345 0.07918981 0.089164466 0.022102008 -0.011606787 -0.07730221
-0.03867302 0.038380053 0.033393823 -0.025793673 -0.06367308 0.083908245 -0.041712753 -0.007826908
0.06826414 0.0109268045 0.07763563 0.08740723 0.042433158 0.015863428 0.01271667 -0.02231857
0.004981729 0.10333555 0.033821978 -0.01732726 0.019089386 -0.03919866 -0.007566194 -0.080262385
-0.037601627 0.012777059 0.06019378 0.021745209 0.04204685 0.113797694 0.06886535 -0.008562474
-0.059489068 0.03869359 -0.040908836 0.041206602 0.072896115 -0.057174567 -0.008933705 0.0011700897
0.050547034 0.0069643254 -0.05581238 -0.0019786954 0.027938496 0.033064194 -0.04750741 0.08264477
0.05962273 0.09791413 0.07044879 -0.011378837 0.044881843 0.098875165 0.005598939 -0.072668456
-0.016072944 0.0003775263 -0.09127246 0.04199217 0.05950794 0.09198423 -0.00010031305 0.096169494
0.07170684 0.03035896 0.077916 0.07901855 -0.04807779 0.08252732 0.014167037 0.008262576
-0.047729317 0.032616384 0.039286662 0.09379814 0.027670939 0.0023412004 0.037058532 0.015402289
-0.051796116 -0.061866984 -0.081309825 -0.052598536 -0.085984305 -0.0016793902 0.029565196 -0.011582143
0.0040036463 -0.06582937 0.014480183 -0.062281784 0.010145843 0.060483772 0.088191815 0.06253352
-0.085288264 -0.009438838 0.06097726 -0.0026330673 0.038641788 0.030057997 -0.057705976 0.0071544

fc2.bias f4 [128]
00000000: 62e8 60bd 94e8 3bbc 3489 bd3c 36f4 40bd
00000010: 80e5 483e 2fb8 05bd bca3 a63c 454c 19bd
00000020: edcb 90bd 7aa2 c13c a475 c7bd 8f96 afbd
00000030: 3e80 a7bc 5e8d 61bc b22d c1bd 7887 5dbd
00000040: 1c04 903d 2fc1 86bd 14a8 d5bd be1c bfbd
00000050: cc3c 7abd 2f6f 10bc 7229 dabd 9178 da3c
00000060: 39f4 b3bd 63bc a5bd 9544 65bd 6762 bbbd
00000070: de49 043c def2 0bbd 32d3 603c e892 20bd
00000080: 2543 3f3d 9d42 a7bc e4db a33c 4139 6abc
00000090: 0015 cdbc f366 d93c b685 40bd 6096 933c
000000a0: bd42 27bd 9780 023d f031 20bd 165a 1bbd
000000b0: 2470 70bd 927d ba3c 7a9c 54ba dfa7 2ebd
000000c0: 1563 403c 921d 843e fdfa 723a bcda 0abd
000000d0: f5bc 5f3c fd20 a7bc 9a90 cabd f0c3 e3bb
000000e0: d11f 92bd d339 cdbd b47f 91bc d3ea 7a3d
000000f0: df41 863c e5bb e8bd c974 91bd ff10 9f3b
00000100: bdaf 5b3c 6320 6eba c35b 6d3c 8214 b4bd
00000110: 4fd1 313e bf18 7ebd 9e6a 4dbd 3e48 86bd
00000120: 7177 a0bc fad7 efbd ae7d abbd 195f 5f3d
00000130: 96c0 803c e072 b13c 3af8 a9bd 1e27 6a3d
00000140: 321f 58bd b7d1 6bbd 4586 1abd 66db 483d
00000150: 0a18 4cbd 991c 3cbd ee12 d93c 8ef9 25bd
00000160: e422 733d d5ba 88bc c8fc 553d 007a 32bc
00000170: d401 823d 8196 3c3e ae85 3bbd 55b0 11bd
00000180: 029e ca3b e413 373d b361 24bd 6b63 a9bc
00000190: 89a3 3bbb 9798 143d 7a95 9f3c 608a 923d
000001a0: 4643 453d 0c1c 6e3d e9f3 0cbb 179f 483d
000001b0: 7305 0abb e843 65bc b467 9ebd 45f5 8abd
000001c0: 0c95 3838 e708 db3b 58f0 f2bc f70f 56bd
000001d0: b03d 0f3c c8ec 44bd b01b bb3b cb4e 443e
000001e0: 801e a5bd 8aac 94bd cade 60bd 7afd 0f3c
000001f0: cbbb b8bc a216 5c3b 7334 36bb fb11 9cbd
-0.054909118 -0.011469025 0.023136713 -0.047107898 0.19618797 -0.032646354 0.020341747 -0.037426252
-0.07070146 0.023637045 -0.09739235 -0.08573639 -0.020446893 -0.013766615 -0.09432544 -0.05408427
0.07032034 -0.065798156 -0.10432449 -0.09331654 -0.061093137 -0.008815571 -0.10652436 0.026668819
-0.08786816 -0.080925725 -0.055973608 -0.09149628 0.008074252 -0.034167163 0.013722228 -0.0392026
0.046694893 -0.020417506 0.020002313 -0.014295877 -0.025034428 0.026538348 -0.047002517 0.01801604
-0.04083513 0.031860914 -0.039110124 -0.03792771 -0.058700696 0.022764955 -0.0008110475 -0.042640563
0.011742373 0.2580381 0.00092689676 -0.033900008 0.013655891 -0.020401472 -0.09890862 -0.006950848
-0.07134975 -0.10020795 -0.017761089 0.061259102 0.016388832 -0.11363963 -0.07102353 0.004854321
0.0134085985 -0.00090838055 0.01448721 -0.08792974 0.17365001 -0.06203532 -0.050150506 -0.06556748
-0.019588204 -0.11711116 -0.08373581 0.05453405 0.015716832 0.021661222 -0.082992986 0.05716621
-0.052764125 -0.057573047 -0.037725706 0.04903736 -0.049827613 -0.04592571 0.026498284 -0.040521197
0.059359446 -0.016690651 0.052243024 -0.010893345 0.06348005 0.18416788 -0.045781784 -0.035568554
0.006183387 0.044696704 -0.040132236 -0.020677289 -0.002863141 0.036278334 0.019480456 0.07155299
0.04815986 0.058132216 -0.0021507686 0.048979845 -0.0021060377 -0.013993241 -0.077346236 -0.06785063
4.400783e-05 0.006684411 -0.02965562 -0.05226132 0.008742735 -0.048077375 0.0057100877 0.19170682
-0.08062458 -0.07259472 -0.05489997 0.008788461 -0.022550484 0.0033582826 -0.0027802258 -0.07620617

fc3.weight f4 [7, 128]
00000000: a836 3abd 8bb9 d5bd 126d 8f3d 448c 3abd
00000010: a5fd 04be 1280 c73c bdd3 e6bc 5a14 373d
00000020: c9d4 8d3c eeb1 0bbe 1438 0dbd af5b 2a3d
00000030: d796 5ebe 881c 23be 7cd6 df3b cb4e fdbd
00000040: bc9b f83c 1f7a 853c 4301 79bd 8629 6ebc
00000050: ba02 47bd ea67 34be 3d56 81bb 12ff a1bd
00000060: afc5 4a3d 4316 a6bd 75da f9bd bc4c 7d3d
00000070: 7da2 863d ef4c 8f3d 9f82 1ac0 1286 18be
00000080: 38f0 67bd d1d4 9fbd 397d b73c 4c82 04bf
00000090: ff1b e2bc 88b1 abbd 6219 92bd 27b3 15be
000000a0: 9008 b9bc b3de 49bf 48c0 2bbc 8ad7 b3bb
000000b0: 2067 f33b 9b8e 16be d100 44bd 89b5 9e3d
000000c0: 069c 1fbe 1249 25c0 a02c d93b 9705 87bd
000000d0: a241 d7bc 774a b7bd 32a8 3e3d a8ad e9bc
000000e0: fd72 95bd a6b0 9e3c 18db 873c 7e18 07bd
000000f0: 68cc 293d cdad 98bd 2dd2 5b3d 6f7c 3f3c
00000100: 3bf2 0dbe 4b59 2dbe feb9 51bd c070 08bb
00000110: 88b5 49c0 196d 43bd 97b3 dc3c bbe5 fbbc
00000120: f444 88bd 3b22 863d 9154 2a3d 3aa4 9c3c
00000130: d2e2 aebc ab90 473c bae1 8ebd 30ce dfbd
00000140: adfe dabc 3283 fcbc 069d 64bc a51f 913d
00000150: dc86 eabd d41a 7f3d e46b 23bd 5836 3f3d
00000160: 9878 7cbc a9b8 fbbd e4fe 0c3d 64ce 50bd
00000170: 5ea8 523d 992b 02c0 5c63 8bbd 2ce5 65bd
00000180: a848 ab3d a744 1cbe d7ee da3c 5807 1ebf
00000190: 5a96 4d3c 742e 9bbc d1ca f1bd c8c3 0abd
000001a0: b58c 98be 56aa 6dbf e856 ba3c 7acf 4bbd
000001b0: 1ea4 37be 6c22 90bc 4885 bdbd fb5c 0fbe
000001c0: 95b0 73bd b614 983c 63fb 10bd 182e 4c3d
000001d0: e0e4 6f3d 46a3 913d 9528 9d3d 8bcb 6dc0
000001e0: eff3 a4bd 297a 0f3d c391 bbbc b887 09bd
000001f0: 696f 64bc 5037 96bc fbe3 c0bd f08c 26bc
00000200: 12ce 6abd a31a ff3c 9e16 75bc fc0c 423d
00000210: e5a3 4d3e 06d2 353d 41fc 49bb 65d9 af3d
00000220: 92f6 26be 186c 9ebb 4aa3 7a3d 7f4c cebc
00000230: d526 523c f9a0 32bd a87c 57bd 16e9 81bd
00000240: 782f 1dbd 3c94 983b 7cb1 82bd 8482 8bbb
00000250: 97c3 5cbd 0cdc c7bc 2923 31bd 9ebb 81bd
00000260: 5c2d 023e aca6 513d 9056 d7bc a82c 873b
00000270: 0783 83bd a343 853c 6adc 883d 47bf 55bd
00000280: 5d39 333d fed9 3e3b 39e2 18bd 1777 5bbe
00000290: 8982 f23b eb8b 18bc a89f 453d 11fd dd3c
000002a0: cbf1 15bd dd3f cfbc 6a54 483d cfeb 223d
000002b0: 2314 2ebd 00b3 0f3d 9e49 753c 7d00 0b3e
000002c0: c393 38bd a470 09bd 173d f3bc 246b 25ba
000002d0: 2f57 eb3c b74d 023e 27c6 9f3d cd4a 8f3d
000002e0: 7d83 97bd f404 0abd 26ee 75bd 7ad2 37bd
000002f0: c3db d73c e726 80bd c6d6 b43c 8e0b 493a
00000300: 9997 393c 8d39 90bd 45cd b43c e02f b63c
00000310: c81c 27bd 3333 67bd 74a8 54be 9b71 2d3c
00000320: 687d f43d ffd2 9abd 5b1b 2c3d 8f2e 063d
00000330: a733 aa3d fc12 64bd 9ac8 6b3d e4e2 b13d
00000340: 20e2 b8bd 2617 e5bc e9f0 08ba c24b 3bbc
00000350: 6dbd 283d 8925 11bd 73ca 44bd 5bff c43d
00000360: c39e f53c 8dfb 73bd c801 7e3d 91ae 19bd
00000370: 1e5b 303b 63d7 a73d d55f ccbb 54c7 b23d
00000380: 2867 293b 4fd5 ef3c ceed db3c 63f0 073e
00000390: 7cda 7c3d 48ee 193c f6e9 9bbc 4583 243c
000003a0: 839c ecbd f613 073c 7e68 e2bb d494 003e
000003b0: 0a13 a2bd 3ccd 8a3c 2d71 d93c a285 163d
000003c0: 1318 8d3c 09c0 d9bc 05ca 7ebd 642f 9bbd
000003d0: 1302 76bd 8899 13bd cd72 5b3d 6381 653d
000003e0: 1cd9 b53d 97f9 14bc e576 9a3b dec8 10bc
000003f0: c1a4 ffbb f017 f6bb ce0a 80bd d27b f43c
-0.04546228 -0.1043578 0.070032254 -0.045543924 -0.12987383 0.02435306 -0.028177137 0.044697143
0.017313378 -0.13642094 -0.03447731 0.041591343 -0.21737228 -0.15928853 0.0068309885 -0.12368544
0.030347697 0.016293583 -0.06079222 -0.014536267 -0.048586585 -0.17617765 -0.003947048 -0.07909979
0.049504932 -0.08109715 -0.121998705 0.061840758 0.06573961 0.06997096 -2.4142225 -0.14894894
-0.056625575 -0.078042634 0.022398578 -0.5176132 -0.02760124 -0.08383471 -0.07133748 -0.14619122
-0.02258709 -0.7885544 -0.010482855 -0.0054883407 0.007428065 -0.14702837 -0.04785234 0.07749469
-0.15586862 -2.5825849 0.006627634 -0.06592863 -0.026276413 -0.0894975 0.046547122 -0.028525189
-0.07297323 0.019371342 0.016583964 -0.032982342 0.041454703 -0.07455025 0.053667236 0.011687382
-0.13861935 -0.16928594 -0.051202767 -0.0020819157 -3.1517048 -0.047711466 0.026941104 -0.030749192
-0.06653777 0.06549498 0.041584555 0.019121278 -0.02134839 0.012180488 -0.06976648 -0.10927999
-0.026732767 -0.030824278 -0.013953453 0.07086114 -0.11451504 0.062281445 -0.039897814 0.046682686
-0.015409611 -0.122910805 0.03442277 -0.05097808 0.0514301 -2.033911 -0.06806061 -0.05612676
0.083634675 -0.15260564 0.026725216 -0.61729956 0.012548054 -0.018943049 -0.11806262 -0.033878118
-0.2979485 -0.92838037 0.022746518 -0.049758412 -0.179337 -0.017594539 -0.09253937 -0.14000313
-0.059494574 0.018564563 -0.03539599 0.049848646 0.05856788 0.0711122 0.07673756 -3.7155483
-0.08054339 0.03502861 -0.022896653 -0.033576697 -0.013942578 -0.018336922 -0.09418484 -0.010165438
-0.05732543 0.031140631 -0.014959006 0.047375664 0.20082052 0.044389747 -0.003082052 0.085863866
-0.16304997 -0.004834663 0.06119088 -0.02518296 0.012826641 -0.043610547 -0.052609116 -0.06343286
-0.038375348 0.004656343 -0.06381509 -0.004257502 -0.053897467 -0.024396919 -0.043246422 -0.06334613
0.12712616 0.05118434 -0.026286393 0.0041251965 -0.06421476 0.016267603 0.06682666 -0.05218437
0.043755878 0.0029121633 -0.037325118 -0.21432148 0.007400815 -0.009310703 0.048247963 0.02709821
-0.036607545 -0.025299007 0.04890863 0.039775666 -0.042499673 0.035082817 0.014971165 0.13574405
-0.04506279 -0.033554688 -0.029692216 -0.00063102157 0.028728096 0.12724958 0.078014664 0.06996689
-0.07398126 -0.03369613 -0.06004157 -0.04487846 0.026349908 -0.0625742 0.022075068 0.0007669263
0.011327648 -0.07042227 0.022070536 0.022239625 -0.040798932 -0.05644531 -0.20767385 0.010586168
0.11937982 -0.075597756 0.042018276 0.032759245 0.08310633 -0.055682167 0.057564355 0.08685854
-0.09027505 -0.02796514 -0.00052238867 -0.011431636 0.041196276 -0.035436187 -0.048044633 0.09619018
0.02998293 -0.05956607 0.062013417 -0.037519995 0.0026909779 0.08195379 -0.00623701 0.08729425
0.002584884 0.029276518 0.026846793 0.13275294 0.0617318 0.00939519 -0.01903246 0.010041063
-0.1155329 0.008244505 -0.006909429 0.12556773 -0.07913788 0.016943567 0.026543224 0.036748536
0.017223394 -0.026580827 -0.06220438 -0.075773984 -0.060060572 -0.03603509 0.05357628 0.056031596
0.08879301 -0.00909271 0.0047138804 -0.008836953 -0.0078016226 -0.007510178 -0.06252061 0.029844198

fc3.bias f4 [7]
00000000: 7f9d 93bd 0d97 0d3e 6ebf 3b3d 5ad0 a93d
00000010: 0be9 133e 4385 69be 002e 72bd
-0.07207774 0.13827153 0.04583686 0.08291693 0.14444368 -0.22804742 -0.0591259
