hackathon_toolkit/checkpoints_qlearn/agent_1_episode_800.pth (torch, 78464 bytes, 6 tensors)

fc1.weight f4 [128, 11]
-0.08495138 -0.26767993 0.3250283 0.124085374 0.13527542 0.049358983 -0.089260004 -0.19378114
-0.32131326 0.24172679 0.13054638 0.020156542 0.058910962 -0.054765075 0.30546468 -0.021822544
0.21970129 0.3669149 0.026149374 0.17041445 -0.4389959 -0.20742606 -0.25969392 -0.33148143
0.10336762 -0.23991035 -0.0031619424 0.08908327 0.16933598 0.30844766 0.14132637 0.09947841
-0.2711766 0.085906476 0.21633515 -0.21482424 0.15295134 -0.16173677 0.26890743 0.14003555
-0.23830128 -0.08059168 -0.16778274 -0.16088967 0.18951003 0.11735763 -0.016415592 -0.15344745
0.073585406 -0.1641881 0.31726354 0.20680094 -0.11483471 -0.19636407 0.2102899 -0.17643993
-0.3309158 0.28043362 0.12869379 0.2868469 0.15453792 -0.19657663 0.0047045704 0.33029374
0.10427304 -0.08290234 0.0026497266 -0.068756185 0.081380345 0.09459711 -0.11574827 0.003076722
-0.13171944 0.004500188 0.16651206 0.17933583 -0.13676438 0.07159639 0.31905258 -0.14999184
0.30469364 0.22209427 -0.018745814 0.28357238 0.1875308 -0.009895932 -0.28191406 0.2920615
-0.28449833 0.34072617 0.34764472 -0.1162195 -0.22467291 0.02830473 0.18960792 0.011449398
-0.17443688 -0.1005 0.37516877 -0.18131864 0.022693973 0.17592163 -0.19526792 -0.021237914
-0.16955608 -0.1603746 0.066748284 0.117266305 0.25763777 -0.020803625 -0.03456902 -0.15089457
0.16206944 0.025898444 -0.033372257 0.13402802 -0.19386695 -0.19773087 0.041273914 0.2924439
0.10919962 0.11862706 -0.09714813 -0.120058656 -0.08082712 0.28476354 0.01015761 -0.0138643235
-0.14903805 0.3187428 -0.18333665 -0.122996174 0.16134878 -0.025804324 -0.04450644 -0.28724664
0.0003413848 -0.22238295 0.042060345 0.024043178 0.14238364 0.19781429 -0.16398084 0.14973573
-0.1517452 -0.017134465 -0.18194447 0.2212914 0.22816172 0.19922514 0.15326048 0.14106634
-0.33617944 0.17170179 0.20455772 -0.22595856 0.3298594 -0.24243346 0.18228361 0.025674015
-0.22552973 0.14568694 0.29747275 0.15531285 -0.24676862 -0.109531045 -0.2867104 -0.1389777
0.32095182 0.35363874 -0.15811424 0.21793227 -0.2273426 0.28230488 0.379597 -0.22699085
-0.104575746 0.07554683 -0.18863264 -0.058043282 0.32045832 -0.104551755 -0.23238087 0.047688864
0.26043007 -0.038013168 -0.19703446 0.36109868 0.26271474 0.15758112 -0.076649256 0.04759105
0.25095278 -0.12465524 0.22317642 -0.23107742 -0.0952375 -0.15790553 0.24801578 -0.37262577
0.12003933 0.18799195 0.09547766 0.16085914 0.23597443 -0.20438161 -0.13505502 0.15293881
-0.29512578 0.11574533 0.15776841 0.14116527 0.17960013 0.029514715 0.25002238 0.17980775
-0.022648897 -0.29037014 0.1827589 0.36165953 -0.1421735 -0.24970789 -0.1639798 0.23657112
0.11106374 -0.12582314 0.10554619 0.33619335 -0.047160957 -0.120791145 0.26828906 0.32312852
0.311485 0.13105157 -0.11302891 -0.2635187 0.17578398 0.16216218 0.16728544 -0.03308808
-0.010341472 0.18280803 0.31064436 0.0340394 -0.10644699 0.21700652 -0.17120516 -0.11656878
-0.02623772 0.23537207 -0.06846869 0.1487066 -0.07190476 -0.123394415 0.29869816 -0.22116269
00000000: fdfa adbd 580d 89be 1c6a a63e 7920 fe3d
00000010: a485 0a3e a52c 4a3d f3cd b6bd 906e 46be
00000020: 2c83 a4be 3a87 773e f3ad 053e 551f a53c
00000030: 9f4c 713d 5851 60bd de65 9c3e 31c5 b2bc
00000040: 60f9 603e 45dc bb3e 3637 d63c 2081 2e3e
00000050: 12c4 e0be 7f67 54be 9af6 84be efb7 a9be
00000060: 67b2 d33d 0fab 75be 9738 4fbb 4a71 b63d
00000070: 6966 2d3e daec 9d3e dcb7 103e 56bb cb3d
00000080: a9d7 8abe bcef af3d f686 5d3e e3fa 5bbe
00000090: 479f 1c3e 539e 25be 3cae 893e 7b65 0f3e
000000a0: 4005 74be 400d a5bd 3dcf 2bbe 43c0 24be
000000b0: eb0e 423e 3259 f03d fe79 86bc 5421 1dbe
000000c0: f2b3 963d ed20 28be 5e70 a23e a0c3 533e
000000d0: 762e ebbd aa13 49be 3c56 573e abac 34be
000000e0: cc6d a9be ff94 8f3e 4ec8 033e 99dd 923e
000000f0: 303f 1e3e 624b 49be cc28 9a3b 431c a93e
00000100: 1b8d d53d b4c8 a9bd 09a7 2d3b 0bd0 8cbd
00000110: bdaa a63d 21bc c13d 6e0d edbd d4a2 493b
00000120: 76e1 06be 5076 933b 2382 2a3e d0a3 373e
00000130: f60b 0cbe 21a1 923d dc5a a33e 7697 19be
00000140: ce00 9c3e ae6c 633e d290 99bc 6630 913e
00000150: 1308 403e 8c22 22bc 0a57 90be 1689 953e
00000160: c4a9 91be a973 ae3e 7dfe b13e 7d04 eebd
00000170: a810 66be 52df e73c 9428 423e 4196 3b3c
00000180: 959f 32be f2d2 cdbd 1f16 c03e 98ab 39be
00000190: b6e8 b93c cd24 343e 50f4 47be 22fb adbc
000001a0: 1ca0 2dbe 3d39 24be 53b3 883d 5129 f03d
000001b0: 19e9 833e 5d6c aabc 3f98 0dbd 1b84 1abe
000001c0: 88f5 253e f928 d43c 59b1 08bd a43e 093e
000001d0: 0f85 46be f679 4abe d60e 293d 35bb 953e
000001e0: 0da4 df3d bef2 f23d 99f5 c6bd 50e1 f5bd
000001f0: b088 a5bd 87cc 913e 1b6c 263c 3027 63bc
00000200: 6e9d 18be 4232 a33e 9abc 3bbe 6be5 fbbd
00000210: 9d38 253e 9763 d3bc 634c 36bd fe11 93be
00000220: e4fb b239 5bb8 63be 7847 2c3d 33f6 c43c
00000230: 04cd 113e d48f 4a3e 98ea 27be 5354 193e
00000240: 1863 1bbe 945d 8cbc a74f 3abe 369a 623e
00000250: 3aa3 693e ad01 4c3e 51f0 1c3e b273 103e
00000260: b61f acbe 98d2 2f3e 9477 513e ae61 67be
00000270: 55e3 a83e 7a40 78be 8ea8 3a3e 5052 d23c
00000280: 44f1 66be f52e 153e 594e 983e 550a 1f3e
00000290: eab0 7cbe d051 e0bd b5cb 92be 2c50 0ebe
000002a0: cc53 a43e 2310 b53e b3e8 21be a329 5f3e
000002b0: 80cc 68be 448a 903e 8a5a c23e 4a70 68be
000002c0: cf2b d6bd 4cb8 9a3d ea28 41be cbbe 6dbd
000002d0: 1d13 a43e 3b1f d6bd 40f5 6dbe 6655 433d
000002e0: 1757 853e b2b3 1bbd 67c3 49be ede1 b83e
000002f0: 8c82 863e f25c 213e 49fa 9cbd d5ee 423d
00000300: e27c 803e 3f4b ffbd 5c88 643e 8f9f 6cbe
00000310: e10b c3bd fdb1 21be d9f7 7d3e cec8 bebe
00000320: 2ed7 f53d f680 403e cb89 c33d 42b8 243e
00000330: 48a3 713e 6a49 51be dd4b 0abe fe9b 1c3e
00000340: ba1a 97be e30b ed3d 0b8e 213e a18d 103e
00000350: 19e9 373e d8c8 f13c ef02 803e 861f 383e
00000360: 2e8a b9bc 65ab 94be 2625 3b3e 702b b93e
00000370: ee95 11be 6db3 7fbe 52ea 27be b33f 723e
00000380: 6375 e33d c8d7 00be 9a28 d83d 8921 ac3e
00000390: d92b 41bd 5961 f7bd 2f5d 893e 1a71 a53e
000003a0: f67a 9f3e 6232 063e b37b e7bd eceb 86be
000003b0: b700 343e d80d 263e e04c 2b3e 5e87 07bd
000003c0: 476f 29bc 0732 3b3e c70c 9f3e e66c 0b3d
000003d0: e100 dabd f536 5e3e 6850 2fbe 9dbb eebd
000003e0: 7df0 d6bc 6005 713e 5039 8cbd 8b46 183e
000003f0: ce42 93bd 36b6 fcbd f7ee 983e 7978 62be

fc1.bias f4 [128]
-0.06888377 0.17690802 -0.21735911 -0.27742028 -0.15712221 0.22211674 0.019449906 0.25933075
-0.0963976 0.06592925 0.119805 -0.038788017 -0.24911672 -0.2611274 0.029467568 0.18750256
-0.3695 0.07109261 0.061461102 -0.05504256 -0.069956794 0.019891573 -0.1161308 -0.13854948
0.08346507 0.21920046 -0.24553357 -0.27232543 -0.23766577 -0.30833328 -0.33781496 -0.1089998
0.14717297 -0.12682742 -0.1865473 0.1302693 -0.23732114 0.0381653 -0.2244594 -0.33673155
-0.33377525 0.3277128 0.12791997 -0.004789031 0.17258471 0.3717287 0.07679478 -0.08116029
0.020835666 -0.058575537 -0.2300882 0.1441341 -0.30733252 -0.04048291 0.16214731 0.26049346
-0.2797856 0.0950416 0.100277744 -0.032469787 -0.06821185 0.16715312 0.08776553 0.11514065
0.2713408 -0.0727886 -0.055435278 -0.1033026 -0.14418286 0.030731436 0.31265137 -0.15279861
-0.2669043 -0.17323169 -0.20610328 -0.018628472 -0.097278155 -0.116900004 0.08943026 0.077778846
0.073735274 0.22788952 -0.33380342 0.025473995 0.29714963 -0.16301513 0.12029134 -0.349021
-0.32023358 -0.07350015 -0.18034752 -0.37481976 0.16066845 -0.037007153 -0.10502927 -0.22700581
0.06604668 0.10550542 -0.1555879 -0.26529646 -0.057109345 0.22910242 0.30095297 -0.06592868
-0.27528366 0.10558558 -0.035632465 -0.12884817 0.21970743 0.037708342 0.16018917 -0.13849705
0.24477834 -0.050579883 -0.2072116 0.26807442 -0.19025458 0.09162032 -0.23933637 0.19528548
0.16904584 -0.01738673 -0.25963572 -0.057560578 0.043309655 -0.07644535 0.23605604 -0.23481597
00000000: ef12 8dbd 6027 353e 6393 5ebe 080a 8ebe
00000010: a5e4 20be 9272 633e 6955 9f3c 00c7 843e
00000020: 1b6c c5bd ea05 873d 535c f53d 2fe0 1ebd
00000030: 7418 7fbe 7eb2 85be f865 f13c ac00 403e
00000040: 1b2f bdbe 0199 913d a3be 7b3d 4f74 61bd
00000050: 8245 8fbd a7f3 a23c fcd5 edbd eadf 0dbe
00000060: bcef aa3d 1676 603e 276d 7bbe 3d6e 8bbe
00000070: a85e 73be dcdd 9dbe 15f6 acbe 4a3b dfbd
00000080: 83b4 163e 0cdf 01be 4106 3fbe 5165 053e
00000090: 5004 73be 3853 1c3d afd8 65be 1468 acbe
000000a0: 97e4 aabe f9c9 a73e 74fd 023e 4eed 9cbb
000000b0: 0cba 303e 3953 be3e 9546 9d3d 5e37 a6bd
000000c0: 8faf aa3c e7ec 6fbd 3e9c 6bbe e497 133e
000000d0: b05a 9dbe 68d1 25bd f209 263e 665f 853e
000000e0: 0f40 8fbe 2ca5 c23d 6b5e cd3d 0aff 04bd
000000f0: a8b2 8bbd 302a 2b3e 6abe b33d dcce eb3d
00000100: 2eed 8a3e 3112 95bd 1a10 63bd 5090 d3bd
00000110: aca4 13be 7ec0 fb3c d713 a03e 3d77 1cbe
00000120: aea7 88be a663 31be bd0c 53be bd9a 98bc
00000130: c539 c7bd 4569 efbd 3627 b73d 844a 9f3d
00000140: 8502 973d df5b 693e 48e8 aabe d7ae d03c
00000150: ff23 983e 70ed 26be 4e5b f63d e1b2 b2be
00000160: a8f5 a3be 3f87 96bd 05ad 38be 60e8 bfbe
00000170: 4586 243e d094 17bd 9619 d7bd 3674 68be
00000180: 7b43 873d 3a13 d83d 6f52 1fbe f0d4 87be
00000190: 7deb 69bd d399 6a3e 8216 9a3e 9e05 87bd
000001a0: fbf1 8cbe 413d d83d 59f3 11bd c6f0 03be
000001b0: fcfa 603e 1074 1a3d a108 243e 2cd2 0dbe
000001c0: 2ca7 7a3e da2c 4fbd 472f 54be 0d41 893e
000001d0: 19d2 42be 6fa3 bb3d 9814 75be ebf8 473e
000001e0: 5a1a 2d3e 9e6e 8ebc f9ee 84be a4c4 6bbd
000001f0: 7765 313d 618f 9cbd adb8 713e 9973 70be

fc2.weight f4 [128, 128]
0.046818547 -0.00083489827 -0.029270101 0.05941186 -0.09048089 -0.052985866 -0.0040671746 -0.019698694
-0.019915082 -0.04353084 -0.07447902 0.017639669 -0.084697865 0.03658984 -0.033182673 0.013451488
-0.0015659996 0.022846796 0.060827643 0.0016230041 -0.038672622 -0.038489603 0.0015174669 -0.07179323
-0.04153249 -0.09900552 -0.031875443 0.026458325 -0.0010265382 -0.040790524 0.027628753 -0.07443557
-0.015243352 -0.044833872 -0.083599634 0.008987285 -0.024590274 -0.03835129 0.07108762 -0.016937803
0.04460252 -0.07370921 0.0018460471 -0.043082733 -0.071252406 -0.08196917 -0.005768734 0.05028443
-0.065459125 -0.024488714 -0.048319463 -0.0150680635 -0.042605046 -0.029337483 -0.052080866 -0.09365887
-0.07632068 -0.025656825 0.06181095 -0.00064896396 -0.017792737 -0.0048180167 0.011787973 -0.05144037
0.06405435 -0.09104684 -0.10057288 0.009790575 0.04752699 0.005226922 0.026590534 0.0489514
0.010055751 0.02193022 0.05907849 -0.09837685 -0.088365026 -0.10638455 -0.016987268 -0.07164031
-0.04145845 -0.03281943 0.031546287 -0.011110465 0.049697023 -0.10295817 -0.017258447 0.05087829
-0.029539218 -0.05294066 0.074990876 -0.104448795 -0.07021736 0.04137931 0.04544381 -0.04997755
-0.08706331 -0.103599526 0.048279915 -0.0024887405 -0.06599478 0.03962242 -0.12260425 0.037368875
0.021159524 -0.07058659 -0.012024004 0.01879881 -0.013003179 0.06542916 -0.08476642 0.022898879
-0.019025728 -0.025821654 -0.083392315 0.01737444 -0.04652555 0.0066604405 -0.046704143 0.04165436
-0.039313152 -0.14851137 -0.018655354 -0.062775314 0.036818348 0.002179814 -0.05374544 -0.034096617
-0.1976489 -0.10341226 -0.017006487 0.0109108845 0.04998544 -0.04827288 0.053561136 -0.057762247
0.09934018 -0.021753132 -0.0077906675 0.057566956 0.08068513 0.007344125 -0.08951709 -0.011539714
0.09619597 0.004672257 -0.0927248 0.021800641 -0.01260275 0.017544799 -0.07172513 -0.08098797
-0.076716736 0.030279854 0.06350315 -0.020711122 -0.0124148205 -0.06563415 -0.07596006 -0.029188298
0.045130886 -0.06525698 -0.089613646 0.11037107 0.026169276 -0.037396826 -0.12472462 -0.060191553
-0.04170732 0.011178389 0.05169946 -0.0058105183 0.052572962 -0.081678815 -0.0055110003 -0.026865952
0.050536886 -0.06398996 -0.042788118 -0.11825452 0.12382104 -0.026570966 -0.12140926 -0.01982094
-0.04203123 0.030138081 -0.029091759 -0.09333845 0.055856533 -0.04474519 0.01602918 0.06006485
-0.16763419 0.03970726 0.008127641 -0.08910328 -0.018379781 0.07389024 -0.105823 -0.0006595603
0.017903924 0.036434658 0.070000954 -0.024915949 -0.0011589427 0.00039264362 -0.01507575 -0.098466605
0.045357276 -0.09470665 -0.010011073 0.035104685 -0.07202143 0.013165533 0.04105171 0.0037780683
0.07424238 0.016095886 0.015148396 0.0027710295 0.085809626 -0.024004776 -0.06000756 -0.052625272
-0.0063531213 -0.047561064 -0.121490285 0.0056791054 -0.06289565 -0.039768107 -0.13364981 -0.15837517
0.011166349 0.07224164 0.059188172 0.055962607 -0.15417168 -0.07018209 0.056566194 -0.10617942
0.06411154 0.0314076 0.04939059 -0.14569 -0.09435922 -0.08058329 -0.13678747 -0.045513924
0.099628314 -0.102856964 -0.0035803006 -0.059943527 -0.09220366 0.0656355 -0.04372547 0.0055697025
00000000: cec4 3f3d 13dd 5aba dac7 efbc da59 733d
00000010: 0b4e b9bd b507 59bd ef45 85bb 285f a1bc
00000020: f424 a3bc 654d 32bd 7588 98bd 1181 903c
00000030: 1376 adbd 3adf 153d 8eea 07bd a163 5c3c
00000040: 3a42 cdba 3429 bb3c 6826 793d fbba d43a
00000050: 2f67 1ebd 46a7 1dbd bde5 c63a 5408 93bd
00000060: f91d 2abd 68c3 cabd d38f 02bd 21bf d83c
00000070: e88c 86ba f713 27bd b255 e23c ad71 98bd
00000080: 41bf 79bc b9a3 37bd 4936 abbd 683f 133c
00000090: 8b71 c9bc 3e16 1dbd 6396 913d 26c1 8abc
000000a0: 22b1 363d dbf4 96bd 10f7 f13a 8577 30bd
000000b0: c8ec 91bd 74df a7bd a607 bdbb 0cf7 4d3d
000000c0: 6f0f 86bd 8e9c c8bc a1ea 45bd 0ae0 76bc
000000d0: a182 2ebd 2955 f0bc bf52 55bd 39d0 bfbd
000000e0: 044e 9cbd 432e d2bc 7b2d 7d3d 3c1f 2aba
000000f0: 13c2 91bc 74e0 9dbb 5822 413c 23b3 52bd
00000100: ed2e 833d c476 babd 27f9 cdbd a668 203c
00000110: a9ab 423d 9a46 ab3b 64d4 d93c 4381 483d
00000120: e0c0 243c 01a7 b33c 49fc 713d cd79 c9bd
00000130: b9f8 b4bd 25e0 d9bd e228 8bbc 28b8 92bd
00000140: 56d0 29bd ab6d 06bd ae36 013d ab08 36bc
00000150: 1b8f 4b3d bcdb d2bd 9661 8dbc c165 503d
00000160: 3bfc f1bc 4ed8 58bd d194 993d 40e9 d5bd
00000170: 1fce 8fbd 5a7d 293d 4a23 3a3d 42b5 4cbd
00000180: 404e b2bd fd2b d4bd 29c1 453d 231a 23bb
00000190: 4528 87bd 1e4b 223d f017 fbbd 1b10 193d
000001a0: bd56 ad3c b48f 90bd 5400 45bc f6ff 993c
000001b0: 490b 55bc b9ff 853d 049a adbd 6e96 bb3c
000001c0: d8db 9bbc ef87 d3bc 97c9 aabd d754 8e3c
000001d0: 9391 3ebd d33f da3b d84c 3fbd c39d 2a3d
000001e0: d406 21bd 5d13 18be 1dd3 98bc 5890 80bd
000001f0: d6ce 163d 36db 0e3b 2e24 5cbd e5a8 0bbd
00000200: 7964 4abe cfc9 d3bd 3051 8bbc 91c3 323c
00000210: 88bd 4c3d c9b9 45bd ec62 5b3d 1b98 6cbd
00000220: dd72 cb3d a033 b2bc db48 ffbb 54cb 6b3d
00000230: 3f3e a53d fca6 f03b bc54 b7bd 1211 3dbc
00000240: 6502 c53d bc19 993b 80e6 bdbd 4297 b23c
00000250: c47b 4ebc 1cba 8f3c a0e4 92bd 05dd a5bd
00000260: aa1d 9dbd 750d f83c f10d 823d 5faa a9bc
00000270: 8867 4bbc 326b 86bd f390 9bbd 4c1c efbc
00000280: 2adb 383d 74a5 85bd 5c87 b7bd 3a0a e23d
00000290: f360 d63c 6a2d 19bd 9f6f ffbd 6b8b 76bd
000002a0: 4bd5 2abd 9025 373c d0c2 533d 2966 bebb
000002b0: bf56 573d 3947 a7bd 9f95 b4bb fc15 dcbc
000002c0: c4ff 4e3d 2b0d 83bd 9842 2fbd 6d2f f2bd
000002d0: e395 fd3d 5bab d9bc 6ba5 f8bd 865f a2bc
000002e0: f028 2cbd 23e4 f63c d751 eebc 3b28 bfbd
000002f0: d2c9 643d bb46 37bd a04f 833c 8f06 763d
00000300: 4ca8 2bbe 14a4 223d cc29 053c c87b b6bd
00000310: 3291 96bc c453 973d bbb9 d8bd 58e6 2cba
00000320: 40ab 923c 823c 153d a95c 8f3d 881c ccbc
00000330: aae7 97ba bcdb cd39 4700 77bc dca8 c9bd
00000340: 8dc8 393d 8ff5 c1bd 7c05 24bc eec9 0f3d
00000350: f97f 93bd 3fb4 573c d625 283d 7899 773b
00000360: 640c 983d 85db 833c fa30 783c 299a 353b
00000370: f5bc af3d aaa5 c4bc 7dca 75bd 998d 57bd
00000380: d82d d0bb 64cf 42bd e6cf f8bd ca17 ba3b
00000390: 6fcf 80bd e2e3 22bd 7fdb 08be 1a2d 22be
000003a0: 10f3 363c 6df3 933d 4c6f 723d 0c39 653d
000003b0: 2edf 1dbe a1bb 8fbd f4b1 673d 9974 d9bd
000003c0: e94c 833d 41a5 003d ca4d 4a3d c22f 15be
000003d0: 683f c1bd da08 a5bd 0412 0cbe cf6c 3abd
000003e0: ee09 cc3d aca6 d2bd 7aa3 6abb 5887 75bd
000003f0: 46d5 bcbd e86b 863d 7a19 33bd 0d82 b63b

fc2.bias f4 [128]
-0.049252357 -0.01973554 0.0069690505 -0.01849545 -0.06959161 0.008084293 -0.107968196 -0.039009307
-0.03529683 -0.040497046 -0.030838352 -0.11258556 0.3367827 -0.068539485 -0.080603294 -0.073892206
-0.037392043 -0.045861598 0.038158122 0.010405399 0.16624264 -0.043414764 0.18434048 -0.071624115
-0.11653295 -0.09089954 -0.020293545 0.12333632 -0.04012677 -0.020819489 -0.012286957 0.12730233
-0.048297495 -0.047100812 0.005542637 -0.10516761 -0.0355531 0.045134064 -0.04147491 0.09115146
-0.047090456 -0.01150978 -0.07886432 0.0025946521 -0.0055067423 0.14253157 0.06425403 -0.07012831
-0.0032363394 -0.013819847 -0.10600787 -0.044246826 -0.030590378 -0.010509555 -0.07870392 -0.012340493
-0.12082311 -0.10346006 -0.10870257 -0.010813926 0.0014517785 -0.0042782235 -0.009216815 -0.016440457
-0.065674074 -0.016275529 -0.022434896 -0.054974385 -0.030853985 -0.035159204 -0.05751971 -0.024328668
-0.051386666 0.039790694 -0.05068236 -0.09555473 -0.11214921 -0.050269477 -0.069583274 0.12200985
-0.044748224 0.079894885 -0.045879923 -0.09695111 0.09691367 -0.03532616 -0.008698846 0.05008747
0.024259094 0.15055872 -0.0438871 -0.0060226577 0.057360083 -0.034948226 -0.08745386 0.1631199
-0.022650477 0.093324736 -0.10332748 -0.020080293 -0.06513047 -0.026928948 0.057606388 -0.069222
-0.06907771 -0.11456245 -0.04779406 0.1196174 -0.06064422 -0.0040877042 -0.006885526 -0.027099969
0.13264818 -0.011583028 0.095404945 -0.04268049 -0.09068058 0.00048233062 0.0021125483 -0.059197877
-0.041359384 -0.006534946 0.098831385 -0.04997004 -0.004309118 0.27386218 0.005111892 -0.037508782
00000000: d7bc 49bd 6dac a1bc a25c e43b c583 97bc
00000010: 0c86 8ebd fc73 043c 6e1e ddbd 39c8 1fbd
00000020: 6993 10bd 3be0 25bd b6a0 fcbc 4293 e6bd
00000030: c86e ac3e 6e5e 8cbd 5713 a5bd cc54 97bd
00000040: 6628 19bd 5fd9 3bbd b14b 1c3d 687b 2a3c
00000050: 833b 2a3e aed3 31bd c0c3 3c3e aaaf 92bd
00000060: d4a8 eebd 8a29 babd a63e a6bc c197 fc3d
00000070: f85b 24bd a28d aabc 3c4f 49bc 8b5b 023e
00000080: 98d3 45bd c8ec 40bd 029f b53b 1e62 d7bd
00000090: 21a0 11bd 7fde 383d 98e1 29bd 9ead ba3d
000000a0: ece1 40bd 8493 3cbc 9e83 a1bd 0a0b 2a3b
000000b0: e771 b4bb ccf3 113e 9e97 833d 6e9f 8fbd
000000c0: c418 54bb a46c 62bc a71a d9bd 293c 35bd
000000d0: ac98 fabc 4530 2cbc 852f a1bd c72f 4abc
000000e0: 1b72 f7bd dee2 d3bd 749f debd e52c 31bc
000000f0: 9a49 be3a 5730 8cbb 2002 17bc 23ae 86bc
00000100: 2180 86bd 4254 85bc 63c9 b7bc d22c 61bd
00000110: 7fc1 fcbc 1903 10bd ca99 6bbd ea4c c7bc
00000120: d37a 52bd 91fb 223d 4e98 4fbd 33b2 c3bd
00000130: 7cae e5bd 5ee7 4dbd ad81 8ebd 4de0 f93d
00000140: ea49 37bd ee9f a33d 96ec 3bbd 4e8e c6bd
00000150: ad7a c63d 2ab2 10bd 9b85 0ebc 8528 4d3d
00000160: 02bb c63c 112c 1a3e f6c2 33bd b759 c5bb
00000170: 68f2 6a3d df25 0fbd 021b b3bd e708 273e
00000180: 7e8d b9bc 0a21 bf3d 5c9d d3bd 6d7f a4bc
00000190: 2063 85bd 199a dcbc adf4 6b3d 44c4 8dbd
000001a0: 9d78 8dbd b89f eabd b4c3 43bd f8f9 f43d
000001b0: 1366 78bd 26f2 85bb fa9f e1bb c100 debc
000001c0: edd4 073e bec6 3dbc ab63 c33d bdd1 2ebd
000001d0: bdb6 b9bd 52e1 fc39 ae72 0a3b 7979 72bd
000001e0: 7568 29bd 1a23 d6bb 1c68 ca3d 62ad 4cbd
000001f0: 8033 8dbb aa37 8c3e a881 a73b cfa2 19bd

fc3.weight f4 [7, 128]
-0.073716134 -0.23811263 -0.048683405 0.0143971015 -0.04842577 -0.14216785 0.008985087 -0.098545976
0.07016795 0.018728504 -0.0027361945 -0.03198743 -5.2373357 -0.07990163 -0.014578155 0.019598527
-0.044438493 0.0289797 -0.21774362 0.037085284 -1.4502921 0.048736177 -3.873564 0.04358324
0.07645686 -0.041355584 0.009841238 -0.17250545 -0.0123829 0.03842972 -0.01894806 -0.24506806
0.0032430594 -0.08112438 -0.39071152 -0.024439508 -0.11450857 -0.1344147 -0.02745239 -0.36998498
0.045657557 0.009890544 -0.0730861 -0.07759655 0.048594866 -0.15266225 -0.08961067 0.013303977
-0.11925634 0.03106088 -0.3508829 0.025004629 0.018355975 -0.9803106 -0.012219448 0.0011480137
0.022721663 -0.030783933 0.0203067 0.03962844 0.032677535 0.017437804 -0.10874184 -0.0060782777
-0.11008368 0.0606353 -0.025657829 -0.019280145 -0.03265651 -0.06297653 -0.006075201 0.034563947
-0.048843782 -0.60389894 -0.10015673 0.08607582 -0.0721202 -0.0038772712 0.022726879 -0.05913693
-0.07275251 -0.064121805 -0.06677073 -0.031498928 -1.260248 -0.05708391 -0.057682067 -0.09480725
-0.1909033 -2.7870579 0.012222997 -0.036489595 0.006296956 -0.069552064 -0.00765112 -0.29587954
-0.043811843 -3.0516424 0.004225931 -0.009023284 -0.043892853 -0.041489188 -0.67499405 -0.043942578
-0.057816472 -0.1375616 0.033514038 -0.16555572 -0.026995942 -0.017236624 -0.03160948 0.035423014
-5.2447624 -0.08018774 -0.15871453 0.024015075 -0.082701586 -0.14700128 0.024780767 -0.062628515
-0.15695934 -0.118687466 -0.113932125 0.0011289171 0.03390163 -5.978734 -0.07445828 -0.011915698
-0.007205093 0.010945861 0.019185282 0.010245916 -0.17733549 -0.036539655 0.016232403 0.0066549126
-0.0870775 0.02117866 0.07153719 0.029544305 0.003033052 -0.03896571 0.2130519 -0.014257486
-0.0209239 0.00023048824 0.12493584 -0.0369533 0.07058374 0.026531601 0.27418518 -0.085728966
0.020748507 0.057531957 -0.059692193 0.11298985 -0.002790153 -0.047982752 -0.01399161 0.071719356
0.0013701237 0.027580068 0.021767521 -0.12725063 -0.06605776 0.07558205 -0.009734798 0.08838199
0.0816991 0.028150134 -0.06497907 0.04870804 0.020407667 0.118867494 0.12627648 0.046760287
-0.049728576 0.08457096 -0.07259702 -0.0123245055 -0.09063587 0.091410235 0.010114505 0.053031467
-0.024139948 -0.03290577 -0.047870588 -0.079693474 -0.021880878 0.09123218 0.01686094 -0.04317331
-0.14516957 0.18884009 0.005259612 -0.09403762 0.056345765 0.0030150425 0.05103733 0.07069566
-0.01666941 -0.07827673 -0.042377952 -0.057183925 -0.059103247 0.0927066 -0.08110591 0.11083326
-0.064103395 0.07145361 0.010224747 0.0165333 0.03294783 0.008959181 -0.015527448 0.11913317
0.048865918 0.1265981 0.04017796 -0.016838167 0.024884544 -0.17165686 -0.018243106 0.06912418
-0.0006640503 -0.005760909 -0.055955004 0.08031394 -0.045286134 -0.020235075 0.0292928 0.086010404
0.010344037 -0.12383032 -0.073556185 0.16475944 0.07192919 0.16874541 0.17030527 -0.010799623
-0.03838832 -0.045561224 0.0861134 -0.09501012 -0.034474898 -0.08753833 -0.018775452 -0.008220325
-0.03733064 0.09233039 0.0626941 -0.0694132 -0.035679083 0.10631804 0.05122675 -0.029846435
00000000: 7cf8 96bd ccd3 73be 4068 47bd d2e1 6b3c
00000010: 1a5a 46bd 7394 11be 3036 133c 79d2 c9bd
00000020: 37b4 8f3d 856c 993c ba51 33bb 4005 03bd
00000030: 4198 a7c0 77a3 a3bd 37d9 6ebc 178d a03c
00000040: 2305 36bd d666 ed3c 2ff8 5ebe bde6 173d
00000050: 2ca3 b9bf 969f 473d 79e8 77c0 5784 323d
00000060: 6a95 9c3d 7964 29bd 253d 213c 45a5 30be
00000070: a6e1 4abc 7b68 1d3d f638 9bbc 1ff3 7abe
00000080: 8289 543b 8a24 a6bd 570b c8be 5d35 c8bc
00000090: 7883 eabd 02a4 09be d6e3 e0bc ac6e bdbe
000000a0: 6b03 3b3d f30b 223c 2aae 95bd f1ea 9ebd
000000b0: 690b 473d 7e53 1cbe cd85 b7bd edf8 593c
000000c0: ab3c f4bd 6373 fe3c eca6 b3be 82d6 cc3c
000000d0: 455f 963c a3f5 7abf 1434 48bc f378 963a
000000e0: c822 ba3c 962e fcbc 3d5a a63c 6e51 223d
000000f0: e1d8 053d bad9 8e3c 0bb4 debd 4a2c c7bb
00000100: 8d73 e1bd b85c 783d 5e30 d2bc 65f1 9dbc
00000110: d5c2 05bd d7f9 80bd 7b12 c7bb ed92 0d3d
00000120: 6b10 48bd 1f99 1abf f91e cdbd 8548 b03d
00000130: c1b3 93bd d119 7ebb b82d ba3c 9139 72bd
00000140: 45ff 94bd 4b52 83bd 18bf 88bd 0505 01bd
00000150: ce4f a1bf d1d0 69bd 0844 6cbd 4e2a c2bd
00000160: 287c 43be 285f 32c0 f742 483c 1d76 15bd
00000170: b256 ce3b 5071 8ebd 3fb6 fabb 867d 97be
00000180: 0c74 33bd 1c4e 43c0 ae79 8a3b 65d6 13bc
00000190: fec8 33bd 91f0 29bd 69cc 2cbf 22fd 33bd
000001a0: f7d0 6cbd f3dc 0cbe 0446 093d 7087 29be
000001b0: 9826 ddbc d233 8dbc f178 01bd b917 113d
000001c0: 18d5 a7c0 7839 a4bd 1086 22be 43bb c43c
000001d0: 735f a9bd 8187 16be 0901 cb3c 6143 80bd
000001e0: f3b9 20be 6a12 f3bd 3f55 e9bd 2cf8 933a
000001f0: 70dc 0a3d ca51 bfc0 957d 98bd 0f3a 43bc
00000200: b318 ecbb 4556 333c 742a 9d3c 7dde 273c
00000210: 6f97 35be 9baa 15bd d1f9 843c 7411 da3b
00000220: b055 b2bd df7e ad3c 1782 923d e606 f23c
00000230: 2bc6 463b 829a 1fbd 472a 5a3e 3b98 69bc
00000240: 9968 abbc 37af 7139 5dde ff3d 585c 17bd
00000250: 358e 903d cd58 d93c 0062 8c3e ab92 afbd
00000260: c6f8 a93c a1a6 6b3d cd7f 74bd 3967 e73d
00000270: 00db 36bb 9089 44bd 113d 65bc 99e1 923d
00000280: b995 b33a 98ef e13c cd51 b23c fd4d 02be
00000290: 4a49 87bd c3ca 9a3d b47e 1fbc 9e01 b53d
000002a0: dc51 a73d 1c9b e63c bf13 85bd 1582 473d
000002b0: fb2d a73c cd70 f33d 9f4e 013e b787 3f3d
000002c0: 31b0 4bbd 8a33 ad3d bfad 94bd b9ec 49bc
000002d0: 4d9f b9bd 4a35 bb3d 4fb7 253c 8637 593d
000002e0: 24c1 c5bc 33c8 06bd f313 44bd 5536 a3bd
000002f0: 873f b3bc f0d7 ba3d f41f 8a3c 7fd6 30bd
00000300: 55a7 14be 4c5f 413e d358 ac3b cc96 c0bd
00000310: d1ca 663d 0598 453b 850c 513d e3c8 903d
00000320: 498e 88bc 8d4f a0bd 8194 2dbd b139 6abd
00000330: 3f16 72bd f5dc bd3d db1a a6bd 8cfc e23d
00000340: a448 83bd 4556 923d b285 273c d870 873c
00000350: 4ef4 063d 87c9 123c d666 7ebc 17fc f33d
00000360: a127 483d efa2 013e a591 243d 32f0 89bc
00000370: acda cb3c d1c6 2fbe 9172 95bc fa90 8d3d
00000380: a913 2eba 02c6 bcbb 1331 65bd a37b a43d
00000390: f47d 39bd 07c4 a5bc 74f7 ef3c 3926 b03d
000003a0: 097a 293c c09a fdbd a0a4 96bd b3b6 283e
000003b0: 9c4f 933d 99cb 2c3e 8164 2e3e e7f0 30bc
000003c0: 123d 1dbd 689e 3abd 395c b03d aa94 c2bd
000003d0: 8d35 0dbd 4c47 b3bd face 99bc 8bae 06bc
000003e0: 03e8 18bd b717 bd3d c465 803d 8228 8ebd
000003f0: 3b24 12bd 46bd d93d 24d3 513d 8380 f4bc

fc3.bias f4 [7]
-0.49293244 0.038021777 0.08728998 0.07476542 0.09811071 -0.46525863 -0.48820418
00000000: a461 fcbe b9bc 1b3d 17c5 b23d 9d1e 993d
00000010: 45ee c83d 6136 eebe e6f5 f9be
