hackathon_toolkit/checkpoints_qlearn_CTDE/agent_1_episode_101.pth (torch, 98496 bytes, 6 tensors)

fc1.weight f4 [128, 50]
0.039943364 0.1108156 -0.082796104 0.033142447 -0.038651824 -0.016017303 -0.0097456835 -0.030957133
0.088957295 0.033152483 0.06231248 -0.17379874 -0.036274426 -0.052564226 -0.09040202 0.118592426
0.0031647692 0.039098226 -0.056745905 0.04901479 -0.11820647 0.08101454 -0.15035288 0.009924267
-0.024507806 -0.09116398 0.10715337 0.054208677 0.10580383 -0.0017969906 0.08308821 -0.08595594
0.03388592 0.03959945 -0.03312093 -0.051198293 0.019976512 0.029812545 -0.05725488 0.15332772
-0.11997651 0.024096666 0.069631055 -0.045611285 -0.074561946 -0.18230946 -0.2107361 0.15974277
0.11566423 0.121471 0.024113683 -0.15558624 0.15683928 -0.01155597 -0.048979778 0.0339244
-0.0005840436 0.10329957 0.11160545 -0.00010207872 0.13384785 -0.7320378 -0.14385118 0.22295979
0.08580986 -0.04872498 0.10417264 -0.13858992 -0.12970157 0.0017614514 0.10493299 0.069175415
-0.12606578 -0.11789033 -0.10631478 -0.09447913 0.0838902 -0.14528446 0.081712626 0.09208636
0.024676263 0.053832665 0.106214 0.01939243 0.06670678 0.12494041 0.07216677 -0.094324335
0.055248618 0.14523602 -0.024500387 0.05992902 0.039385688 0.06598374 -0.13591042 0.058719806
0.063278206 -0.17799081 -0.015871108 0.07988541 -0.12611604 0.042874772 0.14532128 -0.122141555
-0.12963705 -0.047588512 -0.12790969 0.057067677 -0.11594563 0.05655591 0.09403436 -0.0657604
0.066691704 0.011042072 -0.11948998 -0.08715249 -0.06551217 0.116966866 -0.13714264 -0.010063365
-0.13906252 -0.02894379 0.015954316 -0.057189733 -0.027720958 -0.13161738 0.043745864 0.014768431
-0.010588772 -0.040128 0.08408349 0.11956479 -0.1042051 0.026357695 0.13589571 0.056172173
-0.014604673 0.063795224 -0.027693413 -0.060955726 -0.12259224 0.05673355 -0.065748766 -0.12202162
0.0851361 0.0825579 0.03435926 -0.0012048857 0.09464383 0.042163968 0.0064951945 -0.103250384
-0.088134475 -0.043051712 -0.097695634 -0.084864736 -0.12312749 -0.017101385 0.10734804 -0.07288623
0.040149614 0.5525612 -0.16192989 -0.06577774 -0.084192276 -0.06058067 0.090539314 0.034693755
0.18052588 0.11328049 -0.004152462 0.16543245 0.2195786 -0.004672053 -0.09061821 -0.13494116
0.037672725 0.019308778 0.15087885 -0.116909005 -0.05125948 0.12615974 -0.079828046 0.017680809
-0.12991829 0.030240925 -0.13022915 0.05740291 -0.038890906 0.11557425 0.10321283 0.16211912
-0.024952164 -0.12130098 0.01768373 -0.035207327 -0.28277624 0.054020666 -0.08467535 0.0062061846
-0.09018265 -0.06238002 -0.063884445 -0.03963065 -0.048480313 0.12697689 0.15359743 0.10822466
-0.0130995065 0.10507578 0.11739043 -0.030602595 -0.08659068 0.17232165 -0.068783425 0.10461454
-0.065731026 -0.061070185 -0.08535084 -0.12115908 -0.06184221 0.025932511 -0.019794753 -0.0719693
0.026686892 0.14073755 -0.063947216 0.06542097 0.008044123 0.07244623 0.03389529 -0.010928303
0.14329438 0.050574496 0.028274462 0.14676838 -0.10528182 0.052806154 0.06599596 0.028992843
-0.16950028 0.06040992 -0.05202427 -0.006773129 -0.04270164 0.30761838 0.06956421 -0.050381523
-0.036963075 -0.123612076 0.11347497 -0.00885729 -0.058958124 -0.10073456 0.08858647 -0.07673713
00000000: a79b 233d 4af3 e23d 0191 a9bd 60c0 073d
00000010: 6051 1ebd b836 83bc 5cac 1fbc d099 fdbc
00000020: 3e2f b63d e6ca 073d 5f3b 7f3d 4cf8 31be
00000030: 7e94 14bd 964d 57bd b224 b9bd 96e0 f23d
00000040: 0468 4f3b 7625 203d 656e 68bd bcc3 483d
00000050: 3c16 f2bd f3ea a53d 1bf6 19be 6599 223c
00000060: 98c4 c8bc 2eb4 babd 3a73 db3d eb09 5e3d
00000070: aeaf d83d 0089 ebba 272a aa3d ab09 b0bd
00000080: f6cb 0a3d 0833 223d d0a9 07bd 4db5 51bd
00000090: c8a5 a33c 7039 f43c 1884 6abd f101 1d3e
000000a0: 3fb6 f5bd 5f66 c53c ba9a 8e3d e6d2 3abd
000000b0: efb3 98bd 55af 3abe 34cb 57be 9c93 233e
000000c0: 5ee1 ec3d cac5 f83d 0f8a c53c 0052 1fbe
000000d0: 7a9a 203e 4055 3dbc 059f 48bd 50f4 0a3d
000000e0: 811a 19ba ba8e d33d 6691 e43d 1813 d6b8
000000f0: 690f 093e d466 3bbf b94d 13be 924f 643e
00000100: 14bd af3d d893 47bd 7758 d53d 84ea 0dbe
00000110: 7dd0 04be 80e0 e63a 1ce7 d63d d7ab 8d3d
00000120: 6317 01be 7c70 f1bd 90bb d9bd 467e c1bd
00000130: a0ce ab3d 73c5 14be f358 a73d c697 bc3d
00000140: e025 ca3c a47f 5c3d ba86 d93d e0dc 9e3c
00000150: 909d 883d c2e0 ff3d 2ccc 933d 1e2d c1bd
00000160: 604c 623d c0b8 143e 09b5 c8bc 2278 753d
00000170: e352 213d 7c22 873d 1a2c 0bbe 2e84 703d
00000180: 0198 813d 3943 36be 2004 82bc f69a a33d
00000190: 9024 01be 759d 2f3d 1acf 143e 5a25 fabd
000001a0: 93bf 04be 2cec 42bd c2fa 02be ccbf 693d
000001b0: e774 edbd 2ba7 673d 1695 c03d 63ad 86bd
000001c0: a995 883d cfe9 343c 2ab7 f4bd 017d b2bd
000001d0: 3f2b 86bd 538c ef3d 1f6f 0cbe d0e0 24bc
000001e0: 6866 0ebe 871b edbc a0b2 823c c83f 6abd
000001f0: 1017 e3bc b5c6 06be dd2e 333d 4af7 713c
00000200: 877c 2dbc 425d 24bd f733 ac3d 62de f43d
00000210: 7c69 d5bd 18ec d73c 3f28 0b3e cb14 663d
00000220: 7048 6fbc 12a7 823d 4cdd e2bc b6ac 79bd
00000230: a411 fbbd 7061 683d 4aa7 86bd 79e6 f9bd
00000240: d65b ae3d 1e14 a93d 4cbc 0c3d 41ed 9dba
00000250: a0d4 c13d 20b4 2c3d a4d5 d43b f074 d3bd
00000260: d97f b4bd fe56 30bd a614 c8bd 90cd adbd
00000270: 442a fcbd 3418 8cbc 4ad9 db3d 6045 95bd
00000280: ec73 243d a774 0d3f f3d0 25be 7bb6 86bd
00000290: 006d acbd 7023 78bd ad6c b93d 0a1b 0e3d
000002a0: c7db 383e 9aff e73d 6011 88bb 2067 293e
000002b0: 36d9 603e 0518 99bb 0a96 b9bd 042e 0abe
000002c0: b74e 1a3d 712d 9e3c fc7f 1a3e fd6d efbd
000002d0: 76f5 51bd 0530 013e e37c a3bd 58d7 903c
000002e0: 4d09 05be d1bb f73c ca5a 05be 501f 6b3d
000002f0: 124c 1fbd 31b2 ec3d 4061 d33d 8e02 263e
00000300: 7b68 ccbc a66c f8bd 78dd 903c 8f35 10bd
00000310: 0cc8 90be c644 5d3d 456a adbd 405d cb3b
00000320: aeb1 b8bd 3182 7fbd d9d5 82bd c053 22bd
00000330: 4b93 46bd 3b06 023e a548 1d3e e4a4 dd3d
00000340: 509f 56bc f831 d73d 656a f03d 4bb2 fabc
00000350: 7456 b1bd 1675 303e 53de 8cbd 2640 d63d
00000360: fd9d 86bd bb24 7abd 6ccc aebd 4022 f8bd
00000370: 424e 7dbd 6b70 d43c 9b28 a2bc a464 93bd
00000380: 789e da3c 811d 103e c2f6 82bd 6efb 853d
00000390: 7fcb 033c b05e 943d cad5 0a3d a00c 33bc
000003a0: c3bb 123e 3427 4f3d d89f e73c 734a 163e
000003b0: ff9d d7bd 444b 583d e428 873d 6682 ed3c
000003c0: 7b91 2dbe 6470 773d 6717 55bd 20f1 ddbb
000003d0: eae7 2ebd 2880 9d3e ae77 8e3d db5c 4ebd
000003e0: 9866 17bd 5428 fdbd 9165 e83d 2b1e 11bc
000003f0: 137e 71bd ec4d cebd d36c b53d 5b28 9dbd

fc1.bias f4 [128]
0.11315688 -0.02866439 0.06333102 -0.10136871 0.070249 0.14194477 -0.09668604 -0.011102181
-0.062126502 0.08678795 -0.1335647 -0.05995217 0.06866452 -0.084175974 0.06997456 0.038927853
-0.11126488 0.0659014 0.09206377 -0.08189055 -0.15424491 0.09995458 0.023130735 0.0459094
0.07771828 -0.15093714 0.05176323 -0.090473354 0.080191344 -0.06903104 -0.11180598 -0.03236896
-0.13969252 0.08805229 -0.090277895 0.12547415 -0.039838646 -0.09737535 -0.10247037 -0.094300464
0.0053081065 0.025250515 0.024922874 -0.055645823 0.114387855 -0.037797894 -0.08353023 0.0145426905
-0.06942802 -0.12987326 -0.03354709 -0.055347886 -0.041767348 -0.018047784 0.13363667 -0.0140122445
0.09755368 0.09972463 -0.043576777 0.09558142 0.1055977 -0.0828689 -0.04402724 -0.12157555
-0.1342331 -0.022615112 0.120918944 -0.12607856 0.100711554 0.10034844 0.05801293 -0.06581484
-0.086821824 0.056874886 0.10031519 -0.0747925 -0.0028154878 0.06999978 -0.0012495314 0.11597151
0.126944 0.013395183 -0.049383916 -0.04948145 -0.030583598 0.09693522 -0.023049258 0.01243832
-0.12842669 0.020949963 0.032280117 -0.07658341 0.077155024 -0.045255784 0.050239198 0.08226111
-0.028365126 -0.060986962 0.0684088 0.062020782 0.084102064 0.11406096 0.02916091 -0.07997518
0.0019220553 0.106279574 -0.103216216 -0.039885268 -0.09909663 -0.14336082 -0.16379486 -0.027496703
0.06517869 -0.117106415 -0.13176271 0.13186015 0.0035081413 0.10331217 -0.051376827 0.12148854
-0.0925807 0.11524917 -0.1379597 -0.0031444493 -0.098112606 0.11821994 0.1363357 0.14369921
00000000: cbbe e73d 95d1 eabc b2b3 813d 669a cfbd
00000010: b5de 8f3d f859 113e 5503 c6bd ece5 35bc
00000020: 5c78 7ebd e1bd b13d 2fc5 08be 6890 75bd
00000030: fc9f 8c3d 7464 acbd d24e 8f3d d072 1f3d
00000040: d7de e3bd 50f7 863d ee8b bc3d 3cb6 a7bd
00000050: 61f2 1dbe fdb4 cc3d ab7c bd3c 7f0b 3c3d
00000060: c32a 9f3d 448f 1abe ae05 543d 184a b9bd
00000070: 5c3b a43d 2560 8dbd 89fa e4bd 5195 04bd
00000080: 8e0b 0fbe c254 b43d 9ee3 b8bd 4c7c 003e
00000090: d92d 23bd ba6c c7bd fcdb d1bd 9a20 c1bd
000000a0: a0ef ad3b 2bda ce3c 0e2b cc3c e0ec 63bd
000000b0: 2e44 ea3d f7d1 1abd e611 abbd 7744 6e3c
000000c0: 4730 8ebd 7ffd 04be ac68 09bd 77b4 62bd
000000d0: 3d14 2bbd f2d8 93bc 0dd8 083e 9d93 65bc
000000e0: 39ca c73d 6d3c cc3d 907d 32bd 31c0 c33d
000000f0: 9b43 d83d 2bb7 a9bd e855 34bd 9afc f8bd
00000100: 6774 09be 5443 b9bc 5aa4 f73d bd1a 01be
00000110: dc41 ce3d 7c83 cd3d f79e 6d3d eec9 86bd
00000120: a4cf b1bd a4f5 683d 0d72 cd3d cf2c 99bd
00000130: 0c84 38bb 0b5c 8f3d 51c7 a3ba 7982 ed3d
00000140: 9cfd 013e 7877 5b3c ca46 4abd 10ad 4abd
00000150: 748a fabc f985 c63d ccd1 bcbc 18ca 4b3c
00000160: 4982 03be 429f ab3c 2838 043d c3d7 9cbd
00000170: 7403 9e3d 215e 39bd 9ec7 4d3d 8378 a83d
00000180: fb5d e8bc 77cd 79bd ea19 8c3d 8109 7e3d
00000190: b43d ac3d cb98 e93d dce2 ee3c 07ca a3bd
000001a0: 79ed fb3a 1ba9 d93d 0663 d3bd bc5e 23bd
000001b0: 2df3 cabd 2ecd 12be d7b9 27be c440 e1bc
000001c0: 687c 853d 7dd5 efbd ceec 06be 5906 073e
000001d0: d8e8 653b 5595 d33d 8270 52bd fcce f83d
000001e0: f39a bdbd c207 ec3d 4f45 0dbe 1b13 4ebb
000001f0: 43ef c8bd 4c1d f23d 969b 0b3e e325 133e

fc2.weight f4 [128, 128]
-0.09098887 -0.07794447 0.052034322 -0.040863708 0.053357128 0.11923836 0.048779298 -0.02515435
0.0735635 -0.3600063 0.08767248 -0.07897904 -0.0701679 -0.087101854 0.1321983 0.06523583
-0.09808176 -0.046397433 0.24864273 -0.021267181 -0.087622754 -0.029470658 -0.074863315 -0.29496056
-0.10252041 0.0039368686 -0.1843478 -0.19482715 0.017253287 0.14437369 -0.030584417 0.25945526
0.06134156 0.088107385 0.56895834 -0.019400168 -0.021322234 -0.064765535 -0.1794368 -0.017319776
0.059067406 -0.22188339 0.28434688 0.045362707 0.2564227 -0.11446617 0.15122259 -0.19646628
-0.058793258 0.07901328 -0.1391741 0.0016869257 -0.1124915 0.23319551 0.17242214 0.067581095
-0.07255815 0.08539492 -0.052137833 0.056753155 0.01629057 -0.04994935 -0.044329938 0.13734834
-0.0033462588 0.019458225 -0.4472919 0.7159292 -0.032815773 0.06813997 -0.0012070214 -0.04483303
-0.06176583 0.017234847 2.7382654e-05 -0.1409751 0.021240119 0.0019367291 0.08541668 0.03280836
-0.18798807 0.021896288 -0.12972175 -0.050290424 0.021094946 0.005471883 0.17756498 0.3389359
0.0025047734 0.06819803 -0.122420914 0.039932437 0.11719056 0.060157467 0.16495265 0.08414929
-0.06270407 -0.020733017 -0.29838988 -0.14288396 0.03831073 -0.18757789 0.104941405 -0.0843669
0.025095731 -0.0047651012 0.06597314 0.057699643 -0.10244177 0.014301583 0.062361576 -0.025323376
-0.119480245 -0.09038554 0.059724875 0.013862059 0.21095406 0.1029269 0.12611675 -0.057975847
0.06997305 -0.024327524 0.011594661 0.04377522 0.09824182 -0.18709369 0.035141494 0.06435618
0.17701653 -0.08035255 -0.055959105 0.17685401 -0.17097405 -0.051503584 -0.2215241 0.041525897
-0.026803583 0.06408857 0.014882736 -0.0064159483 -0.07311099 -0.026476238 0.100659736 -0.049951833
-0.14615378 -0.044006966 0.18946625 0.094007306 0.006505922 0.010375023 -0.08015422 -0.11808381
0.04635497 -0.013502747 0.01916354 -0.051896453 0.08686615 -0.15600048 0.044369467 -0.0023247728
0.0026776344 -0.022162937 -0.058854513 0.007923014 0.07143966 -0.026850302 0.07706653 0.046731524
0.07662117 0.03526533 0.028918976 -0.08641664 -0.32885188 -0.108409986 0.22107473 -0.1467838
0.08304236 -0.007952981 0.15090208 -0.020163558 -0.15591304 0.035213005 -0.111362316 0.17372912
0.011553462 0.08113721 -0.0050201192 0.0014627544 -0.11161641 0.12787656 0.020445712 -0.037686784
0.0688945 -0.08312212 -0.059643604 0.13118872 0.21954997 0.039557237 0.018367428 0.02612348
0.08640563 -0.18012206 -0.016058872 0.024063988 -0.042241674 0.010782649 -0.055909995 0.12104601
-0.025197934 -0.06830135 -0.023755994 0.20554431 0.008500749 -0.0892631 0.120160826 0.34503135
0.07982362 -0.16221204 0.11611259 0.03180416 0.07782376 0.051734943 -0.1454613 -0.016686542
0.05001267 -0.11515446 -0.033501104 0.039287254 -0.02140379 0.10617447 -0.13838002 -0.022419346
-0.117280446 0.10311195 -0.0019134283 0.0035725906 -0.013713599 -0.06410799 -0.026586559 0.012805149
-0.16887693 0.18997774 0.011309221 -0.020179883 0.02537799 -0.12190047 0.027424177 -0.05351667
-0.03740871 -0.0044905604 0.02213265 -0.09018319 -0.097903006 -0.07990193 -0.09030655 -0.027597563
00000000: 5f58 babd 5aa1 9fbd f121 553d b460 27bd
00000010: 018d 5a3d 3e33 f43d cdcc 473d 7f10 cebc
00000020: 76a8 963d bf52 b8be a18d b33d c3bf a1bd
00000030: 30b4 8fbd 7562 b2bd fe5e 073e 5d9a 853d
00000040: 17df c8bd 3c0b 3ebd 339c 7e3e 8338 aebc
00000050: 8f73 b3bd 736c f1bc f051 99bd 1205 97be
00000060: 39f6 d1bd d900 813b abc5 3cbe c580 47be
00000070: c456 8d3c b2d6 133e 2c8c fabc 52d7 843e
00000080: 4a41 7b3d a571 b43d 41a7 113f 1aed 9ebc
00000090: f7ab aebc cba3 84bd 48be 37be 34e2 8dbc
000000a0: aaf0 713d 6635 63be ea95 913e 3fce 393d
000000b0: d649 833e 3d6d eabd 18da 1a3e 752e 49be
000000c0: 33d1 70bd b7d1 a13d a883 0ebe d51b dd3a
000000d0: f261 e6bd ceca 6e3e 6e8f 303e f567 8a3d
000000e0: 5e99 94bd 88e3 ae3d 7b8e 55bd ff75 683d
000000f0: cd73 853c b197 4cbd 4f93 35bd 0ba5 0c3e
00000100: e84c 5bbb db66 9f3c 7203 e5be 2347 373f
00000110: d569 06bd f88c 8b3d eb34 9eba d7a2 37bd
00000120: 2bfe 7cbd 1830 8d3c cdb3 e537 c75b 10be
00000130: c2ff ad3c d8d9 fd3a f1ee ae3d 0f62 063d
00000140: f27f 40be d85f b33c c7d5 04be 55fd 4dbd
00000150: 4fcf ac3c 7b4d b33b 98d3 353e 0289 ad3e
00000160: 2027 243b 69ab 8b3d d1b7 fabd 3290 233d
00000170: 9b01 f03d ad67 763d 59e9 283e 7756 ac3d
00000180: fe6a 80bd 4ad8 a9bc 8fc6 98be 2c50 12be
00000190: b6eb 1c3d 6b14 40be 85eb d63d 8ec8 acbd
000001a0: 9095 cd3c 9124 9cbb ed1c 873d 7656 6c3d
000001b0: fecc d1bd 3051 6a3c da6e 7f3d f872 cfbc
000001c0: 0fb2 f4bd 0e1c b9bd 12a2 743d b11d 633c
000001d0: 5704 583e 57cb d23d c024 013e 1578 6dbd
000001e0: 084e 8f3d 844a c7bc 88f7 3d3c a54d 333d
000001f0: 0233 c93d 7d95 3fbe 87f0 0f3d 2ccd 833d
00000200: d243 353e e18f a4bd 6035 65bd 3819 353e
00000210: d213 2fbe 6cf5 52bd 37d7 62be 0f17 2a3d
00000220: 3093 dbbc de40 833d b8d6 733c e03c d2bb
00000230: 37bb 95bd b2e4 d8bc b126 ce3d 4b9a 4cbd
00000240: 56a9 15be a640 34bd 7103 423e e786 c03d
00000250: a12f d53b 00fc 293c e527 a4bd edd5 f1bd
00000260: b6de 3d3d a03a 5dbc dbfc 9c3c 6091 54bd
00000270: e1e6 b13d 97be 1fbe c2bc 353d 375b 18bb
00000280: 407b 2f3b 0c8f b5bc 6e11 71bd 88cf 013c
00000290: f54e 923d 2af5 dbbc 0fd5 9d3d 8e69 3f3d
000002a0: 8feb 9c3d 6172 103d 7de7 ec3c 35fb b0bd
000002b0: 465f a8be 0e06 debd 6a61 623e 7e4e 16be
000002c0: 1d12 aa3d 384d 02bc 1386 1a3e 0c2e a5bc
000002d0: aba7 1fbe 833b 103d ed11 e4bd 0ce6 313e
000002e0: bb4a 3d3c 442b a63d d07f a4bb e5b9 bf3a
000002f0: 2597 e4bd 13f2 023e c47d a73c 755d 1abd
00000300: 8f18 8d3d ee3b aabd da4c 74bd 5656 063e
00000310: b5d1 603e c506 223d 4a77 963c e900 d63c
00000320: 6ff5 b03d eb71 38be e58d 83bc d721 c53c
00000330: 9b05 2dbd b5a9 303c e101 65bd f8e6 f73d
00000340: e66b cebc 94e1 8bbd ee9b c2bc 357a 523e
00000350: ba46 0b3c 92cf b6bd e116 f63d f3a7 b03e
00000360: 917a a33d ea1a 26be 70cc ed3d 1445 023d
00000370: 1062 9f3d 05e8 533d cff3 14be 37b2 88bc
00000380: 16da 4c3d 1ad6 ebbd 7438 09bd aceb 203d
00000390: 0057 afbc 0072 d93d 7eb3 0dbe c7a8 b7bc
000003a0: bb30 f0bd 5c2c d33d 00cc faba 2022 6a3b
000003b0: 01af 60bc 0d4b 83bd 0ecc d9bc b0cc 513c
000003c0: 13ee 2cbe 8689 423e 504a 393c 4850 a5bc
000003d0: 81e5 cf3c f4a6 f9bd aba8 e03c 4c34 5bbd
000003e0: e039 19bd 8d25 93bb 884f b53c f7b1 b8bd
000003f0: 5f81 c8bd a0a3 a3bd a4f2 b8bd 4914 e2bc

fc2.bias f4 [128]
0.11092457 -0.102982804 0.015818898 0.13823573 0.10842952 -0.09905332 0.10393869 -0.07251985
-0.0062231864 -0.0802568 -0.06474879 -0.015364472 0.020554423 -0.00046720722 -0.014454637 0.054996386
0.09928809 0.05623032 0.036498897 0.09668129 -0.023660399 -0.0697659 0.015369286 0.020195479
-0.041765798 0.014958363 -0.0079123685 -0.09675522 -0.08447833 0.11629606 0.029043578 0.0012318548
0.10363614 -0.06647044 0.035549633 0.018921902 -0.038383387 -0.024509504 0.13358288 0.07725298
-0.03267468 -0.032110255 0.11390305 0.049900223 0.040123943 -0.08434152 0.10370594 -0.015781125
0.037942 0.050614223 0.10749042 0.05250706 0.01132028 -0.058232237 0.009396403 0.006104527
-0.03701693 -0.032610964 -0.11980201 0.02913942 0.06711808 0.021925064 -0.09892429 0.05374969
-0.08741663 0.07086533 -0.0006856194 0.054323073 0.016685568 -0.08146335 0.102685094 0.085670464
-0.020472588 0.06571103 -0.017091103 0.0509865 0.029466335 -0.06392195 -0.045069892 -0.1113007
-0.10626191 0.04320612 0.01774227 -0.02302881 0.036503155 0.064962864 0.08024587 0.07269365
0.038772017 0.08912985 0.12662062 -0.05123536 0.07204162 0.09781332 -0.081222825 -0.019694714
0.0033338307 -0.04549577 0.041781947 0.017034039 0.023967419 0.075174615 -0.10361716 0.06073877
-0.031453945 -0.06286411 0.060836915 -0.036492333 0.016245315 0.020713832 0.014791955 -0.10462537
-0.07730244 0.0067871395 0.012103183 0.051272396 -0.031198628 0.016832637 -0.068901904 -0.0043127616
0.070021085 0.05502446 0.04058711 0.122174054 0.13043843 0.03606934 0.015672842 -0.08401852
00000000: 6c2c e33d a6e8 d2bd a296 813c ab8d 0d3e
00000010: 4c10 de3d 78dc cabd cfdd d43d 4a85 94bd
00000020: dfeb cbbb ad5d a4bd 039b 84bd 44bb 7bbc
00000030: c061 a83c 7ef3 f4b9 24d3 6cbc e443 613d
00000040: 8e57 cb3d c451 663d de7f 153d d700 c63d
00000050: 74d3 c1bc 6de1 8ebd 75cf 7b3c fd70 a53c
00000060: 9d12 2bbd ec13 753c e1a2 01bc 9a27 c6bd
00000070: fa02 adbd a12c ee3d ccec ed3c 3076 a13a
00000080: 2f3f d43d a721 88bd 7e9c 113d 1b02 9b3c
00000090: e637 1dbd 28c8 c8bc f3c9 083e cf36 9e3d
000000a0: e3d5 05bd 0b86 03bd 0146 e93d 2d64 4c3d
000000b0: 0159 243d 3fbb acbd c863 d43d 6b47 81bc
000000c0: 1269 1b3d dc50 4f3d f023 dc3d a511 573d
000000d0: b278 393c ed84 6ebd 5ff3 193c 7c08 c83b
000000e0: 109f 17bd 1393 05bd c25a f5bd cbb5 ee3c
000000f0: 3475 893d 319c b33c d198 cabd a328 5c3d
00000100: 7d07 b3bd d821 913d 24bb 33ba df81 5e3d
00000110: 2cb0 883c 42d6 a6bd 904c d23d ff73 af3d
00000120: 21b6 a7bc 8193 863d a402 8cbc 38d7 503d
00000130: 6263 f13c 83e9 82bd 359b 38bd 9ff1 e3bd
00000140: d89f d9bd e7f8 303d 3d58 913c eaa6 bcbc
00000150: 5584 153d 400b 853d f257 a43d 69e0 943d
00000160: 68cf 1e3d b689 b63d d6a8 013e 2bdc 51bd
00000170: 8f8a 933d 5a52 c83d 2758 a6bd cf56 a1bc
00000180: 667c 5a3b c659 3abd 8c23 2b3d f88a 8b3c
00000190: 5257 c43c 26f5 993d 3c35 d4bd 37c9 783d
000001a0: dad5 00bd e6be 80bd 2130 793d fc78 15bd
000001b0: e514 853c 0eb0 a93c f559 723c d345 d6bd
000001c0: be50 9ebd a766 de3b 6e4c 463c 0103 523d
000001d0: 4494 ffbc 99e4 893c 711c 8dbd 1152 8dbb
000001e0: 3767 8f3d 5461 613d ab3e 263d 6436 fa3d
000001f0: a791 053e 72bd 133d 5564 803c e711 acbd

fc3.weight f4 [7, 128]
-0.20549138 -0.0355046 -0.073437236 -0.1798116 -0.13900675 -0.016785122 -0.16520339 -0.010017749
0.036839705 -0.030163217 -0.07086116 -0.017335381 -0.015355635 0.029741677 0.16405463 -0.092297494
-0.1444712 -0.005789631 -0.19848849 -0.08752891 0.110161334 -0.069695294 -0.1407731 -0.22283415
-0.11051355 0.058077756 -0.07783944 0.0372897 -0.13529214 -0.08259381 -0.055906776 0.03047872
-0.13802756 -0.04454579 -0.0029824227 -0.16174987 -0.006623095 -0.15143485 -0.040314686 -0.2428924
0.04134192 -0.04558429 -0.15636434 -0.30525964 -0.21537425 0.0022865161 -0.3019333 0.06757134
-0.15476058 -0.23701088 -0.19727087 0.013108305 -0.051164333 0.026233003 -0.10744852 -0.005038198
-0.19092713 0.015022746 -0.059871092 0.28641337 0.07294697 0.011728233 -0.076245904 -0.14208893
-0.02708735 -0.10007929 0.057304848 -0.21359813 -0.02907072 0.002903548 -0.22377926 -0.0742444
-0.10561873 -0.16149716 -0.2248683 0.003624312 0.017663315 0.08724178 -0.07746766 0.03935247
0.068554945 0.18172017 -0.1360461 0.019984016 -0.029289434 -0.102227695 -0.08956787 -0.033844348
-0.020022426 -0.15389566 -0.17456847 0.008638793 -0.1619607 -0.20471463 0.023173029 0.031236932
-0.031589154 -0.05043975 0.006275604 -0.034870807 -0.21193992 0.10477095 0.00479608 0.18108301
-0.2136697 0.07832699 0.06369014 -0.059202917 -0.124019265 -0.24916734 -0.21448879 -0.028538805
-0.19548428 -0.059571046 -0.041391857 0.08975619 0.025058532 -0.09778001 -0.016397398 -0.0870618
0.013033938 -0.16699503 -0.026205378 -0.16865234 -0.17917101 0.045079373 -0.12081004 -0.05049189
-0.15180129 0.189171 0.035300262 0.025374748 -0.14222354 -0.04652794 -0.22024342 0.011516426
0.059501518 -0.018290209 -0.00423029 -0.23992345 -0.0076253265 -0.08528925 0.34818712 -0.18216796
0.0749616 0.009356741 -0.13758619 0.03014333 0.27224135 0.053169467 -0.008886567 -0.08457686
-0.11437748 -0.3185759 0.021033913 0.08480493 -0.23673005 0.11632357 -0.061979935 0.051565543
-0.12442725 -0.039681952 -0.052592173 0.016651828 -0.036990054 -0.23576894 -0.16207215 -0.23120831
0.11094666 -0.15553999 -0.07652242 -0.42187873 -0.11952895 -0.05412944 -0.29200876 0.032523066
-0.40022996 -0.24994811 -0.14989372 -0.15883563 -0.21725893 0.05680407 -0.2027254 -0.15487406
-0.21833847 -0.05573089 -0.070293844 0.11906217 0.0074287667 -0.003834019 -0.061110087 -0.1695423
0.025203478 -0.40993047 0.041885346 -0.08589569 -0.20095359 -0.01608336 -0.2615967 -0.18275148
-0.1960721 -0.073457815 -0.11776094 -0.012565903 0.05543439 -0.01108329 -0.19521578 -0.049813706
-0.0023410728 0.01029332 -0.17039649 -0.013100155 0.013015626 -0.06103982 0.0046425466 0.003556385
0.026587645 -0.13689135 -0.18289796 0.041198485 0.036923476 -0.22101934 0.011797464 0.08478555
0.005481724 0.028031113 0.048566207 0.01901537 -0.14573434 -0.11396643 0.010685169 -0.0029305625
0.10145682 -0.10190856 0.21232276 0.044805028 -0.13012499 -0.118780665 -0.37038356 0.07553284
-0.20490883 -0.09646169 0.037009835 -0.093058825 -0.0800693 -0.15606122 -0.022521414 0.00555588
0.0655012 -0.088041045 -0.20187207 -0.47584605 -0.3753423 0.045067534 -0.19051006 -0.01889215
00000000: 556c 52be 456d 11bd 4366 96bd 8820 38be
00000010: c957 0ebe f480 89bc 142b 29be 7c21 24bc
00000020: 3be5 163d da18 f7bc a81f 91bd ee02 8ebc
00000030: 3496 7bbc d1a4 f33c f0fd 273e 7806 bdbd
00000040: 42f0 13be f2b6 bdbb 9140 4bbe 5b42 b3bd
00000050: 449c e13d 68bc 8ebd d326 10be a32e 64be
00000060: ee54 e2bd f1e2 6d3d 496a 9fbd 16bd 183d
00000070: 068a 0abe f226 a9bd 81fe 64bd 82ae f93c
00000080: 1957 0dbe a575 36bd c074 43bb c2a1 25be
00000090: 8c06 d9bb bd11 1bbe 0321 25bd c9b8 78be
000000a0: 2556 293d 98b6 3abd f91d 20be fe4a 9cbe
000000b0: 118b 5cbe 60d9 153b 0097 9abe d862 8a3d
000000c0: 8f79 1ebe fbb2 72be 6001 4abe 37c4 563c
000000d0: b191 51bd 98e6 d63c f80d dcbd 7817 a5bb
000000e0: 6782 43be f721 763c 643b 75bd c6a4 923e
000000f0: 3965 953d c627 403c d026 9cbd c37f 11be
00000100: 4ae6 ddbc 5ff6 ccbd 7db8 6a3d 78b9 5abe
00000110: b825 eebc 7449 3e3b 6426 65be 730d 98bd
00000120: a24e d8bd 835f 25be e043 66be de85 6d3b
00000130: a8b2 903c d1ab b23d 5da7 9ebd 0e30 213d
00000140: 8966 8c3d da14 3a3e ab4f 0bbe 85b5 a33c
00000150: 65f0 efbc c15c d1bd 5c6f b7bd 5fa0 0abd
00000160: 1206 a4bc d396 1dbe 14c2 32be b989 0d3c
00000170: 07d9 25be b6a0 51be 5dd5 bd3c 98e4 ff3c
00000180: a163 01bd e999 4ebd 95a3 cd3b b1d4 0ebd
00000190: c706 59be 2792 d63d 6f28 9d3b d36d 393e
000001a0: 3bcc 5abe e769 a03d fa6f 823d c27e 72bd
000001b0: d0fd fdbd b925 7fbe f3a2 5bbe 36ca e9bc
000001c0: 082d 48be c500 74bd 828a 29bd 18d2 b73d
000001d0: 8d47 cd3c e340 c8bd d653 86bc 754d b2bd
000001e0: 4c8c 553c bf00 2bbe a9ac d6bc 33b3 2cbe
000001f0: 9b78 37be 26a5 383d 416b f7bd 96d0 4ebd
00000200: cc71 1bbe 0bb6 413e 0297 103d b4de cf3c
00000210: 0ca3 11be 1594 3ebd 7e87 61be 64af 3c3c
00000220: ddb7 733d 59d5 95bc 3f9e 8abb 7eae 75be
00000230: e0dd f9bb 21ac aebd 9545 b23e 3d8a 3abe
00000240: 7885 993d 044d 193c 65e3 0cbe 25ef f63c
00000250: 3863 8b3e 3ac8 593d f798 11bc a236 adbd
00000260: bd3e eabd 611c a3be 504f ac3c 35ae ad3d
00000270: 5d69 72be 0d3b ee3d acde 7dbd 6436 533d
00000280: b7d3 febd 8b89 22bd e46a 57bd 6a69 883c
00000290: e282 17bd 6a6d 71be 3ef6 25be dfc1 6cbe
000002a0: 0138 e33d e045 1fbe c9b7 9cbd 7d00 d8be
000002b0: 98cb f4bd d5b6 5dbd 2c82 95be e836 053d
000002c0: f1ea ccbe 66f2 7fbe bd7d 19be cfa5 22be
000002d0: 2079 5ebe 62ab 683d 3f97 4fbe 4e97 1ebe
000002e0: 1f94 5fbe 1346 64bd 38f6 8fbd ded6 f33d
000002f0: 036d f33b 2a44 7bbb 924e 7abd 7f9c 2dbe
00000300: 8677 ce3c 68e2 d1be f88f 2b3d 14ea afbd
00000310: c7c6 4dbe 40c1 83bc 01f0 85be 3423 3bbe
00000320: 20c7 48be 0d71 96bd a62c f1bd 38e1 4dbc
00000330: 2c0f 633d b096 35bc a5e6 47be 7509 4cbd
00000340: af6c 19bb 50a5 283c 6b7c 2ebe 08a2 56bc
00000350: 7e3f 553c e404 7abd 8120 983b 3d12 693b
00000360: 55ce d93c 3f2d 0cbe 9a49 3bbe bebf 283d
00000370: 123d 173d e552 62be 274a 413c 0ca4 ad3d
00000380: 09a0 b33b 81a1 e53c 5ced 463d 1fc6 9b3c
00000390: 623b 15be 3b67 e9bd d910 2f3c ae0e 40bb
000003a0: 98c8 cf3d 6fb5 d0bd 236b 593e 7a85 373d
000003b0: 7c3f 05be 4743 f3bd eaa2 bdbe f6b0 9a3d
000003c0: 9fd3 51be b58d c5bd a097 173d a095 bebd
000003d0: 60fb a3bd 83ce 1fbe d47e b8bc 190e b63b
000003e0: 7e25 863d dd4e b4bd 8db7 4ebe 18a2 f3be
000003f0: de2c c0be bc98 383d 1215 43be b6c3 9abc

fc3.bias f4 [7]
-0.13681933 -0.1286833 0.021142822 -0.107577264 -0.03326164 -0.17766558 -0.10759996
00000000: 5e1a 0cbe 8ec5 03be b633 ad3c 7851 dcbd
00000010: 5c3d 08bd f7ed 35be 5e5d dcbd
