hackathon_toolkit/checkpoints_qlearn_CTDE/agent_1_episode_1401.pth (torch, 98506 bytes, 6 tensors)

fc1.weight f4 [128, 50]
00000000: 6a77 07be 40f8 033e e25c 75be 60c0 073d
00000010: 41fa b63c b836 83bc b43b aabd d099 fdbc
00000020: 3e2f b63d a77b a83d e157 45bd 06f9 54bf
00000030: 4440 71be c407 173d b224 b9bd 96e0 f23d
00000040: 1405 afbc b91b 193e 6fef 34be bcc3 483d
00000050: 3c16 f2bd 84e8 ff3c 8ed7 1dbe 088f 24bd
00000060: 98c4 c8bc 2eb4 babd 1d6b 4bbd 4102 943d
00000070: 66f2 50bd 0089 ebba 3b88 133e ab09 b0bd
00000080: 38c0 21bd 0833 223d d0a9 07bd ad20 ffbd
00000090: c8a5 a33c 7039 f43c 1884 6abd 19be a33d
000000a0: a1ba 51bf ceda bb3d 1d5c 6d3d e6d2 3abd
000000b0: efb3 98bd 835c 22bf dc2c 96be 2f86 cf3d
000000c0: 5ee1 ec3d cac5 f83d eecb abbc f830 66be
000000d0: 388b e73d 4055 3dbc c47f 213d 50f4 0a3d
000000e0: 2765 23bd ba8e d33d 6691 e43d 10f0 263d
000000f0: e7ef ea3d 5759 05c0 9a5f 08be a79d 3c3e
00000100: 14bd af3d d893 47bd e7f2 a33d 4a4a 15be
00000110: 3d4a f4bd 80e0 e63a 1ce7 d63d 21d3 ae3c
00000120: 47da 3ebe bbf8 85bd 90bb d9bd 467e c1bd
00000130: 114a 243d 70a4 5bbe 825e 1b3d c697 bc3d
00000140: 5699 e73d a47f 5c3d 5f07 893d e0dc 9e3c
00000150: 909d 883d 5961 af3d 2ccc 933d 1e2d c1bd
00000160: 604c 623d eff1 d83d b025 47bd c9f7 573d
00000170: 1601 4c3d 7c22 873d 1a2c 0bbe d5b5 b23d
00000180: 9771 913c a832 3cbe 2004 82bc f69a a33d
00000190: 9024 01be 759d 2f3d 1acf 143e 5a25 fabd
000001a0: 93bf 04be 2cec 42bd c2fa 02be ccbf 693d
000001b0: e774 edbd 2ba7 673d 1695 c03d 63ad 86bd
000001c0: a995 883d cfe9 343c 2ab7 f4bd 017d b2bd
000001d0: 3f2b 86bd 538c ef3d 1f6f 0cbe d0e0 24bc
000001e0: 6866 0ebe 871b edbc a0b2 823c c83f 6abd
000001f0: 1017 e3bc b5c6 06be dd2e 333d 4af7 713c
00000200: 877c 2dbc 425d 24bd f733 ac3d 62de f43d
00000210: 7c69 d5bd 18ec d73c 3f28 0b3e cb14 663d
00000220: 7048 6fbc 12a7 823d 4cdd e2bc b6ac 79bd
00000230: a411 fbbd 7061 683d 4aa7 86bd 79e6 f9bd
00000240: d65b ae3d 1e14 a93d 4cbc 0c3d 41ed 9dba
00000250: a0d4 c13d 20b4 2c3d 8a73 13be d264 1a3b
00000260: 48e1 6bbe fe56 30bd 981a 81be 90cd adbd
00000270: 1b70 a1be 3418 8cbc 4ad9 db3d 77a2 92be
00000280: c128 84be 45ee 4c3f ffe1 c83d abff e6be
00000290: 006d acbd 7023 78bd e04e 30be 4a17 92be
000002a0: d2c2 103e 9aff e73d 6011 88bb bd9d 923d
000002b0: 6edd 953e bc25 c2be 0a96 b9bd 042e 0abe
000002c0: 1a1b d6bd bdd3 ff3d 2dea 0d3c fd6d efbd
000002d0: cca8 52be 0530 013e d944 8bbe 58d7 903c
000002e0: 4d09 05be ccd3 25be ca5a 05be 501f 6b3d
000002f0: 124c 1fbd 76e4 9cbd f1b1 4dbe 4152 b13e
00000300: 7b0c 89be a66c f8bd 78dd 903c f835 173e
00000310: 4cb4 c5be 1002 aabc 456a adbd 405d cb3b
00000320: 29f0 cdbe 0df8 d23d 5720 dcbe c053 22bd
00000330: a051 c9bd 3b06 023e 4679 0eba e4a4 dd3d
00000340: 509f 56bc dcec 3b3d 7e2b 36be c880 293e
00000350: a82f e3be cdef 6a3d 53de 8cbd 2640 d63d
00000360: 0ac6 8dbd 9d15 cc3d d13c 98be 4022 f8bd
00000370: 424e 7dbd 3413 7abe 9161 9fbe cd13 203e
00000380: 789e da3c 811d 103e 8828 dcbe ba5a 6c3e
00000390: 7a4c b7be b05e 943d f273 82bc a00c 33bc
000003a0: e8b5 31bc 3427 4f3d d89f e73c ef58 f1bb
000003b0: ff9d d7bd 444b 583d e428 873d da26 00be
000003c0: 7de4 7cbe eeb2 b9bd 149d 2fbe 20f1 ddbb
000003d0: eae7 2ebd c95a 983c bf7f 923d 0400 c5be
000003e0: 9866 17bd 5428 fdbd 268c 4f3d aede 90bd
000003f0: 5f1b f2bd ec4d cebd 138b 293d 5b28 9dbd
-0.13229147 0.12887669 -0.23961213 0.033142447 0.022336127 -0.016017303 -0.08312169 -0.030957133
0.088957295 0.0822671 -0.04817951 -0.8319248 -0.23559672 0.03687264 -0.09040202 0.118592426
-0.021364726 0.14951982 -0.17669462 0.04901479 -0.11820647 0.031238802 -0.15414259 -0.040175468
-0.024507806 -0.09116398 -0.049662698 0.072269924 -0.05101242 -0.0017969906 0.14407437 -0.08595594
-0.039489955 0.03959945 -0.03312093 -0.12457404 0.019976512 0.029812545 -0.05725488 0.079952426
-0.819254 0.09172593 0.057949174 -0.045611285 -0.074561946 -0.6342241 -0.293311 0.10133015
0.11566423 0.121471 -0.020971265 -0.22479618 0.11305851 -0.01155597 0.039428487 0.0339244
-0.03989139 0.10329957 0.11160545 0.040756285 0.11471539 -2.0835779 -0.13317719 0.18419515
0.08580986 -0.04872498 0.08005314 -0.1457912 -0.11928222 0.0017614514 0.10493299 0.021340908
-0.18637954 -0.06541582 -0.10631478 -0.09447913 0.040109698 -0.21449447 0.037931927 0.09208636
0.113085434 0.053832665 0.06690859 0.01939243 0.06670678 0.085634895 0.07216677 -0.094324335
0.055248618 0.1059302 -0.048619926 0.05272654 0.049805723 0.06598374 -0.13591042 0.08726088
0.01775436 -0.18378699 -0.015871108 0.07988541 -0.12611604 0.042874772 0.14532128 -0.122141555
-0.12963705 -0.047588512 -0.12790969 0.057067677 -0.11594563 0.05655591 0.09403436 -0.0657604
0.066691704 0.011042072 -0.11948998 -0.08715249 -0.06551217 0.116966866 -0.13714264 -0.010063365
-0.13906252 -0.02894379 0.015954316 -0.057189733 -0.027720958 -0.13161738 0.043745864 0.014768431
-0.010588772 -0.040128 0.08408349 0.11956479 -0.1042051 0.026357695 0.13589571 0.056172173
-0.014604673 0.063795224 -0.027693413 -0.060955726 -0.12259224 0.05673355 -0.065748766 -0.12202162
0.0851361 0.0825579 0.03435926 -0.0012048857 0.09464383 0.042163968 -0.14399543 0.0023558629
-0.23035157 -0.043051712 -0.25215602 -0.084864736 -0.31530842 -0.017101385 0.10734804 -0.28639576
-0.25812343 0.8005107 0.0980873 -0.45116934 -0.084192276 -0.06058067 -0.17217588 -0.28533393
0.14136818 0.11328049 -0.004152462 0.071589924 0.292705 -0.37919414 -0.09061821 -0.13494116
-0.10454388 0.12491558 0.008661789 -0.116909005 -0.20572203 0.12615974 -0.27200964 0.017680809
-0.12991829 -0.16194075 -0.13022915 0.05740291 -0.038890906 -0.07660763 -0.2008741 0.34633067
-0.26767334 -0.12130098 0.01768373 0.14766681 -0.38614118 -0.020752937 -0.08467535 0.0062061846
-0.4022229 0.10301218 -0.42993423 -0.03963065 -0.09830022 0.12697689 -0.0005434941 0.10822466
-0.0130995065 0.045880184 -0.17790028 0.16553032 -0.44372296 0.057357598 -0.068783425 0.10461454
-0.069225386 0.0996506 -0.297339 -0.12115908 -0.06184221 -0.24421388 -0.31129125 0.15632553
0.026686892 0.14073755 -0.42999673 0.23081484 -0.35800534 0.07244623 -0.015924428 -0.010928303
-0.0108465925 0.050574496 0.028274462 -0.007365338 -0.10528182 0.052806154 0.06599596 -0.1251482
-0.24696536 -0.09067331 -0.17149764 -0.006773129 -0.04270164 0.018597977 0.07153272 -0.38476574
-0.036963075 -0.123612076 0.050670765 -0.07073723 -0.11821627 -0.10073456 0.041392397 -0.07673713

fc1.bias f4 [128]
00000000: 18f1 223d b434 8bbd b2b3 813d 5a4c 96be
00000010: 6fcf abbd 2776 6d3d f6c3 14be 327d edbd
00000020: 5c78 7ebd 3ebb ccbd 2fc5 08be 6890 75bd
00000030: 851e 193d 7464 acbd 443b 6ebd 9980 9abd
00000040: 7e2f 80be 50f7 863d 2c4b 95bd 5865 12be
00000050: 61f2 1dbe fdb4 cc3d ab7c bd3c c506 ecbc
00000060: 2f13 61bd 448f 1abe 03fc 8ebd 5ea4 5abe
00000070: 5c3b a43d 856b 1dbe 89fa e4bd 0fc4 04be
00000080: 8e0b 0fbe 97c4 a63b 78c7 74be eafa a83d
00000090: d92d 23bd ba6c c7bd d75b 80be 9a20 c1bd
000000a0: a0ef ad3b 1256 05be cf99 4a3c 7f5d 94bd
000000b0: 4ed1 cabc a590 3bbe 69d7 a5be f4fa 56be
000000c0: 4730 8ebd 7ffd 04be 051a 8dbd 77b4 62bd
000000d0: 6578 26be 1f48 c4bd 8a5b 74bd 731c 24be
000000e0: 21e3 6f3d fc5b 423d 907d 32bd f6c1 143c
000000f0: 0d2a ce3d c355 19be e855 34bd 4cb9 ccbe
00000100: 6774 09be 5443 b9bc 892b 08bd d7d4 4cbe
00000110: fe07 913c 947d 84bd a754 033c 8f8e 8cbe
00000120: 812b 76be 77c7 d9bc ce7a 973d 1b5e 17be
00000130: 0c84 38bb 51c1 70bc 51c7 a3ba 6c6a c1bc
00000140: 6c41 413d 18c5 3fbe 8a0e 8ebe 177a 7abe
00000150: edf2 d4bd 55b8 c9bd 3196 0dbe 7147 03be
00000160: 4982 03be 89aa b6bd 46a4 89bd c3d7 9cbd
00000170: 05ab bcbd a2e7 78bd 8813 89bd 9a93 c03c
00000180: 8cc1 1cbe 18b5 0ebe 1d11 d3bc 1c6c 643c
00000190: b43d ac3d 71c2 11be 75cb 9fbe 2711 8ebe
000001a0: 9862 81be d88c 7bbe 0663 d3bd bc5e 23bd
000001b0: b5e8 31be 2ecd 12be d7b9 27be c440 e1bc
000001c0: 37e1 a33c fbf2 9abe ceec 06be 5906 073e
000001d0: 141c 44be 72de 093d 5bf4 90be e84d 9e3d
000001e0: e8a5 23be 9f15 f2bd 4f45 0dbe ecfc bebd
000001f0: 00dc 93be 59c4 83bd e47b a13d ac0b fb3b
0.039780706 -0.06797162 0.06333102 -0.29355127 -0.08389174 0.057974007 -0.14527878 -0.11596145
-0.062126502 -0.09996651 -0.1335647 -0.05995217 0.03738262 -0.084175974 -0.05816199 -0.07544059
-0.25036234 0.0659014 -0.072897285 -0.14296472 -0.15424491 0.09995458 0.023130735 -0.028811822
-0.054949936 -0.15093714 -0.06981661 -0.21351764 0.080191344 -0.15373047 -0.11180598 -0.12965415
-0.13969252 0.0050893533 -0.23904216 0.08250983 -0.039838646 -0.09737535 -0.25070068 -0.094300464
0.0053081065 -0.13021114 0.012365772 -0.072443955 -0.024758007 -0.18316896 -0.32390907 -0.20994169
-0.06942802 -0.12987326 -0.068897285 -0.055347886 -0.16256864 -0.095840685 -0.05965761 -0.16026478
0.058566216 0.047451004 -0.043576777 0.009079447 0.10066614 -0.14974122 -0.04402724 -0.3998512
-0.1342331 -0.022615112 -0.033244643 -0.20003067 0.017704006 -0.064692646 0.008015788 -0.27452514
-0.24040033 -0.02658437 0.0739647 -0.14781992 -0.0028154878 -0.014694528 -0.0012495314 -0.023610316
0.04718153 -0.18727529 -0.27745467 -0.24460636 -0.10397897 -0.09849612 -0.13826825 -0.12820221
-0.12842669 -0.08919246 -0.06720786 -0.07658341 -0.09212307 -0.060767777 -0.066931784 0.023507882
-0.15308207 -0.1393627 -0.025764996 0.013941791 0.084102064 -0.1423433 -0.31209913 -0.2774746
-0.25270534 -0.24565446 -0.103216216 -0.039885268 -0.17373927 -0.14336082 -0.16379486 -0.027496703
0.020004852 -0.30263504 -0.13176271 0.13186015 -0.19151336 0.033659406 -0.28311428 0.07729703
-0.15981257 -0.1182053 -0.1379597 -0.09325585 -0.28878784 -0.06433935 0.078849584 0.0076613035

fc2.weight f4 [128, 128]
00000000: 2e94 48bf 0cad 933d f121 553d 748b f23d
00000010: 4853 18bd a366 dcbe ae8a cb3d ae8b 0abe
00000020: 76a8 963d 7e66 0bbf a18d b33d c3bf a1bd
00000030: 1009 a1bd 7562 b2bd 4e3f 63be 2f3f 62be
00000040: 9a96 23be 3c0b 3ebd fe2b 163e 2e60 e0bd
00000050: 8f73 b3bd 736c f1bc f051 99bd 22e6 3bbe
00000060: 128a 4d3e d900 813b 3b86 bebf dfb8 cebf
00000070: c456 8d3c 743a 1fbd 2c8c fabc 1d3c 563e
00000080: 4a41 7b3d c671 833d c875 93bd 26ff e1bf
00000090: f7ab aebc cba3 84bd 79b9 eabe 34e2 8dbc
000000a0: aaf0 713d 55b7 083e d64e adbe 54b3 c0bd
000000b0: 04fe 3ebe 8b4a 03be 54c0 8b3d fcad 26bf
000000c0: 33d1 70bd b7d1 a13d b2d3 d3bf d51b dd3a
000000d0: 8fa8 84be 5e7a 6dbe 90f1 48bf ed24 a1bd
000000e0: aa00 88be f341 533c 7b8e 55bd 437b 43bd
000000f0: 8d92 1ebc 3b5e 21bd 4f93 35bd 0140 4fbe
00000100: e84c 5bbb db66 9f3c b0f5 61bf 9981 1e3f
00000110: c3bc 17c0 6106 a2be b770 1dbc f99f e3be
00000120: 64ad aebe df1a bcbe 7281 24bb e209 b6be
00000130: c2ff ad3c 3f16 babd f1ee ae3d a11e d13e
00000140: 1d09 54bf 8bec bbbe b5b3 cbbe 66d6 7f3e
00000150: 8f49 19be 4a8c 91bf 5967 4a3e df81 ba3e
00000160: 2027 243b 5296 d83c 1535 1d3d 3290 233d
00000170: 9902 cdbf 19db 6a3d ad1f 95ba 103c 3a3e
00000180: 87a6 e8bd 67c9 be3d d50b f0bf c4ce 6fbf
00000190: b6eb 1c3d 96bf f9be 9522 5fbf 06ac 13bf
000001a0: bb1f c2be e45b a4be ed1c 873d 7656 6c3d
000001b0: 0f04 4b3d 3051 6a3c da6e 7f3d f872 cfbc
000001c0: 8593 c5be 1f86 a1bf 12a2 743d b11d 633c
000001d0: ed33 8bbd 8c6a 23be b606 f8bd e696 9ebf
000001e0: 27b6 c03e 937f e8bd 88f7 3d3c ce47 8b3c
000001f0: 0a22 313d 2ebb f7be 1ac9 923e 03fe b13e
00000200: f6cc 5d3e 45b2 d13e 6035 65bd 85b2 593e
00000210: a2f3 9abd 8be9 b7bd 3691 9bbe d05e a43e
00000220: 3093 dbbc 8f92 14bf b8d6 733c e03c d2bb
00000230: 5519 12bc b2e4 d8bc f165 e4be b8b7 c1bc
00000240: ddeb 54be a640 34bd 7945 483f 039c e6bd
00000250: a12f d53b 00fc 293c e527 a4bd 8f53 b7be
00000260: 989d 9b3e a03a 5dbc 31b0 e53e 5b60 663e
00000270: e1e6 b13d 4b79 4fbe c2bc 353d 568d 233e
00000280: 407b 2f3b 341e 32be ac1d b5be f7a7 8d3e
00000290: f54e 923d 2af5 dbbc 346f 69be 8e69 3f3d
000002a0: 8feb 9c3d 7ce2 49be ebbe 9a3e 333d d6bc
000002b0: 3e83 37bf 9c28 273e f388 3ebe 9be0 88be
000002c0: 1d12 aa3d 384d 02bc 4862 3d3f 0c2e a5bc
000002d0: c68b ca3e c9fc dabd 3a8c 82bf e545 d0bd
000002e0: 16ed a23e db3b bc3d d07f a4bb 653a 83be
000002f0: 935f e5bd 245b 833e c47d a73c fc0c fcbe
00000300: 8f18 8d3d ee3b aabd bd94 a63c 4a72 023f
00000310: 1304 90be ad2a 07bd 1066 603e 5e35 1c3e
00000320: 7f3e d8be 3b8a cc3d b85c 19bd d5a3 43bd
00000330: 9b05 2dbd 9a13 a83d e101 65bd a0db 153e
00000340: 36a7 f43e b426 d33e 7d28 683e 794e d63d
00000350: 53e5 84be aa22 513c 9722 53bd e921 bb3d
00000360: 917a a33d df02 f1bd b601 48bf 1445 023d
00000370: 14ef 3dbe ff86 253d fd48 3abf c1ae c93d
00000380: ee29 043e 0635 94bd a577 0b3f 43f8 903f
00000390: 0057 afbc d7ba 94be 8ba3 febe cdc7 483f
000003a0: cfdb 8cbf 901c 09bf 00cc faba 2022 6a3b
000003b0: e81f 3d3e 0d4b 83bd 0ecc d9bc b0cc 513c
000003c0: 30de 43be 39bb 3bbf 504a 393c 4850 a5bc
000003d0: 4346 21bf c328 39bf 2d27 6ebf a332 32be
000003e0: 6797 353f 5978 e93e 884f b53c fdaa c2bf
000003f0: 92e1 dbbe 7ab5 a9bd 273e 553e 8371 4f3e
-0.78351104 0.072107404 0.052034322 0.11843005 -0.0371888 -0.43047056 0.099385604 -0.13529846
0.0735635 -0.54453266 0.08767248 -0.07897904 -0.07863057 -0.087101854 -0.22192118 -0.22094415
-0.15975419 -0.046397433 0.14665219 -0.10955845 -0.087622754 -0.029470658 -0.074863315 -0.18349507
0.20072201 0.0039368686 -1.4884714 -1.6150168 0.017253287 -0.038874105 -0.030584417 0.20921369
0.06134156 0.06418185 -0.07200199 -1.765599 -0.021322234 -0.064765535 -0.4584463 -0.017319776
0.059067406 0.13351186 -0.3384921 -0.09409204 -0.18651587 -0.12821405 0.06823793 -0.6510923
-0.058793258 0.07901328 -1.6548979 0.0016869257 -0.2590985 -0.2319121 -0.78493595 -0.07868371
-0.26563007 0.0128941415 -0.052137833 -0.047724973 -0.009678495 -0.039396506 -0.044329938 -0.2023926
-0.0033462588 0.019458225 -0.88265514 0.619165 -2.370896 -0.31645492 -0.009609393 -0.44457987
-0.34116662 -0.3673925 -0.002510157 -0.35554415 0.021240119 -0.09086274 0.08541668 0.4084368
-0.82826406 -0.36703905 -0.39785543 0.2498413 -0.14969467 -1.1370938 0.19765987 0.3642721
0.0025047734 0.026438866 0.0383807 0.039932437 -1.6016418 0.057337854 -0.0011377238 0.18186975
-0.113598876 0.09315758 -1.8753611 -0.93674874 0.03831073 -0.4877898 -0.87162143 -0.5768436
-0.37914833 -0.32101357 0.06597314 0.057699643 0.049564417 0.014301583 0.062361576 -0.025323376
-0.3858911 -1.2619056 0.059724875 0.013862059 -0.067970134 -0.15958613 -0.12110655 -1.23898
0.3763897 -0.11352458 0.011594661 0.017002013 0.043245353 -0.48384994 0.28669053 0.34764108
0.21660218 0.4095632 -0.055959105 0.21259506 -0.075660005 -0.08980092 -0.30384225 0.32103586
-0.026803583 -0.5803613 0.014882736 -0.0064159483 -0.008917172 -0.026476238 -0.44609025 -0.023647174
-0.207931 -0.044006966 0.78231007 -0.112602256 0.006505922 0.010375023 -0.08015422 -0.35805938
0.30393672 -0.013502747 0.44860986 0.22497694 0.08686615 -0.20261113 0.044369467 0.15971884
0.0026776344 -0.17394334 -0.353742 0.2766721 0.07143966 -0.026850302 -0.22796327 0.046731524
0.07662117 -0.19715303 0.30223784 -0.026152229 -0.71684635 0.16324085 -0.1860693 -0.2673386
0.08304236 -0.007952981 0.7397809 -0.020163558 0.39559764 -0.10692746 -1.0199044 -0.10169581
0.31821507 0.09191104 -0.0050201192 -0.2563049 -0.1119987 0.25655472 0.020445712 -0.49228656
0.0688945 -0.08312212 0.020334596 0.5095564 -0.28128108 -0.032999683 0.21913934 0.15254733
-0.4223518 0.09987303 -0.03744194 -0.047763664 -0.042241674 0.08206864 -0.055909995 0.14634562
0.47783822 0.41240466 0.22671695 0.10464186 -0.2595621 0.012764612 -0.05154666 0.09137327
0.07982362 -0.11768126 -0.7812761 0.03180416 -0.18548232 0.040411945 -0.7276762 0.09847785
0.1290662 -0.07236676 0.5447944 1.1325763 -0.02140379 -0.29048797 -0.49734148 0.7842987
-1.100458 -0.5355921 -0.0019134283 0.0035725906 0.18469203 -0.06410799 -0.026586559 0.012805149
-0.19127727 -0.73332554 0.011309221 -0.020179883 -0.62997836 -0.7232782 -0.9302853 -0.17402129
0.70934147 0.4559963 0.02213265 -1.5208431 -0.42945534 -0.08286567 0.2082449 0.20258145

fc2.bias f4 [128]
00000000: 2252 88be 049c 3ebf ef55 b4bd 5063 f13e
00000010: f200 64be 5940 a83e 27eb a2bf a41b b9bf
00000020: 5fac c5bd b6b1 8dbf 5ca8 c5bd 07a6 31be
00000030: 8ee5 b8bf 7db0 2dbf 12dc dcbe 4fe4 fc3e
00000040: e52f 8cbe cbbb b43e e851 893f c74e 68bb
00000050: 1ccb c0bf f5b4 65bf 6341 773f 54e5 cbbe
00000060: 23fc 3bbe e201 c43f d856 7abf a392 0cbe
00000070: d963 923f 8b41 7abb 9a74 b2bd 7cff 7ebd
00000080: 0434 bc3d d80b 0abe e667 a5be 741a 95be
00000090: 5f78 94bd af7e f73e b9e2 a83e c0a8 cc3e
000000a0: d53a fabf 81e4 61bf 7408 1b3f 206b e33f
000000b0: 6e11 013f 7cc9 edbd ee2f 913f 10b7 46bd
000000c0: a32d e23f 4b01 0c3f d8ff 9cbe 7313 c4bc
000000d0: 7c40 a3be b239 f9bd f5f6 7bbf a31c 0cbe
000000e0: c8f9 2bbe b0e6 84bf 999a 60be 4b8b 98be
000000f0: 4b5b 9abd d1f0 69bd feda 46be 273b 5ebf
00000100: a018 57bc 3b95 5e3f 3965 c5be d49d 92bd
00000110: a338 733f f141 07be e8fb 383f 2086 59bf
00000120: 1d2b 42c0 4cf0 63bf 1184 6d3f 4a98 60bd
00000130: cc5f ffbe 11b4 24be 71f8 10be 4525 70bf
00000140: 1b89 11be c3b3 81be f3e3 19bf a570 cb3e
00000150: 7c54 aabc e4c3 22bd 2c69 6cbb cbe2 14bf
00000160: 575a f83f f0ea 073f 4a6f debf e688 85bf
00000170: d339 303e 4212 13bf a0b1 533e 8a2e b9bb
00000180: 801a 7a3f 8502 d83e 11aa f3bf 17b8 a3bd
00000190: 53a5 10bf 486b f93f 9ea0 a5be 1f9c 9e3e
000001a0: 3cc4 2240 5915 11be c339 2cbf 6106 07bf
000001b0: c725 313f 348b 99bd 1c52 53bd 6ba1 28be
000001c0: 08e5 92bf 8a30 cbbf 3850 72be e3a4 93be
000001d0: bdf4 c1bd 251c c33f 0368 1fbe 1877 89be
000001e0: 47b8 21be 77fd a6bf 7fa2 eebd 1d4b 363e
000001f0: 6480 663f 6bfa bbbd 64c3 0cbe 430c 193f
-0.26625162 -0.7445681 -0.08805453 0.47146082 -0.22265986 0.32861593 -1.2728013 -1.446156
-0.09652018 -1.1069858 -0.096512526 -0.1734849 -1.4445055 -0.67847425 -0.4313665 0.49392936
-0.2738029 0.35299525 1.0728121 -0.0035447346 -1.5061984 -0.89729244 0.9658415 -0.398234
-0.18357901 1.5313075 -0.97788763 -0.13727812 1.1436721 -0.003818604 -0.08713646 -0.062255368
0.09189609 -0.1348108 -0.3230583 -0.29121745 -0.072495215 0.4833884 0.32985476 0.39972496
-1.9549204 -0.88239294 0.60559773 1.7767067 0.5041722 -0.11610696 1.1342752 -0.048514426
1.7670177 0.5468947 -0.30663943 -0.023935055 -0.31885135 -0.12169208 -0.984237 -0.13682799
-0.16794503 -1.03829 -0.21933974 -0.29793772 -0.07536944 -0.057114426 -0.19419476 -0.8680901
-0.01312843 0.8694646 -0.3855379 -0.071590096 0.95008296 -0.13208748 0.7225938 -0.84970284
-3.0338814 -0.8903854 0.9277964 -0.054832734 -0.49877775 -0.16084315 -0.14157273 -0.9380687
-0.14212458 -0.2533246 -0.6011345 0.39734378 -0.020792238 -0.039737597 -0.003607343 -0.5815856
1.940257 0.5309286 -1.7377713 -1.0432403 0.17209558 -0.57449734 0.20673227 -0.0056513
0.97696686 0.42189422 -1.9036275 -0.07994097 -0.56502265 1.9485865 -0.32349104 0.30978486
2.5432272 -0.141683 -0.6727564 -0.5274411 0.6919827 -0.07497254 -0.051591977 -0.16467826
-1.1476145 -1.5874188 -0.23663414 -0.28836736 -0.09470508 1.5242964 -0.15567021 -0.26848674
-0.15792952 -1.3046101 -0.116520874 0.17802091 0.9003966 -0.09178623 -0.1374641 0.59784335

fc3.weight f4 [7, 128]
00000000: a340 bdbe 5e37 883f fa62 04bd abb3 7340
00000010: 6e24 17bf fb3d 82bd f13c a93f 910c 9d3f
00000020: 762b 1c3b e833 cdbe a81f 91bd c979 0abf
00000030: 7439 c93f 11bb 1e40 eed1 6abd 53be 08c0
00000040: 92c2 e1be cf64 a83f 7498 20bf 8bd2 8a3f
00000050: 723c 8a40 4765 ec3d 49dd aa3e 4012 423e
00000060: f6fa 22bc a63f 06bf 7c79 ae40 e28b d7ba
00000070: 37f7 19c0 8387 5b40 f929 c4bc 74bf 3c3c
00000080: 94d7 cbbf 7469 51bc 716e de3f 2b09 9e3f
00000090: 2576 873d 5625 933f 52ca e33f c099 d23f
000000a0: 99f7 0340 10e1 ca3f a5f4 a740 b0ed 4abf
000000b0: cc14 293e 60d9 153b f97a 0c3d 09a3 53bd
000000c0: 1f90 a63d 7261 7940 61f1 3b40 b3f4 b63e
000000d0: 44b6 69bf a8ce 6a3d ea9b 2040 c1af 313f
000000e0: ba69 2ebe 25c1 ab3d 5dbb 8a3d 2e8c 5740
000000f0: 535d 8c3d 7c16 a4bc d026 9cbd 0651 2dbf
00000100: 4754 5d40 5be3 b53f 59c1 ab3e 3027 d33e
00000110: 2cf5 003f 3581 21bd 517a 80bf 8cfa c93f
00000120: 7d5a a83f c192 eabf a536 7abf 9876 00bc
00000130: b4e7 3e3f 9380 5a3d 067b 5c3f f84e b23f
00000140: 6477 a63b eec5 c63e 318b 2240 8006 d53f
00000150: bc9d 483c 9bbc 7c40 ef9d 7140 66c5 993f
00000160: bcde ddbd daf7 39be e2b1 64bf cdc1 7cbf
00000170: 8558 1140 3e7a e1be 2000 3dbf 2c97 263f
00000180: 1607 dd3f 4b45 993f 76ac c33f 219d 80bd
00000190: f044 fbbe bc8a 72bf f157 5bbf 190f 9940
000001a0: 5c10 b6bf 49b7 113e ce27 1140 bf2c ea3f
000001b0: ef30 ac3f 2486 c3be dc5e 823e 7c35 51bd
000001c0: 27e5 d73f 2760 803e fdbc c2bd 66ad 75bf
000001d0: 02c9 893c da3b 4bc0 127b 53bd 5acf 35bf
000001e0: db65 0040 6405 80c0 6d55 60bf c829 2940
000001f0: dd4e babf f7e8 713c bd65 a5be f802 1f3e
00000200: 89db 58bf a931 0b40 050a 893d a3ee 0540
00000210: f218 02be 8d10 ab3f b911 8b3c 95fd 953f
00000220: ddb7 733d d051 c6be 3f9e 8abb efc2 03bf
00000230: f957 1040 43db 3640 4d65 6bbe f32d 8ebf
00000240: 7acd 113f 4da0 8740 7293 8bbf 0d49 89be
00000250: b99c 813f b2c6 2540 ec48 8a3e 42ea 443f
00000260: ec92 4ebd 2ac5 5ebf e59e 823f dd37 8e3c
00000270: 53be 57bf 2980 4740 e437 8ebd 6436 533d
00000280: 6051 dc3f 47c3 1dbd ef3b 01bf 66c9 2dbf
00000290: 5154 593d 0cc9 5cbf afbd 383e b326 3b3f
000002a0: 7e67 843f ab74 483f 038e 9740 2d1b 16bf
000002b0: cda1 593e d5b6 5dbd ff5d 37bf 3802 6c3f
000002c0: 5e2d 26c0 b884 b040 c867 8abd 6af3 0b3f
000002d0: bdeb a7bf b674 693d e372 34c0 1bb5 cf3e
000002e0: f7af dfbe 3398 49be 1284 a83d 568a 0140
000002f0: 039e 453c 2a44 7bbb 79ba f0bc c99d c0bf
00000300: c8a4 1f40 ecc0 243f bab0 703f ec1a 06bf
00000310: 6da9 1140 4e75 803c a649 01c0 8f8c 7e3f
00000320: 5e85 ddbf 7ef0 21bf c816 9abf cc8e 7e3b
00000330: f149 af3f 5a32 023b 8888 1ebd 20bd d93f
00000340: feb6 3e3d c91a 8040 c097 02bf d3a5 b83e
00000350: bc67 773d 022e 4c40 931f 3840 6aaa 1840
00000360: 4fe5 8abf 39f5 c23f 8499 4dbf 53c2 ffbf
00000370: af3c 4940 ca68 86be 4df2 2b40 6730 cd3f
00000380: 373e 0140 b2d0 37c0 52cf ef3f 4dcb 1ebc
00000390: c9fc 3fbf 6666 26bf e470 023e 76ce 3240
000003a0: 532d d7be 3387 f7bc 4d7e 763f 463f 5040
000003b0: 4469 0d3f f024 85bf 5c77 4bc0 2e7f 393d
000003c0: 084d 013f 304a 1c40 bbb7 6ebe 8573 98bf
000003d0: 60fb a3bd da94 f5bf c392 153c f9ca 36be
000003e0: 64d1 733f be47 40c0 be73 11bf f332 123e
000003f0: 918f 203f 9d00 253d 1fff a4be d1ca b9be
-0.36963376 1.0641897 -0.032320954 3.807841 -0.5903996 -0.06359478 1.3221723 1.226946
0.0023829616 -0.40078664 -0.07086116 -0.5409208 1.5720658 2.4801676 -0.05732911 -2.1366165
-0.44093758 1.3155764 -0.62732625 1.0845503 4.3198786 0.115427546 0.33371952 0.18952274
-0.009947529 -0.5244087 5.4523296 -0.0016444887 -2.4057138 3.430146 -0.023945795 0.011520255
-1.5925164 -0.01278149 1.7377454 1.2346548 0.06614331 1.1495769 1.7796118 1.6453171
2.0619872 1.5849934 5.248614 -0.7926893 0.1651184 0.0022865161 0.034296963 -0.051669154
0.08132958 3.8965726 2.9366076 0.35733566 -0.9129374 0.05732599 2.5095162 0.69408804
-0.17032519 0.08386449 0.06774018 3.367931 0.06853738 -0.020030253 -0.076245904 -0.67701757
3.458269 1.4210008 0.3354595 0.41240835 0.503741 -0.039429862 -1.0037328 1.5779586
1.3152615 -1.8326036 -0.9773963 -0.007840775 0.745723 0.053345274 0.8612522 1.3930349
0.0050801504 0.38822883 2.5397456 1.6642609 0.012244638 3.9490116 3.7752645 1.2013366
-0.10833499 -0.18160954 -0.8933393 -0.98733217 2.2710278 -0.44038576 -0.73828316 0.6507442
1.7267787 1.1974272 1.5287006 -0.0627997 -0.49076033 -0.9474294 -0.8568106 4.783093
-1.4223742 0.14230074 2.2680545 1.8294905 1.3452433 -0.3818828 0.25462997 -0.051076397
1.6866807 0.25073358 -0.09508703 -0.9596771 0.01681948 -3.175528 -0.05163104 -0.7101952
2.0062168 -4.000658 -0.8763035 2.6431751 -1.4555317 0.014765016 -0.32304183 0.15528476
-0.84709984 2.174906 0.06691364 2.0926902 -0.12704828 1.3364426 0.016976224 1.1718012
0.059501518 -0.38734293 -0.00423029 -0.5146932 2.2553694 2.8571327 -0.22987862 -1.1107773
0.5695416 4.238318 -1.0904372 -0.26813546 1.0125953 2.5902524 0.2700876 0.7691995
-0.050433084 -0.870196 1.0204741 0.017360622 -0.84274787 3.1171973 -0.06944254 0.051565543
1.7212334 -0.03851631 -0.50482076 -0.67885435 0.053058926 -0.86244273 0.18041109 0.73105925
1.0344083 0.7830302 4.7360854 -0.58635217 0.21253128 -0.05412944 -0.716278 0.92190886
-2.596519 5.516201 -0.06758076 0.54668295 -1.3118817 0.05699607 -2.8195121 0.4056786
-0.43688938 -0.19686966 0.082283154 2.0240684 0.012061599 -0.003834019 -0.029385792 -1.5048152
2.4944324 0.64356875 0.94019663 -0.5238483 2.275966 0.015680935 -2.0201201 0.99433225
-1.7306325 -0.63257587 -1.2038202 0.0038842438 1.369444 0.0019866438 -0.038704425 1.7010841
0.046561234 4.0032697 -0.510128 0.36064014 0.060401663 3.190308 2.8769271 2.3854012
-1.085123 1.5231086 -0.8031237 -1.9981178 3.1443288 -0.26251823 2.6866639 1.6030396
2.0194223 -2.8721128 1.8735144 -0.009692025 -0.74995095 -0.65 0.12738377 2.7938514
-0.42026767 -0.030215835 0.9628647 3.253862 0.5523875 -1.0401897 -3.17916 0.045287304
0.50508165 2.442028 -0.23312275 -1.1910254 -0.0800693 -1.9186051 0.009129229 -0.17850865
0.9524138 -3.0043788 -0.56817234 0.14277248 0.62719065 0.040283788 -0.32225892 -0.3628755

fc3.bias f4 [7]
00000000: 933c 9bbf 53e5 303e 45c5 483e d9c3 c03d
00000010: ae9f ccbe 7196 99bf dc8a 2cbe
-1.2127861 0.1727498 0.19606502 0.09412355 -0.39965576 -1.1999036 -0.16849846
