hackathon_toolkit/checkpoints_qlearn_CTDE/agent_0_episode_501.pth (torch, 98496 bytes, 6 tensors)

fc1.weight f4 [128, 50]
0.046399172 0.08602727 0.09117231 -0.025641993 -0.06891332 0.117998585 -0.15715505 -0.055316173
0.014847398 0.057527013 0.076842576 0.06399028 -0.03712406 0.106132746 0.08138135 -0.1482185
0.0017912608 -0.03861632 -0.05538522 -0.043731704 -0.11030977 -0.006188938 0.110059544 -0.16837317
-0.09056808 0.04540585 -0.018979924 0.048924744 -0.03643601 0.07879779 0.11810047 0.09306234
-0.13326359 -0.07653219 -0.0047017187 0.048053052 -0.096570306 0.020584287 -0.075340144 -0.079979226
0.0003666801 0.095014505 -0.14375567 -0.10823345 0.09078108 -0.10237605 0.09795957 -0.1532117
0.07494813 -0.02862484 0.14195076 0.1289209 0.07458916 0.12774025 -0.21498375 0.022656158
0.0061736917 0.04873033 -0.10633721 -0.23137976 -0.30171672 -0.022061331 0.10717383 0.12641202
0.14029907 0.07115377 -0.73363787 -0.42200077 0.057872716 0.050969154 -0.011943817 -0.7006077
-0.7139039 0.20149148 0.013422579 -0.10709326 0.27535856 0.29950356 0.12101821 0.04168664
-0.34745884 0.019868627 0.03252763 -0.13927206 -0.052709647 -0.14951423 -0.63137865 0.36325955
0.07317147 0.053000644 -0.034100465 -0.033244833 -0.083508536 -0.1194756 -0.024748228 0.05823841
0.29002208 -0.44761202 0.10675524 0.113682434 -0.26028216 -0.24484572 -0.1338297 0.0007840544
-0.18727162 -0.012163341 -0.18978913 0.027151763 0.08109833 -0.18190794 0.111610845 -0.23320132
-0.1038349 -0.12787017 0.020225182 -0.04370434 0.671158 -0.23994644 -0.24166286 0.08021964
0.11889337 0.5018136 0.38717392 -0.3185681 -0.10892168 -0.02791632 -0.14268053 -0.263465
-0.100760795 0.032621533 -0.014642725 -0.1245342 -0.15373352 -0.062721744 0.013277456 0.539879
0.15356974 -0.55894816 0.022803754 0.14093919 -0.15694483 -0.1912109 -0.10679187 -0.12649238
0.11734979 0.17328 0.26947367 -0.36514494 -0.073086075 0.12858735 -0.27361465 -0.20099424
-0.15955022 -0.028358035 0.07312974 -0.13744035 -0.023465803 -0.12624864 -0.104417235 -0.084979974
-0.11511828 -0.092294835 0.09075494 -0.080869555 -0.0043744594 0.033752576 0.44421983 -0.081069306
0.009687809 0.009815827 0.055820227 0.69746083 -0.47750193 -0.019962547 -0.016193375 -0.07527701
-0.17970502 -0.14891887 -0.023628902 -0.028670311 -0.13594854 -0.1302094 -0.17821129 0.004973516
-0.09670973 -0.19705829 -0.23395866 0.20971575 0.01699011 0.004746273 -0.19273181 -0.27875525
-0.10126692 -0.053324394 -0.032918848 -0.0964329 0.15137029 -0.38690555 -0.090984024 0.054203913
-0.33097878 -0.036826946 -0.19266193 0.10357158 0.10104201 -0.049906425 -0.03404082 -0.12049658
-0.022090264 -0.040560234 0.1358524 -0.015993973 -0.031720296 -0.0045648813 0.11759587 0.034123514
0.90509063 0.033050884 -0.23631449 -0.051198244 -0.013428345 1.2548549 0.899741 -0.40885243
0.10193366 -0.023215361 -0.27875915 -0.23348695 -0.22523044 -0.052674294 -0.057501934 -0.090831846
-0.17077489 -0.008645177 0.11853661 -0.9306158 -0.43984818 -0.10926597 -0.044636242 0.0032280684
-0.028105726 0.1543703 -0.07655491 -0.14094241 -0.005794376 0.0772063 0.16435508 -0.16589135
-0.08140487 0.0025214553 -0.10431882 0.12589525 -0.13360037 0.018277198 -0.049565785 0.030758753
00000000: 0f0d 3e3d 112f b03d 8cb8 ba3d 280f d2bc
00000010: 6d22 8dbd 3ea9 f13d 41ed 20be 3693 62bd
00000020: 8042 733c 72a1 6b3d a45f 9d3d 560d 833d
00000030: 660f 18bd 205c d93d 44ab a63d 97c6 17be
00000040: bdc8 ea3a 252c 1ebd 9ddb 62bd 0420 33bd
00000050: 17ea e1bd 93cc cabb e666 e13d 046a 2cbe
00000060: c27b b9bd 7cfb 393d c97b 9bbc 5065 483d
00000070: ed3d 15bd bc60 a13d a9de f13d 7897 be3d
00000080: 4076 08be e9bc 9cbd e010 9abb 47d3 443d
00000090: a7c6 c5bd 61a0 a83c ef4b 9abd 26cc a3bd
000000a0: f83e c039 f796 c23d b034 13be 80a9 ddbd
000000b0: 6eeb b93d 89aa d1bd 079f c83d 87e3 1cbe
000000c0: 687e 993d a47e eabc 8a5b 113e d703 043e
000000d0: 34c2 983d 57ce 023e b324 5cbe 6899 b93c
000000e0: ae4c ca3b 7499 473d 53c7 d9bd d1ee 6cbe
000000f0: 9d7a 9abe f7b9 b4bc f47d db3d 2772 013e
00000100: 8faa 0f3e 11b9 913d b1cf 3bbf 7c10 d8be
00000110: f10b 6d3d 08c5 503d 00b0 43bc 075b 33bf
00000120: 68c2 36bf c853 4e3e 60ea 5b3c b653 dbbd
00000130: ccfb 8c3e 8858 993e 65d8 f73d 9cbf 2a3d
00000140: 20e6 b1be 88c3 a23c b13b 053d 569d 0ebe
00000150: 12e6 57bd 421a 19be 08a2 21bf 28fd b93e
00000160: ecda 953d 3417 593d eeac 0bbd bc2b 08bd
00000170: 8606 abbd a0af f4bd ccbc cabc 668b 6e3d
00000180: c67d 943e 672d e5be 7ea2 da3d 56d2 e83d
00000190: b443 85be d6b8 7abe a70a 09be 0089 4d3a
000001a0: 22c4 3fbe c048 47bc 1558 42be 606d de3c
000001b0: e216 a63d 1346 3abe 3a94 e43d 54cc 6ebe
000001c0: 64a7 d4bd 66f0 02be 48af a53c 5203 33bd
000001d0: 03d1 2b3f 85b4 75be 7876 77be 324a a43d
000001e0: 5e7e f33d db76 003f a93b c63e 5c1b a3be
000001f0: 5412 dfbd c4b0 e4bc d81a 12be e2e4 86be
00000200: ad5b cebd 289e 053d 0ae8 6fbc c90b ffbd
00000210: 526c 1dbe 4274 80bd b089 593c 8335 0a3f
00000220: 6341 1d3e 3a17 0fbf f0ce ba3c 5d52 103e
00000230: 25b6 20be cacc 43be b2b5 dabd 3887 01be
00000240: 1655 f03d 5070 313e 74f8 893e 47f4 babe
00000250: 27ae 95bd 67ac 033e 3817 8cbe 6fd1 4dbe
00000260: 2261 23be 1c4f e8bc 0cc5 953d 2abd 0cbe
00000270: 5b3b c0bc 5347 01be b4d8 d5bd fb09 aebd
00000280: 22c3 ebbd 1305 bdbd badd b93d f09e a5bd
00000290: a057 8fbb 2440 0a3d c870 e33e aa07 a6bd
000002a0: 9eb9 1e3c 90d2 203c c0a3 643d cb8c 323f
000002b0: 227b f4be 7f88 a3bc f8a7 84bc d52a 9abd
000002c0: 9804 38be 307e 18be 6691 c1bc 00de eabc
000002d0: 1836 0bbe 9d55 05be 057d 36be e0f8 a23b
000002e0: c00f c6bd a6c9 49be dc92 6fbe babf 563e
000002f0: d82e 8b3c a086 9b3b 7d5b 45be 02b9 8ebe
00000300: 0865 cfbd ae6a 5abd ead5 06bd 9d7e c5bd
00000310: d000 1b3e 7c18 c6be d555 babd ec04 5e3d
00000320: 0d76 a9be dad7 16bd 2b49 45be 561d d43d
00000330: 1def ce3d ae6a 4cbd 636e 0bbd e9c6 f6bd
00000340: a4f6 b4bc 7d22 26bd e41c 0b3e cb05 83bc
00000350: 24ed 01bd 0095 95bb 1ad6 f03d 19c5 0b3d
00000360: 05b4 673f 5d60 073d 6dfc 71be 40b5 51bd
00000370: 9002 5cbc 169f a03f 6d55 663f 1b55 d1be
00000380: 98c2 d03d 242e bebc 85b9 8ebe 3417 6fbe
00000390: cfa2 66be 00c1 57bd 2687 6bbd 0c06 babd
000003a0: 9ddf 2ebe 80a4 0dbc 52c3 f23d d63c 6ebf
000003b0: c833 e1be d6c6 dfbd 7ed4 36bd 008e 533b
000003c0: fb3d e6bc 3f13 1e3e d2c8 9cbd 3553 10be
000003d0: c0de bdbb 561e 9e3d b34c 283e 6cdf 29be
000003e0: 99b7 a6bd 003f 253b 1ba5 d5bd afea 003e
000003f0: 89ce 08be 10ba 953c 7e05 4bbd c8f9 fb3c

fc1.bias f4 [128]
-0.020851737 0.012197181 -0.21709992 -0.18389232 -0.15689392 0.0953803 -0.04662232 -0.14963454
0.04001875 -0.04609166 0.061196636 0.0056055337 -0.019402675 -0.11803675 -0.12816587 -0.013753752
-0.13917342 -0.088946626 0.14144233 -0.058078416 -0.110892795 0.052970994 -0.0024865016 -0.0093776435
-0.007673259 -0.055327903 0.02658292 0.07624412 -0.09361305 -0.08031084 -0.13965602 -0.1129976
-0.02458285 -0.08752055 -0.022616094 -0.1942253 -0.19471312 -0.21424729 0.026711063 0.11680631
0.06564365 -0.1006698 -0.16597676 -0.019221608 0.15519586 -0.11231598 -0.14483519 -0.07538119
-0.12533094 0.19702996 0.028394584 0.0049854703 -0.13597341 -0.13909782 0.14188102 -0.15740971
-0.06133215 -0.07175823 -0.1387469 -0.18132369 -0.28222302 -0.12430409 -0.1784117 0.013739705
-0.28700554 -0.24216627 -0.050984275 0.08300603 -0.1403694 -0.14045411 -0.108093 -0.035247765
-0.031399608 -0.10367554 -0.06391567 -0.1522369 -0.040948026 0.0035078526 -0.12576137 0.09954839
-0.117716454 -0.0010529389 -0.13608184 -0.1743877 -0.018916678 -0.1333715 -0.0811095 1.9676816e-05
-0.05523562 0.08942258 -0.070767865 0.051012177 -0.09823103 -0.020868897 -0.07933946 -0.10182657
0.04899609 -0.06963769 -0.033120207 -0.041474663 -0.039548855 -0.15823372 -0.17516893 0.078805454
-0.007829741 -0.010571966 -0.08207289 0.08998725 0.05138198 -0.14264774 -0.07285866 0.0029777037
-0.18230008 -0.19704238 -0.17841633 0.09113582 -0.17894629 -0.07744356 -0.07090339 -0.07473183
-0.07465825 -0.22937332 -0.06881703 -0.120843805 -0.0892291 -0.037864525 -0.02448767 -0.012810071
00000000: 43d1 aabc afd6 473c 714f 5ebe 454e 3cbe
00000010: cda8 20be bf56 c33d 0cf7 3ebd cc39 19be
00000020: b3ea 233d 9cca 3cbd 53a9 7a3d a0ae b73b
00000030: 5cf2 9ebc 40bd f1bd ea3d 03be 6b57 61bc
00000040: 7a83 0ebe a629 b6bd 42d6 103e a2e3 6dbd
00000050: c31b e3bd 1df8 583d 93f4 22bb b0a4 19bc
00000060: f66f fbbb 839f 62bd 6dc4 d93c e125 9c3d
00000070: 33b8 bfbd 027a a4bd fd01 0fbe 496b e7bd
00000080: f961 c9bc f93d b3bd 6345 b9bc ffe2 46be
00000090: e062 47be a463 5bbe 29d1 da3c 2638 ef3d
000000a0: 2e70 863d f82b cebd d0f5 29be a276 9dbc
000000b0: aaeb 1e3e ec05 e6bd ad4f 14be 7461 9abd
000000c0: c156 00be 39c2 493e c29b e83c 285d a33b
000000d0: 9d3c 0bbe a96f 0ebe 4249 113e 0330 21be
000000e0: 6c37 7bbd fbf5 92bd ab13 0ebe ebac 39be
000000f0: 897f 90be 2593 febd 8fb1 36be 801c 613c
00000100: 64f2 92be 6ffa 77be e3d4 50bd 11ff a93d
00000110: ffbc 0fbe 34d3 0fbe dd5f ddbd f65f 10bd
00000120: e09c 00bd d753 d4bd 38e6 82bd fde3 1bbe
00000130: 1eb9 27bd 00e4 653b 97c7 00be 07e0 cb3d
00000140: 5315 f1bd c402 8aba 0a59 0bbe b092 32be
00000150: 26f7 9abc 8a92 08be bd1c a6bd a40f a537
00000160: bf3e 62bd 3023 b73d beee 90bd 25f2 503d
00000170: 5a2d c9bd 40f5 aabc ba7c a2bd 738a d0bd
00000180: 20b0 483d 359e 8ebd 0ea9 07bd 56e1 29bd
00000190: fbfd 21bd 0508 22be 7c5f 33be c164 a13d
000001a0: 5048 00bc 0a36 2dbc d515 a8bd 3c4b b83d
000001b0: e975 523d 4012 12be ec36 95bd 9425 433b
000001c0: dfac 3abe 7ac5 49be c5b2 36be 6ba5 ba3d
000001d0: b23d 37be bb9a 9ebd cc35 91bd 000d 99bd
000001e0: 6de6 98bd d7e0 6abe f1ef 8cbd f57c f7bd
000001f0: bfbd b6bd d517 1bbd 5e9a c8bc 55e1 51bc

fc2.weight f4 [128, 128]
-0.0011117059 -0.37200633 0.5559363 -0.10581103 0.11777497 -0.17017181 -0.046928976 0.23912609
0.030490613 0.23006073 0.19565958 0.088125445 0.015283689 0.12524655 0.20849475 -0.053583406
-0.5497495 -0.0047392063 -0.12798804 0.21093917 0.17236072 -0.1984258 -0.37045044 0.031503208
-0.19268332 0.27490613 -0.06629527 -0.1768154 -0.07436803 -0.19052444 -0.09343074 0.79669887
-0.42126322 -0.12859717 -0.5093878 2.7742808 0.15803167 0.079742014 -0.0035463965 -1.0349115
-1.600034 -0.6559388 0.11137629 -0.79872346 -0.81065357 0.36940274 -0.5421058 -1.3015071
-0.04799192 0.1587881 -0.2059797 -0.019598484 0.08645288 0.29712948 -1.1292009 0.05440461
-0.26856738 -0.035741918 0.044719495 0.22548343 0.13891047 -0.0002477318 -0.12731989 -0.19413817
-0.39242175 -0.10350364 0.046529498 0.025181187 -0.018614322 0.10561675 0.14226094 0.2770498
0.42160046 -0.3183056 0.1489695 0.05080798 -0.32992092 -0.018855795 0.28655097 -0.23943593
0.024302932 0.1545039 0.058246173 0.34099683 -0.31956252 0.076655656 0.14607394 -0.35093805
-0.0024924208 -0.2554242 -0.07558737 -0.119811065 0.5653055 0.02543597 -0.070744075 0.09417172
0.0042017195 0.111583054 0.028193757 0.3749962 0.046517972 0.017213145 0.074932955 0.9815526
0.017989054 0.08757863 -0.15519622 -0.15483166 -1.829288 0.2866167 0.5982307 -0.010026507
-0.09784452 -0.19467267 0.243226 0.023068432 0.1061679 -0.55104154 0.22342652 -0.33861426
-0.0543196 0.25798783 -0.23923573 -0.117903225 -0.21283442 0.4689641 -0.08269842 -0.39683664
0.04860922 0.010662197 -0.5215913 -0.11556572 -0.9534962 0.3091521 0.058272474 -0.18412276
0.063523136 0.07665171 -0.10653023 -0.053120643 0.075631194 0.030376816 0.051727846 0.07209933
-0.38376358 0.2458842 -0.05380616 0.038285855 0.14277968 0.034043256 0.096226506 -0.012921236
-0.23876372 0.086427055 -0.43751028 -0.15336275 -0.040119167 0.39492255 0.10786316 0.13144143
-0.07596773 0.26307148 -0.5837971 -0.087148905 0.1354187 -0.03798943 0.009561902 -0.74198145
-0.22531687 0.17425522 -0.21039066 0.23061523 0.12921461 0.1436666 -0.031510945 -1.1721992
0.054025568 0.123640195 -0.07966295 -0.10701317 -0.085654736 0.17705275 -0.2121345 0.16536939
0.26585075 0.014208674 0.0118067935 -0.3228974 0.35735932 -0.08069657 -1.0456645 0.48080495
0.17162134 0.01930679 0.13099974 -0.060702916 -0.04394204 -0.40866846 0.64313215 -0.03847435
-0.08708664 0.33955622 0.22399026 -0.011342144 -0.0071665086 0.05681523 -0.25225946 0.77805036
-0.12132203 -0.26380602 0.06944788 -0.05659096 -0.21892887 -0.025733883 -0.2252 -0.55109584
0.0790975 -0.8808731 -0.08381406 -0.5525653 -1.042817 -0.06393148 -0.047170658 -0.03440236
-0.047843732 0.11999084 -0.07935652 0.26296303 0.041044258 -0.07739847 -0.12645543 0.0964089
-0.08824104 0.030502493 0.14610906 0.42922574 -0.32441238 -0.32261115 -0.015256944 -0.103163086
0.099602535 0.17666334 0.05599217 -0.06963039 0.075277545 -0.06903773 0.09680215 -0.19732912
0.16652991 -0.41130382 0.079492755 0.011353433 0.45612198 -0.47485495 -0.052757975 -0.43197724
00000000: a9b6 91ba 9d77 bebe d751 0e3f 74b3 d8bd
00000010: 0134 f13d 8541 2ebe 9938 40bd 78dd 743e
00000020: 73c7 f93c 0a95 6b3e fc5a 483e 1d7b b43d
00000030: 7068 7a3c a240 003e a67f 553e 467a 5bbd
00000040: 62bc 0cbf 584b 9bbb 4c0f 03be 7000 583e
00000050: 547f 303e 2230 4bbe aeab bdbe 8209 013d
00000060: c74e 45be 7fc0 8c3e d1c5 87bd 190f 35be
00000070: 444e 98bd d718 43be 9e58 bfbd 75f4 4b3f
00000080: d0af d7be faae 03be 3d67 02bf d18d 3140
00000090: 0ed3 213e c84f a33d a96a 68bb fb77 84bf
000000a0: eacd ccbf 9beb 27bf 4119 e43d 2479 4cbf
000000b0: fe86 4fbf 5b22 bd3e 72c7 0abf c997 a6bf
000000c0: 2d93 44bd 5999 223e 58ec 52be 008d a0bc
000000d0: 350e b13d 5b21 983e a889 90bf 5ed7 5e3d
000000e0: aa81 89be 1e66 12bd ca2b 373d 21e5 663e
000000f0: 8c3e 0e3e 00e2 81b9 2560 02be 28cc 46be
00000100: 81eb c8be b7f9 d3bd b795 3e3d c748 ce3c
00000110: 107d 98bc 984d d83d daac 113e 79d9 8d3e
00000120: 04dc d73e f4f8 a2be 768b 183e 071c 503d
00000130: 65eb a8be 7877 9abc cfb6 923e b12e 75be
00000140: f116 c73c 4536 1e3e 8a93 6e3d 2397 ae3e
00000150: b39d a3be a4fd 9c3d 6894 153e 27ae b3be
00000160: e257 23bb f6c6 82be 8dcd 9abd 815f f5bd
00000170: dcb7 103f 185f d03c 45e2 90bd 1add c03d
00000180: 94ae 893b a885 e43d 98f6 e63c 80ff bf3e
00000190: a189 3e3d 9502 8d3c 7376 993d 0847 7b3f
000001a0: c85d 933c 6d5c b33d c2eb 1ebe 318c 1ebe
000001b0: 1c26 eabf 6dbf 923e a625 193f 3846 24bc
000001c0: b562 c8bd 4658 47be 3d10 793e 02fa bc3c
000001d0: 8e6e d93d 0f11 0dbf ecc9 643e d95e adbe
000001e0: 3b7e 5ebd fb16 843e 36fa 74be 3f77 f1bd
000001f0: 44f1 59be 101c f03e ca5d a9bd 2c2e cbbe
00000200: 761a 473d 7fb0 2e3c 0287 05bf b8ad ecbd
00000210: 5418 74bf 2f49 9e3e 1eaf 6e3d ad8a 3cbe
00000220: 6b18 823d 92fb 9c3d 852c dabd 0895 59bd
00000230: 87e4 9a3d cdd8 f83c 94e0 533d d0a8 933d
00000240: a97c c4be 11c9 7b3e d963 5cbd a1d1 1c3d
00000250: d634 123e f170 0b3d 6712 c53d 98b3 53bc
00000260: 7a7e 74be ab00 b13d 5901 e0be 200b 1dbe
00000270: ff53 24bd 4a33 ca3e 5ce7 dc3d 9598 063e
00000280: f894 9bbd 4eb1 863e ba73 15bf 207b b2bd
00000290: 33ab 0a3e ce9a 1bbd 86a9 1c3c 7ff2 3dbf
000002a0: 77b9 66be f66f 323e a670 57be 6626 6c3e
000002b0: d650 043e 561d 133e 9f11 01bd a00a 96bf
000002c0: ea49 5d3d 1237 fd3d 5426 a3bd b929 dbbd
000002d0: c06b afbd 514d 353e c939 59be 9856 293e
000002e0: 971d 883e 80cb 683c 4871 413c cf52 a5be
000002f0: cdf7 b63e 3e44 a5bd 56d8 85bf 112c f63e
00000300: 81bd 2f3e 4629 9e3c cc24 063e 9fa3 78bd
00000310: 92fc 33bd fe3c d1be 4fa4 243f 4897 1dbd
00000320: 7b5a b2bd 50da ad3e b45d 653e 66d4 39bc
00000330: 08d5 eabb 16b7 683d 2728 81be 4f2e 473f
00000340: af77 f8bd 9511 87be b13a 8e3d eccb 67bd
00000350: e42e 60be ddcf d2bc d49a 66be 9e14 0dbf
00000360: dffd a13d e680 61bf b5a6 abbd eb74 0dbf
00000370: 077b 85bf 82ee 82bd 0536 41bd 7de9 0cbd
00000380: caf7 43bd c2bd f53d ac85 a2bd 17a3 863e
00000390: 061e 283d 1783 9ebd 887d 01be 0872 c53d
000003a0: b8b7 b4bd 5de0 f93c 9d9d 153e 7ac3 db3e
000003b0: 6119 a6be 4a2d a5be 43f8 79bc 2b47 d3bd
000003c0: 6afc cb3d 3ce7 343e 0c58 653d 619a 8ebd
000003d0: 1d2b 9a3d a763 8dbd 3540 c63d a510 4abe
000003e0: d186 2a3e 6a96 d2be 19cd a23d c003 3a3c
000003f0: d288 e93e 3020 f3be bf18 58bd 1f2c ddbe

fc2.bias f4 [128]
-0.35536748 0.08727369 0.21371482 -0.15744294 -0.09357078 -0.09046167 -0.16635147 0.12789704
0.3425305 -0.11823526 -0.1580503 -0.008444862 -0.07670655 -0.10759725 0.093781866 -0.08704536
0.71514964 -0.04355283 0.5135896 -0.10529639 -0.26517743 0.30335215 -0.37355927 -0.0929116
0.14620508 -0.04831569 -0.049727503 -0.053461693 -0.17170711 0.0131319165 -0.13305883 -0.06429395
0.5690171 -0.027757334 -0.08990062 0.013505079 -0.15420674 -0.026500173 -0.15063418 -0.10283195
-0.096905716 0.08241445 -0.12237969 0.28174427 -0.17777663 0.2913703 -0.04299538 0.039426133
-0.04011998 0.042431854 -0.15358712 0.1848995 0.25472867 -0.48187026 0.023089364 0.083402745
0.20792821 -0.12888621 0.5491374 -0.17745358 0.02326585 -0.032094512 0.013105687 0.05084362
0.7772832 0.30577216 -0.021971079 -0.12017284 -0.1391822 0.727182 -0.1257586 -0.13314505
-0.11760488 0.0587835 -0.0433331 0.29817024 0.32266757 -0.06759577 -0.20560028 0.31346992
-0.20745607 -0.098338716 -0.261774 -0.08625205 -0.11336792 -0.22574882 -0.11497857 0.28250328
-0.115774736 -0.12062257 0.592064 -0.059266467 -0.03566072 -0.07532214 -0.11620566 0.6723176
-0.11205537 -0.015010169 0.15024309 0.12468249 -0.17776403 -0.24309652 -0.009458783 0.21264398
0.40763038 0.16605464 -0.36674672 0.14523889 0.27293715 -0.08838629 -0.2995083 -0.115777895
-0.08424218 -0.116161 -0.21150203 -0.33731544 0.0026550596 -0.13538274 -0.33020583 0.12382424
-0.28511047 -0.23763146 -0.37801123 -0.27674982 -0.05908602 -0.037466098 -0.038334794 -0.20893225
00000000: baf2 b5be 8cbc b23d 0fd8 5a3e b938 21be
00000010: 09a2 bfbd f843 b9bd 0a58 2abe 71f7 023e
00000020: 2860 af3e 5425 f2bd f0d7 21be 525c 0abc
00000030: 5318 9dbd f25b dcbd b510 c03d d644 b2bd
00000040: 0c14 373f 7464 32bd 9c7a 033f a2a5 d7bd
00000050: 56c5 87be f950 9b3e 2943 bfbe 7048 bebd
00000060: c9b6 153e ace6 45bd 11af 4bbd a6fa 5abd
00000070: fdd3 2fbe 4027 573c 9340 08be 8cac 83bd
00000080: 1bab 113f 5963 e3bc d11d b8bd 6844 5d3c
00000090: 5fe8 1dbe e416 d9bc d93f 1abe 8f99 d2bd
000000a0: 8176 c6bd e8c8 a83d 34a2 fabd c940 903e
000000b0: 140b 36be 7d2e 953e ec1b 30bd 4c7d 213d
000000c0: d954 24bd 06cd 2d3d f145 1dbe 4b56 3d3e
000000d0: cc6b 823e b3b7 f6be e825 bd3c 0fcf aa3d
000000e0: 22eb 543e bffa 03be 4594 0c3f 64b6 35be
000000f0: 0698 be3c 8975 03bd 3cb9 563c 6641 503d
00000100: 08fc 463f 2b8e 9c3e b1fc b3bc 2e1d f6bd
00000110: c785 0ebe 9928 3a3f ddc6 00be 2d57 08be
00000120: d4da f0bd f8c6 703d 0c7e 31bd c5a9 983e
00000130: af34 a53e a76f 8abd e188 52be 217f a03e
00000140: 5d6f 54be cf65 c9bd 3e07 86be eaa4 b0bd
00000150: 712d e8bd b32a 67be e279 ebbd 45a4 903e
00000160: 4e1b edbd f708 f7bd 8291 173f 65c1 72bd
00000170: fa10 12bd 7e42 9abd 3cfd edbd 021d 2c3f
00000180: 497d e5bd 36ed 75bc 53d9 193e 8959 ff3d
00000190: c607 36be 4bee 78be 03f9 1abc 58bf 593e
000001a0: eeb4 d03e 3a0a 2a3e 3ac6 bbbe 81b9 143e
000001b0: 6bbe 8b3e df03 b5bd 2759 99be f61c edbd
000001c0: 2a87 acbd d2e5 edbd fd93 58be 9cb4 acbe
000001d0: 8200 2e3b c6a1 0abe bd10 a9be 9097 fd3d
000001e0: 00fa 91be a955 73be b08a c1be 27b2 8dbe
000001f0: 2f04 72bd 0d76 19bd f204 1dbd 56f2 55be

fc3.weight f4 [7, 128]
0.7399835 0.85305923 0.115575366 1.0267546 -0.17267281 0.27080488 0.3676565 -0.5475311
-0.71630996 -0.024494484 0.4499494 0.37402517 -0.5358876 0.4730237 -0.28438118 0.046988275
-0.34602246 0.34924814 -0.4949358 -0.01018723 0.8312355 -0.88222927 0.32334322 -0.03520696
-0.5511655 0.03476344 -0.024129331 -0.3175838 0.060912903 -0.28028774 0.030974425 0.14777361
-0.46508867 -0.03154195 -0.06977636 0.28168172 0.7562734 0.049330316 0.27280614 0.35529718
0.4729679 -0.6966893 0.086629696 0.24789332 -0.018544378 -0.74133444 -0.022503667 -0.519285
-0.013402545 -0.43532878 -0.1618349 -0.41968405 0.4933037 0.4186846 -0.9690378 -0.74468994
0.20433989 0.036097884 -0.208368 0.2450715 -0.0112464065 0.13606885 -0.15037335 0.20255227
-0.34774232 -0.5702645 -0.6238786 1.3501515 -0.09342379 -0.3939963 -0.083318405 0.07064297
0.051181298 -0.0150668435 0.056976862 0.2234438 -0.41367522 -0.036241274 0.19897716 -0.6469816
1.1567918 -0.44411492 -0.13855319 -0.06314256 0.53537923 0.109658286 -0.028099157 0.03768785
-0.048256796 0.045145653 -0.449007 -0.028354894 0.118552096 -0.096332766 -0.036661364 -0.21157879
0.048060894 0.03031183 -0.15176894 0.71348655 0.054065753 0.5168283 0.0766091 -0.19118929
-0.16000344 0.038609795 0.055707265 -1.0114138 -0.49583757 0.55969095 1.3850429 -0.049443077
-0.13963401 -0.063731395 0.66391605 0.22085135 -0.030633595 0.057641365 -0.14730224 1.0172079
-0.049335286 0.2220901 0.13650641 -0.07658347 -0.01927913 -0.06206052 -0.010794569 0.43668047
0.3295229 0.3526033 -0.1104146 0.33174798 0.11801763 0.14655215 0.69439244 -0.17861451
-0.009061645 0.06731621 0.6491728 0.42711833 1.1496446 0.47285554 -0.93888795 0.02452188
-0.29268354 -0.24567099 -0.37394714 -0.19096933 0.20527533 -0.31085336 0.63801706 -0.009752733
-0.3564139 -0.03563136 0.026433788 -0.17726794 0.036981057 -0.7166666 -0.035728797 -0.55690795
-0.39380333 -0.047442123 0.040250182 0.7696517 0.7530957 -0.051314563 1.1503209 0.5404193
0.54382634 -0.85722715 -0.037472464 -0.9522101 -0.14721209 -0.14213687 -0.047139373 -0.8671436
0.012457204 -0.2041826 0.10767678 -0.6392128 -0.1528893 0.01444712 -0.80280215 -0.5350142
-0.086861774 -0.0013965997 -0.12713441 0.71719855 0.58301455 -0.16885637 0.2187383 0.4553936
-0.3620357 -0.4837058 -0.5101336 0.9707823 0.05448686 -0.33406484 0.22716668 0.020274721
0.006007619 -0.23182437 -0.06606801 -0.15443753 -0.2208488 0.034115095 -0.056975782 -0.7735973
0.756272 -0.073126696 0.05584651 0.025113028 0.60564065 0.1775454 0.085271426 -1.3743333
0.04310288 -0.011786433 -0.44755527 -0.008112225 0.2451936 0.011219559 -0.07875274 -0.30764055
0.1441208 -0.001965678 -0.36446944 -0.2951918 -0.0022617867 0.38955247 -0.6325204 -0.86365473
-0.51365405 -0.07915668 -0.0066932472 -0.43572056 -0.34513617 0.56512684 1.0385393 0.11178035
0.034535944 0.00839752 -0.075512245 0.3805012 -0.0073126955 0.041597016 0.3037193 1.4933431
-0.2993295 0.3117209 1.1539836 0.061993722 -0.005852174 -1.2948611 -0.04217721 0.6899722
00000000: 8f6f 3d3f 1762 5a3f c7b2 ec3d b26c 833f
00000010: 24d1 30be f0a6 8a3e 793d bc3e 002b 0cbf
00000020: 1760 37bf a8a8 c8bc c55f e63e 3a80 bf3e
00000030: ee2f 09bf 2a30 f23e 699a 91be c776 403d
00000040: db29 b1be a7d0 b23e 3a68 fdbe 57e8 26bc
00000050: dacb 543f c7d9 61bf 3e8d a53e 2c35 10bd
00000060: 2f19 0dbf 1c64 0e3d e0aa c5bc 589a a2be
00000070: cf7f 793d e081 8fbe 14be fd3c f751 173e
00000080: 1a20 eebe 2232 01bd e9e6 8ebd 9638 903e
00000090: 229b 413f 960e 4a3d 3fad 8b3e 83e9 b53e
000000a0: d928 f23e 3b5a 32bf e96a b13d bfd7 7d3e
000000b0: 61ea 97bc 18c8 3dbf 9c59 b8bc ddef 04bf
000000c0: 5996 5bbc 6ae3 debe 0cb8 25be d4e0 d6be
000000d0: 4d92 fc3e d45d d63e dc12 78bf 00a4 3ebf
000000e0: 7a3e 513e 60db 133d 6c5e 55be 06f4 7a3e
000000f0: d942 38bc a255 0b3e 79fb 19be dd69 4f3e
00000100: 480b b2be dbfc 11bf 82b6 1fbf c4d1 ac3f
00000110: f954 bfbd e2b9 c9be d7a2 aabd 43ad 903d
00000120: 7ba3 513d ecda 76bc 9260 693d 74ce 643e
00000130: 3dcd d3be bb71 14bd abc0 4b3e 96a0 25bf
00000140: c111 943f 0863 e3be e3e0 0dbe e350 81bd
00000150: 9d0e 093f 8694 e03d 3430 e6bc 935e 1a3d
00000160: eba8 45bd a6ea 383d 3fe4 e5be 8648 e8bc
00000170: 71cb f23d 1d4a c5bd 3a2a 16bd 1ca8 58be
00000180: 80db 443d 8450 f83c 5169 1bbe 0ea7 363f
00000190: 0d74 5d3d dc4e 043f 3be5 9c3d 20c7 43be
000001a0: f1d7 23be 4e25 1e3d 4d2d 643d 0276 81bf
000001b0: 6cde fdbe e847 0f3f 1649 b13f d384 4abd
000001c0: 38fc 0ebe 9b85 82bd 67f6 293f db26 623e
000001d0: 4ef3 fabc 5a19 6c3d 66d6 16be de33 823f
000001e0: cc13 4abd 966b 633e 56c8 0b3e cbd7 9cbd
000001f0: 44ef 9dbc 2c33 7ebd b4db 30bc 9594 df3e
00000200: 3ab7 a83e 6b88 b43e 0d21 e2bd dfda a93e
00000210: 3ab3 f13d c411 163e b4c3 313f b9e6 36be
00000220: 4b77 14bc 15dd 893d 3030 263f 41af da3e
00000230: 8e27 933f 1f1a f23e f65a 70bf 1ce2 c83c
00000240: 9eda 95be 2d91 7bbe 0076 bfbe 778d 43be
00000250: b233 523e 2c28 9fbe 1655 233f edc9 1fbc
00000260: e27b b6be 30f2 11bd ac8b d83c ba85 35be
00000270: 7379 173d 7677 37bf 5c58 12bd 8591 0ebf
00000280: 97a0 c9be ac52 42bd 60dd 243d e507 453f
00000290: e1ca 403f 382f 52bd b73d 933f eb58 0a3f
000002a0: 3438 0b3f 3d73 5bbf ba7c 19bd 0bc4 73bf
000002b0: c4be 16be 548c 11be 3715 41bd 1ffd 5dbf
000002c0: 4d19 4c3c 3e15 51be a585 dc3d 73a3 23bf
000002d0: 038f 1cbe 9db3 6c3c 7184 4dbf b1f6 08bf
000002e0: 96e4 b1bd 1c0e b7ba 862f 02be 539a 373f
000002f0: 7140 153f afe8 2cbe effc 5f3e 5a29 e93e
00000300: be5c b9be 49a8 f7be 1e98 02bf 3085 783f
00000310: 9d2d 5f3d 8c0a abbe 629e 683e 2c17 a63c
00000320: 90db c43b 5e63 6dbe aa4e 87bd df24 1ebe
00000330: 3026 62be 45bc 0b3d 705f 69bd 790a 46bf
00000340: 0b9b 413f 73c3 95bd 4fbf 643d d6b9 cd3c
00000350: 440b 1b3f 76ce 353e c9a2 ae3d 27ea afbf
00000360: a58c 303d e21b 41bc f725 e5be 23e9 04bc
00000370: 0814 7b3e 3ed2 373c 1e49 a1bd 1083 9dbe
00000380: 6794 133e 9bd2 00bb bd9b babe 6123 97be
00000390: 7c3a 14bb 6c73 c73e dbec 21bf 7a18 5dbf
000003a0: d57e 03bf e61c a2bd 0753 dbbb c416 dfbe
000003b0: b0b5 b0be 27ac 103f dbee 843f 19ed e43d
000003c0: 9075 0d3d c095 093c 2aa6 9abd 0ed1 c23e
000003d0: 569f efbb a261 2a3d 1981 9b3e de25 bf3f
000003e0: b741 99be e299 9f3e bcb5 933f 21ed 7d3d
000003f0: 98c3 bfbb 02be a5bf 03c2 2cbd 05a2 303f

fc3.bias f4 [7]
-0.40179068 -0.3587866 -0.350946 -0.35384503 -0.34979016 -0.36177984 -0.36778864
00000000: 82b7 cdbe e1b2 b7be 32af b3be 2d2b b5be
00000010: b217 b3be 353b b9be cb4e bcbe
