hackathon_toolkit/checkpoints_qlearn_CTDE/reward_trick_agent_0_episode_201.pth (torch, 99778 bytes, 6 tensors)

fc1.weight f4 [128, 52]
00000000: cef9 2f3e 6175 313e 8264 c23c 3186 f0bd
00000010: 6e8f 9abc f283 73bd 9b21 0d3e 60a6 f4bb
00000020: fca6 963d 68bc e93d 3f5e a23c ca87 88bc
00000030: 9cbe 66bd 732e 143e e7e4 82bd 20b0 f9bd
00000040: c74b 09bb d3ff e53d 8317 313e 8e7c f3bd
00000050: 4d26 003e dbe7 073e 24ff 4dbe 4273 793e
00000060: 1ca6 a5bd 3c9a cbbc c0d1 fcbd 32ad 09be
00000070: 7e93 02be 76a8 f73d fcb0 b4bd ec8d f3bd
00000080: 00ea deb9 c0d1 933d 48bc a83d cfa7 023e
00000090: a082 3cbd c85f 123d 37f0 a5bd d871 fc3c
000000a0: 47c5 f5bd 4c97 3f3d fcbe e8bc ae85 863d
000000b0: f8e4 1b3d b484 5abd 1adb c33d ca0a 30bd
000000c0: e897 a63d a4b2 89bc 2a78 a13d e2d4 91bd
000000d0: b023 223c 54e3 7ebd f5d9 f5bd 8028 fabb
000000e0: 5c67 333d 7f53 89bd e1ad 0d3e 0280 03bd
000000f0: 0615 ef3d 725e afbd c515 d4bd a43b 81bc
00000100: f630 eabd f86a cf3c 7d25 093e 1adb 953d
00000110: 5e5a 31bd 1889 24bd 66d8 0bbe 3224 e8bd
00000120: 04ba 28bd 0a42 cebd 759e efbd 9657 f93d
00000130: 5947 debd d685 2fbd f887 03bd 901f 1e3d
00000140: 50b9 01be e8ed 8a3c c82a 8bbd 0c87 7a3d
00000150: ac33 843d 18c4 6cbc bc75 7fbd 000a 4e3a
00000160: 086f d73c eca2 4f3d 56d4 3fbd 00cd b53c
00000170: 3bb5 8ebd d0bb c63d a043 87bb 1812 b03c
00000180: 8cd9 2cbd 14b6 cebd 2e45 e1bd 0cc1 183d
00000190: b2da 36bd 5206 48bd a63f 1bbd bb94 9bbd
000001a0: a913 a3bc f3ed b9bd 4891 513d 459e 96bd
000001b0: 1c6c 9dbc 507c 5e3c f00b 5b3d 3286 c13d
000001c0: 9431 a33d 103e d9bd 6008 dfbd 643d 393d
000001d0: e492 d73d 3073 46bd 1ed9 df3d 9b13 91bd
000001e0: 23b1 adbd 86ce 8ebd 13a9 83bd c0d2 3fbb
000001f0: c68b 08be d0ed 03be a33a 9bbd 9890 d33c
00000200: aa24 803d 6262 82bd 6cdd 7f3d a32c 08be
00000210: 1637 b53d f603 813d c409 9d3d a03e 58bd
00000220: b9b3 043e f48a e7bd 140f 853d 9bef 043e
00000230: e481 3b3d 40fe 863d d0d0 b83d beee a93d
00000240: 606f cf3d 3067 abbd 8071 bf3a acfa 2c3d
00000250: f480 2d3d b077 d8bc ad93 043e b61b b53d
00000260: c4d4 c7bd 9e97 71bd 6433 a83d ee3b 7dbd
00000270: 524b 803e 57b6 d5bd 126c 623e 506c ebbc
00000280: 489c f9bd ec0a 25bd 317c 85bd 5b01 b4bd
00000290: f07e 993d f99f 52be e827 793e 8a10 3f3e
000002a0: a4c0 523e 4d28 46be 4825 3bbd ba66 f03d
000002b0: 9dcd 353e 80f6 513e 0dd0 43be 93fc 003e
000002c0: c45a 273d 97d6 0dbe 98f5 9dbd 1397 833e
000002d0: 9cab 37bd 9ce6 b6bd a000 a83b 0e59 9f3d
000002e0: 6417 b9bc ee87 ad3d 3096 693d 68c3 dabd
000002f0: 8a28 f23d 8043 6e3d 79c3 053e 30c0 c33d
00000300: f436 13bd 24f2 293d a3e6 95bd 0e8a a33d
00000310: 1643 14bd 8e45 03be 02bc 14bd 3862 60bd
00000320: 9465 a5bc 8eb7 f63d 446f 7b3d 188f cdbc
00000330: 3e75 dc3d 2073 c3bb 7c69 cd3d 68b5 ae3d
00000340: 00c6 c339 d078 94bd 767d 5cbd 5053 d33d
00000350: ffcd 363d 28c6 993c a6ad c7bd cc99 2d3d
00000360: 7a31 bd3d cc4b 7f3d 3249 d03d 8f4e 063d
00000370: 491e 743c 6054 06bd 5aa0 893d 28ce bbbd
00000380: 7a63 b93c 9867 f3bc 75ba 59bd 202b 00bd
00000390: d029 323c 45b5 2dbd 4ae2 8abc 5eb2 73bd
000003a0: a6ed 1bbd c65c c2bd b9f6 0d3e a05e 2e3d
000003b0: ec3a 7f3d d442 633d 7222 02be b6e1 cf3d
000003c0: 6494 68bd 534f 023e 408a ff3c 9b42 0b3e
000003d0: bb3d 82bd 5473 e0bd 53d3 cfbd 3e02 953d
000003e0: cc08 633d de24 ecbd e0b1 bd3c dac4 67bd
000003f0: 4cbe 37bd 49db 043e fff5 93bd a059 b43b
0.17185137 0.17329933 0.023729566 -0.11744345 -0.01886722 -0.059452005 0.1378235 -0.0074661225
0.073560685 0.11412889 0.01982033 -0.016666312 -0.056334123 0.14470844 -0.06391316 -0.12191796
-0.0020949708 0.11230435 0.17294125 -0.11888991 0.1251461 0.1327204 -0.2011686 0.24360374
-0.080883235 -0.024853818 -0.12344694 -0.13444975 -0.12751576 0.12092678 -0.088228196 -0.11892304
-0.00042517483 0.07217741 0.08239037 0.12759326 -0.04602301 0.035735875 -0.08102458 0.030816004
-0.12000518 0.046775147 -0.028411381 0.06568466 0.03806016 -0.05334921 0.09563275 -0.04297904
0.081344426 -0.016808815 0.078842476 -0.07120682 0.009896204 -0.062228516 -0.12004463 -0.0076342225
0.043799743 -0.06705379 0.13835861 -0.0321045 0.11673932 -0.08562936 -0.10355715 -0.01577551
-0.1143512 0.025319561 0.13393207 0.07317181 -0.04329907 -0.040169805 -0.13656768 -0.11335029
-0.041193023 -0.1007119 -0.11700145 0.12174909 -0.10853452 -0.042852245 -0.03211209 0.03860432
-0.12668347 0.016959146 -0.06795269 0.061163947 0.06455168 -0.014451049 -0.06236814 0.00078597665
0.026298061 0.050692484 -0.04683336 0.022192478 -0.06968161 0.09703791 -0.0041279346 0.021493003
-0.042199656 -0.100933224 -0.10999523 0.03729348 -0.044642158 -0.048834153 -0.037902497 -0.075967275
-0.019906836 -0.09078588 0.05116394 -0.07354406 -0.01921659 0.013579443 0.05347818 0.09449424
0.07968441 -0.106075406 -0.10890269 0.045224562 0.10526064 -0.048449695 0.10930084 -0.070838176
-0.08481052 -0.06972985 -0.06428733 -0.0029269904 -0.1333457 -0.12883687 -0.075795434 0.025825784
0.06256993 -0.06366421 0.062467024 -0.13298278 0.088483974 0.062995836 0.07667878 -0.0527941
0.12959184 -0.113058 0.064970165 0.12982027 0.04577817 0.06591463 0.09024203 0.082974896
0.10128665 -0.08369291 0.0014605969 0.042231247 0.042359307 -0.026424259 0.12946959 0.08843176
-0.09757379 -0.058982484 0.08212927 -0.06182473 0.25057465 -0.10435169 0.22111538 -0.02873817
-0.121880114 -0.04029362 -0.06517828 -0.08789321 0.074949145 -0.20568837 0.2433163 0.18658653
0.20581299 -0.19351311 -0.04568985 0.117383435 0.17754216 0.20504189 -0.19122334 0.1259635
0.040858045 -0.13851391 -0.07712859 0.25701198 -0.044841394 -0.08930704 0.0051270276 0.07780658
-0.022594161 0.08473192 0.057027996 -0.10681802 0.118241385 0.05816984 0.13062848 0.09558141
-0.03594108 0.04149069 -0.07319381 0.07985316 -0.03619679 -0.12819502 -0.03631211 -0.05478117
-0.020190038 0.12046729 0.061385408 -0.025092646 0.1076455 -0.0059646517 0.10029885 0.08530694
0.0003734082 -0.07249606 -0.053830586 0.10318625 0.044630047 0.018771246 -0.09749918 0.042383
0.092379525 0.062328145 0.10170211 0.032789763 0.014899799 -0.03279531 0.06720038 -0.091701806
0.022630442 -0.029712483 -0.053156335 -0.031291127 0.010874227 -0.0424092 -0.016953606 -0.059496276
-0.038068436 -0.094903514 0.13863648 0.04257071 0.06231205 0.055483654 -0.12708452 0.10150473
-0.05678214 0.12725572 0.031193852 0.13599627 -0.063594304 -0.10959497 -0.10147729 0.07275818
0.05542831 -0.11530469 0.023156106 -0.056584217 -0.044859216 0.12974276 -0.072246544 0.005503848

fc1.bias f4 [128]
00000000: d7de 933c 2a66 01be 737d 8fbd be48 87bc
00000010: f3ab b7bd 3e55 ca3c b097 483e 6fca 043e
00000020: 2703 a1bc 1234 90bd 784f 6b3c 9634 20bd
00000030: 85fd b33d a021 b43d a83b 16bd 5a3f 59bd
00000040: c2cf 263e a6a1 7bbd 81e3 f33d a099 c7bc
00000050: c7c5 0a3e c622 123e 873f 0d3e 7228 5a3b
00000060: c28d 813d 1e61 153e ac81 2f3e f1e9 3f3e
00000070: d08e c63d 820b 183e bbb5 163e a935 623d
00000080: 19b6 a33c 9e28 393d fab8 e3bd 48cc c93d
00000090: 5fcf e7bd bb2a 423e 6a42 5c3c c954 233e
000000a0: 7890 213e 6d5c 893d 495c 083e 9bf6 a9bd
000000b0: 525a 30bd e5f1 dc3b 8a48 d43d 07aa 89bd
000000c0: 7496 71bd 53d2 233e 81d9 343e dc72 173e
000000d0: 7374 0b3d ed90 4fbd 7167 753d 3927 fe3c
000000e0: de80 c93d 1575 083e 1f79 e73d 3545 103e
000000f0: 0f1d 953d 7693 77bd 6e3f 43bd f263 b83c
00000100: 64df 453d 8194 883d 5fde 1bbd 9255 01be
00000110: 2052 1d3d 302f 03be 4bdf c9bc f5ea c5bd
00000120: 2ea8 8cbd f6a2 fe3d c410 613d 7852 f63b
00000130: e8aa 0a3b 3836 d1bc 2a32 c5bc 38d0 b7bb
00000140: a4df 05bc 8be2 90bc 64fc db3d 7035 ae3c
00000150: 6a6d 8abd 9536 8bbd 91e7 26bd 82af 4a3e
00000160: fd0e 453e 7f5c 183e 00f1 cfba 282c 983d
00000170: 36dc a33d b816 ba3c 61b3 2d3e 7320 4c3d
00000180: ae5a 363d 23e9 1fbd 1cec cd3d 6b2e cbbc
00000190: 0007 ff3d 073f fb3d f02d 313e 7f8a 94bd
000001a0: 09bd 1e3e 81c1 2f3c 2227 d63d 3f5e 0b3e
000001b0: 6abb e93d 5a85 efbc 012d 923d bea0 003b
000001c0: d8a2 9b3c a05a 8cbc 1d02 a3bc 4be3 533c
000001d0: 6b46 0fbe fa54 ca3d 9c9a e93d aa3e 943d
000001e0: 742e 313e cc38 dbbd d6fb bb3d 6f05 1a3e
000001f0: 078f f63d 7ed9 533d 585d fcbd 6464 b13d
0.018050594 -0.12636629 -0.070063494 -0.016514178 -0.089683436 0.02469885 0.19589114 0.12967847
-0.019654823 -0.070411816 0.014362209 -0.03911265 0.087885894 0.08795476 -0.036677986 -0.053038932
0.16290191 -0.061433457 0.11908627 -0.024365246 0.13552009 0.14271078 0.13793765 0.0033288267
0.06325866 0.14587829 0.1713931 0.18741585 0.09695208 0.1484814 0.14717762 0.055226956
0.019984292 0.04520475 -0.11119266 0.09853417 -0.1131885 0.18961613 0.013443569 0.15950312
0.15777767 0.06707082 0.13316454 -0.082989894 -0.043054886 0.0067427033 0.10365398 -0.06721883
-0.058981374 0.15998201 0.17661096 0.14789909 0.0340466 -0.05067532 0.059913103 0.031024562
0.098390326 0.13325913 0.11302399 0.140889 0.07280933 -0.060443364 -0.047667913 0.022508595
0.048308745 0.0666895 -0.038053866 -0.12630299 0.0384084 -0.1281097 -0.024642607 -0.09663955
-0.06868015 0.12433426 0.05494763 0.0075171553 0.0021158997 -0.025538549 -0.024071772 -0.0056095384
-0.008170996 -0.01768615 0.10741499 0.021265715 -0.0675915 -0.0679752 -0.040748183 0.19793513
0.19243999 0.14879034 -0.001586467 0.07430297 0.08000986 0.022715911 0.16962959 0.049835633
0.044520073 -0.039040696 0.100548 -0.024802407 0.12452507 0.12267881 0.1730268 -0.072529785
0.15501799 0.010727287 0.10456683 0.13610171 0.114126995 -0.029238392 0.0713749 0.001962706
0.018998548 -0.017133057 -0.019898469 0.012932609 -0.13991706 0.09879489 0.114064425 0.07238515
0.17302877 -0.107041925 0.09178893 0.15041135 0.12038999 0.05172109 -0.123224914 0.08661726

fc2.weight f4 [128, 128]
00000000: cb79 183d 0f88 ae3d fbd4 12bd 64dc 1cbe
00000010: 1c86 07bd fec9 193e 9e3f b6bd b13b 0d3e
00000020: 3a53 a23d a081 12bb 268b 593e 6cc8 403d
00000030: 4354 883d aa9f 85bd dd27 4abd 52e0 693d
00000040: dda4 d83e 8115 56bd 3fbe 88bd f0bc 863b
00000050: db9e ae3d cac1 043e e35e a6bd 8914 043e
00000060: ca56 8abd f89e 6bbe c008 07bd 11e8 e4bb
00000070: d98a 513e 5229 85bc 72f4 d8ba 0343 d63c
00000080: a3f6 ab3e 188c 33be 260d a53d dbf6 0a3e
00000090: fb57 a9bd 4ef0 1d3e 80b2 033d 80fe ff3c
000000a0: 0e39 c33d 376d 213d 5ce1 713b 065d 743e
000000b0: c280 e4bc 51c9 823d d038 82bd 8e23 873d
000000c0: 4a65 94bb cb1f c43b 3aa4 80bb 70e3 3abe
000000d0: c4f2 8e3e 42c1 f63d 597d 013d f79c e6bd
000000e0: c39f 2b3e a441 513c f02e 2c3d 8882 493e
000000f0: 4a39 edb9 2969 ba3c 0444 c1bc 0867 44be
00000100: 9833 74bc 4315 b0bd 1fb9 a63d 6867 413c
00000110: 5e5f 4c3e 81d3 b33d 6760 e5bd aeba 503d
00000120: 97e8 ed3d 9cb2 013e 81ce 223e 6529 cd3e
00000130: dbba 9a3e 6bc1 c8bd 2a8f 9c3e 2ada bebc
00000140: ec79 1e3d bd45 20bd c2cb 7ebe c05c 46bb
00000150: fa0e 563c 7b98 883e 6529 543e b45b 6d3d
00000160: f69f cf3d 91b4 a83e ae4a 3d3e cbce 88bd
00000170: 9395 2bbd 71d6 13bd 2faf bbbc 5197 5a3c
00000180: 4bb0 173d f4ed 523e 6649 813e 6f79 e43d
00000190: 1ff0 fbbd dc81 f33c ab7d e93c cafb 883e
000001a0: 1e18 b83d 39b9 423c a20f 7abe 4f62 8e3c
000001b0: 80f1 f7bd 98df 123e 7f13 053e 1e45 aabd
000001c0: ab08 2a3e fa4a 62be 8c59 473d a30f 2d3e
000001d0: 65b3 863c 251d 133d a0dc 963d 7834 8e3c
000001e0: 1069 9a3d 459b 0cbd 38ed 9c3e 6109 233e
000001f0: 736e 293e 69c6 6ebc 3a60 0ebd 6bc9 d63d
00000200: 52d5 43bd 50ce d4bb 50c0 ebbc 8831 843d
00000210: 45bc e0bb 5a30 123e 918e e5bc 2ead a43d
00000220: a803 32bd 53d8 973d 9999 483e 5190 02bd
00000230: 4d15 d1bd 0ad1 7fbd 6ee0 413d 6c8c d43c
00000240: 92dd f23d 8cd9 eb3c 5616 e1b8 8010 8c3b
00000250: a8b0 8a3d 23d1 9d3d 67c9 3d3d 88e2 563d
00000260: c11a 38bd 7351 823b ab9b 3a3d fd8f cebd
00000270: cff4 5c3e a04e 2d3e 6d5d ff3c dc87 453e
00000280: b382 483d 6b6f f53d 18ac 99ba 1f16 ad3c
00000290: a869 57bd 4a3b 943d 1958 0e3e 9549 533e
000002a0: 5420 f6bc de08 e13d 1b53 723d b2c7 8d3d
000002b0: 6a22 4d3d 7963 933a 089e c93d eafe 013e
000002c0: e9c6 0b3d 9a95 6cbc fb0b fbbd e288 88bc
000002d0: ebdb ab3d 4e94 21bd df84 043c 10a2 3fbe
000002e0: da04 163e 1eab 28bd 6118 b93d 1d78 853d
000002f0: 592e ab3d c542 aebd 8acc 3f3d 8efb f1bc
00000300: 5d25 3e3d de56 9fbd de7a 1abe 7aaf debc
00000310: e3b8 173e a69d 6cbd f7d1 6fbe 8f45 8f3d
00000320: 8626 9b3d ee04 273e de77 843c d235 8c3e
00000330: 03ae a03d 8dd3 99be 55e5 a6bd 1514 cd3c
00000340: 562b 083e 9ae3 953d 7deb ce3d 8343 a83d
00000350: 736a 59bd e2bd 353e b4de c73d d574 323e
00000360: 7985 313d 9c83 04be 0b73 353e 845b c53c
00000370: 20f8 44be 6b97 9f3d face c73c bf55 c33c
00000380: bc03 303d 1368 733d fe05 963d 1671 f7bb
00000390: 0bae ecbd 1e62 ab3d e544 4b3c 569c 453e
000003a0: fd26 d03d a758 e4bd fef1 7d3e 9325 d63b
000003b0: 6ed7 f8bd eb76 703d ab87 8b3e 66e7 36bd
000003c0: 6fd3 993c 6e8e e2bd a8b6 3f3d b60e 803e
000003d0: 0a1f 50bc 2f91 133d 7a06 84bd d715 10be
000003e0: bfcf 133d 80a9 62bd bdaf 113e 3983 6c3e
000003f0: c93c cb3c 483f ad3d f63c 323d 179f 7f3d
0.037225526 0.08522045 -0.035847645 -0.15318447 -0.03308688 0.1501846 -0.08898853 0.13792302
0.079260305 -0.0022355095 0.21244487 0.047066137 0.06656697 -0.06524594 -0.049354423 0.057098694
0.4231328 -0.0522666 -0.066769116 0.0041118786 0.08526393 0.1296455 -0.08123567 0.12898459
-0.06754835 -0.2300986 -0.03296733 -0.0069856723 0.20463122 -0.016255055 -0.0016552343 0.026155
0.33586606 -0.1753391 0.080591485 0.1357073 -0.08268734 0.154237 0.032152653 0.031249285
0.09532367 0.039410796 0.0036908006 0.2386361 -0.027893428 0.06386054 -0.063584924 0.065985784
-0.004528676 0.0059852353 -0.0039258273 -0.18250823 0.2791959 0.1204858 0.03161368 -0.112604074
0.16760163 0.012771998 0.04203695 0.196787 -0.00045246846 0.022755222 -0.023592003 -0.19179928
-0.014904879 -0.08597805 0.08140778 0.011804439 0.19958255 0.087805755 -0.11200028 0.05095928
0.116166286 0.1266579 0.15899087 0.40070644 0.30220684 -0.098025165 0.30577976 -0.023297388
0.038690493 -0.039129008 -0.24882415 -0.0030267686 0.013065094 0.26678833 0.20718916 0.057948783
0.10137932 0.3295026 0.1848552 -0.06680068 -0.041890692 -0.03609318 -0.022910682 0.013341741
0.03703336 0.20598584 0.2525131 0.11155974 -0.12301659 0.029725008 0.028502306 0.267546
0.08988975 0.011884981 -0.24420026 0.017380862 -0.12106609 0.14343107 0.12995718 -0.08313964
0.16604869 -0.22098914 0.048669383 0.16900496 0.016442964 0.035916466 0.073663 0.017359003
0.0753957 -0.034327764 0.30649734 0.15921547 0.1654604 -0.014573672 -0.034759738 0.10487636
-0.04781086 -0.006494321 -0.028778225 0.0645476 -0.006858381 0.14276257 -0.028022083 0.08040844
-0.043460518 0.074143074 0.19589843 -0.031875912 -0.10209141 -0.062455215 0.047333173 0.025945865
0.118586674 0.028790258 -0.000107329965 0.004274428 0.06771976 0.07705905 0.04633465 0.05246213
-0.04494739 0.0039769947 0.045558613 -0.10086057 0.21577762 0.16924524 0.031172479 0.19290107
0.04895277 0.11984142 -0.0011724262 0.021128712 -0.052590996 0.07237871 0.13900794 0.20633538
-0.030044712 0.109880194 0.059161287 0.069228545 0.050081648 0.0011244855 0.09844595 0.12694898
0.034125242 -0.014439965 -0.122581445 -0.016666833 0.083915554 -0.039448075 0.00808832 -0.18714166
0.14650288 -0.041178815 0.09037853 0.065170504 0.083584495 -0.08508829 0.046825923 -0.029538896
0.04642235 -0.077802405 -0.15085933 -0.027183283 0.14816622 -0.057767533 -0.23419939 0.06995689
0.07575707 0.16310474 0.016170438 0.27384812 0.0784569 -0.30044213 -0.0814921 0.02503399
0.13297781 0.07318802 0.101035096 0.08216002 -0.053080034 0.17748216 0.09759274 0.1742738
0.04334018 -0.1294083 0.17719667 0.02409149 -0.19235277 0.077925526 0.024390686 0.023844598
0.04297231 0.059425425 0.07325362 -0.0075513227 -0.115566336 0.08368324 0.012406562 0.19297919
0.101636864 -0.111497216 0.24799344 0.006535241 -0.12150465 0.05870716 0.27251944 -0.044654272
0.018777577 -0.110623226 0.046805054 0.25011224 -0.012702713 0.03602713 -0.06446548 -0.14070831
0.036086794 -0.05533743 0.14227195 0.23096932 0.024809258 0.084593356 0.043515168 0.06240758

fc2.bias f4 [128]
00000000: 9432 503c 788a 573d b931 513c c394 383d
00000010: b86e 933d 9b6f 003d ca2e 33bd 18aa 9fbd
00000020: b7ee a8bd f9a4 e93d 2f4e fd3d d84c 0e3e
00000030: 58e5 29bd ecfb b2bc 88ba 9bbc 089f 5bbd
00000040: edb0 3b3d 8631 053e 3119 80bd b53e d53d
00000050: 56f0 b83d f1ac 023e 2f11 42bd ba80 c93d
00000060: c5b5 ad3d 71cc 983d 2b97 ff3d 51eb a33d
00000070: f3c1 be3c 7fbe 483d 337f dfbc 5e0f ef3d
00000080: 10b6 ef3d e4aa b2bd 4457 36bd f26a 0cbd
00000090: 88da 4abc 2034 173c 48fd a2bd 1a26 9ebd
000000a0: 3961 84bc c17b d6bb cec5 f33d 1618 503d
000000b0: 72c5 c33d 6cf9 923c e086 283d 5f8f 9c3a
000000c0: f855 8ebc 1213 c2bd bb6d 113c d063 cb3a
000000d0: 1f4c 85bd 9023 42bb 50fa 29bd 347f 963d
000000e0: b9f4 613d dcf1 fb3d 4ac5 173b ea28 a23d
000000f0: c5f4 06bc 194a 933d a1e2 c1bc a0fa a7bc
00000100: 0825 0e3d ae5e 0e3d 4b5d 5c3d e73f 893b
00000110: db57 c53c ad80 b23d 7608 10bd 20ae d13b
00000120: 6d3f 0a3d b98e cc3d e8a3 353b 44eb 6b3d
00000130: 79b4 59bd c8df ccbc c517 8dbb 1516 133b
00000140: e575 a4bd 19af 813d e4f2 fb3d 3c51 e73c
00000150: 7249 b2bd e84d b13d daa6 8f3d fb28 de3d
00000160: fcb8 373d fa81 303c d13c 8a3d 3c0c 163d
00000170: e090 27bd fc75 c5bc 64b3 0abd 4032 4d3d
00000180: 59b4 e6bc c2c9 c73d 4b21 88bd 0fd7 773d
00000190: 2729 813d 4e2b 88bd 3bcb c6bb c673 993d
000001a0: 1953 953d a710 8d3d 77d2 503d 2ba0 573d
000001b0: d1fe 843d 0d80 783d fef6 023e 814f 273d
000001c0: 6eec 28bd 2fc9 97bd fbf1 333c 0046 40bd
000001d0: ffdc 3f3c 830f ba3d cf4c f83c d540 42bd
000001e0: cc9f cdbb 7590 a1bc 0c10 de3d 826a 983d
000001f0: e06b 47bd b322 e83c 046a 533d d392 d93d
0.012707371 0.05262229 0.012768202 0.045063745 0.07198852 0.031356435 -0.043745793 -0.07796115
-0.08248656 0.11408419 0.12368428 0.13896501 -0.041478485 -0.021848641 -0.019009843 -0.05361846
0.045823026 0.13007173 -0.06254805 0.10412351 0.090302154 0.12761284 -0.04737967 0.09839006
0.084819354 0.07460869 0.12480005 0.080038674 0.023285842 0.049009796 -0.027282333 0.11672853
0.117046475 -0.08724001 -0.044516817 -0.03428168 -0.0123812035 0.009228736 -0.07958466 -0.07722111
-0.01615964 -0.0065455143 0.119029626 0.05080422 0.09559144 0.0179412 0.04114425 0.0011944583
-0.017374977 -0.094762936 0.008876259 0.0015517417 -0.065086596 -0.0029623248 -0.041498482 0.07348481
0.055165026 0.123019904 0.0023158365 0.0791796 -0.008237069 0.071918674 -0.023667635 -0.02050525
0.034703285 0.034758262 0.05379991 0.004188526 0.024089744 0.08715949 -0.03516432 0.006398931
0.033751894 0.0998816 0.0027716104 0.057597414 -0.053150628 -0.025009051 -0.004305812 0.0022443582
-0.08030299 0.06332225 0.12302187 0.028236978 -0.08705415 0.086574376 0.07014246 0.1084766
0.04485415 0.010773176 0.06749881 0.03663276 -0.040909648 -0.02410411 -0.033862486 0.05009675
-0.028162168 0.09755279 -0.06646975 0.06050783 0.06306677 -0.06648885 -0.0060667074 0.07492785
0.0729124 0.06887942 0.050981965 0.052642982 0.06493915 0.060668994 0.12789533 0.040847305
-0.041241102 -0.074114196 0.010982986 -0.046941757 0.011710404 0.0908499 0.030310063 -0.04742511
-0.006275153 -0.019722203 0.108429044 0.0744219 -0.048686862 0.028336858 0.051614776 0.106237076

fc3.weight f4 [7, 128]
00000000: 3235 e2bc 51a6 0fbd 063d 0abd e263 413c
00000010: 7d8a a33c 005d 57bc 9882 22bd bdb3 bd3e
00000020: e117 80bd 3e24 67bb 75e5 1fbe 937f d2bd
00000030: 74ca a13c 0564 5a3d 93f1 58bc 23b9 463b
00000040: 52e9 003c 3674 00be aa8c 28bb fd71 2abc
00000050: 4b1f 063d 395c 8fbd ea27 573c f593 b33c
00000060: 7617 d3bd c65c 2fbd e5bc 1fbe b0f2 28be
00000070: 6d5c 6cbd c6ea 03bc 4cfc 36bc 56ef 603d
00000080: c3bd edbc 82c2 aebd c004 94ba 3279 0abd
00000090: 0258 663c 92f0 80bc 6059 60bb b288 67bd
000000a0: c3cd 04be b202 9cbd 6850 c2bd 7648 9e3c
000000b0: 327f 11bd 8285 643d cffb 97bd 5e0f 9cbc
000000c0: 9c11 a3bd 2830 74bb cd5b b53d 8aff 97bc
000000d0: 684d e8bc 4b09 95bd ff20 51bd 90b5 ddbd
000000e0: 49a1 aebd 48f4 07bd 001f 35bd 4c38 13be
000000f0: 8ff2 3fbd efe2 c6bc 89bb 9fbd 4cd5 c83c
00000100: efe7 dbbd f670 30bb 634a 00bd a8d0 2f3e
00000110: dae7 09be 607b 05be ca53 4cbc 55da 6e3d
00000120: faeb 1b3e 9425 b6bc 3499 a2bd b49a 92bd
00000130: 530d fd3d a0eb 07be ee1b c4bd 8cd2 01be
00000140: b34b 6b3d 91ce a43c 48b0 89bc 29d4 ccbd
00000150: 899c 91bd 5453 85bd 8e9b 9dbc 1dbc 26bd
00000160: b684 bcbd 081a 6ebd 0334 68be eb82 b3bc
00000170: b81c 3c3c fae2 4bbd 5185 d0bc 8eb4 f9bc
00000180: 0c94 cfbc 507f a5bd 4e1d 43bd b8b6 2abd
00000190: 6932 e4bc 40a8 ab3d b844 5dbd 3cc5 75bd
000001a0: c905 2c3b ba87 a6bc a1dc f33c 622e a9bb
000001b0: fc58 4dbd e30b f53c a9e0 64bd a7cf 18be
000001c0: 9768 ad3d 222a 6b3d e792 14bd 7266 97bd
000001d0: 992a 5dbe c42e 013d dd76 613d 0011 afbc
000001e0: 2bb9 5ebd bc04 40bd a1c8 f4bd d019 ca3b
000001f0: 4c9b babd a02d 45bb 8741 0ebe 6971 62bd
00000200: f8c4 2bbd 8d83 1dbe a565 653c 287a 7c3d
00000210: be05 05be ab61 d4bd 70b5 993d 9388 9f3d
00000220: 6af6 89bd fbb3 0ebe 9f7f b73c d5bf e43c
00000230: 689e 2e3c 29d4 503d 7386 5dbd 14de 7b3d
00000240: 47ad eebd 5d5a 8ebd b952 49bd 6dd2 f2be
00000250: c8a3 d0bc b50f 86bd 58d7 be3b 0a1f 1abe
00000260: df46 c0bd 2c64 c9bd 9863 7b3a 03e8 4c3d
00000270: c991 c6bd 0971 6ebc 0429 0dbe 4646 3ebe
00000280: 6165 81be 28c3 c23c d8f2 6fbc 3439 4dbd
00000290: 869c 24bc 0ea2 b5bd 702d 6fbc 002a 77bc
000002a0: 2892 13be ee95 c6bd 6f93 16bd 74f6 833c
000002b0: 7931 3bbd 6d85 98bd 320a babc a625 a8bc
000002c0: 773a ad3d 2fcf 193d 622b d0bc 3bf1 97bd
000002d0: 86a2 453d 3dc6 9cbd f770 3fbe 8130 c4bd
000002e0: 092a 70bd a932 18be 132f 0dbe 3d4e 07be
000002f0: 76b9 963d ac1b 163d c9a9 75be 8ead 613d
00000300: 9980 aa3c 7b55 17be b796 bb3c 3c8a c73e
00000310: 6325 c7bd 334b 1a3e e43e 863d ff10 5f3c
00000320: 4f6f 5c3c d999 cd3b df0d dcbd 3f75 a53d
00000330: 2e50 cd3e 89d1 50bd cc46 813e 9b6d 62bd
00000340: 76dc c53a c738 25be 3ebf aebd 2e69 40be
00000350: b7ef b03d 003d 153d 8921 8d3d b7ec 10be
00000360: f85a 93bd a871 e6bd 976a 953e 3515 283c
00000370: a84a 463c 2f75 843d fd0a 2abe 4a5e 95bd
00000380: 9903 b6bd 9e54 ffbd e03b bf3c ba07 4f3d
00000390: 745f d23d 7b10 19bc 8be7 dfbd 92cf c8bd
000003a0: 6a73 18be 1806 2dbe 0ee3 dbbd a4b8 18be
000003b0: 0c99 08bd e3d2 583c 449f c43c 2618 b9bc
000003c0: 0c7a c8bc 924e 9cbd 6526 3b3d a0c8 753b
000003d0: 8be9 9abe 2076 03be 008b d53c 60f5 333c
000003e0: 7be1 b8bd 501d fbbe 076f 0cbe 6c0e cfbd
000003f0: 8999 d8be 2da7 843b 3629 22bd 56bb 1cbe
-0.027613256 -0.03507072 -0.033749603 0.011803599 0.019963497 -0.0131447315 -0.039675325 0.37051192
-0.062545545 -0.0035269405 -0.15614875 -0.10278239 0.019749857 0.053318042 -0.0132411895 0.0030322752
0.007868128 -0.12544331 -0.0025718608 -0.0104031535 0.032744687 -0.07000012 0.013132075 0.021921137
-0.10307209 -0.042813085 -0.15599401 -0.16498828 -0.05770533 -0.00805158 -0.011168551 0.05491575
-0.02902115 -0.08533193 -0.001129292 -0.033806987 0.014059069 -0.015739713 -0.003423296 -0.056526847
-0.12969117 -0.076177016 -0.094879925 0.019321661 -0.035521694 0.055791385 -0.074210756 -0.019050296
-0.07962343 -0.0037260149 0.088554 -0.018554468 -0.028357223 -0.07277163 -0.05105686 -0.10825646
-0.085268565 -0.03319195 -0.044219017 -0.14376944 -0.04686218 -0.024278132 -0.07799441 0.02451577
-0.10737597 -0.0026922799 -0.03132094 0.1716944 -0.1346735 -0.13035345 -0.012471149 0.058313686
0.15226737 -0.022234716 -0.079393774 -0.071584135 0.12356057 -0.13273478 -0.0957564 -0.12677974
0.05744524 0.02011803 -0.01680769 -0.10001404 -0.07109935 -0.06510034 -0.019239213 -0.040706743
-0.09205 -0.058130294 -0.22676091 -0.021913012 0.011481456 -0.04977701 -0.025454195 -0.030481603
-0.025339149 -0.080809236 -0.04763537 -0.04167816 -0.027856069 0.083817005 -0.054020613 -0.06000255
0.0026248565 -0.020328391 0.02976829 -0.005163 -0.05013369 0.029912895 -0.055878315 -0.14922963
0.084672146 0.057413228 -0.03627291 -0.07392587 -0.21598281 0.03153874 0.055044997 -0.02137041
-0.05437581 -0.046879515 -0.119523294 0.006167628 -0.09111652 -0.003008701 -0.13892184 -0.055283938
-0.04193589 -0.15382214 0.014001285 0.061639935 -0.12990472 -0.10370191 0.075053096 0.07789721
-0.06736453 -0.13935845 0.022399722 0.027923504 0.010657884 0.05098358 -0.0540833 0.061491087
-0.11654144 -0.06950829 -0.049151156 -0.47426167 -0.025468722 -0.06545965 0.005824011 -0.15050903
-0.093885176 -0.098335594 0.0009589731 0.05002595 -0.09695775 -0.014553317 -0.13785177 -0.18581495
-0.25272658 0.023774698 -0.014645301 -0.05010338 -0.010047084 -0.088688 -0.0145982355 -0.015085697
-0.14411223 -0.096965656 -0.036761697 0.016108729 -0.045701478 -0.07447324 -0.02270994 -0.020525765
0.08458417 0.0375511 -0.025411312 -0.07419058 0.048250698 -0.076549985 -0.18695436 -0.09579564
-0.058633838 -0.14863075 -0.13787489 -0.1321344 0.073595926 0.036647484 -0.23990549 0.055097155
0.020813273 -0.14778702 0.022899015 0.38972652 -0.09723928 0.15067749 0.06554964 0.013614892
0.013454272 0.0062744436 -0.10744833 0.080790035 0.40100235 -0.05098108 0.25249326 -0.05528031
0.001509561 -0.1613494 -0.0853257 -0.18790123 0.08639472 0.036435127 0.06891162 -0.141528
-0.07195085 -0.11252147 0.29182884 0.010258962 0.01210276 0.064676635 -0.16605754 -0.07293375
-0.08887405 -0.12467311 0.02334398 0.050544478 0.102721125 -0.009342308 -0.10932835 -0.09805216
-0.14887777 -0.16896856 -0.107366666 -0.14914185 -0.033349082 0.013233873 0.024001725 -0.022594523
-0.024472259 -0.076321736 0.045690913 0.0037503615 -0.30256304 -0.1283803 0.026067257 0.010983795
-0.09027382 -0.490458 -0.13714229 -0.10110173 -0.42304638 0.004048249 -0.039590083 -0.15305838

fc3.bias f4 [7]
00000000: 5c78 b1bb 8dcd cebd 49f3 cdb9 e6c6 36bc
00000010: d80d 56bd 0cc5 fd3c f58b 863c
-0.0054159593 -0.100977995 -0.00039281909 -0.0111558195 -0.052259296 0.030977748 0.016424159
