hackathon_toolkit/checkpoints_qlearn_CTDE/reward_trick_target_agent_0_episode_501.pth (torch, 99848 bytes, 6 tensors)

fc1.weight f4 [128, 52]
0	0x3de2eb90	0.11080086
1	0x3e04745b	0.12935011
2	0xbd18de00	-0.03732109
3	0xbdf08631	-0.11744345
4	0xbd121531	-0.03566474
5	0xbd7383f2	-0.059452005
6	0x3dcbbbe6	0.09947948
7	0xbbf4a660	-0.0074661225
8	0x3d96a6fc	0.073560685
9	0x3dc7558c	0.09733114
10	0xbc1e1fa1	-0.009651096
11	0x3d8498e2	0.064744726
12	0xbdd785d0	-0.105235696
13	0x3df2b5ba	0.11851068
14	0xbd82e4e7	-0.06391316
15	0xbdf9b020	-0.12191796
16	0x3cd13ae8	0.025540784
17	0x3d990ac4	0.074727565
18	0x3e079135	0.13238986
19	0xbdf37c8e	-0.11888991
20	0x3e00264d	0.1251461
21	0x3e04b37f	0.12959097
22	0xbe05e004	-0.13073736
23	0x3e1579e9	0.14597286
24	0xbda5a61c	-0.080883235
25	0xbccb9a3c	-0.024853818
26	0xbdfcd1c0	-0.12344694
27	0xbe09ad32	-0.13444975
28	0xbe02937e	-0.12751576
29	0x3df7a876	0.12092678
30	0xbdb4b0fc	-0.088228196
31	0xbdf38dec	-0.11892304
32	0xb9deea00	-0.00042517483
33	0x3d93d1c0	0.07217741
34	0x3da8bc48	0.08239037
35	0x3e02a7cf	0.12759326
36	0xbd3c82a0	-0.04602301
37	0x3d125fc8	0.035735875
38	0xbda5f037	-0.08102458
39	0x3cfc71d8	0.030816004
40	0xbdf5c547	-0.12000518
41	0x3d3f9750	0.046775162
42	0xbce8befc	-0.028411381
43	0x3d8685ae	0.06568466
44	0x3d1be4f8	0.03806016
45	0xbd5a84b4	-0.05334921
46	0x3dc3db1a	0.09563275
47	0xbd300aca	-0.04297904
48	0x3da697e8	0.081344426
49	0xbc89b2a4	-0.016808815
50	0x3da1782a	0.078842476
51	0xbd91d4e2	-0.07120682
52	0x3c2223b0	0.009896204
53	0xbd7ee354	-0.062228516
54	0xbdf5d9f5	-0.12004463
55	0xbbfa2880	-0.0076342225
56	0x3d33675c	0.043799743
57	0xbd89537f	-0.06705379
58	0x3e0dade1	0.13835861
59	0xbd038002	-0.0321045
60	0x3def1506	0.11673932
61	0xbdaf5e72	-0.08562936
62	0xbdd415c5	-0.10355715
63	0xbc813ba4	-0.01577551
64	0xbdea30f6	-0.1143512
65	0x3ccf6af8	0.025319561
66	0x3e09257d	0.13393207
67	0x3d95db1a	0.07317181
68	0xbd315a5e	-0.04329907
69	0xbd248918	-0.040169805
70	0xbe0bd86d	-0.13656779
71	0xbde82432	-0.11335029
72	0xbd28ba04	-0.041193023
73	0xbdce420a	-0.1007119
74	0xbdef9e75	-0.11700145
75	0x3df95796	0.12174909
76	0xbdde4759	-0.10853452
77	0xbd2f85d6	-0.042852245
78	0xbd0387f8	-0.03211209
79	0x3d1e1f90	0.03860432
80	0xbe01b950	-0.12668347
81	0x3c8aede8	0.016959146
82	0xbd8b2ac8	-0.06795269
83	0x3d7a870c	0.061163947
84	0x3d8433ac	0.06455168
85	0xbc6cc418	-0.014451049
86	0xbd7f75bc	-0.06236814
87	0x3a4e0a00	0.00078597665
88	0x3cd76f08	0.026298061
89	0x3d4fa2ec	0.050692484
90	0xbd3fd456	-0.04683336
91	0x3cb5cd00	0.022192478
92	0xbd8eb53d	-0.06968162
93	0x3dc6bbd0	0.09703791
94	0xbb8743a0	-0.0041279346
95	0x3cb01218	0.021493003
96	0xbd2cd98c	-0.042199656
97	0xbdceb614	-0.100933224
98	0xbde14533	-0.10999527
99	0x3d18c10c	0.03729348
100	0xbd36dab2	-0.044642158
101	0xbd480652	-0.048834153
102	0xbd1b3fa6	-0.037902497
103	0xbd9b94bb	-0.075967275
104	0xbc88722c	-0.016656004
105	0xbdb34590	-0.08753502
106	0x3d5ee20d	0.054414798
107	0xbd969e45	-0.07354406
108	0xbc9d6c1c	-0.01921659
109	0x3c5e7c50	0.013579443
110	0x3d685cb2	0.056729026
111	0x3dc18632	0.09449424
112	0x3da33194	0.07968441
113	0xbdd93e10	-0.106075406
114	0xbddf0860	-0.10890269
115	0x3d468e22	0.048475392
116	0x3dde3b3d	0.108511426
117	0xbd467330	-0.048449695
118	0x3ddfd922	0.10930087
119	0xbd91139b	-0.070838176
120	0xbda709d3	-0.08156171
121	0xbd8ece86	-0.06972985
122	0xbd7a016d	-0.061036516
123	0xbb3fd2c0	-0.0029269904
124	0xbe088bc6	-0.1333457
125	0xbe0099d0	-0.12558675
126	0xbd9b3aa3	-0.075795434
127	0x3cee3235	0.029076675
128	0x3d8024aa	0.06256993
129	0xbd826262	-0.06366421
130	0x3d7fdd6c	0.062467024
131	0xbe082ca3	-0.13298278
132	0x3db53716	0.088483974
133	0x3d8103f6	0.062995836
134	0x3d9d09c4	0.07667878
135	0xbd583ea0	-0.0527941
136	0x3e04b3b9	0.12959184
137	0xbde78af4	-0.113058
138	0x3d850f14	0.064970165
139	0x3e04ef9b	0.12982027
140	0x3d3b81e4	0.04577817
141	0x3d86fe40	0.06591463
142	0x3db8d0d0	0.09024203
143	0x3da9eec7	0.08297496
144	0x3dcf6f60	0.10128665
145	0xbdab6730	-0.08369291
146	0x3abf7180	0.0014605969
147	0x3d2cfaac	0.042231247
148	0x3d2d80f4	0.042359307
149	0xbcd877b0	-0.026424259
150	0x3e0493ad	0.12946959
151	0x3db51bb8	0.088431776
152	0xbdc7d4c4	-0.09757379
153	0xbd71979e	-0.058982484
154	0x3da83364	0.08212927
155	0xbd7d3bee	-0.06182473
156	0x3e130b4f	0.14359783
157	0xbd294d67	-0.041333582
158	0x3de9c147	0.11413818
159	0xbceb6c50	-0.02873817
160	0xbd7f8a93	-0.062388014
161	0xbd250aec	-0.04029362
162	0xbdbd2d24	-0.092371255
163	0xbdb4015b	-0.08789321
164	0x3d997ef6	0.07494919
165	0xbe15b48a	-0.14619651
166	0x3dfcb0a5	0.1233838
167	0x3de9f2c2	0.114232555
168	0x3dbf9765	0.09355048
169	0xbe19f92e	-0.15036461
170	0xbd3b2548	-0.04568985
171	0x3df066ba	0.117383435
172	0x3e02846b	0.12745826
173	0x3d84b209	0.0647927
174	0xbdeaf02d	-0.11471591
175	0x3e00fc93	0.1259635
176	0x3d275ac4	0.040858045
177	0xbdaa3b20	-0.083120584
178	0x3d1b3604	0.03789331
179	0x3e150e95	0.14556344
180	0xbd37ab9c	-0.044841394
181	0xbdb6e69c	-0.08930704
182	0x3ba800a0	0.0051270276
183	0x3d9f590e	0.07780658
184	0xbcb91764	-0.022594161
185	0x3dad87ee	0.08473192
186	0x3d699630	0.057027996
187	0xbddac368	-0.10681802
188	0x3df2288a	0.118241385
189	0x3d6e4380	0.05816984
190	0x3e05c379	0.13062848
191	0x3dc3c030	0.09558141
192	0xbd1336f4	-0.03594108
193	0x3d29f224	0.04149069
194	0xbd95e6a6	-0.07319383
195	0x3da38a0f	0.07985317
196	0xbd14431e	-0.03619682
197	0xbe03458e	-0.12819502
198	0xbd14bc02	-0.03631211
199	0xbd606238	-0.05478117
200	0xbca56594	-0.020190038
201	0x3df6b78e	0.12046729
202	0x3d7b6f44	0.061385408
203	0xbccd8f19	-0.025092648
204	0x3ddc753e	0.1076455
205	0xbbc37320	-0.0059646517
206	0x3dcd697c	0.10029885
207	0x3daeb56f	0.085306995
208	0x39c3c600	0.0003734082
209	0xbd9478d0	-0.07249606
210	0xbd5c7d76	-0.053830586
211	0x3dd35350	0.10318625
212	0x3d472367	0.048617747
213	0x3c99c628	0.018771246
214	0xbdbf82f3	-0.093511485
215	0x3d2d99cc	0.042383
216	0x3dbd317a	0.092379525
217	0x3d87d136	0.06631701
218	0x3dd87480	0.105690956
219	0x3d16a408	0.036777526
220	0x3c9aba0e	0.018887546
221	0xbd065460	-0.03279531
222	0x3d89a05a	0.06720038
223	0xbdbbce28	-0.091701806
224	0x3cda2741	0.026630046
225	0xbcf36798	-0.029712483
226	0xbd4964ff	-0.049168583
227	0xbd002b20	-0.031291127
228	0x3c3229d0	0.010874227
229	0xbd1d573f	-0.038413282
230	0xbc546eb6	-0.012965849
231	0xbd73b264	-0.0594963
232	0xbd1beda6	-0.038068436
233	0xbdc25cc6	-0.094903514
234	0x3e0df6b9	0.13863648
235	0x3d2e5ea0	0.04257071
236	0x3d7f3aec	0.06231205
237	0x3d6342d4	0.055483654
238	0xbe022272	-0.12708452
239	0x3dcfe1b6	0.10150473
240	0xbd689464	-0.05678214
241	0x3e024f53	0.12725572
242	0x3cff8a40	0.031193852
243	0x3e0b429b	0.13599627
244	0xbd823dbb	-0.063594304
245	0xbde07354	-0.10959497
246	0xbdcfd353	-0.10147729
247	0x3d95023e	0.07275818
248	0x3d6308cc	0.05542831
249	0xbdec24de	-0.11530469
250	0x3cbdb1e0	0.023156106
251	0xbd67c4da	-0.056584217
252	0xbd37be4c	-0.044859216
253	0x3e04db49	0.12974276
254	0xbd93f5ff	-0.072246544
255	0x3bb459a0	0.005503848

fc1.bias f4 [128]
0	0xbca63e07	-0.020293249
1	0xbe01662a	-0.12636629
2	0xbd88d51a	-0.06681271
3	0xbd330639	-0.043707106
4	0xbdaf8142	-0.08569576
5	0xbcae6e6a	-0.021292884
6	0x3e118535	0.1421097
7	0x3dc2479c	0.09486315
8	0xbd7c609f	-0.061615583
9	0xbd903412	-0.070411816
10	0xbc96763c	-0.018366925
11	0xbdb87c5f	-0.09008097
12	0xbc789b06	-0.015173679
13	0x3d0683b5	0.03284045
14	0xbd163ba8	-0.036677986
15	0xbd593f5a	-0.053038932
16	0x3dc00979	0.09376807
17	0xbd7ba1a6	-0.061433457
18	0x3d5f4fd4	0.05451949
19	0xbcc799a0	-0.024365246
20	0x3db92f9b	0.09042283
21	0x3de1b5fb	0.11021038
22	0x3dabdce7	0.08391743
23	0xbd4d8aab	-0.050181072
24	0x3c49193a	0.012274081
25	0x3db3b58e	0.08774863
26	0x3e083b04	0.13303763
27	0x3e07981d	0.1324162
28	0x3da8a5e8	0.08234769
29	0x3dc9471e	0.09828018
30	0x3db9c1b1	0.09070147
31	0x3c10f1d0	0.008846715
32	0xbccc8938	-0.024967775
33	0xbd2c62f0	-0.04208654
34	0xbdde7f87	-0.10864168
35	0x3d40e59a	0.047093965
36	0xbde7cf6b	-0.11318859
37	0x3e07d193	0.1326354
38	0xbd2c50eb	-0.042069357
39	0x3de90cd0	0.11379397
40	0x3debee97	0.11520117
41	0x3c90a115	0.017654935
42	0x3db6eca6	0.08931856
43	0xbdc432b8	-0.09579986
44	0xbd305a52	-0.043054886
45	0xbd10ae21	-0.035322312
46	0x3d7004f9	0.058598492
47	0xbdebf56e	-0.115214214
48	0xbdc8af91	-0.09799112
49	0x3dee352f	0.11631238
50	0x3e01f3b0	0.12690616
51	0x3dced994	0.101000935
52	0x3b9a62a0	0.004711464
53	0xbdc19b6e	-0.09453474
54	0xbc854252	-0.016266976
55	0xbcb9cd27	-0.022680832
56	0x3d85bbb6	0.06529944
57	0x3d90c8f1	0.070695765
58	0x3d446b42	0.04795385
59	0x3dcecda2	0.10097815
60	0x3ce6adb0	0.028158993
61	0xbdf5e059	-0.120056815
62	0xbd433f6e	-0.047667913
63	0xbd0e256d	-0.03470366
64	0xbccf454c	-0.025301598
65	0x3d8f46a2	0.06995894
66	0xbdb7df80	-0.08978176
67	0xbe015592	-0.12630299
68	0xbca23935	-0.019802669
69	0xbe032f30	-0.1281097
70	0xbda17337	-0.078833036
71	0xbdc5eaf5	-0.09663955
72	0xbdcec2d2	-0.10095753
73	0x3db93b7f	0.09044551
74	0x3cc695ea	0.024241406
75	0xbca7159b	-0.020396044
76	0xbcbf3cc5	-0.023344407
77	0xbdd27c7c	-0.1027765
78	0xbdc2354a	-0.0948282
79	0xbd6b393f	-0.05742764
80	0xbd69e1e6	-0.0571002
81	0xbd8bea21	-0.06831766
82	0x3d8ebdc4	0.06969789
83	0x3cae3570	0.021265715
84	0xbdffae0b	-0.12484368
85	0xbdae380b	-0.08506783
86	0xbdc0eb3d	-0.09419868
87	0x3e159af4	0.14609891
88	0x3e0f97cf	0.14022754
89	0x3da5daeb	0.08098396
90	0xbd92f4b2	-0.07175578
91	0x3d982c28	0.07430297
92	0x3c556f74	0.013027061
93	0xbd259893	-0.04042871
94	0x3d97bb49	0.07408769
95	0x3c308786	0.010774499
96	0xbc2bc864	-0.010484789
97	0xbdb153e1	-0.08658577
98	0x3d50ea23	0.05100454
99	0xbd913a7d	-0.07091234
100	0x3d545141	0.051835302
101	0x3da5dcf7	0.08098786
102	0x3dfa3388	0.1221686
103	0xbde5f68d	-0.112286665
104	0x3dd8302e	0.105560645
105	0xbd1e3d3d	-0.03863262
106	0xbb52eb01	-0.003218353
107	0x3dbb1652	0.09135117
108	0x3d570811	0.052497927
109	0xbd88e29c	-0.06683847
110	0x3c76aca0	0.015055805
111	0xbd889408	-0.0666886
112	0xbcb90e3b	-0.022589793
113	0xbdb2773c	-0.087141484
114	0xbd85293e	-0.06502007
115	0xbd123296	-0.035692774
116	0xbe09fb9e	-0.1347489
117	0x3d6485fa	0.055791833
118	0x3d6c693f	0.057717558
119	0x3c8e3dfc	0.01736354
120	0x3df6576e	0.12028395
121	0xbddb38cc	-0.107041925
122	0x3d5d34c7	0.05400541
123	0x3e07b04a	0.13250843
124	0x3d98989a	0.074509814
125	0xbabc43c0	-0.0014363453
126	0xbdfc5d58	-0.123224914
127	0x3d20a6f0	0.039221704

fc2.weight f4 [128, 128]
0	0x3d49b738	0.049246997
1	0x3dae880f	0.08522045
2	0xbd0f5979	-0.034997437
3	0x3bc8c8ca	0.0061274515
4	0xbcd84e51	-0.026404532
5	0x3b88d1fd	0.004175423
6	0xbbf1bc26	-0.0073771654
7	0x3d266a85	0.04062893
8	0x3d8a2013	0.06744399
9	0xbb1281a0	-0.0022355095
10	0xbd05b2f6	-0.032641374
11	0xbcaee787	-0.021350635
12	0x3c4efc78	0.012633435
13	0xbd4ed46f	-0.05049556
14	0xbd4a27dd	-0.049354423
15	0x3d69e053	0.057098698
16	0xbca2bf1b	-0.019866517
17	0xbd561581	-0.0522666
18	0xbd1efef3	-0.038817357
19	0x3b86bcf0	0.0041118786
20	0x3d974e31	0.07387961
21	0x3d2e6bb0	0.042583168
22	0xbd5e6cc8	-0.05430296
23	0xbca922c5	-0.020646462
24	0x3d7cdf36	0.061736308
25	0xbdd9a641	-0.106274135
26	0xbd492003	-0.049102794
27	0x3d4c512a	0.04988209
28	0x3da95080	0.08267307
29	0xbc9f91da	-0.019478727
30	0x3d0acca1	0.033886556
31	0x3cb86747	0.022510184
32	0x3dc75d71	0.097346194
33	0xbd5b21e6	-0.053499125
34	0x3dabd366	0.083899304
35	0x3d93706d	0.07199178
36	0xbda957ff	-0.08268737
37	0x3db723af	0.08942353
38	0xbd113ca3	-0.03545822
39	0x3ce3a4c2	0.027788524
40	0x3db3efae	0.0878595
41	0xbd5fb801	-0.05461884
42	0x3ce93bf5	0.028470973
43	0x3db68186	0.089114234
44	0xbce480c2	-0.027893428
45	0x3ccc5e83	0.02494741
46	0xbd9382e4	-0.072027
47	0xbc69acb6	-0.014262369
48	0xbd7c041e	-0.061527364
49	0xbd73be0f	-0.059507426
50	0xbcc6f889	-0.024288433
51	0xbd8fa877	-0.07014554
52	0x3d98b5d1	0.07456554
53	0x3d069092	0.032852717
54	0x3c4fb380	0.0126770735
55	0x3bd1ca27	0.0064022723
56	0x3b206fb8	0.0024480652
57	0x3d33d62c	0.043905422
58	0xbcd878b0	-0.026424736
59	0x3d84abbb	0.064780675
60	0xbbed4d11	-0.007241853
61	0x3d2c1804	0.04201509
62	0xbcc14404	-0.023592003
63	0xbd24b77f	-0.040214058
64	0x3cad52cc	0.021157645
65	0xbdab4a91	-0.08363832
66	0x3cbd00b1	0.023071619
67	0x3c416768	0.011804439
68	0x3cf1bd1b	0.029509118
69	0x3db3d381	0.087805755
70	0x3c106220	0.008812457
71	0x3d50baae	0.05095928
72	0xbd5ef127	-0.0544292
73	0x3dcb3298	0.09921759
74	0x3d327b00	0.043574333
75	0x3de0c362	0.10974766
76	0x3d42239e	0.04739725
77	0xbcc359e5	-0.023846576
78	0x3d407c53	0.046993565
79	0x3d8d295c	0.06892654
80	0xbd358f00	-0.04432583
81	0x3a09d012	0.000525714
82	0xbd6e9440	-0.05824685
83	0xbb465cc0	-0.0030267686
84	0x3c5120af	0.01276414
85	0x3d30073d	0.042975653
86	0x3db20822	0.086929575
87	0xbcc32bbe	-0.023824569
88	0x3db795eb	0.089641415
89	0x3ded2105	0.115785636
90	0x3daba0dd	0.083802916
91	0xbd88cecb	-0.06680068
92	0xbcdbbd36	-0.026823621
93	0x3d8233c0	0.06357527
94	0x3c9232f1	0.017846556
95	0xbca4655a	-0.02006786
96	0xbd652d44	-0.05595137
97	0x3dbcb529	0.09214241
98	0x3d89fc77	0.06737607
99	0x3dbac7e1	0.09120155
100	0xbd946d37	-0.072473936
101	0x3cb03850	0.021511227
102	0x3cf0bb63	0.029386228
103	0x3da092aa	0.07840474
104	0xbc438b47	-0.011935062
105	0x3c337583	0.01095331
106	0xbb4e1f7a	-0.0031451867
107	0x3cde02cb	0.027100941
108	0x3cc1a95e	0.02364033
109	0x3c64c192	0.013962166
110	0xbb39d45c	-0.0028355336
111	0xbd7455bd	-0.05965208
112	0x3da9b94d	0.082872964
113	0xbd826050	-0.063660264
114	0x3d844281	0.06457997
115	0x3d89be6a	0.06725772
116	0x3c825a28	0.01591213
117	0xbd4c97bc	-0.049949393
118	0x3d74b3b5	0.059741694
119	0xbc4a429a	-0.012344981
120	0x3d4501f4	0.048097566
121	0xbd0c9b45	-0.034327764
122	0x3d3769f2	0.04477877
123	0x3ab94b4f	0.0014136824
124	0x3dd2e837	0.10298198
125	0xbd9063da	-0.07050295
126	0xbd0e603a	-0.034759738
127	0x3c7212b4	0.014774967
128	0xbcdd9abb	-0.02705132
129	0xbbd4ce50	-0.006494321
130	0xbcdb2e94	-0.026755609
131	0x3c45927f	0.012058853
132	0xbb5bfff7	-0.0033569315
133	0x3cd7ef16	0.026359122
134	0xbb5dcff2	-0.003384587
135	0x3c99c876	0.018772345
136	0xbccdce55	-0.0251228
137	0x3d97d853	0.074143074
138	0x3d923689	0.07139308
139	0xbd453528	-0.048146397
140	0x3d4f5434	0.05061741
141	0xbb4bca2c	-0.0031095846
142	0x3d41e079	0.047333214
143	0x3cd48c6c	0.025945865
144	0x3d924964	0.071429044
145	0x3cebd98c	0.028790258
146	0x3bb88001	0.0056304936
147	0x3b8c1080	0.004274428
148	0x3d0db810	0.034599364
149	0x3bf9b7dd	0.007620795
150	0x3c866aad	0.016408289
151	0xbd38d99d	-0.045129407
152	0x3c340e75	0.010989775
153	0x3d987f96	0.0744621
154	0x3d805a2b	0.06267198
155	0xbd8037ed	-0.06260667
156	0x3dc60d8b	0.09670552
157	0x3dbc4532	0.091928855
158	0x3c8a0522	0.01684815
159	0x3d9ac65c	0.07557365
160	0xbbb098c2	-0.005389304
161	0x3d3de041	0.046356443
162	0x3aeb3b79	0.0017946801
163	0x3d2df67f	0.042471405
164	0xbd5769a8	-0.052590996
165	0x3cf9166d	0.030406201
166	0x3c3d75e4	0.011563752
167	0x3dd99ba5	0.1062539
168	0xbd8849b6	-0.06654684
169	0x3da1d031	0.079010375
170	0xbba6178d	-0.0050687254
171	0xbce20b1f	-0.027593194
172	0x3d4d226a	0.050081648
173	0x3c69a9fd	0.01426172
174	0x3dad353e	0.08457421
175	0x3db505ab	0.08838972
176	0xbd456fbb	-0.048202258
177	0x3c844d80	0.016150236
178	0xbd93b4ea	-0.07212241
179	0x39bffdf4	0.0003661957
180	0xbcfa5196	-0.030556481
181	0xbd1231e5	-0.035692114
182	0x3d8c32bd	0.06845615
183	0xbd3e5900	-0.046471596
184	0x3cbe47b7	0.023227556
185	0xbd77677a	-0.060401417
186	0x3d930092	0.07177843
187	0xbd2079d5	-0.039178688
188	0x3d9a92c6	0.07547526
189	0xbd14d974	-0.036340192
190	0x3d3fcc8a	0.046825923
191	0x3d318b69	0.043345843
192	0xbca53835	-0.020168403
193	0xbd9a416e	-0.07532011
194	0xbdc1a75e	-0.09455751
195	0xbcdeaf7a	-0.027183283
196	0xbd4c9761	-0.049949054
197	0xbd6c9da6	-0.057767533
198	0xbd4ec3f0	-0.05047983
199	0x3d8f458f	0.06995689
200	0x3c52b5c8	0.012860723
201	0x3d876f98	0.06613082
202	0xbca88e09	-0.02057554
203	0x3de6e14d	0.112734415
204	0xbc9e09b4	-0.019291736
205	0xbd864d57	-0.0655772
206	0x3c620cbc	0.013796981
207	0x3da317ba	0.0796351
208	0x3d66bb03	0.056330692
209	0x3d034ec5	0.032057542
210	0x3d8e5177	0.06949132
211	0x3da84383	0.08216002
212	0xbd6f4486	-0.05841496
213	0x3d9584a0	0.07300687
214	0xbc7540ef	-0.014969095
215	0x3d69b868	0.05706063
216	0x3be1e700	0.0068939924
217	0xbdac0d19	-0.08400936
218	0x3d291335	0.041278083
219	0x3cc55b84	0.02409149
220	0xbdb9508d	-0.09048567
221	0x3dad26a1	0.084546335
222	0xbd1fc0c6	-0.039002202
223	0xbbee4510	-0.0072714165
224	0x3c6106f6	0.01373457
225	0x3d43afd2	0.047775097
226	0x3ccdd383	0.02512527
227	0xbd9aa6c5	-0.0755134
228	0xbd061f88	-0.032744914
229	0x3db99f31	0.090635665
230	0xbd7a3d96	-0.06109389
231	0x3dc5fe5f	0.09667658
232	0x3d9e3b52	0.07726158
233	0xbd46dcbd	-0.048550356
234	0x3c5cfb72	0.013487684
235	0xbc8248f7	-0.015903933
236	0x3c2d93dd	0.010594335
237	0xbc5778dd	-0.013151375
238	0x3dd32672	0.10310067
239	0x3bae7357	0.005323808
240	0xbc862671	-0.016375752
241	0x3cace855	0.021106878
242	0x3d97f577	0.074198656
243	0x3de04a50	0.10951674
244	0xbc6e389c	-0.014539864
245	0x3d34824e	0.04406958
246	0xbd18422e	-0.03717249
247	0xbda4a10d	-0.080385305
248	0x3dac6cfd	0.08419225
249	0xbd62a980	-0.05533743
250	0x3cca43b2	0.024690483
251	0x3de88b51	0.113546975
252	0xbac5f9be	-0.0015104336
253	0x3d029bda	0.031886913
254	0x3d323cf6	0.043515168
255	0x3d47f477	0.048817124

fc2.bias f4 [128]
0	0x3bcb8b4b	0.0062116734
1	0x3cb136ce	0.021632578
2	0x3c5f5392	0.013630765
3	0x3d574539	0.05255625
4	0x3ce0332d	0.027368153
5	0x3a8e58f4	0.001086025
6	0xbd2a7d83	-0.041623604
7	0xbd849e88	-0.0647555
8	0xbda8eeb7	-0.08248656
9	0x3db472fe	0.088109955
10	0x3da1172a	0.07865746
11	0x3dad8b36	0.08473818
12	0xbd29e558	-0.041478485
13	0xbc7ddaf1	-0.015494094
14	0xbc8716e5	-0.01649041
15	0xbd51c7b0	-0.051215827
16	0x3d19e20d	0.037569094
17	0x3d8e5fd9	0.06951875
18	0xbd6dbe75	-0.058042962
19	0x3d962d32	0.07332839
20	0x3d7c9665	0.061666865
21	0x3db20845	0.086929835
22	0xbd2e6a39	-0.04258177
23	0x3d92c998	0.07167357
24	0x3d27122c	0.040788814
25	0x3d409008	0.04701236
26	0x3da16f64	0.07882574
27	0x3c888f1d	0.016669804
28	0xbccf5224	-0.025307722
29	0x3ca6976d	0.020335877
30	0xbd737777	-0.059440102
31	0x3db21fa4	0.08697441
32	0x3dae24c6	0.08503108
33	0xbdb2d681	-0.087323196
34	0xbd365744	-0.044516817
35	0xbd0d232b	-0.034457367
36	0xbd1daf3c	-0.038497195
37	0x3c93f424	0.018060751
38	0xbda2fd48	-0.07958466
39	0xbd9908f8	-0.07472414
40	0xbd659b97	-0.056056585
41	0xbd168680	-0.036749363
42	0x3dabfb84	0.08397582
43	0x3d6c55e2	0.05769909
44	0x3d9ea803	0.077468894
45	0x3c91f398	0.01781635
46	0xbb9ad7d2	-0.004725435
47	0xbc965182	-0.018349413
48	0xbc8e55f8	-0.017374977
49	0xbdae4f1c	-0.08511183
50	0x3c4e4311	0.012589232
51	0x3bc39cee	0.005969635
52	0xbd854c1f	-0.065086596
53	0xbd4147e8	-0.047187716
54	0xbd929fc0	-0.07159376
55	0x3d2499ae	0.040185623
56	0x3ce09e2c	0.027419172
57	0x3db6f125	0.089327134
58	0xbd2247ac	-0.039619133
59	0x3d3c69a1	0.045999173
60	0x3a4ef7ed	0.000789522
61	0x3d9b47bb	0.07582041
62	0xbc075eb5	-0.008262326
63	0xbca7faa0	-0.02050525
64	0xbc43d87b	-0.011953468
65	0x3c4af23d	0.012386856
66	0x3c43bd26	0.011946952
67	0x3c830211	0.015992196
68	0xbc067cfe	-0.008208511
69	0x3d80cada	0.06288691
70	0xbd043429	-0.032276306
71	0x3c786c15	0.0151624875
72	0x3d258ebd	0.04041933
73	0x3d88a084	0.06671241
74	0xbcf9dd45	-0.030501017
75	0x3d7a9abe	0.06118273
76	0xbd5bc1fa	-0.053651787
77	0xbd91bd70	-0.071162105
78	0xbd675775	-0.05647989
79	0xbd182d7d	-0.037152756
80	0xbd9eb79c	-0.077498645
81	0x3d2f8166	0.042848013
82	0x3dae11dc	0.084995
83	0xbbe90ae3	-0.0071118935
84	0xbdb24972	-0.08705415
85	0x3d4b842c	0.049686596
86	0x3d9728f3	0.07380857
87	0x3d97c4b7	0.07410567
88	0x3a550975	0.00081267144
89	0xbcadeb9f	-0.021230517
90	0x3cfcd48e	0.030863073
91	0x3b581bc8	0.0032975543
92	0xbd27728d	-0.04088073
93	0xbcc575fc	-0.02410411
94	0xbd92315f	-0.07138323
95	0x3c431c23	0.011908564
96	0xbccf4fad	-0.025306547
97	0x3d36e8a0	0.044655442
98	0xbd88214b	-0.06646975
99	0x3c463e50	0.012099817
100	0x3d02eee9	0.031966124
101	0xbd7d7707	-0.06188109
102	0xbd242baf	-0.040080722
103	0x3d4eef72	0.05052132
104	0x3d35a3ec	0.04434578
105	0x3d22ad86	0.039716266
106	0x3c7487cc	0.014924955
107	0x3cb40618	0.021975562
108	0x3d968284	0.07349113
109	0x3d8247a9	0.06361324
110	0x3db4302a	0.08798249
111	0xbc336f70	-0.010951862
112	0xbd28ec6e	-0.041241102
113	0xbd97c92f	-0.074114196
114	0x3c9b4747	0.018954886
115	0xbd404600	-0.046941757
116	0xbcd4f1a0	-0.025994122
117	0x3d83c520	0.06434083
118	0x3d07ddb1	0.033170406
119	0xbd4240d5	-0.04742511
120	0xbd0da0b7	-0.034577098
121	0xbd68e3ca	-0.05685786
122	0x3d9a24be	0.07526539
123	0x3d9f8932	0.0778984
124	0xbda30838	-0.07960552
125	0x3d09ec00	0.033672333
126	0x3c5a218a	0.01331366
127	0x3d7f8f4d	0.06239252

fc3.weight f4 [7, 128]
0	0x3c9bfcde	0.019041475
1	0x3cc9291f	0.02455574
2	0xbcce76f9	-0.025203215
3	0x3c0afe6c	0.00848351
4	0x3d891ef4	0.06695357
5	0x3cc44444	0.023958333
6	0xbd1e6816	-0.038673483
7	0x3dbd1325	0.09232167
8	0xbd8017e1	-0.062545545
9	0x3c97c070	0.018524379
10	0xbdbf1dc9	-0.09331853
11	0xbd24576c	-0.040122434
12	0x3ca1ca74	0.019749857
13	0x3d70b9c1	0.0587709
14	0xbc691afc	-0.014227625
15	0x3b051bf8	0.002031086
16	0xb9f31cdc	-0.00046370074
17	0xbd87ba99	-0.066273876
18	0x3a344710	0.0006877044
19	0x3d9da99f	0.07698368
20	0x3d9ee17a	0.0775785
21	0xbcb2cfc3	-0.021827584
22	0x3ca3ef50	0.020011574
23	0x3d546458	0.051853508
24	0xbd74c740	-0.059760332
25	0xbb37f3b9	-0.0028068854
26	0xbda1d543	-0.079020046
27	0xbd98ac3c	-0.07454726
28	0x3d1fe49f	0.03903639
29	0x3d0c35ad	0.034230877
30	0x3c0a9947	0.008459396
31	0x3d8fddba	0.07024713
32	0x3c219822	0.009862931
33	0xbdae19d9	-0.08501024
34	0xba9404c0	-0.001129292
35	0xbd0c7ab4	-0.034296706
36	0xbbb1b23b	-0.005422858
37	0xbb62093d	-0.003449037
38	0xbb605960	-0.003423296
39	0xbd6783d8	-0.05652222
40	0xbdbca104	-0.09210399
41	0xbd23d36b	-0.039996546
42	0xbd660662	-0.05615843
43	0x3cc9cff9	0.024635302
44	0xbb8f811b	-0.0043794042
45	0x3d648582	0.055791385
46	0xbc8c57e3	-0.017131751
47	0x3c096a05	0.008387093
48	0xbda3119c	-0.07962343
49	0xbba30148	-0.004974518
50	0x3dae2df7	0.08504861
51	0xbbdb8468	-0.0066991337
52	0xbce84d68	-0.028357223
53	0xbc968e5b	-0.018378427
54	0xbcd6dfbe	-0.026229735
55	0xbd948f6a	-0.072539166
56	0xbd2a543f	-0.04158425
57	0xbb3916b6	-0.0028242297
58	0x3a723ec4	0.000924092
59	0xbdbe3c69	-0.09288866
60	0xbd22e7d5	-0.039771874
61	0xbcabd923	-0.020977562
62	0xbd87e6d6	-0.06635825
63	0x3cc8d54c	0.02451577
64	0xbd586dd5	-0.05283912
65	0x3cbbc9ca	0.022923369
66	0x3d021a06	0.0317631
67	0xbcf137e1	-0.02944559
68	0xbdb95257	-0.09048908
69	0xbdb51017	-0.088409595
70	0xbc6282de	-0.0138251465
71	0x3d846f9e	0.06466602
72	0x3db402ee	0.08789621
73	0x3cfe7eee	0.031066384
74	0xbd235541	-0.039876226
75	0xbd8bddf7	-0.06829446
76	0x3d67e53d	0.056615103
77	0xbda16f8e	-0.078826055
78	0x3d737346	0.059436105
79	0xbd9c6143	-0.07635739
80	0x3d6b60dd	0.057465423
81	0x3d0e0822	0.034675725
82	0x3d30e635	0.043188293
83	0xbd8cf54b	-0.068827234
84	0xbd919c89	-0.07109935
85	0xbc5d5703	-0.013509515
86	0xbc835f54	-0.016036667
87	0xbb1c7fc3	-0.0023879863
88	0xbd1de3ae	-0.03854721
89	0xbceb16bc	-0.028697364
90	0x3d11e5f9	0.03561971
91	0x3c9c10b3	0.019050932
92	0x3cccedbf	0.02501571
93	0xbd4be2fa	-0.04977701
94	0x3b06010f	0.0020447408
95	0x3bce1363	0.006288932
96	0xbcbdbb4a	-0.023160595
97	0xbc810432	-0.01574907
98	0xbd431d4e	-0.04763537
99	0x3ca422e9	0.020036178
100	0x3d8da8af	0.069169395
101	0x3db28e73	0.08718576
102	0xbc1db8ef	-0.009626611
103	0xbd06576a	-0.03279821
104	0x3cdde579	0.02708696
105	0x3ca19480	0.01972413
106	0x3d9ba707	0.07600217
107	0x3d09b74e	0.03362208
108	0xbd30bdd4	-0.043149784
109	0x3d026a1a	0.031839468
110	0x3b4ac40a	0.0030939602
111	0xbdab6c9b	-0.08370324
112	0x3dad689f	0.084672205
113	0x3d6b2a22	0.057413228
114	0xbcf055ff	-0.029337881
115	0xbd976672	-0.07392587
116	0x3bd695be	0.0065486124
117	0x3d7ac623	0.061224114
118	0x3d6a67e4	0.057227984
119	0xbcaf1100	-0.02137041
120	0xbcaaf583	-0.020869022
121	0x3c112ffc	0.008861538
122	0xbda73ef6	-0.08166306
123	0x3cce3cbd	0.025175447
124	0xbcee77a8	-0.02910979
125	0x3a7c73b5	0.0009630279
126	0xbdbcd5ba	-0.092204526
127	0xbbb3bca9	-0.0054851365
128	0x3c5b594a	0.013387987
129	0xbd2cbdfe	-0.04217338
130	0x3cb437be	0.021999236
131	0x3d87b443	0.06626179
132	0xbd8da233	-0.06915703
133	0xbce3feda	-0.027831484
134	0x3d9b887b	0.07594391
135	0xbc147400	-0.00906086
136	0xbd89f66a	-0.06736453
137	0xbd86abd5	-0.06575743
138	0x3d3a8a80	0.04554224
139	0x3d61d7e0	0.055137515
140	0x3c2e9e68	0.010657884
141	0x3d6079e4	0.054803744
142	0xbd63dfa1	-0.05563319
143	0x3d74b0db	0.059738975
144	0x3c8e09fd	0.017338747
145	0xbc1fc276	-0.009750953
146	0xbd3b7d95	-0.04577406
147	0xbdf88d34	-0.12136307
148	0x3d218a00	0.039438248
149	0xbc900d62	-0.017584506
150	0x3cb3757b	0.021906605
151	0xbd83ecf7	-0.06441682
152	0xbd23af8a	-0.03996233
153	0xbd49cb5b	-0.0492662
154	0x3d224730	0.03961867
155	0x3d930678	0.07178968
156	0x3b84b757	0.004050176
157	0x3ce7527b	0.028237572
158	0xbd93c83f	-0.07215928
159	0xbdac5c36	-0.08416025
160	0xbdd4d0ac	-0.103913635
161	0x3cc19bb1	0.02363381
162	0xbc6ff2d8	-0.014645301
163	0xbd4a9193	-0.049455237
164	0xbc896e08	-0.0167761
165	0xbda107f4	-0.07862845
166	0xbc6f2d70	-0.0145982355
167	0xbc7557eb	-0.014974575
168	0xbd947055	-0.07247988
169	0xbd2449bd	-0.040109385
170	0xbb864d6b	-0.0040985844
171	0x3cadb113	0.0212026
172	0x3b736f3e	0.0037145163
173	0xbd98856d	-0.07447324
174	0x3c179fb4	0.009254385
175	0x3d40829a	0.04699955
176	0x3dad3a77	0.08458417
177	0x3d11115a	0.03541694
178	0xbcf331e1	-0.02968687
179	0xbd8868fa	-0.06660648
180	0x3d45a286	0.048250698
181	0xbba1ed23	-0.004941599
182	0xbdd25f9a	-0.10272141
183	0xbd3e3912	-0.046441145
184	0x3c09e97f	0.008417486
185	0xbdb0e44f	-0.086372964
186	0xbd71dc8e	-0.059048228
187	0xbdb73432	-0.08945502
188	0x3da4fb65	0.08055762
189	0x3d1e399b	0.038629156
190	0xbdc28b05	-0.09499172
191	0x3d61ad8e	0.055097155
192	0x3d86eb67	0.06587868
193	0xbd702ed4	-0.05863841
194	0x3c97e935	0.018543819
195	0x3dce75f0	0.100810885
196	0xbd7dd3c5	-0.061969537
197	0x3cb03e85	0.021514187
198	0x3d8bc681	0.06824971
199	0x3cd29dd9	0.025710033
200	0x3cfb461c	0.03067308
201	0x3d316a29	0.043314133
202	0xbd37b2e6	-0.044848345
203	0x3dabc3de	0.08386968
204	0x3da9b612	0.0828668
205	0x38e61c50	0.00010972528
206	0x3d24162e	0.040060215
207	0xbc2c757b	-0.010526056
208	0x3af32fc6	0.0018553666
209	0xbdb0e3f7	-0.08637231
210	0xbcb2aa0c	-0.0218096
211	0xbdceb774	-0.10093585
212	0x3db0efc0	0.08639479
213	0x3d6af74d	0.05736475
214	0x3d9450d3	0.072419785
215	0xbd92b52f	-0.07163464
216	0xbc9963d6	-0.018724363
217	0xbd56d4a3	-0.05244888
218	0x3d87c249	0.06628854
219	0x3d65ae9f	0.056074735
220	0x3c6b9e48	0.014380999
221	0x3d84752f	0.064676635
222	0xbdb42438	-0.08795971
223	0x3b05aa24	0.0020395601
224	0xbdb235e6	-0.087016866
225	0xbd544b16	-0.05182942
226	0x3cbf3be8	0.023343995
227	0x3d3af569	0.045644198
228	0x3da9aada	0.082845405
229	0xbbd7dd9e	-0.006587698
230	0xbd3592bd	-0.044329394
231	0xbd06de4f	-0.032926854
232	0xbdaab790	-0.08335793
233	0xbdbd0d14	-0.0923101
234	0xbd702a27	-0.05863395
235	0xbd9e69a4	-0.07734993
236	0xbcda2481	-0.026628735
237	0x3c7d52aa	0.015461603
238	0x3d4d14a4	0.050068513
239	0x3c9f3a30	0.019436926
240	0xbcc87a0c	-0.024472259
241	0xbd9c4e92	-0.076321736
242	0x3d55dff2	0.052215524
243	0x3b75c8a0	0.0037503615
244	0xbdd1c906	-0.1024342
245	0xbd8dbf7b	-0.069212876
246	0x3ce75023	0.028236454
247	0x3c33f560	0.010983795
248	0xbc035f18	-0.008018278
249	0xbd889309	-0.0666867
250	0xbda6fc38	-0.08153576
251	0x3c41149a	0.011784697
252	0xbd18a3f9	-0.03726575
253	0x3c00b8ad	0.00785653
254	0x3c09dd9d	0.008414653
255	0xbdb1302b	-0.086517654

fc3.bias f4 [7]
0	0x3d154385	0.036441345
1	0xbda692dc	-0.0813348
2	0x3c9cd56c	0.019144736
3	0x3c18e1fd	0.009331224
4	0xbd1fd6da	-0.039023258
5	0x3d949408	0.07254797
6	0x3d7fca90	0.062449038
