hackathon_toolkit/checkpoints_qlearn_CTDE/reward_trick_agent_0_episode_901.pth (torch, 99778 bytes, 6 tensors)

fc1.weight f4 [128, 52]
00000000: c30c 6c3e 93da bf3e 8bbf a83d 3186 f0bd
00000010: 4d67 5f3d f283 73bd bf01 623e 60a6 f4bb
00000020: fca6 963d 190a 403e ddd5 0fbe dfb4 893d
00000030: 0052 c9bd 093d cd3e e7e4 82bd 20b0 f9bd
00000040: e8aa a1be d59b 1e3e 62c9 503e 8e7c f3bd
00000050: 4d26 003e af62 7c3e fcc2 c63c 9825 3d3e
00000060: 1ca6 a5bd 3c9a cbbc c0d1 fcbd 32ad 09be
00000070: 7e93 02be 76a8 f73d fcb0 b4bd ec8d f3bd
00000080: 00ea deb9 c0d1 933d 48bc a83d cfa7 023e
00000090: a082 3cbd c85f 123d 37f0 a5bd d871 fc3c
000000a0: 47c5 f5bd 4c97 3f3d fcbe e8bc ae85 863d
000000b0: f8e4 1b3d b484 5abd 1adb c33d ca0a 30bd
000000c0: e897 a63d a4b2 89bc 2a78 a13d e2d4 91bd
000000d0: b023 223c 54e3 7ebd f5d9 f5bd 8028 fabb
000000e0: 5c67 333d 7f53 89bd e1ad 0d3e 0280 03bd
000000f0: 0615 ef3d 725e afbd c515 d4bd a43b 81bc
00000100: f630 eabd f86a cf3c 7d25 093e 1adb 953d
00000110: 5e5a 31bd 1889 24bd 66d8 0bbe 3224 e8bd
00000120: 04ba 28bd 0a42 cebd 759e efbd 9657 f93d
00000130: 5947 debd d685 2fbd f887 03bd 901f 1e3d
00000140: 50b9 01be e8ed 8a3c c82a 8bbd 0c87 7a3d
00000150: ac33 843d 18c4 6cbc bc75 7fbd 000a 4e3a
00000160: 086f d73c eca2 4f3d 56d4 3fbd 00cd b53c
00000170: 3bb5 8ebd d0bb c63d a043 87bb 1812 b03c
00000180: 8cd9 2cbd 14b6 cebd 2e45 e1bd 0cc1 183d
00000190: b2da 36bd 5206 48bd a63f 1bbd bb94 9bbd
000001a0: a913 a3bc f3ed b9bd 4891 513d 459e 96bd
000001b0: 1c6c 9dbc 507c 5e3c f00b 5b3d 3286 c13d
000001c0: 9431 a33d 103e d9bd 6008 dfbd 643d 393d
000001d0: e492 d73d 3073 46bd 1ed9 df3d 9b13 91bd
000001e0: 23b1 adbd 86ce 8ebd 13a9 83bd c0d2 3fbb
000001f0: c68b 08be d0ed 03be a33a 9bbd 9890 d33c
00000200: aa24 803d 6262 82bd 6cdd 7f3d a32c 08be
00000210: 1637 b53d f603 813d c409 9d3d a03e 58bd
00000220: b9b3 043e f48a e7bd 140f 853d 9bef 043e
00000230: e481 3b3d 40fe 863d d0d0 b83d beee a93d
00000240: 606f cf3d 3067 abbd 8071 bf3a acfa 2c3d
00000250: f480 2d3d b077 d8bc ad93 043e b61b b53d
00000260: c4d4 c7bd 9e97 71bd 6433 a83d ee3b 7dbd
00000270: 6fb9 d43e cd3a a6be 39a4 c53e 506c ebbc
00000280: adfe 21bf ec0a 25bd 3e1d eebd 5b01 b4bd
00000290: f07e 993d 1173 37bf 8cfa 713e 30a9 043e
000002a0: 58e0 4d3e 13fc 9ebe 4825 3bbd ba66 f03d
000002b0: bee1 9c3e 7d61 e73e 27b1 fcbe 93fc 003e
000002c0: c45a 273d 6893 19be a325 c5bd fbe1 373e
000002d0: 9cab 37bd 9ce6 b6bd a000 a83b 0e59 9f3d
000002e0: 6417 b9bc ee87 ad3d 3096 693d 68c3 dabd
000002f0: 8a28 f23d 8043 6e3d 79c3 053e 30c0 c33d
00000300: f436 13bd 24f2 293d a3e6 95bd 0e8a a33d
00000310: 1643 14bd 8e45 03be 02bc 14bd 3862 60bd
00000320: 9465 a5bc 8eb7 f63d 446f 7b3d 188f cdbc
00000330: 3e75 dc3d 2073 c3bb 7c69 cd3d 68b5 ae3d
00000340: 00c6 c339 d078 94bd 767d 5cbd 5053 d33d
00000350: ffcd 363d 28c6 993c a6ad c7bd cc99 2d3d
00000360: 7a31 bd3d cc4b 7f3d 3249 d03d 8f4e 063d
00000370: 491e 743c 6054 06bd 5aa0 893d 28ce bbbd
00000380: 7a63 b93c 9867 f3bc 75ba 59bd 202b 00bd
00000390: d029 323c 45b5 2dbd 4ae2 8abc 5eb2 73bd
000003a0: a6ed 1bbd c65c c2bd b9f6 0d3e a05e 2e3d
000003b0: ec3a 7f3d d442 633d 7222 02be b6e1 cf3d
000003c0: 6494 68bd 534f 023e 408a ff3c 9b42 0b3e
000003d0: bb3d 82bd 5473 e0bd 53d3 cfbd 3e02 953d
000003e0: cc08 633d de24 ecbd e0b1 bd3c dac4 67bd
000003f0: 4cbe 37bd 49db 043e fff5 93bd a059 b43b
0.23051743 0.37471446 0.08239659 -0.11744345 0.054541875 -0.059452005 0.22070979 -0.0074661225
0.073560685 0.18753852 -0.14046426 0.067239515 -0.098300934 0.4008563 -0.06391316 -0.12191796
-0.31575704 0.15489133 0.20389321 -0.11888991 0.1251461 0.2464702 0.024262898 0.18471372
-0.080883235 -0.024853818 -0.12344694 -0.13444975 -0.12751576 0.12092678 -0.088228196 -0.11892304
-0.00042517483 0.07217741 0.08239037 0.12759326 -0.04602301 0.035735875 -0.08102458 0.030816004
-0.12000518 0.046775147 -0.028411381 0.06568466 0.03806016 -0.05334921 0.09563275 -0.04297904
0.081344426 -0.016808815 0.078842476 -0.07120682 0.009896204 -0.062228516 -0.12004463 -0.0076342225
0.043799743 -0.06705379 0.13835861 -0.0321045 0.11673932 -0.08562936 -0.10355715 -0.01577551
-0.1143512 0.025319561 0.13393207 0.07317181 -0.04329907 -0.040169805 -0.13656768 -0.11335029
-0.041193023 -0.1007119 -0.11700145 0.12174909 -0.10853452 -0.042852245 -0.03211209 0.03860432
-0.12668347 0.016959146 -0.06795269 0.061163947 0.06455168 -0.014451049 -0.06236814 0.00078597665
0.026298061 0.050692484 -0.04683336 0.022192478 -0.06968161 0.09703791 -0.0041279346 0.021493003
-0.042199656 -0.100933224 -0.10999523 0.03729348 -0.044642158 -0.048834153 -0.037902497 -0.075967275
-0.019906836 -0.09078588 0.05116394 -0.07354406 -0.01921659 0.013579443 0.05347818 0.09449424
0.07968441 -0.106075406 -0.10890269 0.045224562 0.10526064 -0.048449695 0.10930084 -0.070838176
-0.08481052 -0.06972985 -0.06428733 -0.0029269904 -0.1333457 -0.12883687 -0.075795434 0.025825784
0.06256993 -0.06366421 0.062467024 -0.13298278 0.088483974 0.062995836 0.07667878 -0.0527941
0.12959184 -0.113058 0.064970165 0.12982027 0.04577817 0.06591463 0.09024203 0.082974896
0.10128665 -0.08369291 0.0014605969 0.042231247 0.042359307 -0.026424259 0.12946959 0.08843176
-0.09757379 -0.058982484 0.08212927 -0.06182473 0.41547725 -0.32466736 0.38601854 -0.02873817
-0.6327923 -0.04029362 -0.11626671 -0.08789321 0.074949145 -0.7165995 0.23630732 0.12955165
0.20105112 -0.31051692 -0.04568985 0.117383435 0.30640978 0.45191565 -0.49353907 0.1259635
0.040858045 -0.14997637 -0.09626319 0.17957298 -0.044841394 -0.08930704 0.0051270276 0.07780658
-0.022594161 0.08473192 0.057027996 -0.10681802 0.118241385 0.05816984 0.13062848 0.09558141
-0.03594108 0.04149069 -0.07319381 0.07985316 -0.03619679 -0.12819502 -0.03631211 -0.05478117
-0.020190038 0.12046729 0.061385408 -0.025092646 0.1076455 -0.0059646517 0.10029885 0.08530694
0.0003734082 -0.07249606 -0.053830586 0.10318625 0.044630047 0.018771246 -0.09749918 0.042383
0.092379525 0.062328145 0.10170211 0.032789763 0.014899799 -0.03279531 0.06720038 -0.091701806
0.022630442 -0.029712483 -0.053156335 -0.031291127 0.010874227 -0.0424092 -0.016953606 -0.059496276
-0.038068436 -0.094903514 0.13863648 0.04257071 0.06231205 0.055483654 -0.12708452 0.10150473
-0.05678214 0.12725572 0.031193852 0.13599627 -0.063594304 -0.10959497 -0.10147729 0.07275818
0.05542831 -0.11530469 0.023156106 -0.056584217 -0.044859216 0.12974276 -0.072246544 0.005503848

fc1.bias f4 [128]
00000000: b4b8 ce3d 2a66 01be 737d 8fbd a072 8abd
00000010: f3ab b7bd 86f0 fd3d 2498 843e d62e 373e
00000020: ef19 513c 1234 90bd 3efa 1fbd 2720 36bd
00000030: 9a8a f93d dd85 3b3d a83b 16bd 5a3f 59bd
00000040: 4689 903d a6a1 7bbd 2a49 a73c a099 c7bc
00000050: e036 013e 8a0b c73d 17f8 2f3e 8297 e13c
00000060: 3f48 e93d 4ecf 293e 62c0 803e f0fd 703e
00000070: 353c 803e 05d7 383e 226f 423e b74f 973d
00000080: f06c 363e 7df0 013e fab8 e3bd 5f86 b13c
00000090: 5fcf e7bd df22 853e 8e9d 173d 373d fc3d
000000a0: 44f3 7b3e 7a76 243e 8330 5b3e e3a5 1dbc
000000b0: 525a 30bd 684d 443b e69f f53c 7f73 983c
000000c0: aa3b e13c 0273 873e 66d0 803e 2e6c 713e
000000d0: e2a1 debc 451d 193d 2b95 693d eb01 7e3d
000000e0: 115b 713d dce4 ec3d 9520 303e 5efe 423e
000000f0: bab7 323e 310c 31bd 6e3f 43bd 80a2 ec3c
00000100: ea08 c33d 8194 883d b9b4 c6bc 9255 01be
00000110: 35dd 6cbb 302f 03be 6479 b9bd f5ea c5bd
00000120: c28b db3c bb12 d53d abf6 0d3c 83b7 48bd
00000130: 2a89 373d 7934 1fbe f73c b7bd ae82 2b3d
00000140: 8a73 f33c 2c84 153c 1657 5d3e 7035 ae3c
00000150: 6c8f e9bc 8f3b edbd c803 2e3d 23a7 8f3e
00000160: 9d11 3f3e 5845 5b3e 2688 a93d 282c 983d
00000170: 3426 163e a41b ea3c 6924 5b3e bef5 173e
00000180: 5e17 74bc d937 56bd aba8 943d 84c5 69bc
00000190: 3bbb 4b3b dd3d 6c3e edeb 433e 04fc dabd
000001a0: 562a 6e3e 797e f6bd 9582 063e 405b 223e
000001b0: 27e5 1e3e b697 dcbd e51b 8b3d aa1a 903d
000001c0: 532c 113e 10b8 7fbc 4276 ee3d ea3f 203e
000001d0: 6b46 0fbe a0f3 113d e50e 383e 6bb1 943d
000001e0: 0683 2c3e cc38 dbbd 6933 2b3d 27b7 d13d
000001f0: 168a e93d 22d4 5d3d 585d fcbd 6644 343e
0.10093823 -0.12636629 -0.070063494 -0.06760144 -0.089683436 0.12399392 0.25897324 0.1788896
0.012762531 -0.070411816 -0.03905701 -0.044464257 0.12184639 0.04578196 -0.036677986 -0.053038932
0.07057433 -0.061433457 0.02042063 -0.024365246 0.1261859 0.09718998 0.17184483 0.027538065
0.11390733 0.16582987 0.25146776 0.2353437 0.25045934 0.18050773 0.18987706 0.07388251
0.17814994 0.12689395 -0.11119266 0.021670518 -0.1131885 0.26003167 0.03701549 0.12316363
0.24604517 0.1606082 0.21405225 -0.00962207 -0.043054886 0.0029953364 0.029983472 0.01860976
0.02749427 0.26454931 0.25158995 0.23576424 -0.027176801 0.03738143 0.057027023 0.062013548
0.05892474 0.11567089 0.17199929 0.19042346 0.17452899 -0.043224517 -0.047667913 0.02888608
0.095231846 0.0666895 -0.024256097 -0.12630299 -0.0036142592 -0.1281097 -0.090563565 -0.09663955
0.02680004 0.10403963 0.008664767 -0.049003135 0.044808544 -0.1554736 -0.08947175 0.041872673
0.02971818 0.0091257505 0.21615252 0.021265715 -0.028510772 -0.115836255 0.042484075 0.28057203
0.18659063 0.21413171 0.082779214 0.07430297 0.14663011 0.028577633 0.21400608 0.14839837
-0.014898149 -0.052299354 0.07258733 -0.014268283 0.003108694 0.23070474 0.19132967 -0.106925994
0.23258337 -0.120358415 0.1313575 0.15855122 0.15517102 -0.10771124 0.0679243 0.07036336
0.14177065 -0.015607849 0.1164365 0.15649381 -0.13991706 0.03563273 0.17974432 0.07260402
0.16846856 -0.107041925 0.041797075 0.10240012 0.11403291 0.054157384 -0.123224914 0.17604217

fc2.weight f4 [128, 128]
00000000: 62e9 413e 0f88 ae3d fbd4 12bd 5cc0 06bf
00000010: 1c86 07bd dd8e 863e a144 d3bd d47d a63e
00000020: f99d 3c3d a081 12bb 1d8d 4e3f c6e3 1b3d
00000030: af9f 133e 5045 e93c dd27 4abd 52e0 693d
00000040: b49d 423f 8115 56bd 61ef 91be f0bc 863b
00000050: f45a 173e 985a 3a3f 7e3e 5ebe d5ef 123e
00000060: ce72 f6bd ad15 9abe 80ad 143e 9bad 86bc
00000070: adce 263f da9d 19bd 01cb e4bc e148 313d
00000080: 497c 123f 528b b3bd 260d a53d 3459 fc3d
00000090: fb57 a9bd 16e9 763e a25e 9c3e 1769 733f
000000a0: 56d3 5b3e 8e4c 683e b189 723c 4e32 1f3f
000000b0: c280 e4bc 0e5b 5e3e 49c7 83bc 89eb 8b3e
000000c0: c26c 5a3e 1b09 583d 55c6 8c3d 7624 26be
000000d0: 225a 653f f0e0 853e f62b 8dbd 7543 2abe
000000e0: e5e2 823f 1aec cbbc 8fe6 753b b4df 123f
000000f0: 21a6 ad3d 368d 873d 0444 c1bc f721 8cbe
00000100: 5d14 a4bd 4315 b0bd 74be 263e 6867 413c
00000110: 7afa 533e 81d3 b33d 492c 2f3d aeba 503d
00000120: 6b18 f33d e6d2 c53e c471 063f 2f4d 803f
00000130: e08e c73f b6c2 713d 2bc3 723f cf31 47bd
00000140: a880 ec3d 059c 86bd 9bf9 b5be c05c 46bb
00000150: 3d8d d0bc f48d 8b3f 54bb bf3e a956 243e
00000160: f778 083e 8264 2c3f 404f 203f cbce 88bd
00000170: 7188 9d3b 41e6 09be a20c c6bd ac50 1d3e
00000180: a5f9 8bbe 6759 153f 8990 803e 06df 763e
00000190: 3ab4 213d eca7 0d3e c2bc d1bd 0a8c 233f
000001a0: 33ee 9a3e cfa6 f5bd 38dd 52bb 8e31 423f
000001b0: c78d 16be cbc0 613e 301d 113e 5916 debd
000001c0: e5b1 953e 8bb4 6fbe 037c d63d 04b5 0d3e
000001d0: 65b3 863c 5cd0 5f3f 7420 eb3d 9ca3 a23d
000001e0: 644e 29be 459b 0cbd f268 803f dfa7 5c3f
000001f0: d45f 2d3f 5a73 91bd 3a60 0ebd c9bc 843e
00000200: aa0a 913d 50ce d4bb 50c0 ebbc af3a 2d3e
00000210: 45bc e0bb ac32 163d 1ff6 3b3d 36f4 1c3e
00000220: e561 7dbe 53d8 973d dbe8 663f abfe 2cbe
00000230: ada7 64be a59f 05be 6ee0 413d 6c8c d43c
00000240: a78a 423e 8cd9 eb3c f72d c8bc 8010 8c3b
00000250: 51ff 903e a3f2 6f3e fd2d 0fbe bee1 ae3d
00000260: 4da0 2d3d e082 8f3d 1d75 303e 96ff 30bd
00000270: a9cd 263f 4b56 9f3e a0c9 003d 2060 c43e
00000280: 989b 65be cf13 843e 18ac 99ba e63c bebe
00000290: a869 57bd ec7b 073e d9e0 a13e 30c2 8c3f
000002a0: f751 30bc bb01 953e aeb0 4b3e 1131 1e3f
000002b0: 6a22 4d3d 976e c0be 63e1 7a3e 72eb b53e
000002c0: 1fdb 6b3e 76bb a73c 8327 51be 55e4 a23d
000002d0: 8ce8 353f 5063 243d 2b00 903c 1534 44be
000002e0: 7651 9e3f 79ca a1be 9dba 313e 1716 1c3e
000002f0: c0aa 2d3e 12df 85bd 8acc 3f3d 38e0 8fbc
00000300: 1f56 1c3e de56 9fbd 7581 98be 7aaf debc
00000310: 779b 003f a69d 6cbd 3447 66be 8f45 8f3d
00000320: 57cb e8bd 1e0d d73e 6f7e 04bd 030d 803f
00000330: 4133 9c3f b3df 0cbf 3c4f 2c3f 1933 e03d
00000340: c893 833e c8d2 053e fec7 133e 8343 a83d
00000350: 7bb0 bc3b 72b1 9d3f ddb8 d33e 1532 ab3e
00000360: 84f8 aa3d 40ac ffbd 76d6 903e 845b c53c
00000370: 3a7c 27be 9737 133e b3ec ba3d 35af e73d
00000380: 4f21 cabd bd06 5e3d d4c2 343f 501d bd3d
00000390: b55e 523c 152b 183e 6426 943e 970e 233f
000003a0: e468 6f3e 05d7 24bf 0bd2 d73e ac98 0c3f
000003b0: 4f47 c6bc 13a5 0f3e a36b d73e 7c13 1a3c
000003c0: 79d6 823d b800 26be 6b86 4a3e 105b a83e
000003d0: 0a1f 50bc 0c4f 463f b67e 4b3c 89a0 13be
000003e0: bea0 2ebe 80a9 62bd 533b 4a3f 2f04 873f
000003f0: 6886 0e3f e61a 133e f63c 323d 35ea 383e
0.18936685 0.08522045 -0.035847645 -0.5263727 -0.03308688 0.2628087 -0.10315824 0.32517874
0.046049092 -0.0022355095 0.8068407 0.03805902 0.14416383 0.028475434 -0.049354423 0.057098694
0.76021886 -0.0522666 -0.28502944 0.0041118786 0.1478079 0.72794485 -0.21703526 0.14349301
-0.12033616 -0.30094662 0.1451931 -0.016440203 0.6515911 -0.037504055 -0.027928831 0.043282393
0.57220894 -0.087668076 0.080591485 0.12321702 -0.08268734 0.24112353 0.3054095 0.9508223
0.21467337 0.22685453 0.014803336 0.62186134 -0.027893428 0.21714422 -0.016086238 0.27328137
0.2133055 0.05274306 0.06873766 -0.16224846 0.89590657 0.26148176 -0.068931505 -0.16627295
1.0225493 -0.024892855 0.0037521457 0.57372594 0.08478952 0.06618731 -0.023592003 -0.27369663
-0.080116965 -0.08597805 0.1628359 0.011804439 0.20701018 0.087805755 0.042766843 0.05095928
0.11869892 0.38637465 0.5251734 1.0023555 1.5590477 0.05902358 0.9482905 -0.048631486
0.11547977 -0.06572727 -0.35541996 -0.0030267686 -0.025457973 1.0902696 0.37447608 0.16048683
0.13327394 0.6734086 0.62620926 -0.06680068 0.004807525 -0.13466741 -0.09670378 0.15362805
-0.273389 0.5833954 0.25110272 0.24108514 0.039478518 0.13833588 -0.10241081 0.6388556
0.30259857 -0.11994707 -0.0032175314 0.75856864 -0.14702521 0.22046201 0.1417129 -0.10844106
0.29237285 -0.23408715 0.10472872 0.13838583 0.016442964 0.87427306 0.11480799 0.07941362
-0.1653381 -0.034327764 1.0032027 0.8619365 0.6772435 -0.0710208 -0.034759738 0.25925282
0.07082112 -0.006494321 -0.028778225 0.16916917 -0.006858381 0.03666942 0.045889016 0.15327534
-0.24744375 0.074143074 0.9019906 -0.16894023 -0.22329588 -0.13049181 0.047333173 0.025945865
0.18998204 0.028790258 -0.02443598 0.004274428 0.2831979 0.23432402 -0.13982387 0.08539151
0.042389203 0.07007384 0.17232175 -0.043212496 0.6515756 0.31120524 0.031442285 0.38354588
-0.22422636 0.25796363 -0.0011724262 -0.37155837 -0.052590996 0.13230866 0.31616858 1.0996761
-0.010761729 0.29102883 0.19891617 0.6179362 0.050081648 -0.37584373 0.2450004 0.35531193
0.23032807 0.02047513 -0.20425229 0.07953707 0.71057963 0.040133774 0.017578205 -0.19160493
1.236861 -0.31599787 0.17356344 0.15242802 0.16959667 -0.06536688 0.046825923 -0.01756297
0.15267228 -0.077802405 -0.29786268 -0.027183283 0.5023722 -0.057767533 -0.224881 0.06995689
-0.11366909 0.42002195 -0.03234714 1.0003971 1.2203141 -0.5502884 0.673084 0.10947246
0.25698686 0.13068688 0.1443176 0.08216002 0.005758343 1.2319777 0.41351977 0.33436647
0.08348182 -0.12484026 0.2828862 0.02409149 -0.16355982 0.14376675 0.09127178 0.11312715
-0.09869634 0.054205645 0.70609784 0.092341065 0.012839963 0.14860184 0.2893554 0.6369414
0.23379856 -0.64390594 0.42152438 0.5492046 -0.024203924 0.14027815 0.42074308 0.0094040595
0.06388564 -0.16211212 0.19777839 0.32881975 -0.012702713 0.77464366 0.012420347 -0.14416708
-0.17053506 -0.05533743 0.7899677 1.0548152 0.5567384 0.1436573 0.043515168 0.18058093

fc2.bias f4 [128]
00000000: c2f0 893d 577c 0e3e caf5 003c f61c e83d
00000010: 57cd d03d d06a 733d 93e2 8dbb 4cb4 04be
00000020: b7ee a8bd 0194 8a3d e98b 0a3e 79d8 083e
00000030: 5459 40bd 4300 cdbc 88ba 9bbc 1c5e 66bd
00000040: c221 fa3b b59d 1e3e 889a 86bd 9531 543e
00000050: 88d3 7a3d ec7b 043e 1d8b a6bd 7dad 993d
00000060: 4014 b33d 0750 803d c79a 373d 52b6 d93d
00000070: 7517 a93d 80d7 903c 335c 3fbc 572a 143e
00000080: dfd0 233d 601d bebd 4457 36bd 4dd3 17bd
00000090: 285e 58bc bc63 2c3c 30ed aabd f1a6 a4bd
000000a0: 07bb cbbc d6d2 39bd fc38 d73d 1618 503d
000000b0: 8f91 463d ece7 713c 397b b93d bda7 21bd
000000c0: 0756 a8bc 7396 a4bd 194e 0b3d fbf5 01b9
000000d0: 728f 8fbd 68fd c03c 09c1 6dbd 54e6 343d
000000e0: b820 85bd 4aca a43d 272b 55bd af6e 523d
000000f0: 15d1 6ebc 9d84 8c3d 8152 9ebd e9b4 c1bc
00000100: 9f8c 883c f680 253c 9d45 803d 560c 183e
00000110: f2e1 363c 5e49 983d 7608 10bd 6e9f 1f3e
00000120: 16b2 2cbb 9290 923c 0bf2 07bc 44eb 6b3d
00000130: e506 6fbd 61b6 49bc 99d0 ed3c b068 18bd
00000140: aef6 18bd 1c88 573d cace 223e 0cc3 923b
00000150: 5648 85bd 4164 893d be59 d73d 6aaf c13d
00000160: 20fb 213d aa70 f1bc 0a40 0d3e abf6 9f3c
00000170: 41c2 41bd 2b43 dfbc 8ebe 5abd 3fd6 383d
00000180: 1e5c 00bd a41f d63c 4b21 88bd 7dd2 933d
00000190: e726 ad3d ddc1 943b aca7 f4bc 49c1 2d3d
000001a0: 5840 3b3d 2556 993d fe89 d73c 3043 113d
000001b0: 3910 843d 55eb 653d b752 ee3d 510b a43d
000001c0: 6eec 28bd 2fc9 97bd ff4b e53b a872 6cbd
000001d0: 910c 673d 7a99 903d f0fe f93c ae5a 6abc
000001e0: ee3d 82bd fed1 d1bd ab21 ed3d 384f c63d
000001f0: 4876 1a3d 07ad d03c 8ade 0f3d ac10 103d
0.06735374 0.1391462 0.007871101 0.11333649 0.101954155 0.059428036 -0.0043299883 -0.12959403
-0.08248656 0.06766511 0.13529934 0.13363828 -0.04696019 -0.025024539 -0.019009843 -0.056242093
0.007633419 0.15489848 -0.06572443 0.20722039 0.06123689 0.12937897 -0.081320025 0.075037934
0.08744097 0.06265264 0.04482534 0.10630478 0.08256427 0.017680883 -0.011679697 0.14469276
0.039994117 -0.092829466 -0.044516817 -0.037066747 -0.013206042 0.010521825 -0.08346021 -0.08039654
-0.024869455 -0.045367084 0.10508916 0.05080422 0.04847866 0.014764767 0.09056706 -0.03946661
-0.020548834 -0.080365084 0.034010027 -0.00012394034 -0.07009782 0.023558334 -0.05804542 0.04416497
-0.06500381 0.08046396 -0.052043106 0.051375087 -0.014576216 0.068612315 -0.0773058 -0.023645835
0.016668616 0.010101547 0.06263278 0.14848456 0.011162268 0.07435869 -0.03516432 0.15588161
-0.0026351265 0.017891202 -0.008297454 0.057597414 -0.058356185 -0.012311549 0.029030131 -0.037209213
-0.037344627 0.05262004 0.15899196 0.004478818 -0.065079376 0.06708575 0.10515164 0.09457286
0.039546132 -0.029472668 0.1379396 0.0195268 -0.047304396 -0.027253708 -0.053404383 0.045126196
-0.03133785 0.026138134 -0.06646975 0.07217882 0.08454686 0.004539712 -0.029865108 0.04242066
0.04571566 0.07487134 0.026310917 0.035464466 0.06448407 0.056132633 0.1163687 0.08009971
-0.041241102 -0.074114196 0.006997585 -0.057726532 0.05640847 0.07060523 0.030517071 -0.014303846
-0.063594684 -0.10245131 0.11578687 0.096830785 0.037710458 0.02547313 0.03512434 0.03517215

fc3.weight f4 [7, 128]
00000000: d7b0 2b3d e101 5cba b861 0abd 4039 00be
00000010: 276f 75bd 43e2 99be 1823 c23d d450 593e
00000020: e117 80bd 9a47 c43d ec49 fcbd df2a cdbd
00000030: a02f 083d 06fb 593d 93f1 58bc ddb3 9a3b
00000040: f3dc 40be 2db7 67be 54c3 41bb 7eb8 383e
00000050: b32f 34bd 7b17 a9bd 5e3c f93d 1586 933c
00000060: 446f e4bd 3f8b cdbc a025 b93d 5f55 28be
00000070: 96fb b3bd 499c 003e 89a9 c43d ebdf 2b3e
00000080: 9d0e b83d f4a6 9bbd c004 94ba 4045 2abd
00000090: 0705 133d 2cb7 f1bd 2800 273b fd0c 67bd
000000a0: a070 17be fe9c 4f3d 70ed 8dbc 7648 9e3c
000000b0: e8c9 cf3c 8285 643d ba7f f6bd 845e 233e
000000c0: 9c11 a3bd 2052 573e 6670 313e 8aff 97bc
000000d0: 8c8c 0bbd b71e b9bd 3b6e 19be d24f 9bbd
000000e0: 75bf f3be c508 d5bd bd81 afbe 002e 07be
000000f0: 8ff2 3fbd efe2 c6bc d8e0 833e 4cd5 c83c
00000100: ae16 a3bd 1627 1c3e 15d6 933c b9fb abbd
00000110: 8a4d c0bd cdbc 46ba ca53 4cbc a247 92be
00000120: 9955 ad3b 54be ab3d bb51 03be b49a 92bd
00000130: 25f9 7d3e 79eb d6bd af2b a0bd bdc0 d1bd
00000140: 5595 063e bb72 1e3d 566c a8bc 257b 7fba
00000150: 5e30 a3be a21b 0e3d 2600 2abd 0bc9 37bd
00000160: b6d0 3ebd c894 fcb9 e701 9fbe ce5b f33d
00000170: 2f02 9b3e fae2 4bbd ff23 c43d 3ca7 71bd
00000180: 0c94 cfbc adfb ca3e 4e1d 43bd 25f9 b4bb
00000190: ee53 8b3e d95c 7e3e 4302 88bd 4e82 9c3d
000001a0: 7d5a c43c 4d32 90bd 7a6b c53d 93a2 ef3b
000001b0: fc58 4dbd e30b f53c 3b6b afbc 3ed6 21be
000001c0: 9768 ad3d 222a 6b3d f58f f0bc bab1 91bd
000001d0: 5b64 73be c5f1 783d cca9 943d 3cca 59be
000001e0: 9192 79be b55b cbbb e44d 16be 002d 9bbe
000001f0: 1227 84bd 43f8 fdbb 75f3 e2bd 6073 803d
00000200: 8c15 7ebf acff e5be a363 673c d6ca aa3d
00000210: 5ae8 7bbe 82e2 92be 8d40 b33d f26e ac3f
00000220: 6af6 89bd ab20 c5be d82a 583d 9e34 993d
00000230: 3c52 2e3c 29d4 503d 7386 5dbd 14de 7b3d
00000240: d961 bdbe 6600 3bbe c9b8 3fbd cfa1 0bbf
00000250: 5179 763f f142 0cbe fc20 903d c477 9ebf
00000260: 964d 71be 6ac5 71be a3d4 383f 6600 0a3e
00000270: 63a1 05bf 3cb0 d6bd 1636 7abe 4a2e a0bf
00000280: 02af 6ebf 859d 8e3c d8f2 6fbc d923 23bd
00000290: 88be 69bc 4b20 36be a48c aebc 8dd8 48bc
000002a0: 0058 9bbe c883 90be eb68 b6bd 74f6 833c
000002b0: e326 9ebe 6d85 98bd 45cc 9cbc 7d9c d53d
000002c0: 773a ad3d e2b1 0cbf 9834 503e 3bf1 97bd
000002d0: 732e 7f3d c54f 52be 65c1 93bf 922d 80be
000002e0: d4a8 863a 9c47 c0be 3de4 cbbe c03d 93be
000002f0: 76b9 963d b710 233d c81e 51bf 8ead 613d
00000300: f281 6d3d f587 30bf e7df 913d adfb 483f
00000310: 75ee 55be 9915 243e e43e 863d 3cf9 3c3f
00000320: 7f7a 5b3f f911 89be d247 99be 3f75 a53d
00000330: 5f47 803f 1dea d3bd 4731 b93e dd47 1bbe
00000340: a2b8 d33e 7f67 d7be 5ee6 4bbe de64 69bf
00000350: 3a53 993e 754b 2cbc 14aa 4c3e d2f0 b3be
00000360: 1a7e 73be cb28 8cbe 7902 d63e b90d a8bc
00000370: 51a4 963e 2f75 843d fa6f c3be d05a 57be
00000380: 5354 b1bd a601 8ebf e03b bf3c 0075 d93d
00000390: ff1b dc3d 8e6b dbbd e4d1 90be 0595 afbe
000003a0: 209f 99be f7c2 b1be 78e9 66be f4f3 bcbe
000003b0: 0499 08bd dbcd 883c 8c4f 873d a71b 11bd
000003c0: 0c7a c8bc 924e 9cbd 4485 213d a0c8 753b
000003d0: 79b4 00bf 4eb4 95be 57d6 fb3c 2d7f 953e
000003e0: 33ea 2b3f 31c1 21bf 22d1 98be 1594 c93f
000003f0: faa8 69bf 77ad 6ebb 035e b2bd 47d8 09bf
0.041916694 -0.0008392614 -0.033784598 -0.12521839 -0.059920456 -0.30055436 0.0947935 0.2122224
-0.062545545 0.095839694 -0.12318787 -0.10017943 0.033248544 0.05321791 -0.0132411895 0.0047211484
-0.18834285 -0.2262847 -0.0029565888 0.18039128 -0.043990802 -0.08256432 0.12169717 0.018008271
-0.11154035 -0.025090812 0.090403795 -0.16438816 -0.087882206 0.12559618 0.09602649 0.16784637
0.08987162 -0.07600203 -0.001129292 -0.04156995 0.035893466 -0.118025154 0.002548227 -0.05640887
-0.14789057 0.05068683 -0.017325133 0.019321661 0.025364831 0.055791385 -0.12036081 0.15954024
-0.07962343 0.21027422 0.17328033 -0.018554468 -0.034069583 -0.090390615 -0.14983456 -0.07583584
-0.47607008 -0.10402063 -0.3427867 -0.13201141 -0.04686218 -0.024278132 0.2575748 0.02451577
-0.0796331 0.15249285 0.018046418 -0.08397622 -0.093897894 -0.0007581234 -0.012471149 -0.28570276
0.005289745 0.083859116 -0.12824146 -0.071584135 0.24802072 -0.104941316 -0.07820832 -0.1024184
0.13142903 0.038683634 -0.020559471 -0.0009745828 -0.3187284 0.03469432 -0.041504048 -0.044869464
-0.04658576 -0.00048176036 -0.3105614 0.11882745 0.30275103 -0.04977701 0.09577178 -0.058997378
-0.025339149 0.39645138 -0.04763537 -0.0055228644 0.2721247 0.24840106 -0.066410564 0.07642041
0.02396893 -0.07040844 0.0963964 0.0073130815 -0.05013369 0.029912895 -0.021413436 -0.15804383
0.084672146 0.057413228 -0.029365519 -0.07113977 -0.23768751 0.060777444 0.07258949 -0.21268553
-0.24372317 -0.0062060007 -0.1467815 -0.3030777 -0.064527646 -0.0077505424 -0.11081592 0.06272006
-0.9925163 -0.44921625 0.014122876 0.08339469 -0.24600354 -0.28688437 0.087525465 1.3471358
-0.06736453 -0.38501486 0.052775234 0.07480739 0.010639723 0.05098358 -0.0540833 0.061491087
-0.36988714 -0.1826187 -0.046807084 -0.54543775 0.96278864 -0.13697411 0.07037541 -1.23803
-0.23564753 -0.23610464 0.7219946 0.13476714 -0.5219938 -0.10482833 -0.24434695 -1.2514126
-0.9323579 0.017409096 -0.014645301 -0.03982911 -0.014266618 -0.17785756 -0.021307297 -0.012258661
-0.30340576 -0.2822554 -0.0890673 0.016108729 -0.30889043 -0.07447324 -0.019140372 0.104302384
0.08458417 -0.5495893 0.20332563 -0.07419058 0.062300157 -0.20538242 -1.1543394 -0.25034767
0.0010273703 -0.37554634 -0.3982257 -0.2875805 0.073595926 0.039810862 -0.81687593 0.055097155
0.057985254 -0.68957454 0.07122784 0.78509027 -0.20891745 0.16023864 0.06554964 0.738178
0.8573379 -0.26771525 -0.29937607 0.080790035 1.0021781 -0.10347388 0.36170408 -0.15164132
0.413518 -0.4207115 -0.19912097 -0.91169536 0.2994631 -0.010516037 0.19986755 -0.3514467
-0.23778573 -0.27374873 0.4179876 -0.020514356 0.29422238 0.064676635 -0.3817137 -0.21030736
-0.08658662 -1.1094253 0.02334398 0.10618019 0.10747527 -0.10713874 -0.28285134 -0.3429338
-0.30004215 -0.3471906 -0.22549999 -0.3690487 -0.033349052 0.016699722 0.06606969 -0.035426762
-0.024472259 -0.076321736 0.039433733 0.0037503615 -0.5027538 -0.29239124 0.030741854 0.2919859
0.67154235 -0.6318541 -0.29847056 1.5748316 -0.9127346 -0.003641931 -0.087093376 -0.5384564

fc3.bias f4 [7]
00000000: 5c0f 16be 1887 a3bd 335f 893c fd81 203d
00000010: b6fb 89bd cde6 44bd 21f1 bfbd
-0.14654297 -0.079847515 0.016769027 0.039186466 -0.06737463 -0.04807167 -0.093721636
