hackathon_toolkit/checkpoints_qlearn_CTDE/reward_trick_target_agent_1_episode_701.pth (torch, 98824 bytes, 6 tensors)

fc1.weight f4 [128, 50]
0	0x3e0881ef	0.13330816
1	0x3e0f5cd3	0.14000253
2	0xbdaa269b	-0.08308145
3	0xbccfecec	-0.025381528
4	0xbdbbe799	-0.09175033
5	0xbdffdd3c	-0.12493369
6	0xbd50f220	-0.05101216
7	0x3e016f95	0.12640221
8	0xbd3eecf4	-0.046612695
9	0x3dcd7157	0.100313835
10	0xbdc4e850	-0.096146226
11	0x3dcd4e54	0.100247055
12	0xbdfe61d6	-0.124210045
13	0x3c823337	0.015893562
14	0xbe0942c4	-0.13404375
15	0xbd823e7e	-0.06359576
16	0xbd9571ff	-0.07297134
17	0xbd47bbb4	-0.048762992
18	0x3e0cc111	0.13745524
19	0x3d95aeb4	0.073087126
20	0x3d971a02	0.073780075
21	0xbc143034	-0.009044696
22	0xbd925ba6	-0.07146387
23	0xbdb6d8ea	-0.08928092
24	0xbe03d422	-0.12873891
25	0x3d819a8d	0.06328306
26	0x3d7dc81e	0.061958425
27	0x3ca2294f	0.019795088
28	0xbd1392a5	-0.036028523
29	0xbe088b7e	-0.13334462
30	0xbdbe59d7	-0.09294479
31	0xbd9f8f04	-0.0779095
32	0x3e0b3e6e	0.13598034
33	0x3d166140	0.03671384
34	0x3ddfca3a	0.109272435
35	0xbe0ad60d	-0.13558216
36	0xb9ca3400	-0.00038567185
37	0x3c6a44a0	0.014298588
38	0xbd27f5f2	-0.041006036
39	0x3de2cb67	0.11073952
40	0xbcedd2c2	-0.029031161
41	0xbdcd91da	-0.100375846
42	0x3cd6429e	0.026154812
43	0x3d9ddc90	0.077080846
44	0x3dc7001c	0.09716818
45	0xbdc9e847	-0.098587565
46	0xbde1d97a	-0.110278085
47	0x3de5aa02	0.11214067
48	0x3d09cfa8	0.033645302
49	0xbde2761b	-0.11057683
50	0xbde8ca11	-0.11366666
51	0x3e1622b9	0.14661683
52	0xbdc24ac8	-0.0948692
53	0xbd00aa5c	-0.031412467
54	0x3ddb31a3	0.10702827
55	0x3dfe38d6	0.12413184
56	0x3c645dd1	0.013938383
57	0xbda96f9a	-0.082732394
58	0x3ce65a88	0.02811934
59	0x3dbe00a6	0.092774674
60	0xbb3ef1ac	-0.0029135747
61	0xbd711edd	-0.058867324
62	0x3e2415a1	0.16023876
63	0xbddf1030	-0.108917594
64	0x3d9aeea0	0.07565045
65	0x3e092a45	0.13395031
66	0x3d69f6c6	0.057120107
67	0x3dc50668	0.096203625
68	0xbe004e20	-0.12529802
69	0xbe006fd5	-0.1254266
70	0x3da3b1c6	0.07992892
71	0xbdf1d251	-0.11807693
72	0xbe115c68	-0.14195406
73	0xbde19b9a	-0.11016007
74	0x3c5a1bb0	0.013312265
75	0xbdaddd4c	-0.08489475
76	0xbd99d5f1	-0.07511509
77	0x3e16042b	0.14650027
78	0xbd0d694e	-0.034524255
79	0xbddc2690	-0.10749543
80	0x3e0d3379	0.13789167
81	0xbddc02ee	-0.10742746
82	0xbdce833b	-0.10083624
83	0x3db6e946	0.08931212
84	0x3da6e29c	0.08148691
85	0xbb16e63e	-0.0023025419
86	0x3d76084c	0.060066506
87	0x3cb8f1a0	0.022576153
88	0xbe01a952	-0.12662247
89	0xbd33b554	-0.0438741
90	0x3d78e2b2	0.06076307
91	0xbdc48820	-0.09596276
92	0xbdbc2949	-0.09187562
93	0x3d0ebf44	0.034850374
94	0xbda3a72b	-0.07990869
95	0x3d68ecbd	0.056866396
96	0xbb8ebaca	-0.004355763
97	0x3a7300c7	0.000926983
98	0x3c7ea630	0.015542552
99	0xbe062316	-0.13099322
100	0xbd3aeb26	-0.04563441
101	0x3e084cb5	0.13310511
102	0x3e126397	0.14295803
103	0x3dbf4592	0.09339441
104	0x3d850446	0.06494956
105	0x3df00186	0.117190406
106	0x3d068d2a	0.03284947
107	0xbdb12b56	-0.08650844
108	0xbd72fd28	-0.05932346
109	0x3da05735	0.078291334
110	0xbd17a3cc	-0.037021443
111	0xbe24f79d	-0.16110082
112	0xbd79d702	-0.060996063
113	0x3d1ccfaf	0.038284
114	0xbdb0c849	-0.08631951
115	0xbda7ba7c	-0.08189866
116	0x3cb715e7	0.022349311
117	0xbe151899	-0.14560165
118	0x3d88294d	0.066485025
119	0xbddf255e	-0.10895799
120	0x3d97dca8	0.07415134
121	0xbcf8a3f6	-0.03035162
122	0xbc29ce1a	-0.01036408
123	0xbc14fbba	-0.009093219
124	0xbd8b5145	-0.0680261
125	0x3bbe0620	0.00579907
126	0x3dd0feee	0.10204874
127	0xbcfc1fd6	-0.0307769
128	0x3da8cc37	0.08242076
129	0xbe047e4a	-0.129388
130	0x3d65c90c	0.056099936
131	0x3df38ee6	0.1189249
132	0x3d80e7fa	0.06294246
133	0xbd736c32	-0.059429355
134	0x3e0d1043	0.13775735
135	0x3cbc4e58	0.022986576
136	0xbd816fc7	-0.06320148
137	0x3e058fd9	0.13043155
138	0xbde75c54	-0.11296907
139	0xbdf64c4d	-0.12026272
140	0xbcc5727d	-0.024102444
141	0xbdeee5d4	-0.1166493
142	0xbd2216d2	-0.039572544
143	0xbd27cbce	-0.040965848
144	0xbd19afb0	-0.037521064
145	0xbc5e52dc	-0.01356956
146	0xbdad0a91	-0.08449281
147	0xbccddf65	-0.025130937
148	0xbde1b634	-0.110210806
149	0xbe08947d	-0.13337894
150	0xbd98defd	-0.07464407
151	0xbd0c06e9	-0.034186278
152	0x3ddff3de	0.10935186
153	0xbdb11c9c	-0.08648035
154	0xbdff615d	-0.124697424
155	0xbc7f75b0	-0.015592024
156	0xbd1bd794	-0.03804739
157	0xbdd5bf74	-0.104369074
158	0x3ca32808	0.01991655
159	0xbddf346e	-0.10898672
160	0x3d803b6b	0.06261333
161	0xbdff85cb	-0.12476691
162	0xbdb6b901	-0.089220054
163	0x3e09702e	0.134217
164	0xbd206dfc	-0.03916739
165	0xbd132510	-0.035924017
166	0xbe0476ef	-0.12935995
167	0x3d0b1ac5	0.033961076
168	0x3e11c324	0.14234596
169	0xbdedf283	-0.11618521
170	0xbd65eb5c	-0.05613266
171	0xbe0978a5	-0.13424928
172	0x3deb06ee	0.11475931
173	0x3d5f937d	0.054584015
174	0x3d701198	0.05861053
175	0x3d889b08	0.06670195
176	0x3db5d8cb	0.088792406
177	0xbd8703ae	-0.06592499
178	0xbd34dbe8	-0.04415503
179	0x3d93ca12	0.07216276
180	0xbd6cfd93	-0.057859015
181	0xbde1aead	-0.11019645
182	0x3dc8dbf1	0.098075755
183	0x3de2940a	0.110633925
184	0x3db427d8	0.08796662
185	0x3c91f35d	0.01781624
186	0xbd25b806	-0.0404587
187	0xbd867040	-0.06564379
188	0xbd3bef40	-0.045882463
189	0xbd023f70	-0.03179878
190	0x3dd6bd2f	0.10485303
191	0x3de387f3	0.11109915
192	0x3aaf03c8	0.0013352567
193	0xbd16afe0	-0.03678882
194	0x3d5e3754	0.054251984
195	0xbe104e47	-0.1409236
196	0x3dccf1c0	0.10007048
197	0x3e0027e8	0.12515223
198	0xbe0beb8b	-0.13664071
199	0x3de8f132	0.11374129
200	0x3ccf9cd3	0.025343334
201	0xbe06df29	-0.13171066
202	0x3e11d03b	0.1423959
203	0x3d8b718c	0.06808767
204	0x3e00cc0f	0.12577842
205	0xbd6c7863	-0.057731997
206	0x3c4753a2	0.012165936
207	0xbdd4ea49	-0.10396249
208	0xbd83e5af	-0.06440293
209	0x3cfefea5	0.031127283
210	0xbdee0ff4	-0.116241366
211	0xbe23c189	-0.15991797
212	0xbe07bbb8	-0.13255203
213	0xbd67b46c	-0.056568548
214	0xbe0e8ac8	-0.13920128
215	0xbdfb0ba4	-0.1225808
216	0xbc9abf5e	-0.01889008
217	0xbdc8a558	-0.09797162
218	0xbd4c7d3b	-0.049924117
219	0x3df7558e	0.12076865
220	0x3d842d6e	0.064539775
221	0xbda68052	-0.08129944
222	0xbc911c4e	-0.017713692
223	0x3d8951d5	0.06705061
224	0x3d7756ec	0.06038563
225	0xbd9bc55e	-0.07606004
226	0x3d0f0401	0.034915928
227	0xbd0d9133	-0.0345623
228	0x3c7f1a65	0.015570258
229	0xbe0e847d	-0.13917728
230	0xbcb7bf45	-0.022430072
231	0xbe0386a8	-0.12844336
232	0xbc71b350	-0.014752224
233	0xbd768d02	-0.06019307
234	0xbd905ce2	-0.07048966
235	0xbc00cbe6	-0.007861113
236	0x3c01ff30	0.007934377
237	0xbd7c08f4	-0.061531976
238	0x3df7fe26	0.12109022
239	0xbc42facd	-0.011900616
240	0xbdcbdb4b	-0.09953936
241	0x3d718950	0.058968842
242	0x3dc9d4a9	0.09855015
243	0xbe08457e	-0.13307759
244	0xbe0f69e4	-0.14005238
245	0x3c444193	0.011978525
246	0xbe1938ea	-0.14963117
247	0x3e1ac131	0.15112759
248	0xbe04ce5d	-0.12969346
249	0xbd30d57a	-0.043172337
250	0xbda9bcfa	-0.082879975
251	0xbd8969e2	-0.06709649
252	0x3c0f87f0	0.008760437
253	0xbe067f4c	-0.13134497
254	0x3d939250	0.07205641
255	0x3cf94de8	0.030432656

fc1.bias f4 [128]
0	0xbe0a6c11	-0.13517787
1	0xbd657189	-0.05601648
2	0x3d1ab254	0.037767723
3	0xbd88d8b8	-0.06681961
4	0xbcb03c27	-0.021513058
5	0xbdf8eb23	-0.12154224
6	0xbdcddc30	-0.10051763
7	0xbdf15520	-0.117838144
8	0xbd07a562	-0.033116706
9	0xbe08b7b7	-0.13351332
10	0xbe06ed8b	-0.13176553
11	0xbe0edd15	-0.13951524
12	0xbcfaef85	-0.03063179
13	0xbde3a8e8	-0.11116201
14	0xbd89dfaf	-0.067321174
15	0xbc05ac00	-0.008158684
16	0x3c205882	0.009786727
17	0x3c8ae8d1	0.016956719
18	0x3d4050a4	0.046951905
19	0xbce03a76	-0.027371626
20	0xbddf57ed	-0.109054424
21	0x3da19392	0.07889475
22	0xbde5b92b	-0.112169586
23	0x3dbd212a	0.09234841
24	0x3de8303a	0.113373235
25	0x3caa0d18	0.020758197
26	0x3de2a2a7	0.1106618
27	0xbdbf67b0	-0.09345949
28	0xbc059e52	-0.008155422
29	0xbde5ea00	-0.112262726
30	0xbdc361a1	-0.095401056
31	0x3d6ffda0	0.058591485
32	0x3dc518fa	0.096239045
33	0xbe0fd971	-0.14047791
34	0x3bb07c78	0.0053859316
35	0x3d730d96	0.05933913
36	0x3d710226	0.05883994
37	0xbdaada71	-0.08342446
38	0x3da675de	0.0812795
39	0x3e00c3b1	0.1257465
40	0xbd98050e	-0.07422839
41	0xbd90537f	-0.070471756
42	0x3dbc5368	0.09195596
43	0xbd5da14c	-0.054108903
44	0x3dd9c96a	0.1063412
45	0x3d007d5d	0.031369556
46	0xbe06d3ea	-0.13166776
47	0xbd8cb5a7	-0.06870585
48	0xbaf98582	-0.0019036981
49	0xbdc0a70b	-0.09406861
50	0xbd95e548	-0.073191226
51	0xbde517e8	-0.111862004
52	0x3de62457	0.112374
53	0x3d3b0706	0.045660995
54	0xbda7f424	-0.08200863
55	0x3de23e59	0.11047048
56	0x3db258d4	0.08708349
57	0x3db5829c	0.088628024
58	0x3d2ad944	0.041711107
59	0xbcc737ec	-0.024318658
60	0xbde62162	-0.11236836
61	0xbd4499b8	-0.04799816
62	0xbd9c0d6f	-0.0761975
63	0x3c4401e7	0.011963344
64	0x3ceee616	0.029162448
65	0xbcee2f3b	-0.029075256
66	0x3dca042c	0.09864077
67	0x3df5a81e	0.119949564
68	0x3d431705	0.047629375
69	0xbcff817d	-0.031189675
70	0x3de94325	0.1138976
71	0x3d88ab72	0.066733256
72	0x3c0701e4	0.008240197
73	0x3da979bf	0.08275174
74	0xbd67a0e2	-0.056549914
75	0x3de5e982	0.11226179
76	0xbda5de50	-0.08099043
77	0x3e0c0a13	0.13675718
78	0xbba420af	-0.005008779
79	0x3ce8eef7	0.02843426
80	0x3da118ce	0.07866059
81	0xbc48a907	-0.0122473305
82	0xbda7a0b5	-0.08184949
83	0xbdf68623	-0.12037303
84	0x3dd6153a	0.104532674
85	0xbce05d43	-0.02738822
86	0xbdc522fb	-0.096258126
87	0x3d601e8d	0.054716635
88	0x3dc4a6d6	0.09602134
89	0xbe069418	-0.13142431
90	0xbde2804f	-0.11059629
91	0x3d245ef5	0.04012962
92	0x3ddf737a	0.10910697
93	0x3df5a391	0.119940884
94	0xbe1aa3bd	-0.15101524
95	0xbda33825	-0.07969693
96	0xbd89aef2	-0.06722821
97	0x3b8e3478	0.004339751
98	0x3dfbe110	0.12298787
99	0xbe0d6875	-0.13809378
100	0x3dbcaa66	0.092121884
101	0xbd1f10cc	-0.038834378
102	0x3ca59aa2	0.020215336
103	0x3df024a6	0.1172574
104	0x3d325e91	0.043547217
105	0x3dcb8e8d	0.09939299
106	0xbc2c6c70	-0.0105239
107	0xbd77b349	-0.060473714
108	0x3defe082	0.11712743
109	0x3d733ea8	0.059385926
110	0xbd6ebddc	-0.058286533
111	0x3dfb2c62	0.12264325
112	0xbb0076ed	-0.0019602135
113	0x3d21b1c9	0.03947619
114	0xbd9e88d7	-0.07740944
115	0xbddf169a	-0.10892983
116	0xbd85b36a	-0.06528361
117	0xbe03a2f1	-0.12855126
118	0xbdc697c0	-0.09696913
119	0x3d8f5d3e	0.070002064
120	0xbd9163c5	-0.07099108
121	0xbe143299	-0.14472426
122	0xbcf9fde7	-0.030516578
123	0xbb8eef85	-0.004362049
124	0x3cb1351a	0.021631766
125	0xbe0f9e4a	-0.14025226
126	0x3caab5fc	0.02083873
127	0xbcf7c856	-0.030246895

fc2.weight f4 [128, 128]
0	0xbc502036	-0.012702992
1	0x3d81d0a4	0.06338623
2	0xbbaa7a78	-0.0052025877
3	0x3ac31376	0.0014883119
4	0x3dc2b823	0.095077775
5	0x3d30dcb6	0.043179236
6	0x3c798775	0.015230049
7	0xbc8a75bd	-0.016901845
8	0xbd9fc2e7	-0.078008465
9	0x3b61f3b2	0.003447753
10	0xbda6871a	-0.08131237
11	0x3d86ef3f	0.06588601
12	0x3c53abbc	0.012919363
13	0xbd9e609e	-0.07733272
14	0x3cbb7321	0.022882046
15	0xba602f80	-0.0008552
16	0xbc541cd8	-0.01294633
17	0xbd5c748e	-0.053822093
18	0xbc7503e4	-0.014954541
19	0xbdb75829	-0.08952362
20	0xbd9a73bb	-0.07541605
21	0xbd889ff5	-0.066711344
22	0x3d0ba745	0.034095068
23	0xbd07c993	-0.03315122
24	0x3da4beaa	0.08044179
25	0xbb48d540	-0.0030644685
26	0xbd06692f	-0.032815155
27	0xbd9c0fe1	-0.07620216
28	0xbc496451	-0.012291984
29	0xbd49ca92	-0.04926545
30	0xbd73ede7	-0.059553053
31	0x3db8d4a9	0.09024937
32	0x3d74bd26	0.0597507
33	0xbdbbc149	-0.091677256
34	0xbd511b0e	-0.051051192
35	0xbcd5e236	-0.026108842
36	0x3d665338	0.056231707
37	0xbdb31435	-0.087440886
38	0xbd73db5b	-0.059535366
39	0xbc8fda04	-0.017560013
40	0xbd1bb8ca	-0.038018025
41	0x3d159022	0.03651441
42	0xbb2fbbbc	-0.002681478
43	0x3c742448	0.014901228
44	0x3dbd93e6	0.09256725
45	0x3dab0c9c	0.083520144
46	0xbced81d1	-0.028992565
47	0xbd801ac3	-0.062551044
48	0x3d172b7c	0.036906704
49	0xbda73166	-0.08163719
50	0x3da49592	0.08036341
51	0x3dac0059	0.08398504
52	0x3cde167e	0.027110334
53	0x3d274000	0.04083252
54	0x3cd01234	0.025399305
55	0xbd081e90	-0.03323227
56	0x3b85635d	0.004070683
57	0xbd1358d9	-0.035973404
58	0x3c9dbc30	0.019254774
59	0x3d828589	0.06373126
60	0x3dac49a7	0.084124856
61	0x3d97475f	0.0738666
62	0x3cb03d94	0.021513738
63	0x3bf92b23	0.0076040193
64	0xbd96a19e	-0.07355045
65	0x3d063cb4	0.032772735
66	0x3d1e858a	0.03870157
67	0xbca6b399	-0.02034931
68	0x3d809def	0.062801234
69	0xbd223d1c	-0.03960906
70	0xbcf41102	-0.029793266
71	0xbd8f6b75	-0.07002918
72	0xbe15e5fd	-0.14638515
73	0xbd148968	-0.036263853
74	0xbbec3490	-0.0072084144
75	0x3d36e207	0.04464915
76	0x3c32012a	0.010864535
77	0xbcf31da4	-0.02967722
78	0x3cd41b48	0.025891915
79	0xbd8f798a	-0.070056036
80	0x3d41aeeb	0.047285955
81	0x3d3b96e2	0.04579819
82	0x3d9b00fe	0.075685486
83	0xbd06794c	-0.03283052
84	0x3d98c562	0.07459523
85	0xbce21fb0	-0.027603
86	0xbdaa78d8	-0.0832383
87	0x3d52e2b4	0.051485732
88	0x3d259436	0.040424548
89	0xbd9088f8	-0.07057375
90	0xbd8da4c2	-0.06916191
91	0xbd8e5b8b	-0.06951054
92	0x3d59a21e	0.053133123
93	0xbce847c2	-0.02835453
94	0xbd88c93b	-0.06679007
95	0x3da47a4d	0.080311395
96	0x3daae9e0	0.08345389
97	0x3b149b96	0.0022675744
98	0xbbdeb638	-0.0067966245
99	0xbd3fff9c	-0.046874627
100	0xbc802384	-0.015641935
101	0xbb9bcca1	-0.0047546183
102	0x3da79473	0.08182611
103	0x3d7477a8	0.059684426
104	0xbd0cd483	-0.034382354
105	0x3da1c1f1	0.078983195
106	0x3c47e488	0.012200482
107	0x3b7bfe98	0.003845131
108	0x3d80748d	0.0627223
109	0xbd9929d3	-0.074786805
110	0x3bd8bb01	0.0066140895
111	0xbcbedca6	-0.023298573
112	0x3d1a5050	0.03767425
113	0x3d03d233	0.032182883
114	0xbca10ad1	-0.019658478
115	0xbbc5aac9	-0.006032322
116	0x3cfcb4dc	0.03084796
117	0x3ae1430e	0.0017186122
118	0x3d99f257	0.07516926
119	0x3ba4d5f2	0.005030387
120	0xbdb11239	-0.08646054
121	0xbde49ec0	-0.11163092
122	0xbdb3e205	-0.08783344
123	0xbd1ea9a9	-0.03873602
124	0x39c626d1	0.00037794423
125	0xbc3fda48	-0.011709757
126	0x3a0f6462	0.00054699753
127	0x3c5f35e1	0.013623686
128	0xbd88045d	-0.06641457
129	0xbcbf31e8	-0.023339227
130	0x3c367556	0.0111363735
131	0xb6fb10d0	-7.48234e-06
132	0xbc6e676c	-0.014551025
133	0x3d32789e	0.04357206
134	0xbcd40dd0	-0.025885493
135	0xba032100	-0.0005002171
136	0xbdc0c862	-0.0941322
137	0xbcdbfdab	-0.026854357
138	0x3d2a177a	0.041526295
139	0xbd11f002	-0.03562928
140	0xbd975547	-0.07389312
141	0x3d825f44	0.06365827
142	0x3d8a3103	0.067476295
143	0x3d587c02	0.052852638
144	0xbc8975e9	-0.016779857
145	0xbb54f2a0	-0.0032493249
146	0xbc946450	-0.018114239
147	0x3d7280a7	0.059204724
148	0x3c13370f	0.008985295
149	0xbd01b9f5	-0.031671483
150	0x3cb49d27	0.022047592
151	0x3ceaa5b0	0.02864346
152	0x3da5dc57	0.08098667
153	0xbd23ec36	-0.04002019
154	0x3d262a96	0.040567957
155	0xbd864138	-0.06555408
156	0xbd2898dc	-0.041161403
157	0x3d5247e9	0.05133811
158	0x3d539a36	0.05166074
159	0xbd71e072	-0.05905194
160	0xbdaafdbb	-0.083491765
161	0xbced79f3	-0.028988814
162	0x3c825ff9	0.015914904
163	0x3d295b93	0.041347098
164	0xbd2eb330	-0.042651355
165	0xbda6bbb3	-0.081412695
166	0x3c256a0e	0.010096086
167	0xbd1b98b9	-0.037987445
168	0xbdb46dac	-0.08809981
169	0xbc2b4a20	-0.0104546845
170	0x3d99515c	0.07486221
171	0xbc610470	-0.013733968
172	0xbd06a354	-0.032870606
173	0xbda76c16	-0.08174913
174	0x3d658752	0.056037255
175	0xbca8882f	-0.02057275
176	0xbd3558ce	-0.044274144
177	0xbbd36670	-0.0064514205
178	0xbcddbcac	-0.027067505
179	0x3da493c3	0.08035996
180	0xbd74dc29	-0.059780274
181	0xbd734c59	-0.059398983
182	0x3be695e1	0.00703691
183	0xbbc3e4d8	-0.005978208
184	0xbd47a2ee	-0.048739366
185	0xbda2b12f	-0.07943951
186	0xbd2a0b54	-0.04151471
187	0x3d8b22de	0.0679376
188	0xbd98362f	-0.0743221
189	0xbcb25279	-0.021767842
190	0x3c373509	0.011182078
191	0x3d704c81	0.05866671
192	0x3cbd5480	0.023111582
193	0xbd20e9a5	-0.03928532
194	0x3cefd8c0	0.02927816
195	0x3d017fe2	0.0316161
196	0xba1d85a1	-0.0006008987
197	0xbd0a0c4f	-0.033703145
198	0x3c996298	0.018723771
199	0xbd574db0	-0.052564323
200	0x3d3f143d	0.04665016
201	0x3d2b175b	0.04177032
202	0x3d51795a	0.05114112
203	0x3c1f5be8	0.009726502
204	0x3d085d58	0.033292145
205	0xbc932e74	-0.017966487
206	0xbd0851fe	-0.03328132
207	0x3d2f0363	0.04272784
208	0x3d155bed	0.03646462
209	0x3da4da48	0.08049446
210	0x3d926b70	0.07149398
211	0xbd30adca	-0.04313449
212	0xbdb807a1	-0.0898583
213	0x3cdd510b	0.027016183
214	0xbd9b5b64	-0.07585791
215	0xbccc8ffc	-0.024971
216	0x3da29a28	0.07939559
217	0x3d7e2fa2	0.062057145
218	0x3cf2d126	0.029640745
219	0xbd101958	-0.03518042
220	0x3d8f86b9	0.07008118
221	0x3d30afb7	0.043136325
222	0xbc9b0116	-0.018921416
223	0xbda1724c	-0.078831285
224	0x3da6060e	0.081066236
225	0x3d74c388	0.059756786
226	0x3d12e2c4	0.03586079
227	0xbc26d670	-0.010182962
228	0x3bbe35f0	0.0058047697
229	0xbdb41888	-0.087937415
230	0x3d44aca6	0.048016213
231	0xbd289aff	-0.04116344
232	0xbd0be06e	-0.03414958
233	0x3beacc8a	0.0071654962
234	0xbd2bf880	-0.041985035
235	0xbd7600e5	-0.060059447
236	0xbd8f18f2	-0.0698718
237	0x3c91279c	0.017719083
238	0xbcfaa02c	-0.030593954
239	0xbdade588	-0.08491045
240	0xbd88e200	-0.06683731
241	0x3cff3400	0.031152725
242	0xbd7ae8da	-0.06125722
243	0xbd4d913d	-0.05018734
244	0xbc6dc670	-0.014512643
245	0xbd9a6eb2	-0.07540645
246	0xbcf7e81e	-0.03026205
247	0xbd363eba	-0.044493414
248	0xbc63912a	-0.01388959
249	0xbcdeedd4	-0.027213015
250	0xbda06c4a	-0.078331545
251	0x3c4bf3dc	0.012448277
252	0xbcd2640d	-0.025682474
253	0xbd380dd7	-0.044935074
254	0xbd666620	-0.056249738
255	0xbd0ea472	-0.034824796

fc2.bias f4 [128]
0	0x3c8a171f	0.016856728
1	0x3c762c76	0.015025249
2	0xbd96692c	-0.07344279
3	0x3c9f0ab7	0.019414289
4	0x3d7b14a9	0.061299
5	0x3d8d5868	0.06901628
6	0xba6e120c	-0.00090816687
7	0x3ca68a76	0.020329695
8	0x3d5354b0	0.051594436
9	0x3d874c59	0.06606359
10	0xbd85236a	-0.06500895
11	0xbd2fe781	-0.04294539
12	0x3d2d6271	0.04233021
13	0x3ced691b	0.028980782
14	0xbc836167	-0.016037656
15	0x3d96bd91	0.07360376
16	0x3d20f31b	0.039294343
17	0xbda2b4eb	-0.079446636
18	0xbccac4a2	-0.024751965
19	0x3ca0f842	0.019649629
20	0xbd048d8f	-0.032361563
21	0xbdc440ac	-0.09582648
22	0xbcc00a13	-0.023442304
23	0x3d659ad4	0.05605586
24	0xbd6efc6c	-0.058346197
25	0xbd18c18f	-0.037293967
26	0xbd9c1a86	-0.076222464
27	0xbd8e8c38	-0.06960338
28	0x3b852b38	0.00406399
29	0xbd3a84ef	-0.04553693
30	0xbdb50c27	-0.088402085
31	0x3d891181	0.06692792
32	0x3d873c49	0.06603295
33	0x3d869775	0.06571857
34	0xbcdbb87b	-0.026821366
35	0xbdb64d5f	-0.08901476
36	0x3d985614	0.07438293
37	0xbd16ed5d	-0.03684746
38	0xbd9d35ee	-0.07676302
39	0xbd239f69	-0.039946947
40	0xbda08ac5	-0.07838968
41	0xbc967640	-0.018366933
42	0xbca48a08	-0.02008535
43	0x3d8f63cf	0.07001459
44	0xbaaacde6	-0.0013031333
45	0x3d33c929	0.043893013
46	0xbd46f7a1	-0.048576
47	0xbd65ca55	-0.056101162
48	0xbc02390a	-0.0079481695
49	0xbc129e3a	-0.008948857
50	0x3d8bd4b3	0.068276785
51	0xbd759afa	-0.05996225
52	0xbd5d5d4c	-0.054044053
53	0x3da0d8da	0.07853861
54	0xbd1b3f20	-0.037901998
55	0xbdb17d19	-0.086664386
56	0x3d8f6fc7	0.07003742
57	0xbd64b8d8	-0.055840343
58	0x3cd23bc3	0.025663262
59	0x3c644242	0.013931813
60	0xbda3f5d9	-0.08005876
61	0xbd8b7ae3	-0.06810548
62	0x3cf98dc3	0.030463105
63	0x3d180c7e	0.03712129
64	0x3d82ecb1	0.063928016
65	0x3d8d6b83	0.06905272
66	0x3cf666b0	0.030078262
67	0x3b26798f	0.0025402044
68	0xbb399d8b	-0.0028322663
69	0x3c142749	0.009042569
70	0xbba53221	-0.005041376
71	0xbb179493	-0.0023129329
72	0xbd76e805	-0.060279865
73	0xbc90a40b	-0.017656347
74	0x3c264df2	0.01015042
75	0xbd6f1b2c	-0.058375522
76	0x3d5fcdf6	0.05463978
77	0xbd31047d	-0.04321717
78	0x3dcc40a7	0.09973269
79	0xbd7854b7	-0.060627665
80	0xbd94fdaa	-0.07274945
81	0x3d7224a1	0.059116963
82	0xbd71c9e8	-0.059030443
83	0x3cabcaf0	0.020970792
84	0x3d6fc12d	0.058533836
85	0x3d486217	0.04892167
86	0xbdb4391c	-0.08799955
87	0x3cea93e3	0.028634971
88	0x3d6abdcc	0.05730991
89	0xbd6eea8e	-0.058329158
90	0xbd7defa9	-0.061996136
91	0xbca38c37	-0.01996432
92	0xbd462509	-0.048375163
93	0xbdadd3dd	-0.08487675
94	0x3c0bfc3b	0.008544023
95	0xbdb02b3d	-0.08601997
96	0x3b65f476	0.0035088337
97	0xbd051bf5	-0.032497365
98	0xbc5771f8	-0.013149731
99	0xbb727a3e	-0.0036999132
100	0xbd47c620	-0.04877293
101	0x3cc902ab	0.024537405
102	0x3c5f984d	0.013647151
103	0x3d8a7e24	0.06762341
104	0xbd9e205a	-0.07721014
105	0x3c9c35d6	0.01906864
106	0xbd45e1ec	-0.04831116
107	0xbd09732b	-0.0335571
108	0x3d76c6a0	0.060248017
109	0x3d4410be	0.04786753
110	0x3d028679	0.031866524
111	0x3da3df0d	0.08001528
112	0x3afa121a	0.0019078881
113	0x3d1bd5e2	0.03804577
114	0x3d60bc0b	0.05486683
115	0x3d57f337	0.052722182
116	0x3c9409ef	0.018071143
117	0xbd92b048	-0.07162529
118	0xbca9b916	-0.020718139
119	0x3c9a6d89	0.018851059
120	0xbcb253cb	-0.021768471
121	0xbd1d9b27	-0.038478043
122	0xbd89d98d	-0.06730948
123	0xbd232646	-0.039831422
124	0xbcd392ae	-0.025826778
125	0xbcb9c09e	-0.022674855
126	0x3c919bc5	0.017774472
127	0xbbdb1f61	-0.0066870903

fc3.weight f4 [7, 128]
0	0xbb58e6b3	-0.0033096492
1	0xbd9950f6	-0.07486145
2	0xbd9e3736	-0.077253744
3	0x3da8210f	0.082094304
4	0x3b12c7b9	0.0022396876
5	0xbc9c202e	-0.019058313
6	0x3cf40980	0.029789686
7	0x3cde4226	0.027131151
8	0xbdaa3d09	-0.08312423
9	0xbc7c109c	-0.015384819
10	0x3da06cf9	0.07833285
11	0x3c8004c6	0.015627276
12	0x3d7e0d65	0.062024493
13	0xbce87944	-0.028378136
14	0xbc7b7cc5	-0.015349572
15	0xbd7a9128	-0.061173588
16	0xbd2a83ed	-0.04162972
17	0x3d711355	0.058856327
18	0x3d9ac4e0	0.07557082
19	0x3d97f527	0.07419806
20	0x3d01fec9	0.031737123
21	0xbd0c787b	-0.034294587
22	0xbd99f456	-0.075173065
23	0xbcd41c0e	-0.025892284
24	0xbca9f150	-0.02074495
25	0xbcb7f29a	-0.022454549
26	0xbd877dfd	-0.06615827
27	0xbd1ac224	-0.037782803
28	0xbd9c2458	-0.076241195
29	0xbd05aacf	-0.0326336
30	0x3d30b419	0.043140505
31	0xbc5c0ef1	-0.013431297
32	0xbd1ef076	-0.03880354
33	0xbd3ec686	-0.046576045
34	0x3d1b8e2a	0.037977375
35	0x3d4a0e63	0.049330126
36	0xbdadf6f4	-0.08494368
37	0x3d392c2e	0.04520815
38	0xbd0ba661	-0.03409422
39	0xbbbbb57a	-0.005728421
40	0xbd3de830	-0.04636401
41	0xbd84f225	-0.06491498
42	0x3d615e3b	0.055021506
43	0x3d869c06	0.06572728
44	0xbc4cfab0	-0.01251094
45	0xbd683200	-0.05668831
46	0xbd9fdbb2	-0.078055754
47	0x3dbe75a4	0.09299782
48	0xbb5f9350	-0.0034114905
49	0x3db4fc89	0.0883723
50	0xbd27c49b	-0.040958982
51	0xbd229766	-0.039695166
52	0x3cc21318	0.023690745
53	0xbd5ad351	-0.053424183
54	0x3d42eb57	0.04758772
55	0xbd0d3afe	-0.034480087
56	0xbdb8fda5	-0.09032754
57	0x3d66c2c6	0.056338094
58	0x3d80b65c	0.06284782
59	0x3db5308b	0.088471495
60	0xbc414303	-0.011795762
61	0xbd32d371	-0.043658677
62	0x3d2134c2	0.039356954
63	0xbcd2408f	-0.02566555
64	0x3d9aa32e	0.07550655
65	0xbbcdc25e	-0.006279274
66	0x3d0dd4e9	0.034626875
67	0xbcacffe5	-0.021118114
68	0x3d86b40c	0.0657731
69	0x3d328e59	0.043592785
70	0xbceb5c8d	-0.028730655
71	0xbd1831b6	-0.037156783
72	0xbd5e092d	-0.05420797
73	0xbda77fad	-0.08178649
74	0x3d98c743	0.07459881
75	0x3c9faf48	0.01949276
76	0xbd369603	-0.044576656
77	0x3c379d3c	0.011206921
78	0x3cb46d29	0.022024708
79	0xbccf3ebc	-0.025298469
80	0xbd8c1964	-0.068407804
81	0xbabb64e2	-0.0014297033
82	0x3d3d9666	0.04628601
83	0x3c9ff319	0.019525098
84	0x3d8e1d6e	0.06939207
85	0xbc9d01b0	-0.019165844
86	0x3b62f1be	0.0034628953
87	0xbd8282f1	-0.06372631
88	0x3d8f04f4	0.069833666
89	0xbc619b58	-0.013769947
90	0x3c94a486	0.018144857
91	0xbd6443c0	-0.055728674
92	0xbc49b048	-0.012310095
93	0xbd91aa3f	-0.0711255
94	0xbd53e32e	-0.051730327
95	0xbd81f194	-0.063449055
96	0xbd7c6aa7	-0.06162515
97	0x3de137e6	0.1099699
98	0xb8dc7800	-0.00010512769
99	0x3d12978c	0.035789058
100	0xbc56f348	-0.013119526
101	0xbcfd4f6f	-0.030921666
102	0x3d6464f9	0.055760358
103	0x3c88588b	0.016643783
104	0xbe007b5b	-0.12547056
105	0x3d8b3ac9	0.06798322
106	0xbcaaa7b4	-0.02083192
107	0x3d2ef4d9	0.042713974
108	0xbcdedf23	-0.02720601
109	0x3db706b4	0.089368254
110	0x3ba5f23f	0.0050642784
111	0xbdbc0cc1	-0.0918212
112	0x3d845f37	0.06463473
113	0x3c819064	0.015815921
114	0x3c53d557	0.012929282
115	0x3ca76b0a	0.020436782
116	0x3cedc61f	0.029025136
117	0x3b7f6337	0.0038969049
118	0xbd7e4423	-0.0620767
119	0xbd0920a3	-0.03347839
120	0xbd2ac913	-0.041695666
121	0x3d42569b	0.047445875
122	0x3ba03693	0.0048893183
123	0x3d249536	0.04018136
124	0xbd1fca5d	-0.039011348
125	0xbcafbc73	-0.021452164
126	0x3d35f818	0.044426054
127	0xbd0b483c	-0.034004435
128	0xbdc99e98	-0.098447025
129	0xbc052618	-0.008126758
130	0xbd0ed71d	-0.034873117
131	0x3d95138f	0.07279121
132	0xbd9a5b73	-0.07536974
133	0xbdc43dec	-0.09582123
134	0xbd387a99	-0.045038793
135	0xbda9844e	-0.08277188
136	0x3db2f2a2	0.08737685
137	0xbd8f022a	-0.06982835
138	0xbc1185aa	-0.008881966
139	0x3d40735f	0.046985026
140	0x3c2ac2c1	0.0104224095
141	0x3d508df4	0.050916627
142	0xbd54d2c4	-0.051958814
143	0xbce1cd46	-0.027563702
144	0xbd01a437	-0.031650748
145	0x3da40cd6	0.08010261
146	0xbba73b25	-0.005103486
147	0xbde52664	-0.11188963
148	0xbda7993b	-0.08183523
149	0x3c35936a	0.0110825095
150	0x3d9a41c9	0.07532079
151	0xbd9bc6f5	-0.076063074
152	0xbd288a40	-0.04114747
153	0x3dc38a41	0.09547854
154	0xbcdc352b	-0.026880821
155	0x3d723598	0.059133142
156	0xbd4573d7	-0.048206177
157	0xbdb5d6b0	-0.08878839
158	0xbd31dfa6	-0.04342618
159	0xbbae3a83	-0.0053170337
160	0xbd38ea2f	-0.04514521
161	0x3d40dc9a	0.047085382
162	0xbd99aa87	-0.07503229
163	0x3d30de9a	0.04318104
164	0xbd78e470	-0.06076473
165	0x3cabd094	0.020973481
166	0x3bfa5329	0.007639308
167	0xbd16ff1b	-0.03686438
168	0xbd5de382	-0.054172046
169	0xbcab10a7	-0.020881964
170	0x3d9e6f86	0.07736115
171	0xbc829905	-0.015942106
172	0x3db7b70b	0.089704596
173	0xbdad1574	-0.084513575
174	0x3d02d876	0.031944714
175	0xbc960943	-0.018314963
176	0x3cfe0bed	0.031011546
177	0xbcb8029a	-0.022462178
178	0xbd6ae975	-0.05735155
179	0x3d63bb04	0.055598274
180	0xbc2b747d	-0.010464785
181	0xbcfee535	-0.031115154
182	0xbcfac2ba	-0.030610431
183	0x3c180c3e	0.0092802625
184	0x3d186e45	0.037214536
185	0xbd9cb005	-0.076507606
186	0xbc046de6	-0.008082842
187	0xbd2e5717	-0.042563524
188	0xbdaba6fe	-0.083814606
189	0xbd975a15	-0.07390229
190	0x3af15fe3	0.0018415417
191	0xbd54acb8	-0.05192253
192	0xbcfb7daf	-0.030699579
193	0x3daf8e83	0.08572104
194	0x3dd87d60	0.105707884
195	0xbd254fc2	-0.040359266
196	0x3d8f968e	0.07011138
197	0xbdbc3ba4	-0.09191063
198	0xbd83aebe	-0.06429814
199	0x3d40b249	0.047045026
200	0x3d035f39	0.032073233
201	0xbcda6eef	-0.026664225
202	0x3d7114ca	0.058857717
203	0xbc19389c	-0.009351876
204	0x3d70001e	0.05859386
205	0xbd93bb23	-0.07213428
206	0x3d07e594	0.033177927
207	0x3d2d3e35	0.042295653
208	0xbc8e0ccf	-0.017340092
209	0xba344c03	-0.00068777817
210	0x3d6b2d2a	0.05741612
211	0x3d8d1a32	0.06889762
212	0x3d282116	0.04104718
213	0xbb74220e	-0.0037251743
214	0x3d2b41cb	0.041810792
215	0x3d2e64fc	0.042576775
216	0xbdc76168	-0.09735376
217	0x3bba5330	0.0056861863
218	0xbdeb3440	-0.11484575
219	0x3d04b5c8	0.032399923
220	0xbbbef2a7	-0.0058272663
221	0xbcb1562e	-0.021647539
222	0x3d18814c	0.037232682
223	0x3d3fa680	0.046789646
224	0xbdb57d1c	-0.08861753
225	0x3da07cbd	0.07836292
226	0x3c839a64	0.01606483
227	0x3d89bb18	0.067251384
228	0x3db3cd61	0.08779407
229	0xbdb81e6d	-0.08990178
230	0x3d7ead04	0.06217672
231	0x3d8e5753	0.069502495
232	0x3d2ecc27	0.042675164
233	0x3a061d73	0.00051160826
234	0x3c192088	0.009346135
235	0x3d819cae	0.063287124
236	0x3d166476	0.0367169
237	0x3ce9ff7b	0.028564205
238	0x3d8e001e	0.06933616
239	0xbd54690e	-0.051858
240	0xbd42fd82	-0.047605045
241	0xbce5fff0	-0.028076142
242	0xbc3c91d8	-0.011509381
243	0xbd63d5e0	-0.05562389
244	0xbd0ef464	-0.034901038
245	0xbcfe9062	-0.031074706
246	0xbd908505	-0.070566215
247	0xbc37fce6	-0.011229729
248	0xb92568ac	-0.0001577462
249	0xbd2500cd	-0.040283967
250	0x3d31e745	0.043433446
251	0xbd891018	-0.06692523
252	0xbd6f866b	-0.0584778
253	0xbdadcb67	-0.084860615
254	0x3bea54e8	0.007151235
255	0x3c877828	0.016536787

fc3.bias f4 [7]
0	0xbdc9734c	-0.09836444
1	0x3d57167f	0.05251169
2	0x3d49b58f	0.049245413
3	0x3d52c5dc	0.051458225
4	0x3c5414b1	0.012944386
5	0xbc5f310c	-0.0136225335
6	0x3d283981	0.041070465
