hackathon_toolkit/checkpoints_qlearn_CTDE/reward_trick_agent_1_episode_701.pth (torch, 98754 bytes, 6 tensors)

fc1.weight f4 [128, 50]
000000 d6 6d ab 3d 10 9f 0a 3e b9 64 01 be ec ec cf bc
       0.08370559 0.1353724 -0.12636079 -0.025381528
000010 e4 de 8b bd 36 dd ff bd ac b3 a8 bd 8f 6f 01 3e
       -0.068296224 -0.124933645 -0.08237395 0.12640212
000020 f4 ec 3e bd 99 0a fd 3d e0 aa c9 bd c9 28 77 3e
       -0.046612695 0.12355537 -0.09847045 0.24136652
000030 f0 27 ed be b3 ca a2 3e c4 42 09 be 7e 3e 82 bd
       -0.46319532 0.31795272 -0.13404375 -0.06359576
000040 d0 0f 38 be 92 67 1a bf 73 03 a5 3e b4 ae 95 3d
       -0.17974782 -0.60314286 0.32229194 0.073087126
000050 02 1a 97 3d 84 67 e9 bd b6 d5 aa be f8 95 a9 3d
       0.073780075 -0.11396697 -0.33366174 0.082805574
000060 22 d4 03 be 86 9a 81 3d f2 04 99 3c af 74 78 3c
       -0.12873891 0.06328301 0.018679116 0.015164538
000070 44 6c a2 bd 7e 8b 08 be 21 51 8e bd 04 8f 9f bd
       -0.07930806 -0.13334462 -0.06949068 -0.0779095
000080 1e 42 d6 3d 40 61 16 3d 3a ca df 3d 85 f3 2a be
       0.104618296 0.03671384 0.109272435 -0.16694458
000090 00 34 ca b9 a0 44 6a 3c f2 f5 27 bd d2 90 a2 3d
       -0.00038567185 0.014298588 -0.041006036 0.079377785
0000a0 12 bc eb be 83 9c 8a be 0c 38 c0 3d 90 dc 9d 3d
       -0.46041924 -0.27072534 0.0938569 0.077080846
0000b0 1c 00 c7 3d a2 da 62 be 00 2a ef be 33 0f 86 3e
       0.09716818 -0.22153714 -0.4671173 0.2618347
0000c0 a8 cf 09 3d 1b 76 e2 bd 3f 76 06 be ca 11 a7 3e
       0.033645302 -0.11057683 -0.13131045 0.3263076
0000d0 34 86 5f be 5c aa 00 bd d4 87 53 3e d6 38 fe 3d
       -0.21828538 -0.031412467 0.20657283 0.12413184
0000e0 cc 01 a6 3d 9a 6f a9 bd 88 5a e6 3c ca 47 42 3e
       0.081058115 -0.082732394 0.02811934 0.18972698
0000f0 a5 8b 6c be 9c 92 cb 3d dd ec e1 3e 5f 48 09 bf
       -0.23100145 0.09940073 0.44126025 -0.53626055
000100 a0 ee 9a 3d 45 2a 09 3e 00 b7 61 3e 9a 4b bc 3e
       0.07565045 0.13395031 0.22042465 0.3677643
000110 90 33 dc be d5 6f 00 be c6 b1 a3 3d 3b 70 32 be
       -0.4300809 -0.1254266 0.07992892 -0.17425625
000120 26 91 b2 be 6b bb 33 3d b0 1b 5a 3c 4c dd ad bd
       -0.34876364 0.043879908 0.013312265 -0.08489475
000130 9d 4b 4b be 87 02 a7 3e 1d bb 21 be 90 26 dc bd
       -0.19853063 0.32619116 -0.15794034 -0.10749543
000140 7a 22 73 3e ee 02 dc bd d0 19 0a bd 46 e9 b6 3d
       0.2374362 -0.10742746 -0.033716023 0.08931212
000150 9c e2 a6 3d 8b bf 84 3d 4c 08 76 3d a0 f1 b8 3c
       0.08148691 0.064818464 0.060066506 0.022576153
000160 52 a9 01 be 59 6e be 3c d3 87 f8 be d1 e4 b5 be
       -0.12662247 0.023245977 -0.48541126 -0.35526136
000170 97 cd d9 3d 44 bf 0e 3d 2b a7 a3 bd 0d e1 33 3d
       0.10634916 0.034850374 -0.07990869 0.043915797
000180 51 ad ad bd 31 3c c8 3d 30 a6 7e 3c 16 23 06 be
       -0.08480323 0.097771056 0.015542552 -0.13099322
000190 53 27 0e bd cb 20 24 3e a4 40 2a 3e 92 45 bf 3d
       -0.03470547 0.16028135 0.16626221 0.09339441
0001a0 33 6d e3 3c 86 01 f0 3d 19 b5 c9 bc 56 2b b1 bd
       0.027762031 0.117190406 -0.024622487 -0.08650844
0001b0 28 fd 72 bd 50 f5 00 3d 41 a6 d2 bd e7 47 14 bf
       -0.05932346 0.03148395 -0.10285617 -0.57922214
0001c0 35 06 6b be 3e 5e 82 ba 49 c8 b0 bd 7c ba a7 bd
       -0.22951587 -0.0009946299 -0.08631951 -0.08189866
0001d0 e2 b4 7a bd ba c6 85 be 71 46 d7 3c 5e 25 df bd
       -0.06120766 -0.2612818 0.026278706 -0.10895799
0001e0 a8 dc 97 3d f6 40 86 bd 5b 3c 0c bd ae 8d c5 bd
       0.07415134 -0.06555359 -0.034237247 -0.09646164
0001f0 44 51 8b bd 20 06 be 3b 8f 5c 00 3e c6 ff 6b bb
       -0.068026096 0.00579907 0.12535308 -0.0036010607
000200 18 86 d8 3d 4a 7e 04 be 63 ee 9a 3c e6 8e f3 3d
       0.10572451 -0.129388 0.0189125 0.1189249
000210 62 3d b3 3b 32 6c 73 bd 43 10 0d 3e af 40 0d bd
       0.005469964 -0.059429355 0.13775735 -0.034485515
000220 c7 6f 81 bd d9 8f 05 3e 54 5c e7 bd 0f 00 36 be
       -0.06320148 0.13043155 -0.11296907 -0.1777346
000230 2e e5 ee bd 0b 28 69 be 5c fa 60 bd ce cb 27 bd
       -0.11664806 -0.22769181 -0.05492626 -0.040965848
000240 b0 af 19 bd 9f d8 2e be 85 37 5b be c1 67 03 3d
       -0.037521064 -0.17074822 -0.21407898 0.03208137
000250 34 b6 e1 bd 77 94 08 be 6e db 0e bd ae a9 e6 3d
       -0.110210806 -0.13337885 -0.034877233 0.112628326
000260 39 59 1d 3e 9c 1c b1 bd a2 19 c2 be b0 75 7f bc
       0.15366067 -0.08648035 -0.3791018 -0.015592024
000270 80 15 7f bd 74 bf d5 bd 08 28 a3 3c f5 1f 85 be
       -0.062276363 -0.104369074 0.01991655 -0.26000944
000280 8f 4f 36 bd 12 d6 68 bf d2 3e 9e be 46 66 36 3e
       -0.044509467 -0.90951645 -0.30907303 0.17812452
000290 fc 6d 20 bd 10 25 13 bd 57 df 31 be 1b 8d 53 bc
       -0.03916739 -0.035924017 -0.17370354 -0.01291206
0002a0 4e 78 63 3e 7e f2 ed bd 5c eb 65 bd 3d 77 f5 bd
       0.22213861 -0.11618517 -0.05613266 -0.119856335
0002b0 67 59 09 3e 76 c8 7a 3d 98 11 70 3d 08 9b 88 3d
       0.1341301 0.06122633 0.05861053 0.06670195
0002c0 b5 4b 08 3e 5b a9 a5 3d bb c2 22 39 12 ca 93 3d
       0.1331013 0.080889426 0.00015522067 0.07216276
0002d0 0b e1 9f be ad ae e1 bd e0 3c 97 3d 0a 94 e2 3d
       -0.31226382 -0.11019645 0.07384658 0.110633925
0002e0 d8 27 b4 3d 35 23 d2 bb 06 b8 25 bd 40 70 86 bd
       0.08796662 -0.0064128884 -0.0404587 -0.06564379
0002f0 40 ef 3b bd 75 7d 65 bd b8 c1 84 3d e2 31 84 3d
       -0.045882463 -0.05602785 0.064822614 0.06454827
000300 0b c7 a4 3d e0 af 16 bd 54 37 5e 3d 68 f9 37 be
       0.08045777 -0.03678882 0.054251984 -0.17966235
000310 67 65 d3 bc 38 e1 43 3e 8b eb 0b be 32 f1 e8 3d
       -0.025805188 0.19128883 -0.13664071 0.11374129
000320 7f 0a 91 3c d7 cc f0 bd 5f ab 24 3e 8c 71 8b 3d
       0.0177052 -0.1175782 0.16080998 0.06808767
000330 99 1c e5 3d 5a 78 6c bd a9 30 01 bd 49 ea d4 bd
       0.11187095 -0.057731964 -0.031540547 -0.10396249
000340 af e5 83 bd ac 9f fd 3c 10 c8 4c be a4 9b 37 bf
       -0.06440293 0.030959927 -0.19998193 -0.71721864
000350 17 8e 8f be ad 8e 8b bd c8 8a 0e be 9d 0b fb bd
       -0.28038093 -0.068143226 -0.13920128 -0.122580744
000360 81 26 dc bd 3f 2c 55 be 62 2f 50 bd 8e 55 f7 3d
       -0.107495315 -0.2081766 -0.050826438 0.12076865
000370 6e 2d 84 3d c7 fe ee bd 18 ad e1 bd 01 d8 13 3e
       0.064539775 -0.11669689 -0.11019343 0.14437868
000380 ec 56 77 3d 5e c5 9b bd 3d 70 5a 3d 4f 5c a7 bc
       0.06038563 -0.07606004 0.053329695 -0.020429758
000390 d8 32 0b 3d 7d 84 0e be 27 d6 14 bd a8 86 03 be
       0.033984035 -0.13917728 -0.036337044 -0.12844336
0003a0 3f 72 6f bd 02 8d 76 bd e2 5c 90 bd 92 38 53 bd
       -0.058458563 -0.06019307 -0.07048966 -0.05156762
0003b0 30 ff 01 3c f4 08 7c bd 26 fe f7 3d 28 c4 63 bd
       0.007934377 -0.061531976 0.12109022 -0.05560699
0003c0 d4 f0 ad be 11 3e 79 bd 61 7b f6 3d 7e 45 08 be
       -0.339728 -0.060850207 0.120352514 -0.13307759
0003d0 e4 69 0f be 2d c9 98 3c ba eb b4 be 52 8d 39 3e
       -0.14005238 0.018650616 -0.35336095 0.18120316
0003e0 5d ce 04 be 7a d5 30 bd 3d c2 db bd e2 69 89 bd
       -0.12969346 -0.043172337 -0.107304074 -0.06709649
0003f0 f0 87 0f 3c 4c 7f 06 be e0 1d 43 3d e8 4d f9 3c
       0.008760437 -0.13134497 0.047635913 0.030432656

fc1.bias f4 [128]
000000 69 89 2a be 67 eb 35 3c 0c 6b a1 bc de 77 ba bd
       -0.1665398 0.011103488 -0.019704364 -0.09104894
000010 c8 91 85 bd 33 77 15 be 7c b0 ea bd 20 55 f1 bd
       -0.06521946 -0.14596252 -0.11459443 -0.117838144
000020 2a 41 0b be 6c 81 3e be 8b ed 06 be 10 dd 0e be
       -0.13599077 -0.18604058 -0.13176553 -0.13951516
000030 65 c8 8e bd 99 eb 37 be 2f b7 00 be 00 ac 05 bc
       -0.06971816 -0.17960967 -0.12569879 -0.008158684
000040 6f 1b 80 3c 46 eb fa b7 a4 50 40 3d bb 55 e9 bd
       0.015638081 -2.991188e-05 0.046951905 -0.11393305
000050 08 8c fb bd 12 72 91 3c a5 4d 0c be 72 01 9b 3d
       -0.12282568 0.017754588 -0.13701494 0.07568635
000060 f4 45 5b 3c 18 0d aa 3c 21 a0 ea 3d 9f 9e eb bd
       0.013383377 0.020758197 0.114563234 -0.11504864
000070 6e bd 7f bd 5d 86 60 bd a0 61 c3 bd 39 90 8b 3c
       -0.062436514 -0.05481564 -0.09540105 0.017036544
000080 fa 18 c5 3d d1 74 41 be 9d c0 35 bd 02 8b aa ba
       0.096239045 -0.18892218 -0.044373143 -0.0013011398
000090 9f ea 5f bc 3c ef d6 bd 89 7c fa 3c f1 de 4b 3d
       -0.013666778 -0.10494849 0.030576961 0.04977316
0000a0 7d 94 2b 3c 7f 53 90 bd e3 d9 0e 3d 4c a1 5d bd
       0.010472414 -0.070471756 0.03487576 -0.054108903
0000b0 47 37 cc 3d a8 08 01 bc 32 8a 10 be a2 04 ac bd
       0.09971481 -0.007875599 -0.14115217 -0.08399321
0000c0 c8 83 0e bd 6d ee ca bd 17 c1 40 bd e8 17 e5 bd
       -0.034793645 -0.09908757 -0.047059145 -0.111862004
0000d0 19 c2 b0 3d 54 40 b3 3b b2 30 b1 bc 13 54 85 3d
       0.08630771 0.005470315 -0.021629665 0.065101765
0000e0 01 37 57 3d 8a 2e 4c 3d 44 d9 2a 3d 7d 78 71 bd
       0.05254269 0.04984907 0.041711107 -0.058952797
0000f0 e8 ed 1e be 70 3b f7 bd ea 00 1a be f5 c4 10 3d
       -0.15520442 -0.12071884 -0.15039411 0.035344083
000100 fb 49 8f 3c 76 15 20 bd 2c 04 ca 3d 29 31 cf 3d
       0.017491331 -0.039082967 0.09864077 0.101167984
000110 19 1e 05 3c fa 44 aa bd 7f d5 b6 3d 72 06 b2 3d
       0.008124852 -0.083139375 0.0892744 0.086926356
000120 91 bc 8c 3d 5c b3 af 3c e2 a0 67 bd 34 95 5e 3d
       0.06871904 0.02144783 -0.056549914 0.05434151
000130 09 10 fe bd 13 0a 0c 3e 3b f4 9f bb b9 80 d4 bc
       -0.12405402 0.13675718 -0.0048814095 -0.025940286
000140 b3 2b d3 3c 7a 0e 35 bd 15 12 93 bd 87 2a 31 be
       0.025777673 -0.04420326 -0.07181183 -0.17301379
000150 e0 4b b8 3d de dc 11 be b0 08 f6 bd 0c 04 dd bb
       0.08998847 -0.1424441 -0.12013376 -0.006744867
000160 ff 75 7e 3d bc 5c 11 be a3 a8 3b be 12 a0 6e bd
       0.06212425 -0.14195532 -0.18326049 -0.058258124
000170 7a 73 df 3d de f7 df 3d 99 88 57 be 3e 86 b0 bd
       0.10910697 0.10935949 -0.21048202 -0.08619355
000180 7a d2 c6 bd 60 be 6f 3d 6c da 81 3d 75 68 0d be
       -0.09708114 0.058531165 0.06340489 -0.13809378
000190 66 aa bc 3d 27 71 7e bd 44 26 fa 3b 6a 71 6e 3d
       0.092121884 -0.06211963 0.007633956 0.05821363
0001a0 c0 43 1f bc 30 cd cf 3d 70 6c 2c bc df 5e ea bd
       -0.009720743 0.10146558 -0.0105239 -0.114438765
0001b0 71 69 77 3d 77 74 ba 3c 86 63 0d bd ed e7 ea 3d
       0.06040329 0.022760613 -0.03451874 0.114700176
0001c0 fb 18 6e bc 43 5a a9 bc f5 c5 bb bd 94 16 df bd
       -0.014532323 -0.020672923 -0.09168617 -0.10892978
0001d0 9e 68 98 bd 64 ae 38 be c0 97 c6 bd d2 26 c3 bc
       -0.07441829 -0.18035275 -0.09696913 -0.023822222
0001e0 67 e4 97 bd 22 bd 2b be d3 48 dc bd 90 4b 63 bd
       -0.07416611 -0.16771367 -0.107560776 -0.055491984
0001f0 43 e9 12 bd f4 fc 26 be 86 d5 07 bd 88 e7 98 bd
       -0.035866987 -0.16307431 -0.033162616 -0.07466036

fc2.weight f4 [128, 128]
000000 1a b3 72 be e7 be f7 3b 23 5e 82 bd 64 9f 81 bd
       -0.23701134 0.007560599 -0.063656114 -0.063292295
000010 37 bd 00 3e df 7e bf 3d 7c b6 7d 3e b8 75 8a bc
       0.1257218 0.093503706 0.24776644 -0.016901836
000020 b2 b7 00 bf 68 6a 82 3e 1a 87 a6 bd 3f ef 86 3d
       -0.50280297 0.25471807 -0.08131237 0.06588601
000030 39 ab 1d 3c 27 e8 a3 bd b2 48 88 bd 80 2f 60 ba
       0.009623342 -0.08003264 -0.066544905 -0.0008552
000040 a6 81 e1 3d ff 85 1b bd e0 03 75 bc cc ef 6f be
       0.110110566 -0.037969586 -0.014954537 -0.23431319
000050 e6 9c 84 bd 92 bc 6e bd b9 d8 a0 3d f7 74 ab bc
       -0.064752385 -0.058285303 0.078538366 -0.020929797
000060 26 74 ec 3d 40 d5 48 bb 39 6f a7 3b 0c 61 5d bd
       0.11545591 -0.0030644685 0.0051096943 -0.05404763
000070 6f 15 a7 bd cd 83 00 bf e7 ed 73 bd 8b f9 ea 3d
       -0.08158385 -0.5020111 -0.059553053 0.11473378
000080 26 bd 74 3d 60 aa 4d be 70 7e 9c bd 62 1c 5d be
       0.0597507 -0.20084524 -0.076413035 -0.21592858
000090 83 1b 69 3c 40 93 de bd 8a c8 c5 be e1 58 c1 be
       0.014227751 -0.108679295 -0.38629562 -0.37763122
0000a0 9a 33 b1 3d 22 90 15 3d bf 91 0b be 48 24 74 3c
       0.0865242 0.03651441 -0.13629816 0.014901228
0000b0 68 5a 47 3e 93 fe ac 3d 12 c3 8c bc b0 19 7d bd
       0.19468081 0.08446994 -0.01718286 -0.061792076
0000c0 67 61 c7 bd 66 31 a7 bd e8 6f 8d 3e 59 00 ac 3d
       -0.09735375 -0.08163719 0.2762444 0.08398504
0000d0 38 2e f2 bc 0e 34 c5 3b 88 ef 0a 3c 63 c6 93 be
       -0.029563054 0.0060181683 0.00847996 -0.28862295
0000e0 df b6 90 3d 12 a3 c8 bd 30 bc 9d 3c 9d 8f 2b 3d
       0.0706613 -0.09796728 0.019254774 0.041885007
0000f0 78 25 d3 3d 51 ee b8 3d 3f f8 f0 3c aa 37 3d be
       0.10309881 0.0902983 0.029415248 -0.18478265
000100 b7 c6 7d bd 79 6e 52 3d 8a 85 1e 3d b0 eb 2c be
       -0.061957087 0.051374886 0.03870157 -0.16886783
000110 f8 73 48 3c 0d 04 b2 bd 33 43 06 bc c4 5e c6 3d
       0.01223468 -0.08692179 -0.0081947325 0.09686044
000120 ad 13 30 bf a9 ae cc bd 90 34 ec bb 98 0b 1d bd
       -0.6878002 -0.09994251 -0.0072084144 -0.038341135
000130 90 c5 90 bc a4 1d f3 bc 4a 0a af bd 47 ca 0e 3e
       -0.01767233 -0.02967722 -0.08546884 0.1394435
000140 a9 05 20 3d 59 67 06 3c 78 bb 4c 3e c0 e0 11 bc
       0.039067898 0.008203351 0.19993389 -0.008903682
000150 d9 29 f3 3d 46 bf 99 3c d2 1a bd bd 39 4e 14 be
       0.11873216 0.018767964 -0.09233631 -0.14482965
000160 60 91 54 3d b4 04 88 bd 30 4b 33 be 94 8c 31 bd
       0.051896453 -0.06641522 -0.1750915 -0.043346956
000170 1e a2 59 3d 67 1e f3 bd b1 4b a0 bd 66 ab 9d 3d
       0.053133123 -0.11871033 -0.07826937 0.07698707
000180 8a db c8 3d cc dc e1 bc b2 51 93 bb 9c ff 3f bd
       0.09807499 -0.027571104 -0.004495823 -0.046874627
000190 84 23 80 bc 64 c6 67 bc 88 18 9e 3d 7f c8 b9 3d
       -0.015641935 -0.014146421 0.07719523 0.09071445
0001a0 b8 c8 87 3e 64 bb 00 3e 88 e4 47 3c 0f 41 35 3d
       0.26520324 0.12571484 0.012200482 0.044251498
0001b0 a8 f9 67 bd 48 e5 2b be 48 36 0a 3e 27 d5 1b bd
       -0.056634575 -0.16786683 0.13497269 -0.038045075
0001c0 07 7b 06 3d 30 9a a5 bc 14 2d 76 3e c0 aa c5 bb
       0.03283217 -0.020215124 0.24040633 -0.006032318
0001d0 dc b4 fc 3c 7d dd 1d be 57 f2 99 3d d5 66 7e 3d
       0.03084796 -0.15416522 0.07516926 0.062109787
0001e0 4d 8e 0d bf 60 84 89 bf cc cf 48 be 7f fe 3a bf
       -0.5529526 -1.0743523 -0.19610518 -0.7304458
0001f0 75 c8 50 3b b0 18 37 3c 5c 60 96 3d 2e db f1 bd
       0.0031857763 0.01117532 0.07342598 -0.11809383
000200 ec ff ae bd e8 31 bf bc 17 5b 0f bc 10 29 b0 bc
       -0.08544907 -0.023339227 -0.008749745 -0.021503955
000210 4a 55 ae bc 9e 78 32 3d d6 93 05 bd 00 21 03 ba
       -0.021280903 0.04357206 -0.03261169 -0.0005002171
000220 5a 6b 22 be 07 40 f9 3b 7a 17 2a 3d 02 f0 11 bd
       -0.15861264 0.0076065096 0.041526295 -0.03562928
000230 c0 c8 b8 bd 60 ce 47 3d 77 f2 14 3d 02 7c 58 3d
       -0.09022665 0.0487808 0.036364045 0.052852638
000240 02 4e 33 bd a0 f2 54 bb 50 64 94 bc 9b 77 27 bc
       -0.043775566 -0.0032493249 -0.018114239 -0.010221387
000250 b5 be 13 3b c6 37 1d bd f6 5c 84 3b b0 a5 ea 3c
       0.002254409 -0.038383268 0.004039402 0.02864346
000260 57 dc a5 3d 36 ec 23 bd 14 c0 85 3c 38 41 86 bd
       0.08098667 -0.04002019 0.016326942 -0.06555408
000270 82 1a 86 bd 5f 0e a5 bb 36 9a 53 3d 72 e0 71 bd
       -0.06548025 -0.0050371136 0.05166074 -0.05905194
000280 bb fd aa bd 85 56 a9 3b fa e3 3d bd cc 66 11 3d
       -0.083491765 0.0051677846 -0.046359994 0.035498425
000290 e8 0f 81 bd b3 bb a6 bd 37 9f 72 bb d8 c3 db bd
       -0.06301862 -0.081412695 -0.003702117 -0.107307136
0002a0 ac 6d b4 bd 20 4a 2b bc 57 a6 70 3c 70 04 61 bc
       -0.08809981 -0.0104546845 0.014688096 -0.013733968
0002b0 ee d5 44 bd da 34 b5 bd 52 87 65 3d 28 88 a8 bc
       -0.04805558 -0.08847971 0.056037255 -0.020572737
0002c0 ec e4 fb bd 70 66 d3 bb 54 70 0a bd c3 93 a4 3d
       -0.12299523 -0.0064514205 -0.03379853 0.08035996
0002d0 51 c8 a4 bd 49 29 96 bd 92 6b 08 38 21 21 81 bc
       -0.0804602 -0.07332093 3.252511e-05 -0.015762867
0002e0 ee 09 f5 bc a5 b1 0a be 54 0b 2a bd 5f e1 4a 3d
       -0.029911961 -0.13544329 -0.04151471 0.049531337
0002f0 2f 36 98 bd d7 6b e9 bc 0c e0 7c bb 2f 88 17 3d
       -0.0743221 -0.028493805 -0.003858569 0.03699511
000300 80 54 bd 3c a5 e9 20 bd c0 d8 ef 3c be b3 50 3c
       0.023111582 -0.03928532 0.02927816 0.012738166
000310 2a 2b 85 bc 28 cc ca bd 98 62 99 3c 5d d7 9f bd
       -0.016255934 -0.09902221 0.018723771 -0.07804749
000320 73 ab 88 bc b4 55 bb bc 5a 79 51 3d 63 7a c3 bc
       -0.016683316 -0.022868015 0.05114112 -0.02386207
000330 bd 5a 41 3c 74 2e 93 bc e0 0a 53 bd 16 ad 88 3c
       0.011801419 -0.017966487 -0.051524043 0.016684096
000340 59 f3 a5 3c 8c 95 84 3d fc 3f 36 3d 48 a2 57 bd
       0.020257639 0.06473836 0.044494614 -0.052644998
000350 60 29 de bd 60 4e 52 3c 64 5b 9b bd 87 d2 9d bd
       -0.108477354 0.012836069 -0.07585791 -0.077061705
000360 68 86 8d 3d a2 2f 7e 3d 15 84 a5 3b 3e a8 c8 bd
       0.069104016 0.062057145 0.005051146 -0.09797715
000370 b9 86 8f 3d ad 26 11 bc a6 0a 15 bd 4c 72 a1 bd
       0.07008118 -0.008859319 -0.03638711 -0.078831285
000380 0e d0 67 3d ac d4 e3 3c 14 13 8e 3c 70 d6 26 bc
       0.0565949 0.02781137 0.017343082 -0.010182962
000390 f0 35 be 3b 88 18 b4 bd a6 ac 44 3d aa 6e 81 bd
       0.0058047697 -0.087937415 0.048016213 -0.063199356
0003a0 6e e0 0b bd 53 7b 23 ba 80 f8 2b bd 41 3a 9f bd
       -0.03414958 -0.0006236333 -0.041985035 -0.07774783
0003b0 2a 03 b2 bd 9c 27 91 3c ef 3e 6b bd 88 e5 ad bd
       -0.0869201 0.017719083 -0.057433065 -0.08491045
0003c0 00 e2 88 bd d7 78 05 bd 1b 7f 90 bd 3d 91 4d bd
       -0.06683731 -0.032585945 -0.070554934 -0.05018734
0003d0 70 c6 6d bc 2e f9 c4 bd 1e e8 f7 bc ae 8f 2a bd
       -0.014512643 -0.0961784 -0.03026205 -0.04164093
0003e0 99 dc a8 bc cf 66 d3 bd c0 0d 0e be 4a 61 bb 3b
       -0.020613002 -0.103223436 -0.13872433 0.005718385
0003f0 f2 4c 28 bd d7 0d 38 bd b9 fb 80 bd 1a 22 78 bd
       -0.041089006 -0.044935074 -0.06298012 -0.060579397

fc2.bias f4 [128]
000000 7b 7e 11 3d b4 9d 3b bd 7f f9 ae bb 08 9c 56 bd
       0.03552101 -0.045804694 -0.005339801 -0.052394897
000010 dc 98 c2 3d bc 98 fa 3c de eb b6 3b 74 3c c0 bc
       0.09501812 0.030590408 0.005582317 -0.023466326
000020 a5 2f 71 bd 6d fb 98 3d f3 33 e7 bd ac 77 6b bc
       -0.058883328 0.07469831 -0.112892054 -0.014371794
000030 a1 87 13 bd 5f 24 a4 bd 76 bf 83 bc 8e fb 9b 3d
       -0.036018018 -0.0801475 -0.016082507 0.076163396
000040 f2 fa 3d be d7 b8 df bd 0a 71 92 bd d4 38 a3 bb
       -0.1855276 -0.10923927 -0.07150467 -0.0049811397
000050 b9 d4 05 be 8c f2 86 be 60 ba 3f bd c7 36 64 3d
       -0.13069429 -0.26356924 -0.0468086 0.055716302
000060 b1 42 c8 bd 20 58 85 be 9c 8a 19 be 8f ca f8 bd
       -0.097783454 -0.26043797 -0.14994282 -0.1214801
000070 ed ca a9 b9 97 8a 26 3e 4b f0 1d be da 4d 0f 3e
       -0.00032385383 0.16263805 -0.15423696 0.13994542
000080 56 7a 9c 3b 7a d4 e0 ba fd 95 77 3d 2c 07 0d be
       0.004775326 -0.0017153167 0.060445774 -0.13772267
000090 a5 53 4e 3e 86 e1 ba bd 56 09 35 bd 9e 58 f1 bb
       0.20149095 -0.091250464 -0.044198357 -0.0073653003
0000a0 b2 c5 b3 bd 2f 35 d5 3d f7 e4 8d bd be 4d 38 bd
       -0.08777942 0.104105346 -0.06928437 -0.044996016
0000b0 18 cf 51 3d 16 27 0f 3e 97 60 f6 bc a2 49 d2 bd
       0.05122289 0.13979754 -0.030075355 -0.102679506
0000c0 40 f6 af bd b1 64 d5 bd 04 33 5d 3e 3c c4 d2 bd
       -0.0859189 -0.10419596 0.21601492 -0.10291335
0000d0 b0 d3 b1 bd 92 6e 7c 3d 8a fb 85 3d 40 13 1a be
       -0.08682954 0.061628886 0.06542118 -0.15046406
0000e0 7c 6d f5 3d 71 bd a1 bd b9 b6 ec 3b 92 8f 17 3d
       0.11983773 -0.07897461 0.0072239307 0.037002154
0000f0 19 6b 07 be f9 9f 40 be bc c3 25 3e 6a 7e b0 3d
       -0.13224448 -0.18811025 0.16187948 0.086178616
000100 7e cb fc bc b9 b2 2b bb 87 bd ac 3d 8a fe c6 3d
       -0.030858751 -0.0026199056 0.08434587 0.09716518
000110 88 68 bb bd e0 3f 0b be fc 2f 7b 3d a1 c6 8a bd
       -0.09150797 -0.13598585 0.06132506 -0.06776167
000120 d1 e6 dc bd 4c 4d 3f bc 68 c2 8f bd 3e a0 cf bd
       -0.10786212 -0.011676144 -0.07019502 -0.10137986
000130 29 67 e2 3d a0 6d d1 bd 38 9f 5c 3e ba 1a 83 be
       0.110548325 -0.102259874 0.21545112 -0.25606328
000140 03 ff 09 be 10 59 74 3c fe 36 f9 bd f9 83 07 be
       -0.13476186 0.014913812 -0.12168692 -0.13233937
000150 ff e8 09 bc de 97 00 3e 15 06 25 bd 7d df dd bc
       -0.008417367 0.12557933 -0.040289003 -0.027084107
000160 c1 74 8b 3d 44 2c c9 bd 9d 2c 38 be 6b f4 7c bd
       0.068093784 -0.09822896 -0.17985769 -0.061756533
000170 ea 71 ae bd 9f 20 fb bd 91 6a 0c bc 1c f2 3b be
       -0.08517821 -0.12262081 -0.008570329 -0.18354076
000180 55 89 8c bd 2a bc 6b be 80 cd 01 bd 7f 3e 02 be
       -0.068621315 -0.23020998 -0.03169012 -0.12719153
000190 c9 c6 64 3d 6a 74 8a 3d f9 0a 55 bd dc 00 cb 3c
       0.05585364 0.067604855 -0.052012417 0.024780683
0001a0 b5 1c 79 be c5 26 ef bc b5 e9 aa bd 3e ec 0d bd
       -0.24327357 -0.029193291 -0.08345357 -0.034649126
0001b0 28 cf ad 3d da 50 57 bd 1f f9 b9 bc 93 bf 4a bd
       0.084867775 -0.05256734 -0.022701798 -0.049499106
0001c0 e4 e9 28 bd da 6a 1a bc fb 9f 37 3d d3 e3 d7 bd
       -0.04123868 -0.009424889 0.044830304 -0.10541501
0001d0 44 bd 98 3d 1c ec 52 be 06 63 f9 bd 3a f3 46 bd
       0.074579746 -0.20597881 -0.1217709 -0.048571803
0001e0 3a d7 d1 3c c2 11 9b 3c c5 2d f0 bd 7d 2c 3e 3d
       0.025615323 0.018929366 -0.1172748 0.046429146
0001f0 36 60 d8 bd 7a 43 69 bd d4 48 43 bd 2b 87 35 3d
       -0.10565226 -0.056949116 -0.047676876 0.04431836

fc3.weight f4 [7, 128]
000000 24 6c f7 bd ef 0f 6d bd 11 94 11 3e 0f 21 a8 3d
       -0.12081173 -0.057876524 0.14216639 0.082094304
000010 c3 bc e9 3e 74 be b5 3c 85 3d fc 3d df d7 a7 bc
       0.45651826 0.022185542 0.123164214 -0.020488678
000020 9d 7e d2 bd 66 04 ca 3d ea b6 8e 3c 65 04 1b be
       -0.10278056 0.0986412 0.017421205 -0.15138395
000030 f5 db e7 3c 10 76 db bd f0 a8 2d bc 12 74 0e 3e
       0.028303126 -0.10715878 -0.01059936 0.13911465
000040 04 bc 03 3f 8a 99 8a 3d 1e ec 6e 3d 26 51 4a 3e
       0.51458764 0.067675665 0.058330648 0.19757518
000050 67 b8 6d bd d7 0f e8 3d 60 d1 f3 bd dc 49 0d 3f
       -0.058037188 0.11331146 -0.119051695 0.55190825
000060 ed c0 8b bd b5 c1 7b bd a1 42 ae bd b4 a0 52 bd
       -0.06823907 -0.06146403 -0.08508802 -0.05142279
000070 08 0d 8e bd 91 1a 11 be b5 5c b0 3e d0 34 1e be
       -0.06936079 -0.1417029 0.3444573 -0.15449834
000080 08 87 99 3d c5 8c 1a bc e1 4a c0 3e e9 d2 77 3d
       0.07496458 -0.009432976 0.37557128 0.060503874
000090 e7 08 2c be 2e 2c 39 3d b5 17 42 3c c8 4e 18 be
       -0.16800271 0.04520815 0.0118464725 -0.14873803
0000a0 dc 14 0e 3e c7 02 d3 be b7 06 8e be e4 f9 06 be
       0.13875145 -0.41213056 -0.27739498 -0.13181263
0000b0 2a 59 a4 be 61 65 96 bd 28 d1 0c be 0b 4a 1f 3e
       -0.32099277 -0.07343555 -0.13751662 0.15555589
0000c0 d5 fc 58 bc b2 ad 0d 3e 36 a1 35 bd 23 78 ab bc
       -0.013243874 0.13835791 -0.044343196 -0.02093131
0000d0 7d b9 f0 bc ba e5 e3 bd 02 85 6f 3e cc 09 35 bd
       -0.029385323 -0.11127801 0.23390582 -0.044198796
0000e0 bb d8 02 be 78 aa 43 3d d4 70 1c be 90 e4 0a 3f
       -0.12777989 0.047769994 -0.15277416 0.5425501
0000f0 bb 6d a5 3d 9e aa 9b be 8c ff 51 be 2d 6e ad 3e
       0.0807757 -0.30403608 -0.2050764 0.3387312
000100 ef 1e 23 be 79 dd 11 3d a8 15 ce 3d 7b 90 e1 be
       -0.15929769 0.035611603 0.10062724 -0.44055542
000110 1e a1 33 bc 59 d2 d5 3d e3 c5 70 be 45 ff 54 bd
       -0.010963706 0.10440511 -0.23512988 -0.052001256
000120 6a 1b 34 bd a7 9c 39 be 2e 48 8e 3d 48 af 9f 3c
       -0.043971457 -0.18126164 0.06947361 0.01949276
000130 91 5e d1 be e8 26 33 bc 7e 40 1a 3e 28 be 2a 3f
       -0.4089246 -0.010934569 0.15063664 0.66696405
000140 86 b3 29 bd 58 d0 f5 bb 19 8d ad bd 69 85 93 be
       -0.041430973 -0.007501643 -0.08474178 -0.2881272
000150 71 1d 6e 3d 65 d5 b3 be ee 69 d3 3a 3b 2b e4 bd
       0.058133546 -0.35123745 0.0016129592 -0.11141058
000160 53 9e 8b 3f 4a f3 1c bd 23 83 bd be 04 5f 68 bc
       1.0907692 -0.038317956 -0.37014112 -0.01418281
000170 74 6e b8 bb e6 c8 8f bd cf 64 22 bd e7 0f 69 3d
       -0.0056284014 -0.0702074 -0.03964692 0.05689993
000180 84 a2 65 3e 8d 20 3f 3f 00 78 dc b8 72 7b 9e 3c
       0.22425276 0.74659044 -0.00010512769 0.019345973
000190 ea e5 b6 3d 6f 4c b4 3d 86 7b a4 3d 5f bf 6e 3e
       0.089305714 0.08803641 0.08031373 0.2331519
0001a0 8c d6 cd be 82 35 21 3d bb 48 16 bd 95 24 94 3e
       -0.4020275 0.03935767 -0.036690455 0.2893416
0001b0 1e a0 73 3d 85 ae 11 3f 8a dd 8e 3d a6 6d 04 be
       0.05947887 0.5690692 0.06975849 -0.12932453
0001c0 41 87 f8 3d ab e6 da 3d eb 13 4d be 45 a1 8c be
       0.12135173 0.10688528 -0.2002713 -0.2746679
0001d0 c6 37 8d 3c 97 27 91 3d 2e 88 86 3c 7c 11 1d bc
       0.017238509 0.07087629 0.016422357 -0.009586688
0001e0 c1 e2 9a 3e 84 ab 26 bd 0d 77 98 3b b2 5e d9 3e
       0.30251125 -0.040690914 0.004652864 0.4245506
0001f0 83 52 be bd 4e 51 14 bf e4 5a 95 bc 45 65 43 be
       -0.092930816 -0.5793656 -0.018231817 -0.190816
000200 ed de cd be d2 4e b9 3d c6 85 f2 bd 07 0f 8f 3d
       -0.4020914 0.09048237 -0.118419215 0.06985288
000210 43 af 95 3c 84 14 82 be 4a 25 3f be 47 77 ed bd
       0.018272048 -0.25406277 -0.18666568 -0.11595016
000220 d6 5b 1b 3e 69 c7 24 bd 07 f3 5a 3d 95 d1 40 be
       0.15171751 -0.040229235 0.053454425 -0.18829949
000230 a6 30 52 bc d8 5d a7 bd 60 4e 3c be 20 3a 85 3c
       -0.0128289815 -0.08172196 -0.18389273 0.016263068
000240 c2 66 ba be 89 45 d0 3d fa 00 2c bd 7c 8a 46 be
       -0.36406523 0.10169513 -0.04199312 -0.19388765
000250 27 ea 21 be e7 2e 50 3e d3 3a 2b 3d 79 3f 1a bd
       -0.15811978 0.20330392 0.041804146 -0.03765819
000260 16 e8 86 bd dd dc 81 3e 30 f4 80 bc e9 3d 37 3d
       -0.06587236 0.25363818 -0.015741438 0.044736777
000270 19 44 2e 3f 62 64 a1 be c7 93 57 3f c2 11 a4 3e
       0.6807266 -0.31521899 0.84209865 0.32044798
000280 f7 ce 92 be c8 41 89 3c 03 69 59 3e ec 99 0a 3d
       -0.28673527 0.016755 0.21231465 0.033838198
000290 c8 a6 17 be 94 d0 ab 3c 90 14 9f bd 04 02 1b be
       -0.14809716 0.020973481 -0.07767594 -0.15137488
0002a0 6b 63 1b bd 12 0e 04 3e 22 ca 5e 3e e1 77 40 be
       -0.03793661 0.12895992 0.21756795 -0.1879573
0002b0 74 b5 27 3f 37 0f e8 bd 2c b7 c8 bd d9 2b 29 bd
       0.6551125 -0.11331027 -0.09800562 -0.041301582
0002c0 9d e6 18 3c 98 62 3a be df 97 3a 3c 9e 3b 43 3d
       0.009332326 -0.18201673 0.011388748 0.047664277
0002d0 9f 38 d1 3a 94 ce 18 bd 5a 77 1f be d4 32 f7 bc
       0.0015962309 -0.037306383 -0.15572873 -0.030175604
0002e0 0d a8 b1 be 1a 0c c6 bd 14 cb a7 be 2e 82 38 be
       -0.34698525 -0.09670277 -0.32772124 -0.1801841
0002f0 71 75 16 be 55 3a 97 be fa 84 a4 be 58 43 b1 3d
       -0.14693238 -0.2953669 -0.32132703 0.08655423
000300 d9 85 24 3e be a9 d8 3d 91 6e bf 3e f1 70 2a be
       0.16066684 0.10579251 0.37389043 -0.16644646
000310 6e 20 17 3e fc b6 9a be 55 34 a6 be 9a db 81 3c
       0.14758465 -0.3021773 -0.324618 0.015851784
000320 1a 2f b5 3c 73 d4 ec be 82 97 17 3d 2b 7f a5 3a
       0.022117186 -0.46255836 0.037009723 0.00126264
000330 61 ec 36 be 21 3b 2f bd 55 ac 41 bd 10 7f 77 3e
       -0.17863609 -0.042781 -0.04728349 0.24169564
000340 92 c3 20 be 40 ce e2 bb ec a8 d9 bd 90 5e f7 bd
       -0.15699604 -0.0069215596 -0.106279224 -0.12078583
000350 bc b6 e8 3c de e7 0c 3d 9e e6 1e be ad 83 bb bd
       0.028407447 0.034400813 -0.15517661 -0.091559745
000360 27 23 5d bc 30 53 ba 3b 01 4d 9e be ce 56 66 3c
       -0.0134971505 0.0056861863 -0.30918124 0.014058782
000370 37 e4 84 3b 2f 52 0a bd 7f 91 be 3c b9 97 bd 3e
       0.0040555256 -0.033769783 0.023262737 0.37029818
000380 e0 e6 12 be 38 4c 12 bd 64 9a 83 3c f5 40 75 3d
       -0.14345884 -0.03571722 0.01606483 0.0598764
000390 7c ee 90 3e 7f b3 0d be a3 e5 46 3d ad 36 1b 3e
       0.2830695 -0.13838004 0.048558842 0.15157576
0003a0 df 6c ce 3e 75 ff 0f bd 37 93 dc bb 30 90 9f 3e
       0.40317437 -0.035155732 -0.0067314166 0.31164694
0003b0 4a 3d 26 3e 20 51 ca bb d5 47 10 3d 48 ec 23 bc
       0.16234317 -0.0061742216 0.035224754 -0.010005064
0003c0 82 fd 42 bd c5 56 d2 bd 1a 3a 1a 3d 0f 8d 2a be
       -0.047605045 -0.10270456 0.037653066 -0.16655372
0003d0 e4 64 04 bf 83 ac 51 3c d0 ea a8 3d 2b c1 2e 3c
       -0.51716447 0.012797478 0.08247912 0.010666172
0003e0 43 a6 f6 3d 6a 79 ac 3b d5 7e 16 3d ce 24 bf bd
       0.12043431 0.005263497 0.03674205 -0.09333192
0003f0 cd db 6c be 27 46 23 3e dc 41 5f bb 02 09 06 be
       -0.23130722 0.1594473 -0.0034066355 -0.13089374

fc3.bias f4 [7]
000000 7d f8 bb be 5d fa b6 bc 0c 6b c3 3d 72 c5 5f 3d
       -0.3671302 -0.02233618 0.09541902 0.054631658
000010 ca 52 f8 bc b9 98 34 be df a9 49 be
       -0.030312914 -0.17636384 -0.19693707
