hackathon_toolkit/checkpoints_qlearn_CTDE/reward_trick_target_agent_0_episode_701.pth (torch, 99848 bytes, 6 tensors)

fc1.weight f4 [128, 52]
0	0x3df0a3cc	0.11749992
1	0x3e08953d	0.1333818
2	0xbcfadadd	-0.03062194
3	0xbdf08631	-0.11744345
4	0xbd13640b	-0.03598408
5	0xbd7383f2	-0.059452005
6	0x3dd2415b	0.10266372
7	0xbbf4a660	-0.0074661225
8	0x3d96a6fc	0.073560685
9	0x3dc6ae25	0.09701184
10	0xbc299c92	-0.010352271
11	0x3d7c5e6f	0.061613496
12	0xbdd50ed0	-0.10403216
13	0x3dfc7ee9	0.12328894
14	0xbd82e4e7	-0.06391316
15	0xbdf9b020	-0.12191796
16	0x3c9f7db1	0.019469114
17	0x3da15d21	0.07879091
18	0x3e091c9a	0.13389817
19	0xbdf37c8e	-0.11888991
20	0x3e00264d	0.1251461
21	0x3e03060f	0.1279528
22	0xbe0095fb	-0.12557213
23	0x3e17b8bb	0.14816563
24	0xbda5a61c	-0.080883235
25	0xbccb9a3c	-0.024853818
26	0xbdfcd1c0	-0.12344694
27	0xbe09ad32	-0.13444975
28	0xbe02937e	-0.12751576
29	0x3df7a876	0.12092678
30	0xbdb4b0fc	-0.088228196
31	0xbdf38dec	-0.11892304
32	0xb9deea00	-0.00042517483
33	0x3d93d1c0	0.07217741
34	0x3da8bc48	0.08239037
35	0x3e02a7cf	0.12759326
36	0xbd3c82a0	-0.04602301
37	0x3d125fc8	0.035735875
38	0xbda5f037	-0.08102458
39	0x3cfc71d8	0.030816004
40	0xbdf5c547	-0.12000518
41	0x3d3f9750	0.046775162
42	0xbce8befc	-0.028411381
43	0x3d8685ae	0.06568466
44	0x3d1be4f8	0.03806016
45	0xbd5a84b4	-0.05334921
46	0x3dc3db1a	0.09563275
47	0xbd300aca	-0.04297904
48	0x3da697e8	0.081344426
49	0xbc89b2a4	-0.016808815
50	0x3da1782a	0.078842476
51	0xbd91d4e2	-0.07120682
52	0x3c2223b0	0.009896204
53	0xbd7ee354	-0.062228516
54	0xbdf5d9f5	-0.12004463
55	0xbbfa2880	-0.0076342225
56	0x3d33675c	0.043799743
57	0xbd89537f	-0.06705379
58	0x3e0dade1	0.13835861
59	0xbd038002	-0.0321045
60	0x3def1506	0.11673932
61	0xbdaf5e72	-0.08562936
62	0xbdd415c5	-0.10355715
63	0xbc813ba4	-0.01577551
64	0xbdea30f6	-0.1143512
65	0x3ccf6af8	0.025319561
66	0x3e09257d	0.13393207
67	0x3d95db1a	0.07317181
68	0xbd315a5e	-0.04329907
69	0xbd248918	-0.040169805
70	0xbe0bd86d	-0.13656779
71	0xbde82432	-0.11335029
72	0xbd28ba04	-0.041193023
73	0xbdce420a	-0.1007119
74	0xbdef9e75	-0.11700145
75	0x3df95796	0.12174909
76	0xbdde4759	-0.10853452
77	0xbd2f85d6	-0.042852245
78	0xbd0387f8	-0.03211209
79	0x3d1e1f90	0.03860432
80	0xbe01b950	-0.12668347
81	0x3c8aede8	0.016959146
82	0xbd8b2ac8	-0.06795269
83	0x3d7a870c	0.061163947
84	0x3d8433ac	0.06455168
85	0xbc6cc418	-0.014451049
86	0xbd7f75bc	-0.06236814
87	0x3a4e0a00	0.00078597665
88	0x3cd76f08	0.026298061
89	0x3d4fa2ec	0.050692484
90	0xbd3fd456	-0.04683336
91	0x3cb5cd00	0.022192478
92	0xbd8eb53d	-0.06968162
93	0x3dc6bbd0	0.09703791
94	0xbb8743a0	-0.0041279346
95	0x3cb01218	0.021493003
96	0xbd2cd98c	-0.042199656
97	0xbdceb614	-0.100933224
98	0xbde14533	-0.10999527
99	0x3d18c10c	0.03729348
100	0xbd36dab2	-0.044642158
101	0xbd480652	-0.048834153
102	0xbd1b3fa6	-0.037902497
103	0xbd9b94bb	-0.075967275
104	0xbc89bf7a	-0.016814936
105	0xbdb398e1	-0.08769394
106	0x3d5e3b65	0.05425586
107	0xbd969e45	-0.07354406
108	0xbc9d6c1c	-0.01921659
109	0x3c5e7c50	0.013579443
110	0x3d67b609	0.056570087
111	0x3dc18632	0.09449424
112	0x3da33194	0.07968441
113	0xbdd93e10	-0.106075406
114	0xbddf0860	-0.10890269
115	0x3d45e777	0.048316445
116	0x3ddde7e9	0.10835249
117	0xbd467330	-0.048449695
118	0x3ddfd922	0.10930087
119	0xbd91139b	-0.070838176
120	0xbda75d16	-0.081720516
121	0xbd8ece86	-0.06972985
122	0xbd7aa815	-0.06119545
123	0xbb3fd2c0	-0.0029269904
124	0xbe088bc6	-0.1333457
125	0xbe00c373	-0.12574558
126	0xbd9b3aa3	-0.075795434
127	0x3cece4ea	0.028917748
128	0x3d8024aa	0.06256993
129	0xbd826262	-0.06366421
130	0x3d7fdd6c	0.062467024
131	0xbe082ca3	-0.13298278
132	0x3db53716	0.088483974
133	0x3d8103f6	0.062995836
134	0x3d9d09c4	0.07667878
135	0xbd583ea0	-0.0527941
136	0x3e04b3b9	0.12959184
137	0xbde78af4	-0.113058
138	0x3d850f14	0.064970165
139	0x3e04ef9b	0.12982027
140	0x3d3b81e4	0.04577817
141	0x3d86fe40	0.06591463
142	0x3db8d0d0	0.09024203
143	0x3da9eec7	0.08297496
144	0x3dcf6f60	0.10128665
145	0xbdab6730	-0.08369291
146	0x3abf7180	0.0014605969
147	0x3d2cfaac	0.042231247
148	0x3d2d80f4	0.042359307
149	0xbcd877b0	-0.026424259
150	0x3e0493ad	0.12946959
151	0x3db51bb8	0.088431776
152	0xbdc7d4c4	-0.09757379
153	0xbd71979e	-0.058982484
154	0x3da83364	0.08212927
155	0xbd7d3bee	-0.06182473
156	0x3e20e313	0.15711622
157	0xbd33bf1f	-0.04388344
158	0x3e02b86b	0.12765662
159	0xbceb6c50	-0.02873817
160	0xbd9b9e4e	-0.075985536
161	0xbd250aec	-0.04029362
162	0xbdba1ed9	-0.09087915
163	0xbdb4015b	-0.08789321
164	0x3d997ef6	0.07494919
165	0xbe23a109	-0.15979399
166	0x3df9f8bd	0.12205646
167	0x3dfa80bd	0.12231586
168	0x3dd76ed4	0.10519186
169	0xbe244288	-0.16041005
170	0xbd3b2548	-0.04568985
171	0x3df066ba	0.117383435
172	0x3e08299c	0.13297123
173	0x3d9c34dc	0.076272696
174	0xbdf890ea	-0.12137015
175	0x3e00fc93	0.1259635
176	0x3d275ac4	0.040858045
177	0xbda6c19a	-0.08142395
178	0x3d06261a	0.03275118
179	0x3e18876b	0.14895408
180	0xbd37ab9c	-0.044841394
181	0xbdb6e69c	-0.08930704
182	0x3ba800a0	0.0051270276
183	0x3d9f590e	0.07780658
184	0xbcb91764	-0.022594161
185	0x3dad87ee	0.08473192
186	0x3d699630	0.057027996
187	0xbddac368	-0.10681802
188	0x3df2288a	0.118241385
189	0x3d6e4380	0.05816984
190	0x3e05c379	0.13062848
191	0x3dc3c030	0.09558141
192	0xbd1336f4	-0.03594108
193	0x3d29f224	0.04149069
194	0xbd95e6a6	-0.07319383
195	0x3da38a0f	0.07985317
196	0xbd14431e	-0.03619682
197	0xbe03458e	-0.12819502
198	0xbd14bc02	-0.03631211
199	0xbd606238	-0.05478117
200	0xbca56594	-0.020190038
201	0x3df6b78e	0.12046729
202	0x3d7b6f44	0.061385408
203	0xbccd8f19	-0.025092648
204	0x3ddc753e	0.1076455
205	0xbbc37320	-0.0059646517
206	0x3dcd697c	0.10029885
207	0x3daeb56f	0.085306995
208	0x39c3c600	0.0003734082
209	0xbd9478d0	-0.07249606
210	0xbd5c7d76	-0.053830586
211	0x3dd35350	0.10318625
212	0x3d4656f6	0.048422776
213	0x3c99c628	0.018771246
214	0xbdbfe92e	-0.09370647
215	0x3d2d99cc	0.042383
216	0x3dbd317a	0.092379525
217	0x3d876afc	0.066122025
218	0x3dd80e3f	0.10549592
219	0x3d15d79d	0.036582578
220	0x3c99212e	0.01869258
221	0xbd065460	-0.03279531
222	0x3d89a05a	0.06720038
223	0xbdbbce28	-0.091701806
224	0x3cd88d2e	0.026434507
225	0xbcf36798	-0.029712483
226	0xbd4a316d	-0.049363542
227	0xbd002b20	-0.031291127
228	0x3c3229d0	0.010874227
229	0xbd1e241e	-0.038608663
230	0xbc57a071	-0.013160811
231	0xbd73b264	-0.0594963
232	0xbd1beda6	-0.038068436
233	0xbdc25cc6	-0.094903514
234	0x3e0df6b9	0.13863648
235	0x3d2e5ea0	0.04257071
236	0x3d7f3aec	0.06231205
237	0x3d6342d4	0.055483654
238	0xbe022272	-0.12708452
239	0x3dcfe1b6	0.10150473
240	0xbd689464	-0.05678214
241	0x3e024f53	0.12725572
242	0x3cff8a40	0.031193852
243	0x3e0b429b	0.13599627
244	0xbd823dbb	-0.063594304
245	0xbde07354	-0.10959497
246	0xbdcfd353	-0.10147729
247	0x3d95023e	0.07275818
248	0x3d6308cc	0.05542831
249	0xbdec24de	-0.11530469
250	0x3cbdb1e0	0.023156106
251	0xbd67c4da	-0.056584217
252	0xbd37be4c	-0.044859216
253	0x3e04db49	0.12974276
254	0xbd93f5ff	-0.072246544
255	0x3bb459a0	0.005503848

fc1.bias f4 [128]
0	0xbc8c2835	-0.017109016
1	0xbe01662a	-0.12636629
2	0xbd892870	-0.06697166
3	0xbd2ce99b	-0.04221497
4	0xbdafe77d	-0.08589075
5	0xbc9376a7	-0.018000914
6	0x3e1717a2	0.14755109
7	0x3dc51bad	0.09624419
8	0xbd7c2447	-0.061558034
9	0xbd903412	-0.070411816
10	0xbc8d964c	-0.017283581
11	0xbdb0e0a7	-0.08636599
12	0xbc093514	-0.008374471
13	0x3d103872	0.03521008
14	0xbd163ba8	-0.036677986
15	0xbd593f5a	-0.053038932
16	0x3dc22db1	0.09481371
17	0xbd7ba1a6	-0.061433457
18	0x3d6c8ad4	0.057749584
19	0xbcc799a0	-0.024365246
20	0x3dbe9ccc	0.093072504
21	0x3de2f1a4	0.110812455
22	0x3db07f0e	0.08617984
23	0xbd3ab870	-0.04558605
24	0x3c87b0e7	0.016563846
25	0x3dbaa81c	0.091140956
26	0x3e0a1488	0.13484395
27	0x3e0b9ed5	0.13634808
28	0x3daac89a	0.08339043
29	0x3dccf0ee	0.10006891
30	0x3dc21a22	0.09477641
31	0x3c57b9ec	0.013166886
32	0xbcba02f7	-0.022706492
33	0xbd22387e	-0.039604656
34	0xbddec0ea	-0.10876639
35	0x3d455982	0.048181064
36	0xbde7cf6b	-0.11318859
37	0x3e0c1dda	0.13683262
38	0xbd207ee4	-0.039183512
39	0x3dec4d6e	0.11538206
40	0x3df2fc0a	0.11864479
41	0x3cb247d4	0.021762766
42	0x3dc083db	0.094001494
43	0xbdc27b6a	-0.094961956
44	0xbd305a52	-0.043054886
45	0xbd1347a7	-0.035957005
46	0x3d794dee	0.060865335
47	0xbde40100	-0.11133003
48	0xbdbd6596	-0.092478916
49	0x3df63dc7	0.12023502
50	0x3e06160e	0.1309435
51	0x3dd6b8a5	0.10484437
52	0x3b990ed2	0.004670956
53	0xbdb8bb98	-0.09020156
54	0xbc4b9d56	-0.0124276485
55	0xbca0354e	-0.019556668
56	0x3d881b0e	0.06645785
57	0x3d92f2a5	0.07175187
58	0x3d56dce1	0.05245674
59	0x3dd47539	0.10373921
60	0x3d06052e	0.032719783
61	0xbdeebc0c	-0.11656961
62	0xbd433f6e	-0.047667913
63	0xbcfee148	-0.031113282
64	0xbc9ad8ee	-0.018902268
65	0x3d8ef2d8	0.069799125
66	0xbdb293cf	-0.087195985
67	0xbe015592	-0.12630299
68	0xbc95c1f4	-0.01828096
69	0xbe032f30	-0.1281097
70	0xbd9c3866	-0.07627945
71	0xbdc5eaf5	-0.09663955
72	0xbdcb3da0	-0.099238634
73	0x3dc0ced8	0.09414452
74	0x3cd21503	0.025644785
75	0xbc9de2e8	-0.019273236
76	0xbcbe7ab1	-0.023251863
77	0xbdd58493	-0.10425677
78	0xbdbe697e	-0.09297465
79	0xbd5aa323	-0.053378236
80	0xbd601573	-0.054707956
81	0xbd83da81	-0.06438161
82	0x3d99a910	0.07502949
83	0x3cae3570	0.021265715
84	0xbdf20cd4	-0.11818853
85	0xbdad965c	-0.084759444
86	0xbdba02bf	-0.09082555
87	0x3e1a190c	0.15048617
88	0x3e11f0f0	0.14252067
89	0x3dac246c	0.084053844
90	0xbd8b17e6	-0.06791668
91	0x3d982c28	0.07430297
92	0x3c9df924	0.019283839
93	0xbd18ffe8	-0.037353426
94	0x3da1f97f	0.07908916
95	0x3c700d7a	0.014651651
96	0xbbf8ee45	-0.0075967633
97	0xbdad8b09	-0.084737845
98	0x3d590ad7	0.052988853
99	0xbd907d81	-0.07055188
100	0x3d5f30d9	0.054489944
101	0x3dacfc75	0.0844659
102	0x3dfd0bf8	0.123557985
103	0xbde116ef	-0.10990702
104	0x3dde9b30	0.108694434
105	0xbd1a216e	-0.037629537
106	0x3a6710a4	0.00088144303
107	0x3dbb17b7	0.091353826
108	0x3d6b7e32	0.057493396
109	0xbd87ae4b	-0.066250406
110	0x3c9dad3a	0.01924764
111	0xbd793cb9	-0.060848925
112	0xbc8eee6b	-0.01744767
113	0xbdaa932d	-0.08328853
114	0xbd77b1f9	-0.060472462
115	0xbd04453d	-0.032292593
116	0xbe0a3dd7	-0.13500153
117	0x3d65ecb1	0.05613393
118	0x3d7d141a	0.06178675
119	0x3cb047c3	0.021518594
120	0x3df4518a	0.11929615
121	0xbddb38cc	-0.107041925
122	0x3d632332	0.055453487
123	0x3e07a2e2	0.13245729
124	0x3d9a5cd1	0.075372346
125	0x3a747476	0.00093252154
126	0xbdfc5d58	-0.123224914
127	0x3d2f93cb	0.042865556

fc2.weight f4 [128, 128]
0	0x3d4f9da2	0.05068744
1	0x3dae880f	0.08522045
2	0xbd0f8510	-0.035039008
3	0xbc4c0b0c	-0.012453806
4	0xbcdafb75	-0.026731232
5	0x3c695319	0.014241003
6	0xbc6dcd86	-0.014514333
7	0x3d48dc2f	0.04903811
8	0x3d9c1668	0.07621461
9	0xbb1281a0	-0.0022355095
10	0x3a35bf18	0.0006933077
11	0xbc3841b5	-0.0112461345
12	0x3c85b3c2	0.016321067
13	0xbd3daf20	-0.04630959
14	0xbd4a27dd	-0.049354423
15	0x3d69e053	0.057098698
16	0x3cb2ea79	0.02184032
17	0xbd561581	-0.0522666
18	0xbd468828	-0.048469692
19	0x3b86bcf0	0.0041118786
20	0x3d9d196b	0.07670864
21	0x3d922172	0.071352854
22	0xbd21b586	-0.039479755
23	0xbc88869c	-0.01666575
24	0x3d4ccf33	0.050002288
25	0xbdf47365	-0.11936072
26	0xbd286f9a	-0.041122057
27	0x3d2f68c2	0.042824514
28	0x3dcb39a8	0.099231064
29	0xbc6dd1b0	-0.014515325
30	0x3d0dd0a7	0.034622815
31	0x3cc7b3f3	0.024377799
32	0x3df40a2b	0.11916002
33	0xbd5a604d	-0.053314496
34	0x3dab7e9b	0.083737575
35	0x3d9c3410	0.07627118
36	0xbda957ff	-0.08268737
37	0x3dba4b1c	0.09096357
38	0xbcc065bb	-0.023486009
39	0x3d8be72f	0.06831204
40	0x3db55faa	0.08856137
41	0xbd3c69e8	-0.045999438
42	0x3cc7fd46	0.024412762
43	0x3dca67f1	0.098831065
44	0xbce480c2	-0.027893428
45	0x3d211962	0.039330848
46	0xbd8dbbd8	-0.06920594
47	0xbb2d29b2	-0.0026422557
48	0xbd635c07	-0.055507686
49	0xbd67edf4	-0.056623414
50	0xbcae0ae4	-0.021245427
51	0xbd9c8a56	-0.07643573
52	0x3debcb46	0.11513381
53	0x3d1b9da2	0.037992127
54	0x3b9a1150	0.004701771
55	0xbb59433c	-0.0033151647
56	0x3d3d6705	0.046240825
57	0x3d3aa8e7	0.045571234
58	0xbcf2fca1	-0.029661478
59	0x3da2ffbe	0.07958935
60	0xbc071677	-0.008245102
61	0x3d1e8588	0.038701564
62	0xbcc14404	-0.023592003
63	0xbd4f6dad	-0.050641704
64	0x3c3c83e6	0.011506056
65	0xbdab868b	-0.083752714
66	0x3cea6b7b	0.028615704
67	0x3c416768	0.011804439
68	0x3d0d1899	0.034447286
69	0x3db3d381	0.087805755
70	0x3b79621d	0.0038052865
71	0x3d50baae	0.05095928
72	0xbd047c04	-0.032344833
73	0x3de0567b	0.10953995
74	0x3d817e45	0.06322912
75	0x3e11ef6d	0.1425149
76	0x3dbbcc8f	0.09169876
77	0xbca72115	-0.020401517
78	0x3db89b71	0.09014023
79	0x3d7215b9	0.059102748
80	0xbd241195	-0.04005583
81	0xbb94dbef	-0.0045428197
82	0xbd978666	-0.07398681
83	0xbb465cc0	-0.0030267686
84	0x3bbe6096	0.005809854
85	0x3dbdb3a1	0.09262777
86	0x3dc2459f	0.094859354
87	0xbca7f85a	-0.020504165
88	0x3dbae98c	0.09126577
89	0x3e082389	0.13294806
90	0x3dc723f2	0.09723653
91	0xbd88cecb	-0.06680068
92	0xbcf00ad8	-0.029302046
93	0x3d66ad60	0.056317687
94	0x3c582085	0.013191347
95	0xbc86af04	-0.016440876
96	0xbd4d17a4	-0.050071374
97	0x3de13fc1	0.10998488
98	0x3dc77795	0.09739605
99	0x3dc904d6	0.098153755
100	0xbd52011c	-0.05127059
101	0x3cbade72	0.022811148
102	0x3ccc9458	0.02497308
103	0x3dc1888a	0.09449871
104	0xb7ff6f00	-3.0450057e-05
105	0x3c0034b6	0.007825067
106	0xbc52387b	-0.012830849
107	0x3d53b690	0.051687777
108	0x3c4a8d07	0.012362725
109	0x3cb5b1e1	0.022179546
110	0x3bd2c068	0.006431628
111	0xbd87afbf	-0.06625318
112	0x3db631b7	0.08896201
113	0xbd89ac88	-0.06722361
114	0x3d7bbe7d	0.06146096
115	0x3d8faf3d	0.07015846
116	0x3c829097	0.015938086
117	0xbc53709e	-0.012905268
118	0x3d6a4ce3	0.05720223
119	0xbc3e4e5a	-0.01161536
120	0x3d36f879	0.044670556
121	0xbd0c9b45	-0.034327764
122	0x3db3413b	0.08752676
123	0x3d1c27d0	0.038123906
124	0x3e031183	0.12799649
125	0xbd9c002a	-0.07617219
126	0xbd0e603a	-0.034759738
127	0x3c9eeb51	0.019399317
128	0xbcce8c5d	-0.025213415
129	0xbbd4ce50	-0.006494321
130	0xbcdbfdf5	-0.026854495
131	0x3c90bbcd	0.017667675
132	0xbb673800	-0.0035281181
133	0x3cf2c339	0.029634105
134	0xbb204227	-0.0024453492
135	0x3cb3a6c6	0.02193011
136	0xbccb409e	-0.024811085
137	0x3d97d853	0.074143074
138	0x3dd59f31	0.10430754
139	0xbd2cc314	-0.04217823
140	0x3d1a35fe	0.037649147
141	0xbc1bba98	-0.009504937
142	0x3d41e079	0.047333214
143	0x3cd48c6c	0.025945865
144	0x3dabf997	0.08397215
145	0x3cebd98c	0.028790258
146	0x3bcbde0e	0.0062215393
147	0x3b8c1080	0.004274428
148	0x3d25e034	0.04049702
149	0x3c94e12c	0.018173777
150	0x3cfad7a9	0.030620413
151	0xbd30777c	-0.0430827
152	0x3c236440	0.009972632
153	0x3d94194a	0.07231386
154	0x3d81d9bf	0.0634036
155	0xbd833690	-0.06406891
156	0x3deab009	0.11459357
157	0x3dcb2e02	0.09920885
158	0x3ca90a34	0.020634748
159	0x3db84427	0.08997374
160	0xbc180f7e	-0.009281037
161	0x3d5889bc	0.05286573
162	0x3ad83807	0.001649619
163	0x3d134657	0.035955753
164	0xbd5769a8	-0.052590996
165	0x3d01b89e	0.031670205
166	0x3cca412e	0.024689283
167	0x3e1a6c13	0.1508029
168	0xbd7cc60c	-0.06171231
169	0x3db03841	0.086044796
170	0x3a9349cf	0.0011237207
171	0xbc01ae10	-0.007915035
172	0x3d4d226a	0.050081648
173	0x3c80cab6	0.01572166
174	0x3db3b4f1	0.08774746
175	0x3dc4f641	0.09617282
176	0xbd2254ae	-0.039631538
177	0x3c896db5	0.016775945
178	0xbd98be0c	-0.074581236
179	0x3aec8184	0.001804397
180	0x3b9fe73c	0.00487986
181	0xbd05b3f6	-0.032642327
182	0x3d83b98d	0.064318754
183	0xbd652ffa	-0.055953957
184	0x3da16b6b	0.078818165
185	0xbd64bcfa	-0.055844285
186	0x3d9743e8	0.07385999
187	0xbd033ba6	-0.032039307
188	0x3da387ab	0.07984861
189	0xbd23365d	-0.039846767
190	0x3d3fcc8a	0.046825923
191	0x3d21d356	0.039508186
192	0xbc69e2c4	-0.014275257
193	0xbd9a810c	-0.07544145
194	0xbdcc0ca8	-0.099633515
195	0xbcdeaf7a	-0.027183283
196	0xbcdbe484	-0.026842363
197	0xbd6c9da6	-0.057767533
198	0xbd7b0721	-0.061286096
199	0x3d8f458f	0.06995689
200	0x3d0965f5	0.0335445
201	0x3da4dbf3	0.080497645
202	0xbc93dfd8	-0.018051073
203	0x3e177027	0.14788876
204	0x3cf598ea	0.029980142
205	0xbdb6f933	-0.0893425
206	0x3d35efb1	0.04441804
207	0x3d9fb2c0	0.07797766
208	0x3d796900	0.06089115
209	0x3d15bc0f	0.0365563
210	0x3d972895	0.07380787
211	0x3da84383	0.08216002
212	0xbd6d1d9b	-0.057889562
213	0x3e01456a	0.12624136
214	0xbb8ee420	-0.0043606907
215	0x3d86a59e	0.06574558
216	0x3c322836	0.010873845
217	0xbdac5280	-0.08414173
218	0x3d519551	0.05116779
219	0x3cc55b84	0.02409149
220	0xbdc5cc45	-0.09658102
221	0x3db2041c	0.0869219
222	0xbd0ecc8d	-0.034863044
223	0xba6fc760	-0.00091468357
224	0x3c7c2ad6	0.015391072
225	0x3d491fb8	0.049102515
226	0x3d5a966a	0.053366102
227	0xbd8f9acc	-0.07011947
228	0xbcb5ce14	-0.022192992
229	0x3dc0bad2	0.09410633
230	0xbd5f8d2b	-0.054577988
231	0x3dea2568	0.11432916
232	0x3da43fae	0.080199584
233	0xbd6d6f6a	-0.05796758
234	0x3cfa626d	0.030564511
235	0x3bb403a8	0.0054936
236	0x3bf65741	0.0075177257
237	0xbbf0b43b	-0.007345704
238	0x3df75925	0.1207755
239	0x3b3d51b8	0.002888782
240	0xbc1d84f5	-0.009614219
241	0x3c6424cf	0.0139247915
242	0x3da07663	0.078350805
243	0x3df8eda1	0.12154699
244	0xbc6cbfe2	-0.014450045
245	0x3d998cd3	0.07497563
246	0xbd17cd76	-0.037061177
247	0xbdae7ccd	-0.085198976
248	0x3da96b73	0.082724474
249	0xbd62a980	-0.05533743
250	0x3d795373	0.0608706
251	0x3e201a7a	0.156351
252	0x3cb393a8	0.021920994
253	0x3d052c4f	0.03251296
254	0x3d323cf6	0.043515168
255	0x3d607520	0.0547992

fc2.bias f4 [128]
0	0x3ba1054f	0.004913963
1	0x3cca12a1	0.024667086
2	0x3c5ab684	0.013349179
3	0x3d5dfbfa	0.05419538
4	0x3cf47c66	0.029844474
5	0x3ac71ff8	0.0015192023
6	0xbd2aea52	-0.04172737
7	0xbd8fcd21	-0.07021547
8	0xbda8eeb7	-0.08248656
9	0x3db56fd6	0.08859222
10	0x3da770a2	0.0817578
11	0x3db527e4	0.08845499
12	0xbd2a7438	-0.04161474
13	0xbc817902	-0.015804771
14	0xbc881936	-0.016613584
15	0xbd5242d7	-0.051333275
16	0x3d1c8a54	0.038217857
17	0x3d94c1d6	0.07263534
18	0xbd6ea56d	-0.05826323
19	0x3d9e694d	0.07734928
20	0x3d7eb716	0.062186323
21	0x3db6d498	0.08927268
22	0xbd318262	-0.043337233
23	0x3d938160	0.07202411
24	0x3d308412	0.043094702
25	0x3d43a7ab	0.047767323
26	0x3da49f4b	0.08038195
27	0x3cb02271	0.021500798
28	0xbcbd2168	-0.023087218
29	0x3cb0b8bb	0.021572461
30	0xbd722260	-0.059114814
31	0x3db14e0c	0.086574644
32	0x3daf0178	0.08545202
33	0xbdb31238	-0.08743709
34	0xbd365744	-0.044516817
35	0xbd0da8ee	-0.034584932
36	0xbd14088e	-0.03614097
37	0x3c8fabc5	0.01753796
38	0xbda30121	-0.079592
39	0xbd999a5d	-0.075001456
40	0xbd5d032f	-0.053958114
41	0xbd12a3f7	-0.0358009
42	0x3db06927	0.08613806
43	0x3d6af46a	0.057361998
44	0x3d9ddfc6	0.07708697
45	0x3c90bab9	0.017667161
46	0xbaa47ac1	-0.001254879
47	0xbc956cea	-0.01824041
48	0xbc8eb451	-0.017419966
49	0xbdae0145	-0.08496336
50	0x3c483bd3	0.012221294
51	0x3bbc8917	0.005753647
52	0xbd854c1f	-0.065086596
53	0xbd3a4bd0	-0.045482457
54	0xbd945715	-0.07243172
55	0x3d2877ba	0.041129805
56	0x3cdc76d1	0.026912125
57	0x3db8c0ff	0.09021186
58	0xbd1eb903	-0.03875066
59	0x3d3fd983	0.046838295
60	0x39957d64	0.00028512918
61	0x3d9aa398	0.07550734
62	0xbc0b8bac	-0.008517187
63	0xbca8fd86	-0.020628702
64	0xbc263beb	-0.0101461215
65	0x3c424cb8	0.0118591115
66	0x3c77bfc6	0.015121406
67	0x3caf28b3	0.021381712
68	0xbbd23892	-0.006415435
69	0x3d84474e	0.06458913
70	0xbd04c83c	-0.03241752
71	0x3c935da6	0.017988991
72	0x3d1b3994	0.037896708
73	0x3d8b2a10	0.06795132
74	0xbcf261c7	-0.02958764
75	0x3d79e2f3	0.06100745
76	0xbd518828	-0.05115524
77	0xbd8c9c8f	-0.06865799
78	0xbd564dcf	-0.052320298
79	0xbd11a18b	-0.03555445
80	0xbd9caf87	-0.07650667
81	0x3d2d4310	0.042300284
82	0x3db1b849	0.08677728
83	0xbbc8fc35	-0.006133581
84	0xbdb24972	-0.08705415
85	0x3d537969	0.051629458
86	0x3d9999ea	0.0750006
87	0x3d99d0a5	0.07510499
88	0x3b1eb8d3	0.002421905
89	0xbca35bdd	-0.019941265
90	0x3d0cac89	0.03434423
91	0x3b97afee	0.0046291267
92	0xbd26ec5a	-0.040752746
93	0xbcc6995d	-0.024243051
94	0xbd91d680	-0.07120991
95	0x3c5b0c54	0.0133696385
96	0xbcd17a3d	-0.025570983
97	0x3d378c52	0.044811554
98	0xbd88214b	-0.06646975
99	0x3c7efa91	0.015562669
100	0x3d08c945	0.03339507
101	0xbd7dc90d	-0.061959315
102	0xbd20a904	-0.039223686
103	0x3d4fef2b	0.050765198
104	0x3d38cd2f	0.045117553
105	0x3d2794ef	0.04091352
106	0x3c81b8ec	0.015835248
107	0x3cba5e1e	0.022749957
108	0x3d959baa	0.07305081
109	0x3d8197d8	0.0632779
110	0x3db929f4	0.09041205
111	0xbbd683fb	-0.006546495
112	0xbd28ec6e	-0.041241102
113	0xbd97c92f	-0.074114196
114	0x3c9815e9	0.018565135
115	0xbd40c8e0	-0.04706657
116	0xbcc1c8f1	-0.023655387
117	0x3d852747	0.06501632
118	0x3d074b0b	0.03303055
119	0xbd4240d5	-0.04742511
120	0xbd0f8226	-0.03503623
121	0xbd6300f5	-0.055420835
122	0x3d9db41f	0.07700371
123	0x3d9e4f84	0.0773001
124	0xbd9aaed9	-0.07552881
125	0x3d08da7b	0.033411484
126	0x3c7be0e6	0.015373444
127	0x3d81dc89	0.06340892

fc3.weight f4 [7, 128]
0	0x3cab5efa	0.020919312
1	0x3cc26238	0.023728475
2	0xbcd1e6d4	-0.025622763
3	0xb990c2f4	-0.00027611072
4	0x3d7071ef	0.058702406
5	0x3cbc15b5	0.02295957
6	0xbd1e9b70	-0.038722456
7	0x3dc032f0	0.093847156
8	0xbd8017e1	-0.062545545
9	0x3ca0ab6c	0.01961299
10	0xbdc2898b	-0.094988905
11	0xbd363b2d	-0.04449003
12	0x3ca1f1e9	0.019768672
13	0x3d6fa234	0.0585043
14	0xbc6850b5	-0.014179398
15	0x3b085132	0.002080035
16	0x3c0aa2a3	0.008461627
17	0xbd945fb0	-0.072448134
18	0x3a0a80a0	0.0005283449
19	0x3d9ea309	0.0774594
20	0x3d933354	0.071875244
21	0xbcceae0e	-0.02522948
22	0x3d0e1fda	0.034698345
23	0x3d3ff873	0.0468678
24	0xbd821f05	-0.06353573
25	0xbb799dee	-0.0038088518
26	0xbdab0aa1	-0.08351637
27	0xbda5e4c2	-0.08100273
28	0x3cfa525a	0.030556846
29	0x3d13dfa7	0.036101963
30	0x3beb77c8	0.00718591
31	0x3d81235a	0.06305571
32	0x3c531190	0.012882605
33	0xbdad32f2	-0.08456983
34	0xba9404c0	-0.001129292
35	0xbd0def8e	-0.034652285
36	0xbbb99e38	-0.005664613
37	0xbb8a460b	-0.0042197756
38	0xbb5c389a	-0.0033603073
39	0xbd677e0b	-0.05651669
40	0xbdc68764	-0.096937925
41	0xbd1c0648	-0.038091928
42	0xbd689de4	-0.0567912
43	0x3cc7af28	0.024375513
44	0xba6c4746	-0.0009013306
45	0x3d648582	0.055791385
46	0xbcbeb8c1	-0.023281457
47	0x3c83bc88	0.01608111
48	0xbda3119c	-0.07962343
49	0x3b57b0d6	0.00329118
50	0x3dae87d5	0.08522002
51	0xbbee827f	-0.00727874
52	0xbce84d68	-0.028357223
53	0xbcaecbf9	-0.021337496
54	0xbca1033e	-0.019654866
55	0xbd96bbee	-0.073600635
56	0xbd4095b1	-0.047017757
57	0xbb62d431	-0.003461134
58	0xbb25ed40	-0.0025318414
59	0xbdbda609	-0.09260184
60	0xbd24534d	-0.040118504
61	0xbcad2b8b	-0.021138927
62	0xbd672b23	-0.056437623
63	0x3cc8d54c	0.02451577
64	0xbd526af3	-0.051371526
65	0x3cf9c788	0.030490652
66	0x3ce7fa08	0.028317466
67	0xbd0dc0ce	-0.0346077
68	0xbdbc2dbb	-0.0918841
69	0xbdbdf368	-0.09274942
70	0xbc616d39	-0.013758951
71	0x3d525fb4	0.0513608
72	0x3dc5bcea	0.09655173
73	0x3d037e3e	0.032102816
74	0xbd244aa3	-0.04011024
75	0xbd8c3246	-0.068455264
76	0x3d854dea	0.065090016
77	0xbda67dde	-0.08129476
78	0x3d51ee10	0.051252425
79	0xbd998761	-0.074965246
80	0x3d70bc8d	0.058773566
81	0x3d26dd17	0.04073819
82	0x3d20612d	0.039155174
83	0xbd8e92c5	-0.06961588
84	0xbd919c89	-0.07109935
85	0xbc51b091	-0.012798444
86	0xbc6d1596	-0.0144704785
87	0xbbb1701e	-0.0054149767
88	0xbd1c4cc1	-0.038159136
89	0xbce99699	-0.028514193
90	0x3c94f148	0.018181458
91	0x3cabc2c3	0.020966893
92	0x3d29d129	0.041459236
93	0xbd4be2fa	-0.04977701
94	0x3b7a8819	0.0038228093
95	0x3b153306	0.0022766008
96	0xbcbe9aa7	-0.023267103
97	0xbcb21a01	-0.021740915
98	0xbd431d4e	-0.04763537
99	0x3c8d315e	0.017235454
100	0x3d8e40b8	0.06945938
101	0x3db6d0b5	0.089265265
102	0xbc3a9662	-0.011388393
103	0xbce1279c	-0.027484708
104	0x3ccc977b	0.024974575
105	0x3c67b86e	0.014143093
106	0x3d9f87a4	0.07789543
107	0x3d033ac5	0.03203847
108	0xbd3223d8	-0.043491215
109	0x3d020752	0.031745262
110	0x3aeea322	0.0018206576
111	0xbdb671ee	-0.08908449
112	0x3dad689f	0.084672205
113	0x3d6b2a22	0.057413228
114	0xbcf31d08	-0.02967693
115	0xbd972d08	-0.07381636
116	0xbc57ec62	-0.013178917
117	0x3d76b1fb	0.06022833
118	0x3d69f7fa	0.057121255
119	0xbcaf1100	-0.02137041
120	0xbcce864a	-0.025210518
121	0x3c3f8eca	0.011691758
122	0xbdb276b3	-0.08714046
123	0x3c585c18	0.013205551
124	0xbd06adc0	-0.032880545
125	0x3a498cb7	0.00076885096
126	0xbdbfb4cc	-0.09360656
127	0xbc50b303	-0.012737992
128	0xbcdaed9d	-0.026724631
129	0xbd724ebe	-0.059157126
130	0x3cb11031	0.021614166
131	0x3d89fd5b	0.06737777
132	0xbd9bd1e9	-0.076083966
133	0xbd257e31	-0.04040355
134	0x3d9b71a4	0.075900346
135	0x3d199d4e	0.037503533
136	0xbd89f66a	-0.06736453
137	0xbd9c3ded	-0.07628999
138	0x3d34ed21	0.044171456
139	0x3d5e8c62	0.0543331
140	0x3c2d2874	0.010568727
141	0x3d5fb60f	0.054616984
142	0xbd639029	-0.055557404
143	0x3d750aaf	0.05982464
144	0xbb9fb0ac	-0.004873356
145	0xbc87115d	-0.016487772
146	0xbd3c2ab9	-0.04593918
147	0xbe167d05	-0.14696129
148	0x3d6d8514	0.05798824
149	0xbcb70d04	-0.022345074
150	0x3ccfc3f6	0.025361996
151	0xbdc10d13	-0.09426322
152	0xbd3fc67a	-0.04682014
153	0xbd6521fc	-0.055940613
154	0x3d34ba11	0.04412276
155	0x3d93c89f	0.07216
156	0xbc789483	-0.015172127
157	0x3cc8130e	0.024423148
158	0xbda500f7	-0.08056825
159	0xbdf784c8	-0.12085873
160	0xbe08858b	-0.13332193
161	0x3cc00731	0.02344093
162	0xbc6ff2d8	-0.014645301
163	0xbd48a41a	-0.048984624
164	0xbc82a7ee	-0.015949216
165	0xbda1a196	-0.07892148
166	0xbc7050e1	-0.0146677205
167	0xbc732afe	-0.014841793
168	0xbda52239	-0.08063168
169	0xbd44582e	-0.047935657
170	0xbbe6e1e3	-0.0070459708
171	0x3caba6d2	0.02095357
172	0xbbbf9c98	-0.005847525
173	0xbd98856d	-0.07447324
174	0x3c09b94a	0.008405993
175	0x3d1b4d06	0.037915252
176	0x3dad3a77	0.08458417
177	0x3c7c45eb	0.015397529
178	0xbcf0a790	-0.029376775
179	0xbd892b5b	-0.066977225
180	0x3d45a286	0.048250698
181	0xbc637e21	-0.013885052
182	0xbe0f5da6	-0.14000568
183	0xbd5cd0c6	-0.05391004
184	0xbc0d5b7a	-0.008627767
185	0xbdc4b67a	-0.09605117
186	0xbd93140d	-0.07181559
187	0xbdc7cef5	-0.09756271
188	0x3da448ee	0.08021723
189	0x3d1e6652	0.0386718
190	0xbe11f6fe	-0.14254376
191	0x3d61ad8e	0.055097155
192	0x3d7b873e	0.061408274
193	0xbd9b35f6	-0.075786516
194	0x3ca4f1f9	0.020134913
195	0x3e0b3b9e	0.13596961
196	0xbd896574	-0.06708804
197	0x3cfe42e7	0.03103776
198	0x3d8b814e	0.06811772
199	0x3d63ebac	0.055644676
200	0x3d4cf9c2	0.050042875
201	0x3d212f1d	0.03935157
202	0xbd5d196e	-0.05397933
203	0x3dab74ea	0.08371909
204	0x3dd82b3e	0.10555123
205	0xbb804790	-0.003914781
206	0x3d5bf0f6	0.053696595
207	0xbc8a0685	-0.016848812
208	0x3c5fc5eb	0.013658027
209	0xbdcb3545	-0.0992227
210	0xbcf35539	-0.029703723
211	0xbdf0d078	-0.11758512
212	0x3db0efc0	0.08639479
213	0x3d648e4e	0.055799775
214	0x3d999e38	0.07500881
215	0xbda626b3	-0.0811285
216	0xbce11a52	-0.02747837
217	0xbd797664	-0.06090392
218	0x3da68c5f	0.081322424
219	0x3d52c96f	0.051461633
220	0x3cbbd007	0.022926344
221	0x3d84752f	0.064676635
222	0xbdca48fb	-0.09877201
223	0xbbb6eba3	-0.0055822893
224	0xbdb2365c	-0.087017745
225	0xbd8b3c56	-0.067986175
226	0x3cbf3be8	0.023343995
227	0x3d422e7b	0.04740761
228	0x3dad0e08	0.08449942
229	0xbbe2358d	-0.0069033564
230	0xbd59f131	-0.053208534
231	0xbd31377b	-0.0432658
232	0xbdbb4aa6	-0.091450974
233	0xbdcf03c2	-0.101081386
234	0xbd884abe	-0.06654881
235	0xbdb4695b	-0.088091575
236	0xbcdcd58d	-0.026957298
237	0x3c7ece48	0.015552111
238	0x3d460885	0.04834797
239	0x3c8b266f	0.0169861
240	0xbcc87a0c	-0.024472259
241	0xbd9c4e92	-0.076321736
242	0x3d549174	0.051896527
243	0x3b75c8a0	0.0037503615
244	0xbe03d264	-0.12873226
245	0xbd9ea120	-0.07745576
246	0x3ce671bd	0.028130407
247	0x3c33f560	0.010983795
248	0xbc462d7a	-0.012095803
249	0xbdc07136	-0.09396593
250	0xbdb6156f	-0.08890807
251	0x3d2a512b	0.041581314
252	0xbd8cdfe7	-0.068786435
253	0x3bfb5787	0.007670346
254	0x3b6b99d0	0.0035949834
255	0xbdc547ec	-0.09632859

fc3.bias f4 [7]
0	0x3ce1b004	0.027549751
1	0xbda724f9	-0.08161349
2	0x3c97c859	0.01852815
3	0x3c07c8a0	0.008287579
4	0xbd23a002	-0.039947517
5	0x3d8995fe	0.06718062
6	0x3d701066	0.05860939
