hackathon_toolkit/checkpoints_qlearn_CTDE/target_agent_1_episode_701.pth (torch, 98630 bytes, 6 tensors)

fc1.weight f4 [128, 50]
000000 3e b9 76 3b 0e 38 f0 3d d1 b7 d2 bd 60 c0 07 3d
       0.0037647034 0.117294416 -0.102889664 0.033142447
000010 2a fa 60 bd b8 36 83 bc 42 89 09 bd d0 99 fd bc
       -0.054926075 -0.016017303 -0.033578165 -0.030957133
000020 3e 2f b6 3d 62 9c 85 3c 37 94 bc 3c 8d 54 59 be
       0.088957295 0.01630992 0.023019893 -0.2122366
000030 9e e1 74 bc 44 1c d4 bd b2 24 b9 bd 96 e0 f2 3d
       -0.014946369 -0.10356954 -0.09040202 0.118592426
000040 db f3 66 bc e2 0b 38 3d 86 d2 2d bd c1 c3 48 3d
       -0.014096226 0.044933207 -0.0424371 0.04901481
000050 3c 16 f2 bd 3a 95 8c 3d 0c 66 0e be 65 cd a2 bb
       -0.11820647 0.068644 -0.13906115 -0.0049683326
000060 98 c4 c8 bc 2e b4 ba bd 6b 4c b2 3d 6a 93 78 3d
       -0.024507806 -0.09116398 0.08705982 0.06068746
000070 f7 88 af 3d 00 89 eb ba c4 d5 88 3d ab 09 b0 bd
       0.08571046 -0.0017969906 0.066813976 -0.08595594
000080 33 b7 24 3c 08 33 22 3d d0 a9 07 bd b3 a9 99 bd
       0.010053444 0.03959945 -0.03312093 -0.07503071
000090 c8 a5 a3 3c 70 39 f4 3c 18 84 6a bd 5e 9a 04 3e
       0.019976512 0.029812545 -0.05725488 0.12949511
0000a0 80 5c bb bd 80 7a c3 3d de a9 0d bc e6 d2 3a bd
       -0.09148502 0.095448494 -0.0086464565 -0.045611285
0000b0 ef b3 98 bd 85 5e 22 be 89 e6 be bd b4 66 eb 3d
       -0.074561946 -0.15856369 -0.09321315 0.114941984
0000c0 5e e1 ec 3d ca c5 f8 3d 43 4f 84 3b a1 e0 07 be
       0.11566423 0.121471 0.004037769 -0.13269283
0000d0 a0 78 0b 3e 40 55 3d bc c5 70 57 bc 50 f4 0a 3d
       0.13620234 -0.01155597 -0.013149445 0.0339244
0000e0 5f af 21 bc ba 8e d3 3d 66 91 e4 3d 9a 36 46 3c
       -0.009868472 0.10329957 0.11160545 0.012097979
0000f0 88 50 bd 3d ec 88 af be 3d 9a 5d 3d b1 0a 1b 3e
       0.09243876 -0.3428415 0.05410217 0.15140797
000100 14 bd af 3d d9 93 47 bd f4 76 d6 3d 07 3a 0d be
       0.08580986 -0.048724983 0.10471907 -0.13791667
000110 51 7c d3 bd 80 e0 e6 3a 1c e7 d6 3d 90 78 52 3d
       -0.10326446 0.0017614514 0.10493299 0.05138451
000120 36 df cc bd c6 59 e1 bd 90 bb d9 bd 46 7e c1 bd
       -0.100035116 -0.11003451 -0.10631478 -0.09447913
000130 25 8b 81 3d 2f a8 fa bd 74 2a 7a 3d c6 97 bc 3d
       0.06325368 -0.1223911 0.061075643 0.09208636
000140 03 d6 77 3d a4 7f 5c 3d 32 83 c6 3d e0 dc 9e 3c
       0.06050683 0.053832665 0.09692992 0.01939243
000150 90 9d 88 3d e8 e9 ec 3d 2c cc 93 3d 1e 2d c1 bd
       0.06670678 0.115680516 0.07216677 -0.094324335
000160 60 4c 62 3d e1 36 0b 3e 8c 16 b7 bc c4 ab 88 3d
       0.055248618 0.13595153 -0.022349618 0.06673387
000170 40 c0 76 3d 7c 22 87 3d 1a 2c 0b be 3d 03 6a bd
       0.060241938 0.06598374 -0.13591042 -0.057131995
000180 35 99 95 3c 44 84 05 be 20 04 82 bc f6 9a a3 3d
       0.018261531 -0.13038737 -0.015871108 0.07988541
000190 75 e8 e8 bd 7d e7 65 3d d1 f0 0e 3e 5a 25 fa bd
       -0.11372463 0.056128968 0.13959052 -0.122141555
0001a0 3b 5a ee bd 2c ec 42 bd 61 f1 ea bd cc bf 69 3d
       -0.11638304 -0.047588512 -0.114718206 0.057067677
0001b0 e7 74 ed bd 0e f6 8e 3d 5e d8 b4 3d e0 1d 57 bd
       -0.11594563 0.06980525 0.08830331 -0.052518725
0001c0 a5 ba a3 3d 28 09 ae 3b 2a b7 f4 bd 01 7d b2 bd
       0.07994584 0.00531115 -0.11948998 -0.08715249
0001d0 1a 4e 56 bd 53 48 05 3e 1f 6f 0c be d0 e0 24 bc
       -0.052320577 0.13015871 -0.13714264 -0.010063365
0001e0 68 66 0e be c4 0a 81 bc a0 b2 82 3c 66 37 34 bd
       -0.13906252 -0.015752204 0.015954316 -0.043998145
0001f0 10 17 e3 bc b5 c6 06 be 8e b5 1b 3d a1 8f e5 3c
       -0.027720958 -0.13161738 0.03801494 0.02802259
000200 e1 b0 85 bc 42 5d 24 bd e2 58 c7 3d 64 de f4 3d
       -0.016319694 -0.040128 0.0973375 0.1195648
000210 4d 65 ba bd 18 ec d7 3c 3f 28 0b 3e ac 0e 8e 3d
       -0.09101353 0.026357695 0.13589571 0.06936392
000220 70 48 6f bc 12 a7 82 3d 4c dd e2 bc 42 a4 43 bd
       -0.014604673 0.063795224 -0.027693413 -0.04776407
000230 4d 10 e0 bd 89 30 8f 3d dd f1 90 bd 79 e6 f9 bd
       -0.10940609 0.06991679 -0.07077382 -0.12202162
000240 d6 5b ae 3d 5c 18 c4 3d 4c bc 0c 3d f3 63 44 3c
       0.0851361 0.09574959 0.03435926 0.01198672
000250 a0 d4 c1 3d 27 b4 2c 3d f2 5f e7 bc 8f ea 12 bd
       0.09464383 0.042163994 -0.028243992 -0.035868224
000260 04 cd fb bd fe 56 30 bd 41 24 b5 bd 90 cd ad bd
       -0.12294963 -0.043051712 -0.088448055 -0.084864736
000270 7f ad 1c be 34 18 8c bc 4a d9 db 3d d7 ec a0 bd
       -0.15300559 -0.017101385 0.10734804 -0.078576736
000280 d9 ae 01 bd 36 d6 1d 3e 59 f0 b9 bd 94 b4 05 be
       -0.03166089 0.15413746 -0.09079046 -0.13057166
000290 00 6d ac bd 70 23 78 bd 02 36 d0 3d 47 37 ad 3d
       -0.084192276 -0.06058067 0.10166551 0.08457809
0002a0 0e 55 fc 3b 9a ff e7 3d 60 11 88 bb 35 c8 ae 3d
       0.007700569 0.11328049 -0.004152462 0.0853428
0002b0 66 05 00 3e 87 98 16 3c 0a 96 b9 bd 04 2e 0a be
       0.1250206 0.009191639 -0.09061821 -0.13494116
0002c0 64 43 3b 3b ff 8a b1 3d 9f b2 ed 3d fd 6d ef bd
       0.0028574103 0.086690895 0.11606335 -0.116909005
0002d0 9f 14 2c bd 05 30 01 3e a2 ad e0 bd 58 d7 90 3c
       -0.042011853 0.12615974 -0.10970618 0.017680809
0002e0 4d 09 05 be cc 32 be 39 ca 5a 05 be 50 1f 6b 3d
       -0.12991829 0.0003627747 -0.13022915 0.05740291
0002f0 12 4c 1f bd 7d 81 af 3d 3b 92 4e bd 81 b9 00 3e
       -0.038890906 0.0856962 -0.050432425 0.12570764
000300 5d e1 21 3b a6 6c f8 bd 78 dd 90 3c 35 da fd 3d
       0.0024700977 -0.12130098 0.01768373 0.12395135
000310 a0 9e c5 bc 9a 61 43 bd 45 6a ad bd 40 5d cb 3b
       -0.02412349 -0.047700502 -0.08467535 0.0062061846
000320 1d d6 00 be ce 6f ef bc fb 36 ba bd c0 53 22 bd
       -0.12581678 -0.029228117 -0.09092518 -0.03963065
000330 d8 2f 8c bd 3b 06 02 3e 3e de 01 3e e4 a4 dd 3d
       -0.06845063 0.12697689 0.12682435 0.10822466
000340 50 9f 56 bc 95 4f ad 3d 12 75 4e 3d 02 9e bc 3d
       -0.0130995065 0.08462445 0.050404616 0.09209825
000350 60 d0 df bd aa 1b 00 3e 53 de 8c bd 26 40 d6 3d
       -0.10928416 0.12510553 -0.068783425 0.10461454
000360 51 3b ba bd 7b 46 8c bd 83 b8 31 bd 40 22 f8 bd
       -0.09093345 -0.068493806 -0.043388855 -0.12115908
000370 42 4e 7d bd 75 33 19 3c ff 70 01 3d 65 b4 a9 bd
       -0.06184221 0.009350647 0.031601902 -0.08286361
000380 78 9e da 3c 81 1d 10 3e 8f 57 ba bd ba e0 c9 3d
       0.026686892 0.14073755 -0.09098732 0.09857316
000390 86 9e 9b bc b0 5e 94 3d c3 25 64 3c a0 0c 33 bc
       -0.018996488 0.07244623 0.013925019 -0.010928303
0003a0 b5 a2 ee 3d 34 27 4f 3d d8 9f e7 3c 61 c0 f5 3d
       0.11652128 0.050574496 0.028274462 0.11999584
0003b0 ff 9d d7 bd 44 4b 58 3d e4 28 87 3d 5d 77 11 3b
       -0.10528182 0.052806154 0.06599596 0.002219639
0003c0 b6 a2 e4 bd 9b 74 97 3d dc 8b 5a bd 20 f1 dd bb
       -0.11163847 0.073952876 -0.053356037 -0.006773129
0003d0 ea e7 2e bd 80 be 10 3e 6e d4 ef 3c b4 00 64 bd
       -0.04270164 0.1413517 0.029276099 -0.055664733
0003e0 98 66 17 bd 54 28 fd bd 0f e0 21 3d 49 31 62 bd
       -0.036963075 -0.123612076 0.03952032 -0.055222783
0003f0 62 0f e1 bd ec 4d ce bd 9d 7a f3 3d 5b 28 9d bd
       -0.10989262 -0.10073456 0.11888621 -0.07673713

fc1.bias f4 [128]
000000 c4 ef b6 3d 32 70 1b bd ee b7 9c 3d 8f 65 06 be
       0.089324504 -0.037948795 0.07652269 -0.13124679
000010 bd 13 32 3d 1a f5 c8 3d c6 8b 93 bd 9c 67 ce bc
       0.043475855 0.098123744 -0.07204394 -0.02519589
000020 de 0a 63 bd 9f 86 8c 3d 2f c5 08 be 7d 24 0d bd
       -0.055430286 0.068616144 -0.1335647 -0.034458626
000030 77 0a 8a 3d 77 64 ac bd 2d ca 8a 3d 0f ef b9 39
       0.06740277 -0.084176 0.06776843 0.00035464062
000040 9e 6e 01 be 50 f7 86 3d d9 32 cb 3d e4 27 81 bd
       -0.12639853 0.0659014 0.09921808 -0.06306437
000050 d1 d4 da bd c2 74 f7 3d 1a d5 f9 3c 49 96 6d 3d
       -0.10685123 0.12082817 0.030497123 0.05800465
000060 96 83 a5 3d 10 15 09 be 3c 95 64 3c 41 8a bd bd
       0.08081739 -0.13386941 0.013951596 -0.092548855
000070 5c 3b a4 3d c1 cb 92 bd 89 fa e4 bd 0b 2c aa bd
       0.080191344 -0.07167769 -0.11180598 -0.08309182
000080 8e 0b 0f be 7d 7d bb 3d cd 2d 05 be 21 c0 10 3e
       -0.13969252 0.09154794 -0.13005753 0.14135791
000090 df 06 02 bd 82 3e ac bd 1b aa be bd 9a 20 c1 bd
       -0.031744834 -0.0841036 -0.09309789 -0.094300464
0000a0 a0 ef ad 3b d2 d2 17 bc 35 98 a7 3b 7e 47 68 bd
       0.0053081065 -0.009266572 0.00511458 -0.056708805
0000b0 91 7d d9 3d 11 39 e3 bc eb ba c9 bd 68 1e 35 bd
       0.10619653 -0.027737172 -0.09850105 -0.04421845
0000c0 e8 43 0d bd 7f fd 04 be f1 ae 4f bd 71 83 12 bd
       -0.03448859 -0.12987326 -0.050703947 -0.035769884
0000d0 8d 9d 87 bd 2b 20 19 bd 33 5e 03 3e 77 5c 12 bd
       -0.06621847 -0.037384193 0.12828903 -0.035732713
0000e0 9c e8 e9 3d 31 2d 8b 3d 90 7d 32 bd ce 99 85 3d
       0.1142132 0.06795729 -0.043576777 0.065234765
0000f0 53 73 01 3e 77 b2 d6 bd e8 55 34 bd 1b 35 9f bd
       0.12641649 -0.10483258 -0.04402724 -0.07773801
000100 5a 79 e0 bd 0d ca f9 bb bd bd 83 3d b1 f0 01 be
       -0.10960646 -0.0076229633 0.06432674 -0.12689473
000110 d7 ef bb 3d 63 15 f7 3d ef 69 73 3d bc 9f b0 bd
       0.09176605 0.12064626 0.059427198 -0.08624217
000120 19 7f e8 bd 77 31 4d 3d 03 37 04 3e 54 59 af bd
       -0.11352367 0.050096 0.1291161 -0.0856196
000130 73 2c f7 3b 13 c5 35 3d 17 12 69 3c c8 4e e8 3d
       0.0075431406 0.044377398 0.014225504 0.11343151
000140 bc 57 c7 3d b5 94 5c bc 54 a2 8d bd 56 c2 9b bd
       0.09733531 -0.013463189 -0.06915727 -0.07605426
000150 34 ed 4f bd d5 b6 8d 3d 8c e3 c9 bc 8f 72 c1 3c
       -0.050763324 0.06919638 -0.024644636 0.023614196
000160 49 82 03 be 79 45 da bb 1e 5c 29 3a c3 d7 9c bd
       -0.12842669 -0.006661114 0.0006460565 -0.07658341
000170 21 af cb 3d a6 22 57 bc e1 ba 5b 3d 55 dd b0 3d
       0.099455126 -0.013130819 0.05364502 0.08635966
000180 df 95 3f bc 27 22 a4 bd b1 c7 07 3d 5d 1a 36 3d
       -0.011693447 -0.080143265 0.033149425 0.044458736
000190 b4 3d ac 3d 69 de 9d 3d c3 49 83 3b 05 6c ab bd
       0.084102064 0.07708437 0.004006596 -0.083702125
0001a0 f7 d6 d6 bc 60 d5 98 3d 06 63 d3 bd bc 5e 23 bd
       -0.02622555 0.07462573 -0.103216216 -0.039885268
0001b0 0b 74 db bd 36 44 04 be 96 40 11 be c4 40 e1 bc
       -0.10715493 -0.12916645 -0.14184794 -0.027496703
0001c0 6f d6 48 3d 71 0a 06 be ce ec 06 be b8 2b 0c 3e
       0.049032625 -0.1308992 -0.13176271 0.13688552
0001d0 b6 6a b2 bb 24 e4 eb 3d 3c 1c e0 bc 28 5b d5 3d
       -0.00544485 0.11518124 -0.027357213 0.10417777
0001e0 8a df e8 bd 25 c0 b5 3d 4f 45 0d be 64 37 a3 3b
       -0.11370762 0.08874539 -0.1379597 0.0049809683
0001f0 d3 3f 09 be fa 23 9e 3d 4d 82 c0 3d 8f 88 e7 3d
       -0.13403253 0.07721706 0.09399853 0.11305343

fc2.weight f4 [128, 128]
000000 8f e7 16 be 22 03 c5 3c e5 a8 5e 3d 1e cc 8c 3c
       -0.1473677 0.024049345 0.05436029 0.017187174
000010 ac 92 5d 3d e6 e8 ca bd ac 9d fe 3c 23 98 8b bb
       0.054094955 -0.09907703 0.031081043 -0.0042600795
000020 a7 d3 a2 3d 7c 1f 73 bd a1 8d b3 3d a6 56 b0 bd
       0.07950526 -0.059356198 0.08767248 -0.08610277
000030 d9 d0 98 bd 75 62 b2 bd d5 9f 18 3d 41 87 d3 3b
       -0.074617095 -0.087101854 0.037261803 0.0064553325
000040 03 81 bd bd 3c 0b 3e bd 03 f0 c3 3d 42 80 b4 bd
       -0.09253123 -0.046397433 0.09567263 -0.08813526
000050 21 60 a3 bd 43 ef 0c bc 70 59 b0 bd 0e 50 bc bd
       -0.079773195 -0.008601966 -0.08610809 -0.09194957
000060 84 dc 30 bd 85 4a f9 3b a3 ee 04 be 35 a1 48 be
       -0.04317905 0.0076077604 -0.12981658 -0.19592746
000070 c4 56 8d 3c e4 ba 8a bc 2c 8c fa bc 58 03 b0 3d
       0.017253287 -0.01693482 -0.030584417 0.08594388
000080 4a 41 7b 3d 36 2d 81 3d a0 b2 95 3d 44 a0 72 be
       0.06134156 0.063074514 0.07309461 -0.23693949
000090 39 9b 72 bc 9a ce 5c bd a1 fa 5c 3c 34 e2 8d bc
       -0.014807516 -0.053907968 0.013487489 -0.017319776
0000a0 aa f0 71 3d 6e ef 61 3d 5e 0e 0b 3d 33 6c a7 bd
       0.059067406 0.05515998 0.03394925 -0.08174934
0000b0 35 e2 94 3d 45 d0 88 bd d4 5a 4e 3d 0d 96 95 bd
       0.07269708 -0.06680349 0.05037959 -0.073040105
0000c0 22 8e 92 bd b7 d1 a1 3d 0f 23 72 be 3a 70 8d bc
       -0.07156016 0.07901328 -0.23646186 -0.017265428
0000d0 30 8b b3 bd 91 0e ff 3b 37 d6 3e 3c ba b1 75 3c
       -0.08766782 0.007783719 0.0116477525 0.014995987
0000e0 3f 59 a1 bd 05 51 66 3d 7b 8e 55 bd 7e 70 51 3c
       -0.078783505 0.05622961 -0.052137833 0.012783168
0000f0 34 fc 95 3c 98 75 bd b8 4f 93 35 bd 4d de 25 3d
       0.018308736 -9.034126e-05 -0.044329938 0.040495206
000100 fb 48 b3 bc a8 2c 0d 3d b9 18 27 be 37 8b e7 3d
       -0.021885386 0.034466416 -0.16318025 0.1130585
000110 50 89 6f be 5a 35 3a 3c 57 c2 e4 bc 04 98 81 bd
       -0.23392224 0.011365259 -0.0279247 -0.06327823
000120 7e 4b 80 bd b9 63 0d 3d ba d3 71 bd 96 7a c3 bd
       -0.06264399 0.03451893 -0.05903981 -0.09544866
000130 48 d3 24 3c 84 e3 3e 3c 4f 68 8f 3d b0 df 3f 3d
       0.010060139 0.011650924 0.07002317 0.046844184
000140 4a 9f b4 bd 0f 3c 87 bd 92 4f 09 bd 1e 74 95 3d
       -0.088194445 -0.06603252 -0.03352315 0.07297538
000150 21 20 ef 3a 26 a0 d3 bd f3 40 31 3d 04 11 ed 3d
       0.0018243828 -0.1033328 0.04327483 0.11575511
000160 20 27 24 3b 69 9b 26 3d 04 83 68 bd 32 90 23 3d
       0.0025047734 0.040675554 -0.05676557 0.039932437
000170 11 96 99 bd e5 68 65 3d eb 52 bf 3c 02 e1 96 3d
       -0.07499326 0.05600824 0.023354968 0.073671356
000180 e7 71 08 bd e4 d9 65 3c d6 00 85 be 59 7e 04 be
       -0.03331175 0.014029 -0.259772 -0.12938823
000190 b6 eb 1c 3d 28 5c 9b bc 7a 44 3f bd 20 5f be bb
       0.03831073 -0.018964842 -0.046696164 -0.0058096796
0001a0 ed 83 a9 bd ce 9f bb 3c ed 1c 87 3d 76 56 6c 3d
       -0.08277116 0.02290335 0.06597314 0.057699643
0001b0 08 14 46 3d aa a9 f8 3a da 6e 7f 3d f8 72 cf bc
       0.048358947 0.0018971462 0.062361576 -0.025323376
0001c0 59 8f e6 bd 6a fb 4e be 12 a2 74 3d b3 b4 9a 3c
       -0.1125781 -0.20213094 0.059724875 0.018884992
0001d0 16 65 79 3d 70 df 32 bc 44 8d 09 3b e6 fc 0d be
       0.06088742 -0.010917529 0.0020988742 -0.13866004
0001e0 de 7b ed 3d 28 7c 4b bd 88 f7 3d 3c 92 40 01 3c
       0.115958914 -0.04967895 0.011594661 0.00788893
0001f0 a3 3e 7c 3d 68 36 c9 bd 4a 8b d9 3d 0e 34 8a 3d
       0.061583173 -0.0982483 0.106222704 0.0674821
000200 c1 e1 ec 3c fa 0d 17 3b 69 4b 79 bd 3a 65 ce 3d
       0.028916242 0.0023049102 -0.060862932 0.10077901
000210 77 8b 97 bd 68 25 c6 bc da de ed bd 68 fd 79 3d
       -0.07399648 -0.024187759 -0.11614771 0.061032683
000220 30 93 db bc 2e 86 0e bd b8 d6 73 3c e0 3c d2 bb
       -0.026803583 -0.034795932 0.014882736 -0.0064159483
000230 91 18 2b 3d b2 e4 d8 bc d7 96 6e bd 10 04 56 bd
       0.041771475 -0.026476238 -0.05824932 -0.052249968
000240 5a 59 41 bd a6 40 34 bd e0 66 5b 3d 6c 76 4c 3d
       -0.047204353 -0.044006966 0.053564906 0.049917623
000250 7f be 8c ba 00 fc 29 3c 10 84 93 bd ac 02 ab bd
       -0.0010737925 0.010375023 -0.07202923 -0.08350119
000260 99 d6 2d bc a0 3a 5d bc 42 08 ca 3d 2c 81 14 3b
       -0.010610246 -0.013502747 0.09864856 0.002266
000270 e1 e6 b1 3d f7 3d d2 bd c2 bc 35 3d f2 44 85 3d
       0.08686615 -0.10265725 0.044369467 0.06507291
000280 40 7b 2f 3b 51 cf 5f bd b4 2e bb bd 1a 35 2f 3d
       0.0026776344 -0.05464107 -0.09139767 0.04277525
000290 9e 11 85 3d 2a f5 db bc df 52 c9 bc 8e 69 3f 3d
       0.06497501 -0.026850302 -0.024575649 0.046731524
0002a0 8f eb 9c 3d ff ea 1f bd 35 34 59 3d 60 65 9b bd
       0.07662117 -0.03904247 0.053028304 -0.07587695
0002b0 9b d5 f5 bd b9 5d 95 bc cd 2c 05 3d 39 47 d9 bd
       -0.12003633 -0.018233167 0.03251343 -0.10609288
0002c0 1d 12 aa 3d 38 4d 02 bc 6a 67 f2 3d 0c 2e a5 bc
       0.08304236 -0.007952981 0.11836131 -0.020163558
0002d0 b2 fb 9a bc 06 36 2e 3d b9 b3 29 be aa 59 54 3d
       -0.018918846 0.04253199 -0.16572465 0.051843323
0002e0 da d9 be 3b 7e 35 9c 3d d0 7f a4 bb ee a9 1f 3d
       0.00582431 0.0762739 -0.0050201192 0.038980417
0002f0 f2 0c eb 3c 9f 9e b9 3d c7 7d a7 3c aa 05 ce bc
       0.028692696 0.09063458 0.020445717 -0.025149185
000300 8f 18 8d 3d ee 3b aa bd 44 97 20 3b 8a e7 99 3d
       0.0688945 -0.08312212 0.0024504224 0.07514866
000310 d8 41 b1 bb b9 d3 03 bd 70 54 98 3d 3a 77 b1 3d
       -0.0054094605 -0.032184336 0.0743798 0.08665319
000320 56 d2 44 3d 76 5f 00 be 9f 46 d1 3c 54 55 8d bb
       0.048052154 -0.12536415 0.02554637 -0.0043131504
000330 ad c3 0b bd b3 a7 3d 3d e1 01 65 bd 38 56 52 bd
       -0.034122158 0.04630251 -0.055909995 -0.051351756
000340 e2 88 05 3d b2 48 ba bb 83 7c 89 3d 48 b8 b8 3d
       0.032601245 -0.0056849355 0.06713202 0.09019524
000350 06 29 82 bd 69 28 80 bd a3 56 ee bb 44 71 fd 3c
       -0.06355481 -0.062577076 -0.0072735115 0.030937798
000360 91 7a a3 3d ee a6 67 bd fa ac f0 bd 14 45 02 3d
       0.07982362 -0.05655568 -0.11751743 0.03180416
000370 6e 3d bb 3d 50 35 8e 3d 61 96 02 be 00 32 2b 3d
       0.09142576 0.06943762 -0.12752678 0.04179573
000380 80 40 94 3c 15 da 76 3c 52 76 d9 3d 94 21 d6 3d
       0.018097162 0.015066643 0.10618271 0.10455623
000390 00 57 af bc 1a 75 02 3d fb 4a 83 bd b3 04 f9 3d
       -0.02140379 0.031849958 -0.06410786 0.121590994
0003a0 fb 01 82 bd b8 ff 9f bc 00 cc fa ba 20 22 6a 3b
       -0.06348034 -0.019531116 -0.0019134283 0.0035725906
0003b0 b6 fa 1d bd 0d 4b 83 bd 0e cc d9 bc b0 cc 51 3c
       -0.038569175 -0.06410799 -0.026586559 0.012805149
0003c0 ae 9b cd bd 5a f7 51 3c 50 4a 39 3c 48 50 a5 bc
       -0.10039459 0.012815321 0.011309221 -0.020179883
0003d0 3a a5 a8 bb 2d 76 d4 bd dc e4 ce 3b 65 53 f3 bc
       -0.0051466497 -0.10374103 0.0063139033 -0.029702852
0003e0 ec 94 46 bc a4 f4 21 bc 88 4f b5 3c d1 11 12 be
       -0.012120467 -0.009884987 0.02213265 -0.14264609
0003f0 4d 40 14 3c 77 e7 90 bd 09 31 1c 3d 36 ea 92 bc
       0.009048534 -0.070753984 0.0381327 -0.017933946

fc2.bias f4 [128]
000000 27 2a 92 3d fd b0 8f bd 7b d1 26 3d a1 e6 a1 3d
       0.07136946 -0.0701618 0.04072712 0.07905317
000010 0b 3a 5a 3d 8c fc a8 bd 90 e1 95 3d e6 b7 3c bd
       0.05327801 -0.082512945 0.07318413 -0.046073817
000020 42 56 2f 39 af 8e 6d bd 85 52 53 bd 3d 78 a3 bc
       0.00016721434 -0.0579974 -0.05159237 -0.019954795
000030 96 ab 28 3d 74 47 34 3b 90 a6 5d bd ef 5c 77 3d
       0.041179262 0.002750841 -0.054113925 0.060391363
000040 9f 3d d5 3c 06 ed 9a 3d ab 3f b8 3c 98 ef f3 3c
       0.02603036 0.0756474 0.022491297 0.029777333
000050 c7 08 9d bd f0 1f 66 bd 04 3a 78 bd 0a 39 c2 bc
       -0.0766769 -0.0561828 -0.060602203 -0.023708839
000060 69 88 42 bd d2 bf 4a bd 19 d1 16 bc 7e 24 bf bd
       -0.047493372 -0.04949934 -0.009205126 -0.09333132
000070 b6 af 57 bd 32 0a 8c 3d 8b 00 40 3d 94 f2 bc 3c
       -0.052657805 0.06837882 0.046875518 0.023064889
000080 a6 69 e5 3d 85 4c 70 bd 52 85 5d 3d cc 3c 73 bd
       0.112017915 -0.058666725 0.054082222 -0.059384152
000090 48 45 e1 bc 47 d6 3a bd ea 11 af 3d 7d 8f 83 3d
       -0.027498856 -0.045614507 0.08548339 0.064238526
0000a0 f5 fa 2a bd 6b 2e 62 bd 85 37 83 3d 80 68 99 3d
       -0.041743238 -0.05522005 0.06407074 0.07490635
0000b0 4d 8b 23 3c 9b 20 77 bd b6 0a ca 3d a6 f6 a5 bc
       0.009981942 -0.06033383 0.09865324 -0.020259213
0000c0 c5 23 16 bd ac 6c 43 3d b6 3f c7 3d f3 8c 59 3d
       -0.036655206 0.04771106 0.09728949 0.053112935
0000d0 10 2e 96 bd 26 46 58 bd a2 9e 8b bd 02 2d a1 bc
       -0.073330045 -0.052801274 -0.06817366 -0.019674782
0000e0 85 34 8c bd f7 18 8f bd 6b 57 a8 bd 0b ee fb 3b
       -0.06845955 -0.069871835 -0.08219799 0.007688289
0000f0 51 52 94 3d 2f 02 53 3d 05 13 9c bd 14 a3 75 3d
       0.07242263 0.051515754 -0.07620815 0.059969977
000100 ec 3c a2 bd 26 85 ae 3d 7a 1c ba 3b 0f cc cf 3c
       -0.07921776 0.0852149 0.005679664 0.025365857
000110 c8 7c 76 bc 9c 51 9e bd f4 14 66 3d b5 4e 6b 3b
       -0.015044399 -0.077304095 0.056172326 0.0035905067
000120 3d 29 d9 3b f9 12 09 3d d1 a9 6a bd fc 40 74 3d
       0.0066272304 0.03346536 -0.057290856 0.059632286
000130 2c 9b 75 3d 92 a6 92 bd a5 0f a0 bc a7 d0 a6 bd
       0.059962437 -0.07160677 -0.01953871 -0.08145266
000140 9a 55 a4 bd 11 78 2f bc fb 0a 47 3d 9e 05 88 bd
       -0.0802414 -0.010709778 0.048594456 -0.066416964
000150 e9 5e 47 3d 63 c7 0e 3d 5c 9f 72 3d 62 35 8a 3d
       0.048674498 0.03485812 0.05923401 0.06748463
000160 4f f3 ef 3c dc a2 44 3d ee df 9b 3d 2a 29 1e bd
       0.029290823 0.048006877 0.076110706 -0.038613476
000170 cc 1f ba bb f4 b0 8b 3d 03 97 ca bd 2b 9c 87 bc
       -0.00568006 0.068208605 -0.098920844 -0.016553959
000180 d8 26 93 bd 30 b0 c4 bc 6d f1 16 3c 74 03 94 3c
       -0.07185143 -0.024009794 0.009212834 0.018068053
000190 65 77 55 3c c2 bc 50 3d 9e c6 51 bd e9 81 3e 3d
       0.013028954 0.050961263 -0.051214807 0.04651061
0001a0 e5 c5 7e bb 12 74 6a bd 1b 11 3e 3d 0c eb 38 bc
       -0.0038875279 -0.0572396 0.04640303 -0.011286508
0001b0 f0 ca 89 3d 45 f9 95 3c 65 f8 26 bd 3b bc 76 bd
       0.067281604 0.018307338 -0.04076423 -0.060238104
0001c0 92 c9 91 bd aa c8 2d 3d 2e c9 cc 3c b4 17 90 3d
       -0.071185246 0.042427696 0.024998274 0.07035771
0001d0 a9 93 54 bc 72 d4 20 bd 26 43 1a bd 34 ba 0f bd
       -0.012974658 -0.039265104 -0.037661694 -0.035089687
0001e0 f1 28 7e 3d 2d 97 db bb 6f 8a 2f 3a ad 75 b5 3d
       0.062050764 -0.006701371 0.00066963484 0.088603355
0001f0 16 28 8c 3d 16 ad 2f 3d 98 28 6c 3b 22 a5 95 bd
       0.06843583 0.042889677 0.0036034938 -0.07306887

fc3.weight f4 [7, 128]
000000 d6 3f 98 bd 1f ce 23 bd 71 9b 8d bd bd 62 cd bd
       -0.07434051 -0.039991494 -0.06914414 -0.100285985
000010 16 34 fe bd 5f c5 93 bc a9 1e 77 3d 4e a8 9b 3c
       -0.12412278 -0.01803845 0.060331974 0.019001152
000020 66 80 3c 3d 23 7a 8a bd 05 42 76 bd 38 42 95 bd
       0.046020888 -0.06761577 -0.060121555 -0.07288021
000030 25 dc 56 3c 6c a9 66 3d dd 42 67 3d ca de b2 bd
       0.01311401 0.056313917 0.05646025 -0.087339
000040 a4 ec 26 bc 9f 64 8e 3d 6e c8 14 be 71 58 e6 bb
       -0.010188255 0.06952786 -0.14529583 -0.007029586
000050 23 fe 40 3e 68 bc 8e bd 9a 1a c9 bc 7d 77 9a bd
       0.18846945 -0.069695294 -0.024548817 -0.07542322
000060 56 7c 1f 3d 02 e7 eb bc 4a 6e 89 bd e2 fa 0a 3d
       0.038936935 -0.028796677 -0.06710489 0.033930667
000070 30 ac 97 bd 27 b8 28 3c 00 29 15 bd d2 71 37 3d
       -0.07405889 0.010297812 -0.036416054 0.044786282
000080 fd dc 67 bd 68 70 57 bd 67 79 43 3c fa f5 25 bd
       -0.056607235 -0.052597433 0.0119308 -0.040517785
000090 56 b7 83 bc 22 f0 11 be 92 8e 81 b9 0a 10 b0 bd
       -0.016078632 -0.1425176 -0.0002471102 -0.08596809
0000a0 9c 3f ac 3c f6 25 b8 3d d0 a6 23 ba 49 f4 ae bd
       0.021026425 0.089916155 -0.00062428135 -0.085426874
0000b0 fa 23 61 bd 60 d9 15 3b 5f ce 15 be a0 67 71 3d
       -0.05496595 0.0022865161 -0.14629506 0.058936715
0000c0 c1 aa c4 bc cc 5f a4 bd 03 15 84 3b f3 67 37 3d
       -0.024007203 -0.08026084 0.004030825 0.044776868
0000d0 e3 f2 83 bc 2e f8 e6 3c cc 3d d1 bb 18 69 fc 3c
       -0.016107028 0.028194513 -0.0063855406 0.030811831
0000e0 e1 a2 85 bd 7e ba 12 bc 8b 24 99 bd 7f a6 7b 3e
       -0.06525207 -0.008955596 -0.07477673 0.24575232
0000f0 1a 4c b2 3d d1 71 f2 3c d0 26 9c bd 2d 4d 3d bd
       0.087059215 0.029595288 -0.076245904 -0.04621618
000100 f3 7a 8a 3d a5 72 cb ba 3d dd 04 3e 58 37 86 bd
       0.06761732 -0.0015521838 0.1297502 -0.06553525
000110 75 3f 18 3c e2 61 2a bb 49 e8 bc bd 42 9a f2 3c
       0.009292473 -0.0025998284 -0.092239924 0.029614571
000120 73 5f 2b 3d e2 de 6d bd 5e cf f2 bd 2c f9 19 bc
       0.041839074 -0.058073886 -0.118559584 -0.009397786
000130 5e 47 4a 3d 43 e2 a9 3d a5 bb 06 3d 87 68 04 3e
       0.049384467 0.08295109 0.032893796 0.12930499
000140 28 aa 26 3d a1 1a 8e bc dd 03 f6 bc e8 9d 2e 3e
       0.040689617 -0.017346682 -0.030031139 0.17052424
000150 49 36 9f 3b 6f 66 a7 3c b3 23 48 3d 51 4f 34 bd
       0.004858766 0.020434586 0.04886217 -0.044020955
000160 9c 58 84 bd 44 70 10 bc 84 90 20 be 3e 78 76 bc
       -0.064622134 -0.008815829 -0.15680128 -0.015043316
000170 c0 51 26 bd 97 d8 cd bd 5e 14 a5 3d 40 ac 0c 3c
       -0.040605307 -0.10051077 0.08060525 0.0085859895
000180 19 41 78 bb 4a 73 f3 bd ff b3 06 3e 42 92 fe bc
       -0.0037880598 -0.11887224 0.131546 -0.0310756
000190 35 45 1f bd 32 8a 2e 3d 8a 62 da bc 89 12 e6 3d
       -0.03888436 0.042612262 -0.026658315 0.11234004
0001a0 a8 31 f3 bc a0 a7 ad 3d d2 50 f6 3d 76 fc 05 3d
       -0.029686764 0.084792376 0.12027134 0.03271147
0001b0 30 e7 d0 bd 14 a8 3d be e8 98 a0 bd 5f f7 f9 3c
       -0.102003455 -0.18521148 -0.078416646 0.030513464
0001c0 3c af ad bd 05 25 95 bd 35 e7 e4 bc 9b a7 93 3d
       -0.08480689 -0.072824515 -0.02794228 0.072097026
0001d0 07 15 7a 3d 98 c4 17 3c 5e 14 08 bc 23 16 3e bd
       0.06105521 0.00926318 -0.008305637 -0.04640783
0001e0 ae 3f 7b bd b4 2c 66 bd f4 85 cb 3a bb 2e 94 bd
       -0.061340027 -0.056194976 0.0015527592 -0.07235476
0001f0 ba 2e aa bd 06 4c 8a 3d 58 7d b9 bc f5 d4 56 bd
       -0.08309694 0.067527816 -0.022642776 -0.052449185
000200 75 a1 9d bd be f5 00 3e 36 1c 1e 3d 38 32 33 3d
       -0.07696811 0.12593743 0.038601123 0.043749064
000210 4a 87 17 be d8 d9 34 bd 2d da 00 be 28 91 c1 bc
       -0.14797702 -0.044153064 -0.12583227 -0.023628786
000220 45 e2 8d 3d 5d 79 52 bd ae f7 2d 3c 86 69 db bd
       0.06927923 -0.051385272 0.0106181335 -0.107134864
000230 25 1d 1e 3c 28 8e f7 bd 75 49 2a 3e 96 1b f8 bd
       0.009650503 -0.12087661 0.16629584 -0.121146366
000240 34 c0 a3 3d 68 5a ba 3d 7b 0a e9 bd 78 09 15 bb
       0.07995644 0.09099275 -0.11378952 -0.002274124
000250 1c 7d 15 3e 3a c8 59 3d a7 21 35 3d 08 de 43 3d
       0.14598507 0.053169467 0.044221547 0.047819167
000260 76 d0 0c bd 7c 08 81 bd 3d b5 d0 3c f7 02 a0 3d
       -0.03437849 -0.063004464 0.025477046 0.078130655
000270 a9 b1 e2 bd 31 e4 a8 3d 3b f2 44 bd 5b 60 90 3d
       -0.11069042 0.08246649 -0.04808257 0.07049628
000280 e0 77 f2 bd e8 c9 2f bd dd ef d2 bc f5 a3 f6 3c
       -0.118392706 -0.042917162 -0.025749141 0.030107478
000290 69 3a 1d bd 48 e7 f1 bd 8b 4e 8f 3b ac 6b 26 be
       -0.038385782 -0.118116915 0.0043733767 -0.16252011
0002a0 e7 99 b8 3d a0 6b dd bc cb 6f 94 bd b8 75 47 bc
       0.090137295 -0.027028859 -0.07247885 -0.012174062
0002b0 c0 1b a5 3b 76 05 a1 bd c2 ec b0 bc 4d 43 38 3d
       0.0050387084 -0.0786237 -0.02159727 0.044986058
0002c0 d0 11 06 be d8 7d a4 bd 2c 34 ad bd 8c 3e cd bd
       -0.13092732 -0.08031815 -0.084572166 -0.100216955
0002d0 82 e9 4a be 52 f7 70 3d c2 46 70 bd a1 5c 2d bd
       -0.19815639 0.058829613 -0.05866123 -0.042324666
0002e0 5c b0 f3 bd c5 c3 90 bd 27 44 96 bd e2 05 58 3e
       -0.11898872 -0.0706859 -0.07337218 0.21095994
0002f0 dd db 9f 3c 90 38 8a bb 9c d3 75 bd cb 26 e5 bd
       0.019514019 -0.0042181686 -0.06001626 -0.1118904
000300 4a 09 b8 3d 95 4b 34 bd 8d 8a ac 3d 00 20 f7 bc
       0.08986147 -0.044017393 0.08424864 -0.030166626
000310 dd f0 84 bd 99 ee 08 bc a4 a0 bd bd ca f4 9f bd
       -0.064912535 -0.008357667 -0.092591554 -0.07810362
000320 cf 77 0b be 7a 9a 3a 3c 43 27 23 be 77 f2 2c bc
       -0.13619922 0.011389369 -0.15932946 -0.010555855
000330 d9 fa a5 3d 33 bb 39 bc 3a 87 c2 bd 1d b1 58 bd
       0.08104486 -0.011336136 -0.09498449 -0.052903283
000340 2d 53 f5 bc c1 f0 66 3d f0 fc cd bd 04 1c 39 3d
       -0.029946888 0.056381945 -0.100580096 0.045192733
000350 72 ce 90 3d af 11 95 3d cc 86 26 3c 3e 50 90 3b
       0.07070626 0.072787635 0.010163974 0.004404097
000360 74 40 09 3d 38 06 2d be 57 e1 05 be e6 8d 1b 3d
       0.033508733 -0.16896904 -0.13074242 0.03797712
000370 d6 dc e2 3c 27 21 ed bd 2a 3d 0a 3e e7 a7 e4 3d
       0.027693193 -0.11578589 0.13499895 0.11164837
000380 4b f0 1f 3d 91 a6 81 3c 58 67 e8 3d 9d 40 b9 3c
       0.03904752 0.015826495 0.11347836 0.022613818
000390 24 66 a4 3b 00 66 d5 bc a5 4e 21 3d cc 6a 91 3b
       0.005017059 -0.026049614 0.039381642 0.00443778
0003a0 40 f9 8f 3c 88 c9 91 bd 0e 57 02 3e d5 34 83 3d
       0.017574906 -0.07118517 0.12728521 0.06406561
0003b0 30 db 98 bc cd 77 21 bd 8c 19 f8 bc 90 5f d6 3c
       -0.018659204 -0.03942089 -0.03028562 0.026168615
0003c0 89 e2 d0 bd 96 76 ab bc 83 8a 24 3d 29 f4 aa bd
       -0.10199458 -0.02093057 0.040171158 -0.08347351
0003d0 31 82 87 bd 2b 05 b4 bd ca 1e 84 bb 23 ee 18 3d
       -0.06616629 -0.08790048 -0.0040319907 0.03733648
0003e0 16 24 12 3d a6 6c 93 bd 88 61 f9 bd b1 fd 13 be
       0.035678945 -0.071984574 -0.12176806 -0.14452244
0003f0 03 7e bc bd 38 38 a2 3d ed bc f6 bd 6e f7 ab bc
       -0.09203722 0.07920879 -0.120477535 -0.020992007

fc3.bias f4 [7]
000000 2b 0c ad bd e7 4b b3 bd a4 6f c9 3c 6a 5f 47 bd
       -0.084495865 -0.087547116 0.024589367 -0.04867498
000010 f2 17 58 3c b2 4b e6 bd 07 4f bb bd
       0.013189303 -0.112449065 -0.09145933
