hackathon_toolkit/checkpoints_qlearn_CTDE/target_agent_1_episode_3001.pth (torch, 98704 bytes, 6 tensors)

fc1.weight f4 [128, 50]
-0.05584242 0.122368924 -0.1627882 0.033142447 -0.02107706 -0.016017303 -0.05528348 -0.030957133
0.088957295 0.04520618 -0.008173015 -0.4837264 -0.11161461 -0.042040862 -0.09040202 0.118592426
-0.017280601 0.090753235 -0.101256296 0.04901481 -0.11820647 0.05225656 -0.14566885 -0.020392774
-0.024507806 -0.09116398 0.027160889 0.06576206 0.025811289 -0.0017969906 0.100662485 -0.08595594
-0.011651822 0.03959945 -0.03312093 -0.096735835 0.019976512 0.029812545 -0.05725488 0.10779017
-0.41032508 0.093817554 0.020529488 -0.045611285 -0.074561946 -0.3669532 -0.18087752 0.10897894
0.11566423 0.121471 -0.0069188373 -0.17304382 0.12606274 -0.01155597 0.009885265 0.0339244
-0.02302174 0.10329957 0.11160545 0.024653325 0.10219818 -1.1054695 -0.027946062 0.16577275
0.08580986 -0.048724983 0.093913 -0.14136606 -0.110282 0.0017614514 0.10493299 0.03822214
-0.1378634 -0.09048695 -0.10631478 -0.09447913 0.053114068 -0.16274175 0.05093613 0.09208636
0.08354165 0.053832665 0.08377769 0.01939243 0.06670678 0.10251766 0.07216677 -0.094324335
0.055248618 0.122798905 -0.03385885 0.060597092 0.05566975 0.06598374 -0.13591042 0.0061274315
0.01803935 -0.15378256 -0.015871108 0.07988541 -0.119153395 0.050322384 0.14210168 -0.122141555
-0.12218978 -0.047588512 -0.12049768 0.057067677 -0.11594563 0.06400067 0.0908139 -0.05831997
0.07413913 0.007821891 -0.11948998 -0.08715249 -0.058099944 0.12437975 -0.13714264 -0.010063365
-0.13906252 -0.021531468 0.015954316 -0.049777567 -0.027720958 -0.13161738 0.0405258 0.022215916
-0.013808946 -0.040128 0.09153057 0.1195648 -0.096792966 0.026357695 0.13589571 0.0635849
-0.014604673 0.063795224 -0.027693413 -0.053543307 -0.11518289 0.06414102 -0.068572156 -0.12202162
0.0851361 0.08997049 0.03435926 0.0062073944 0.09464383 0.042163994 -0.07895547 -0.019122018
-0.17000292 -0.043051712 -0.16016997 -0.084864736 -0.22411157 -0.017101385 0.10734804 -0.16962323
-0.13087568 0.437317 -0.008041966 -0.27102742 -0.084192276 -0.06058067 -0.018306058 -0.07748261
0.0662612 0.11328049 -0.004152462 0.079317495 0.19848427 -0.16096245 -0.09061821 -0.13494116
-0.04419572 0.10343712 0.069010235 -0.116909005 -0.113734454 0.12615974 -0.18081203 0.017680809
-0.12991829 -0.07074341 -0.13022915 0.05740291 -0.038890906 0.014589838 -0.11634169 0.22236364
-0.1158816 -0.12130098 0.01768373 0.13434164 -0.18272541 -0.03589457 -0.08467535 0.0062061846
-0.24691257 0.028707152 -0.23944719 -0.03963065 -0.08152786 0.12697689 0.07102357 0.10822466
-0.0130995065 0.0676506 -0.049617182 0.12426967 -0.2558042 0.09542476 -0.068783425 0.10461454
-0.081422806 0.00517129 -0.15464588 -0.12115908 -0.06184221 -0.101737484 -0.11862172 0.021926612
0.026686892 0.14073755 -0.23950952 0.15650941 -0.16751854 0.07244623 0.0008477923 -0.010928303
0.060720693 0.050574496 0.028274462 0.06419803 -0.10528182 0.052806154 0.06599596 -0.053581
-0.1709263 0.0018291109 -0.10511455 -0.006773129 -0.04270164 0.08757256 0.047789115 -0.19984606
-0.036963075 -0.123612076 0.04440537 -0.062019803 -0.1135396 -0.10073456 0.08493577 -0.07673713
00000000: 05bb 64bd 8f9c fa3d f3b1 26be 60c0 073d
00000010: cca9 acbc b836 83bc ee70 62bd d099 fdbc
00000020: 3e2f b63d 1e2a 393d 1ce8 05bc fdaa f7be
00000030: 3396 e4bd 0a33 2cbd b224 b9bd 96e0 f23d
00000040: 0c90 8dbc d5dc b93d 765f cfbd c1c3 483d
00000050: 3c16 f2bd fa0a 563d 372a 15be bf0e a7bc
00000060: 98c4 c8bc 2eb4 babd 8380 de3c 42ae 863d
00000070: 3272 d33c 0089 ebba 2228 ce3d ab09 b0bd
00000080: 49e7 3ebc 0833 223d d0a9 07bd 701d c6bd
00000090: c8a5 a33c 7039 f43c 1884 6abd 18c1 dc3d
000000a0: 2116 d2be 6b23 c03d 752d a83c e6d2 3abd
000000b0: efb3 98bd 4ae1 bbbe f537 39be 5a30 df3d
000000c0: 5ee1 ec3d cac5 f83d 6ab7 e2bb 6632 31be
000000d0: 9716 013e 4055 3dbc cef5 213c 50f4 0a3d
000000e0: 1798 bcbc ba8e d33d 6691 e43d c5f5 c93c
000000f0: 484d d13d 0680 8dbf 24ef e4bc 55c0 293e
00000100: 14bd af3d d993 47bd 7555 c03d 44c2 10be
00000110: 87db e1bd 80e0 e63a 1ce7 d63d d28e 1c3d
00000120: 102c 0dbe 3951 b9bd 90bb d9bd 467e c1bd
00000130: 238e 593d c6a5 26be 67a2 503d c697 bc3d
00000140: e217 ab3d a47f 5c3d a393 ab3d e0dc 9e3c
00000150: 909d 883d c7f4 d13d 2ccc 933d 1e2d c1bd
00000160: 604c 623d fe7d fb3d 94af 0abd a834 783d
00000170: f705 643d 7c22 873d 1a2c 0bbe 9fc8 c83b
00000180: 42c7 933c 2d79 1dbe 2004 82bc f69a a33d
00000190: b206 f4bd d81e 4e3d 1a83 113e 5a25 fabd
000001a0: a33e fabd 2cec 42bd 7dc7 f6bd ccbf 693d
000001b0: e774 edbd c912 833d a3fc b93d ece0 6ebd
000001c0: 42d6 973d 6427 003c 2ab7 f4bd 017d b2bd
000001d0: 35fa 6dbd cfba fe3d 1f6f 0cbe d0e0 24bc
000001e0: 6866 0ebe c362 b0bc a0b2 823c 90e3 4bbd
000001f0: 1017 e3bc b5c6 06be 62fe 253d 27fe b53c
00000200: eb3e 62bc 425d 24bd 6174 bb3d 64de f43d
00000210: 643b c6bd 18ec d73c 3f28 0b3e cd38 823d
00000220: 7048 6fbc 12a7 823d 4cdd e2bc 3a50 5bbd
00000230: 02e5 ebbd 5e5c 833d 8f6f 8cbd 79e6 f9bd
00000240: d65b ae3d 7342 b83d 4cbc 0c3d 6667 cb3b
00000250: a0d4 c13d 27b4 2c3d 68b3 a1bd c7a5 9cbc
00000260: 3f15 2ebe fe56 30bd 9903 24be 90cd adbd
00000270: 817d 65be 3418 8cbc 4ad9 db3d b6b1 2dbe
00000280: 4604 06be 04e8 df3e 73c2 03bc 1bc4 8abe
00000290: 006d acbd 7023 78bd 96f6 95bc 34af 9ebd
000002a0: f4b3 873d 9aff e73d 6011 88bb 3671 a23d
000002b0: 763f 4b3e 57d3 24be 0a96 b9bd 042e 0abe
000002c0: 9206 35bd d7d6 d33d 3d55 8d3d fd6d efbd
000002d0: 9ced e8bd 0530 013e ca26 39be 58d7 903c
000002e0: 4d09 05be ece1 90bd ca5a 05be 501f 6b3d
000002f0: 124c 1fbd 370a 6f3c 8d44 eebd 4bb3 633e
00000300: 5553 edbd a66c f8bd 78dd 903c db90 093e
00000310: 5f1c 3bbe 2f06 13bd 456a adbd 405d cb3b
00000320: a6d6 7cbe 432b eb3c a531 75be c053 22bd
00000330: 14f8 a6bd 3b06 023e ce74 913d e4a4 dd3d
00000340: 509f 56bc 668c 8a3d 633b 4bbd 1981 fe3d
00000350: c5f8 82be 0e6e c33d 53de 8cbd 2640 d63d
00000360: 00c1 a6bd ed73 a93b 7d5b 1ebe 4022 f8bd
00000370: 424e 7dbd be5b d0bd f2ef f2bd 709f b33c
00000380: 789e da3c 811d 103e fc41 75be 0144 203e
00000390: fb89 2bbe b05e 943d 613e 5e3a a00c 33bc
000003a0: 43b6 783d 3427 4f3d d89f e73c 427a 833d
000003b0: ff9d d7bd 444b 583d e428 873d c077 5bbd
000003c0: 4e07 2fbe c7be ef3a 4c46 d7bd 20f1 ddbb
000003d0: eae7 2ebd 3e59 b33d 85be 433d 72a4 4cbe
000003e0: 9866 17bd 5428 fdbd 68e2 353d 7a08 7ebd
000003f0: 7387 e8bd ec4d cebd cef2 ad3d 5b28 9dbd

fc1.bias f4 [128]
0.067618825 -0.051102016 0.07074353 -0.20235282 -0.012324675 0.08053409 -0.104128696 -0.06496089
-0.05836403 -0.005240968 -0.1335647 -0.04562737 0.054250743 -0.084176 0.012597526 -0.03285171
-0.18070835 0.0659014 0.024232788 -0.09806926 -0.12761477 0.11168312 0.027269855 0.019969767
0.021336872 -0.14134677 -0.022747796 -0.16652544 0.080191344 -0.107625686 -0.11180598 -0.10349082
-0.13969252 0.053669773 -0.17780414 0.11592053 -0.035290953 -0.08991776 -0.16214453 -0.094300464
0.0053081065 -0.062253043 0.008291358 -0.06360255 0.04882446 -0.0941581 -0.1972539 -0.11617188
-0.04979589 -0.12987326 -0.058674466 -0.044347238 -0.10843012 -0.0629943 -0.0126095535 -0.090291075
0.0898339 0.058973487 -0.043576777 0.04063272 0.11513522 -0.12450761 -0.04402724 -0.2108057
-0.12039539 -0.014191123 0.02158022 -0.15893582 0.05931908 0.04382432 0.036903683 -0.1687299
-0.16910914 0.021641988 0.104954004 -0.11286979 0.0030049656 0.018497624 0.0074458267 0.053392496
0.07536264 -0.089611284 -0.16041358 -0.149898 -0.07407741 -0.0009541785 -0.07442383 -0.041849233
-0.12842669 -0.04281858 -0.067756 -0.07658341 0.01604646 -0.03400084 0.00081960985 0.05882404
-0.07363671 -0.10608787 0.0073386836 0.03108897 0.084102064 -0.008818068 -0.13304734 -0.16859505
-0.12531641 -0.058342185 -0.103216216 -0.039885268 -0.13323802 -0.13538525 -0.15146253 -0.027496703
0.036315378 -0.2061372 -0.13176271 0.13468403 -0.08456282 0.07946579 -0.14587367 0.09240109
-0.13380921 -0.0016289558 -0.1379597 -0.037539817 -0.20053409 0.015200313 0.08736169 0.06688025
00000000: bd7b 8a3d 5950 51bd fce1 903d 9435 4fbe
00000010: 6fed 49bc 0fef a43d 6d41 d5bd 370a 85bd
00000020: 1f0f 6fbd 6dbc abbb 2fc5 08be c4e3 3abd
00000030: 0736 5e3d 7764 acbd db65 4e3c 848f 06bd
00000040: 9c0b 39be 50f7 863d d783 c63c 89d8 c8bd
00000050: 72ad 02be 1fba e43d 0865 df3c a397 a33c
00000060: aaca ae3c 35bd 10be 9659 babc a585 2abe
00000070: 5c3b a43d db6a dcbd 89fa e4bd fff2 d3bd
00000080: 8e0b 0fbe d6d4 5b3d 4a12 36be be67 ed3d
00000090: 3f8d 10bd cd26 b8bd 3709 26be 9a20 c1bd
000000a0: a0ef ad3b 0cfd 7ebd 7ad8 073c 0e42 82bd
000000b0: 28fc 473d f6d5 c0bd edfc 49be 86eb edbd
000000c0: c6f6 4bbd 7ffd 04be a354 70bd 73a5 35bd
000000d0: 9c10 debd 2803 81bd 4d98 4ebc 87ea b8bd
000000e0: d6fa b73d 2f8e 713d 907d 32bd 7f6e 263d
000000f0: 04cc eb3d d9fd febd e855 34bd 73dd 57be
00000100: dc91 f6bd e281 68bc 00c9 b03c 12c0 22be
00000110: 90f8 723d 2181 333d 5128 173d 88c7 2cbe
00000120: f22a 2dbe 8a4a b13c 20f2 d63d 4728 e7bd
00000130: f5ee 443b 5488 973c 1ffc f33b 17b2 5a3d
00000140: ba57 9a3d 1f86 b7bd 7543 24be dc7e 19be
00000150: e6b5 97bd d621 7aba 856b 98bd 1a6a 2bbd
00000160: 4982 03be 8962 2fbd a8c3 8abd c3d7 9cbd
00000170: de73 833c 7744 0bbd 16db 563a 7af1 703d
00000180: d8ce 96bd 9944 d9bd 5779 f03b 4cae fe3c
00000190: b43d ac3d a879 10bc 903d 08be 2ea4 2cbe
000001a0: f252 00be 37f8 6ebd 0663 d3bd bc5e 23bd
000001b0: 8c6f 08be 6ea2 0abe fe18 1bbe c440 e1bc
000001c0: 6fbf 143d a115 53be ceec 06be 9cea 093e
000001d0: 462f adbd f6be a23d e85f 15be c83c bd3d
000001e0: 4805 09be b082 d5ba 4f45 0dbe 5ac3 19bd
000001f0: cf58 4dbe bc0a 793c b0ea b23d 83f8 883d

fc2.weight f4 [128, 128]
-0.42606556 0.04510391 0.0533412 0.061542284 0.014102978 -0.24426273 0.061005678 -0.06166893
0.076902434 -0.27191508 0.08767248 -0.0829819 -0.076375365 -0.087101854 -0.07628794 -0.09316974
-0.12198191 -0.046397433 0.11800741 -0.09752066 -0.08321239 -0.017744672 -0.081181765 -0.13205613
0.06367548 0.00599953 -0.72505194 -0.8176378 0.017253287 -0.02654658 -0.030584417 0.139949
0.06134156 0.063559845 0.009526947 -0.9066538 -0.017661607 -0.058664802 -0.19326961 -0.017319776
0.059067406 0.08948631 -0.12921956 -0.08715673 -0.040865686 -0.09370786 0.058203343 -0.32628798
-0.06596659 0.07901328 -0.8578881 -0.008962274 -0.16277266 -0.097228654 -0.3355085 -0.026045665
-0.16064228 0.037244033 -0.052137833 -0.013725821 0.006047352 -0.017310595 -0.044329938 -0.06591546
-0.013763335 0.027891228 -0.47838688 0.3347873 -1.1701441 -0.13225475 -0.019900655 -0.23032868
-0.18466686 -0.1415609 -0.034273803 -0.20939845 0.014958165 -0.033260968 0.076767094 0.20526046
-0.41242412 -0.19790557 -0.19313926 0.15046167 -0.064557105 -0.5562302 0.11091176 0.22661358
0.0025047734 0.034438506 -0.0150814 0.039932437 -0.7438265 0.056590904 0.012624581 0.12107397
-0.0684861 0.048695732 -0.96757287 -0.48309729 0.03831073 -0.22435991 -0.40810147 -0.25598353
-0.21261577 -0.12776892 0.06597314 0.057699643 0.04888703 0.007331606 0.062361576 -0.025323376
-0.23231883 -0.6664246 0.059724875 0.016684474 0.00634111 -0.0760501 -0.051878113 -0.62071645
0.23005478 -0.077650145 0.011594661 0.011881442 0.053549305 -0.26718292 0.18528639 0.19022156
0.11114252 0.18072747 -0.058714546 0.14976627 -0.07472557 -0.052933373 -0.19837844 0.17494203
-0.026803583 -0.27381143 0.014882736 -0.0064159483 0.019564513 -0.026476238 -0.22816482 -0.039719027
-0.11761963 -0.044006966 0.37289733 -0.021283314 0.0022469265 0.010375023 -0.075589135 -0.2037872
0.12719457 -0.013502747 0.25196823 0.13977356 0.08686615 -0.14644769 0.044369467 0.10653789
0.0026776344 -0.106907904 -0.20633231 0.14543414 0.06780703 -0.026850302 -0.11368124 0.046731524
0.07662117 -0.10831164 0.16220835 -0.054092143 -0.3815029 0.06127836 -0.063249 -0.17811847
0.08304236 -0.007952981 0.39060956 -0.020163558 0.16268358 -0.022947099 -0.54075193 -0.01542313
0.14268471 0.08312437 -0.0050201192 -0.09038587 -0.032945048 0.16332489 0.020445717 -0.22796474
0.0688945 -0.08312212 0.010285606 0.26546553 -0.12627073 -0.03672992 0.13779992 0.11552201
-0.15803482 -0.02310384 -0.0020491802 -0.023349123 -0.037679438 0.061972015 -0.055909995 0.0352607
0.2276624 0.17748266 0.13704728 0.09652444 -0.14942703 -0.029569551 -0.026669841 0.05741493
0.07982362 -0.08333545 -0.3756799 0.03180416 -0.029889338 0.056721307 -0.3904565 0.066628546
0.06671345 -0.023238467 0.29834116 0.55493844 -0.02140379 -0.10669707 -0.2620684 0.4119267
-0.5177864 -0.24562079 -0.0019134283 0.0035725906 0.056495015 -0.06410799 -0.026586559 0.012805149
-0.14021091 -0.3140738 0.011309221 -0.020179883 -0.28025413 -0.37516442 -0.40592438 -0.09292975
0.30374777 0.19415314 0.02213265 -0.74644375 -0.18306264 -0.076060094 0.11266007 0.07867514
00000000: 4425 dabe e1be 383d 4d7c 5a3d c313 7c3d
00000010: 2d10 673c 0220 7abe 17e1 793d 8f98 7cbd
00000020: 067f 9d3d 7438 8bbe a18d b33d 6af2 a9bd
00000030: b06a 9cbd 7562 b2bd da3c 9cbd c7cf bebd
00000040: a7d1 f9bd 3c0b 3ebd dead f13d e9b8 c7bd
00000050: 426b aabd 465d 91bc a042 a6bd b939 07be
00000060: 4a68 823d b597 c43b 019d 39bf b650 51bf
00000070: c456 8d3c 3778 d9bc 2c8c fabc ca4e 0f3e
00000080: 4a41 7b3d aa2b 823d e916 1c3c 771a 68bf
00000090: 13af 90bc 814a 70bd 78e8 45be 34e2 8dbc
000000a0: aaf0 713d 9944 b73d 2252 04be 3a7f b2bd
000000b0: c762 27bd e8e9 bfbd a166 6e3d 380f a7be
000000c0: 7e19 87bd b7d1 a13d 8e9e 5bbf 80d6 12bc
000000d0: e0ad 26be d11f c7bd c5c7 abbe b85d d5bc
000000e0: 697f 24be 338d 183d 7b8e 55bd 44e2 60bc
000000f0: de28 c63b f3ce 8dbc 4f93 35bd affe 86bd
00000100: 9c7f 61bc 257c e43c 20ef f4be 3e69 ab3e
00000110: 48c7 95bf ca6d 07be b306 a3bc 48db 6bbe
00000120: 4f19 3dbe 57f5 10be b062 0cbd 8c6c 56be
00000130: 1713 753c a73c 08bd 1138 9d3d cc2f 523e
00000140: 4129 d3be c2a7 4abe 4cc6 45be a012 1a3e
00000150: 8436 84bd 1a65 0ebf b425 e33d 640d 683e
00000160: 2027 243b 640f 0d3d fa17 77bc 3290 233d
00000170: 6a6b 3ebf ddcb 673d 55d7 4e3c a1f5 f73d
00000180: 7142 8cbd 2d75 473d dbb2 77bf 8758 f7be
00000190: b6eb 1c3d 9bbe 65be adf2 d0be 4610 83be
000001a0: f3b7 59be dbd5 02be ed1c 873d 7656 6c3d
000001b0: c43d 483d f83d f03b da6e 7f3d f872 cfbc
000001c0: fde4 6dbe cd9a 2abf 12a2 743d e1ad 883c
000001d0: 16c9 cf3b 28c0 9bbd 257e 54bd 46e7 1ebf
000001e0: 7b93 6b3e 0a07 9fbd 88f7 3d3c 61aa 423c
000001f0: 8456 5b3d 33cc 88be b7bb 3d3e 71c9 423e
00000200: b19e e33d 9f10 393e aa7e 70bd 545c 193e
00000210: b809 99bd aad0 58bd b823 4bbe 0124 333e
00000220: 3093 dbbc 0331 8cbe b8d6 733c e03c d2bb
00000230: c245 a03c b2e4 d8bc 0aa4 69be 6bb0 22bd
00000240: 90e2 f0bd a640 34bd 66ec be3e 585a aebc
00000250: 2c41 133b 00fc 293c 7ace 9abd 97ad 50be
00000260: 4b3f 023e a03a 5dbc fb01 813e cd20 0f3e
00000270: e1e6 b13d 62f6 15be c2bc 353d 8a30 da3d
00000280: 407b 2f3b 88f2 dabd c748 53be b0ec 143e
00000290: 6ade 8a3d 2af5 dbbc b6d1 e8bd 8e69 3f3d
000002a0: 8feb 9c3d 7ed2 ddbd f219 263e b98f 5dbd
000002b0: 5954 c3be 05ff 7a3d b188 81bd b064 36be
000002c0: 1d12 aa3d 384d 02bc fafd c73e 0c2e a5bc
000002d0: 8696 263e 8efb bbbc b86e 0abf 4cb1 7cbc
000002e0: f11b 123e 1c3d aa3d d07f a4bb 3a1c b9bd
000002f0: 63f1 06bd a43e 273e c77d a73c 976f 69be
00000300: 8f18 8d3d ee3b aabd f584 283c 19eb 873e
00000310: 1d4d 01be 1d72 16bd 6c1b 0d3e ce96 ec3d
00000320: e1d3 21be 4444 bdbc 8a4b 06bb a946 bfbc
00000330: c155 1abd 5ed6 7d3d e101 65bd 866d 103d
00000340: 5520 693e 04be 353e 1f56 0c3e 9bae c53d
00000350: 6603 19be d83b f2bc b67a dabc eb2b 6b3d
00000360: 917a a33d c7ab aabd 1e59 c0be 1445 023d
00000370: 7cda f4bc 9a54 683d eae9 c7be 8c74 883d
00000380: 10a1 883d 995e bebc 2cc0 983e 7210 0e3f
00000390: 0057 afbc fe83 dabd d42d 86be 0ee8 d23e
000003a0: a68d 04bf 0484 7bbe 00cc faba 2022 6a3b
000003b0: 5167 673d 0d4b 83bd 0ecc d9bc b0cc 513c
000003c0: 7393 0fbe 48ce a0be 504a 393c 4850 a5bc
000003d0: 787d 8fbe 8d15 c0be 52d5 cfbe f451 bebd
000003e0: d484 9b3e 15d0 463e 884f b53c f016 3fbf
000003f0: c674 3bbe 65c5 9bbd 53ba e63d 6f20 a13d

fc2.bias f4 [128]
-0.07455914 -0.65561914 -0.01505693 0.0772604 -0.06583358 -0.045024604 -0.4961104 -0.9689696
-0.042102404 -0.45163313 -0.071272016 -0.08721736 -0.52376825 -0.26830772 -0.5829294 0.03527697
-0.10129185 -0.4670504 0.7232378 0.030513976 -0.78102994 -0.3065828 0.28520066 0.14876035
-0.105769336 1.3908354 -0.43383837 -0.11258489 0.8711185 0.057659343 -0.011835961 -0.014314431
0.13801989 -0.09202596 -0.10451856 -0.13870534 -0.047211938 0.26016504 0.08286586 0.067001745
-0.64549935 -0.74440217 0.12785982 0.5323244 0.09348319 -0.40981275 0.61176693 -0.02888371
0.25592694 0.1394277 -0.08048513 0.024381826 -0.18391944 -0.0829827 -0.92554176 -0.066025525
-0.111897245 -0.48587224 -0.1382288 -0.11505914 0.009519207 0.004370612 -0.12640944 -0.3511501
-0.38734895 0.22163253 -0.13607474 -0.014150785 0.32787374 -0.10130481 -0.04309241 -0.34146953
-1.8746907 -0.4534711 1.0060356 0.002074916 -0.3145262 -0.11034995 -0.06986391 -0.22575004
-0.107352704 -0.014575773 -0.22949429 -0.99135 0.018240666 0.02397063 0.0077082245 -0.18781991
0.8677673 0.09684255 -0.89281946 -0.75869685 0.061350744 -0.20743428 -0.09527435 -0.15912348
-0.007253521 0.23402636 -1.0453223 -0.024870321 -0.2299174 0.9872305 -0.16897507 -0.14540984
1.6456939 -0.09423493 -0.34514618 -0.30016917 0.11104221 -0.022136794 -0.44137776 -0.12292853
-0.81662893 -0.86244833 -0.104630165 -0.06466959 -0.048781265 0.6768776 -0.08863317 -0.13679726
-0.017206278 -0.53989416 -0.049215183 -0.3773527 0.5566911 -0.01585209 -0.05654355 0.01797031
00000000: 76b2 98bd a8d6 27bf 57b1 76bc b33a 9e3d
00000010: c2d3 86bd b86b 38bd 2f02 febe 640e 78bf
00000020: 9273 2cbd 753c e7be 10f7 91bd 049f b2bd
00000030: ad15 06bf a15f 89be dc3a 15bf 967e 103d
00000040: 1a72 cfbd 3b21 efbe 1d26 393f 72f8 f93c
00000050: 94f1 47bf 6cf8 9cbe d205 923e a254 183e
00000060: 989d d8bd e506 b23f 1020 debe e892 e6bd
00000070: 9f01 5f3f 342c 6c3d 9eeb 41bc 1387 6abc
00000080: 1655 0d3e 1b78 bcbd d40d d6bd c608 0ebe
00000090: 4e61 41bd 5a34 853e 93b5 a93d 3638 893d
000000a0: 723f 25bf 2491 3ebf afed 023e 6946 083f
000000b0: 1d74 bf3d fad2 d1be c29c 1c3f 889d ecbc
000000c0: db08 833e 23c6 0e3e 63d5 a4bd 65bc c73c
000000d0: 6155 3cbe d5f2 a9bd 4ef0 6cbf 6438 87bd
000000e0: 622a e5bd 3fc4 f8be da8b 0dbe 20a4 ebbd
000000f0: 73f6 1b3c 5a37 8f3b 7a71 01be f2c9 b3be
00000100: 9a52 c6be a3f3 623e 2d57 0bbe b2d8 67bc
00000110: 11df a73e e578 cfbd ab81 30bd 18d5 aebe
00000120: ddf5 efbf 5d2d e8be c6c5 803f 50fb 073b
00000130: 9409 a1be 28ff e1bd cf14 8fbd 052b 67be
00000140: bcdb dbbd 39cf 6ebc 8d00 6bbe 1dc9 7dbf
00000150: 736d 953c 0e5e c43c 4695 fc3b dd53 40be
00000160: ff25 5e3f 6355 c63d d18f 64bf f539 42bf
00000170: eb4a 7b3d a769 54be 331f c3bd 44f1 22be
00000180: f2ae edbb 9ba4 6f3e 1fcd 85bf d8bc cbbc
00000190: 786f 6bbe 23bb 7c3f cd07 2dbe 51e6 14be
000001a0: 19a6 d23f 3efe c0bd 00b7 b0be c6af 99be
000001b0: 196a e33d 3958 b5bc 44fc e1be f4c1 fbbd
000001c0: 980e 51bf 6ac9 5cbf 5748 d6bd 7d71 84bd
000001d0: ddce 47bd da47 2d3f 4f85 b5bd 9514 0cbe
000001e0: 2ef4 8cbc 8136 0abf dc95 49bd 6034 c1be
000001f0: 4f83 0e3f 3edc 81bc 369a 67bd 7936 933c

fc3.weight f4 [7, 128]
-0.20425211 0.3839953 -0.053011548 1.3310827 -0.32895222 -0.022273805 0.6204689 0.10240579
0.026992489 -0.18840192 -0.06482659 -0.2779315 0.69365805 1.0195057 0.005286796 -0.65844196
-0.19041066 1.0430443 -0.40513963 0.38213524 1.9570056 0.25990415 0.5500665 -0.14233571
0.017256515 -0.12377221 2.0528104 0.018345043 -0.71832454 1.3383977 -0.030952912 0.030212179
-0.7070109 -0.035153843 1.1432121 0.48695815 0.019943297 0.35300037 0.5803228 0.7488296
1.2568808 -0.00842197 1.6167822 -0.32054937 0.011125141 -0.590552 1.2026652 -0.029978178
0.35295373 1.1451268 1.4492227 0.18693697 -0.4092334 0.040957298 0.36993822 0.31803352
-0.11128508 0.022461947 -0.019836461 1.589259 0.079034634 0.007943721 -0.076245904 -0.3143727
1.3955051 0.7572424 0.24239974 0.1403552 0.5977636 -0.018735293 -0.70995206 0.68911415
-1.1223415 0.12899311 -0.3120249 -0.008715665 1.0532686 0.06998037 0.3925373 1.7578251
0.02508884 0.17068307 0.9250885 -0.6538297 0.008094574 2.136694 1.5214543 0.42533666
0.48130915 -0.28414947 -0.84224296 -1.4600211 1.8158772 -0.25162604 -0.4807245 -0.17718025
1.1506943 0.71928674 0.655868 -0.044974018 -0.23294772 -0.23241273 -0.38960236 2.1716876
-0.53654057 0.10998692 1.403112 1.4765582 0.30460855 -0.28575045 -0.27030787 -0.023705779
-0.028720032 0.0833743 -0.05735892 -0.36314952 0.04167538 -1.2524271 -0.027286764 -0.33721736
0.78102887 -1.6947532 -0.38582474 0.5852939 -0.6762416 0.044232316 -0.15483952 0.12103052
-0.41436818 0.8975578 0.05100504 0.8733878 -0.14058948 0.5885395 -0.06270652 0.5393767
0.06499571 -0.18265444 0.004112966 -0.2856884 0.8820767 1.049636 0.4148062 -0.11391107
0.29123348 2.378445 -0.13388409 -0.08842433 0.54835606 1.261143 -0.15318668 0.44168207
-0.041412078 -0.48107404 0.48539713 0.0515071 -0.6563321 1.2996231 -0.057440452 0.062202614
0.52719444 -0.040989235 -0.027238782 -0.24389495 0.0016766919 0.39255252 0.106473565 1.3200731
0.6193983 0.43237573 2.277268 -0.35528532 -0.28451717 -0.30552644 0.5320131 0.39106098
-0.40824515 2.4304805 0.13504016 0.16549979 -0.6764718 0.0580264 -1.3978952 0.15180893
-0.25826338 -0.12826422 -0.013492756 1.031168 0.016595855 -0.004049854 -0.046596903 -0.7192969
1.5685823 0.23046322 0.43916887 -0.24545291 1.2481899 0.0021737944 -0.6645662 0.38080594
-2.3438811 0.26355037 -0.55957615 -0.011639743 0.61902994 -0.005670806 -0.0697224 1.4692941
0.0035717932 2.1459422 -0.28616264 -1.1404805 0.06619189 1.3605006 1.1144141 0.91795355
0.17514423 0.49339595 -0.883846 -0.79844755 2.4565117 -0.1831424 1.2182229 1.0898331
1.0028427 -0.9333477 0.8371668 0.008460409 -0.32256395 -0.3544778 0.0797429 0.8859648
-0.19312598 -0.053236373 1.0835242 1.9476948 0.34495184 -0.45455813 -1.1286521 0.011840615
-0.63896346 0.9784773 -0.07956057 -0.54066783 -0.07225759 -0.70337224 0.0017340207 -0.057226554
0.41892934 -1.1975799 -0.3188805 0.29761273 0.7906551 0.06215556 -0.2087461 0.3341423
00000000: 7727 51be 089b c43e a322 59bd eb60 aa3f
00000010: 6d6c a8be 8e77 b6bc 0dd7 1e3f 20ba d13d
00000020: 5a1f dd3c 6fec 40be cec3 84bd 0a4d 8ebe
00000030: 9393 313f 2a7f 823f dc3c ad3b a78f 28bf
00000040: 03fb 42be 7a82 853f 766e cfbe 3ba7 c33e
00000050: 297f fa3f 2812 853e 28d1 0c3f 74c0 11be
00000060: 895d 8d3c 497c fdbd 3f61 0340 5848 963c
00000070: 1ee4 37bf 9e50 ab3f f690 fdbc 887f f73c
00000080: abfe 34bf 7afd 0fbd c654 923f 9452 f93e
00000090: 2060 a33c 77bc b43e 0990 143f 4cb3 3f3f
000000a0: 78e1 a03f 4dfc 09bc b8f2 ce3f 0c1f a4be
000000b0: 3946 363c 6a2e 17bf eff0 993f cc94 f5bc
000000c0: 5ab6 b43e 8493 923f 2180 b93f 686c 3f3e
000000d0: 0a87 d1be d7c2 273d 8b68 bd3e 4ad5 a23e
000000e0: 6fe9 e3bd 1e02 b83c 1380 a2bc d76c cb3f
000000f0: e9dc a13d 6126 023c d026 9cbd 75f5 a0be
00000100: e99f b23f a3da 413f a337 783e 46b9 0f3e
00000110: 0907 193f c27a 99bc 6bbf 35bf c969 303f
00000120: e3a8 8fbf c516 043e bac1 9fbe 26cc 0ebc
00000130: 81d1 863f de51 8f3d a6fa c83e 6a00 e13f
00000140: 1c87 cd3c 8bc7 2e3e 9ad2 6c3f 6261 27bf
00000150: 1b9f 043c 98bf 0840 04bf c23f bac5 d93e
00000160: 276e f63e 0a7c 91be 3c9d 57bf f9e1 babf
00000170: aa6e e83f 21d5 80be 8621 f6be bd6e 35be
00000180: f349 933f 2d23 383f f7e6 273f ad36 38bd
00000190: d989 6ebe 9afd 6dbe f679 c7be eefc 0a40
000001a0: b95a 09bf d340 e13d 2d99 b33f dcff bc3f
000001b0: a7f5 9b3e e24d 92be cb65 8abe 9f32 c2bc
000001c0: 4646 ebbc 25c0 aa3d 30f1 6abd bcee b9be
000001d0: ceb3 2a3d 884f a0bf 7e88 dfbc c1a7 acbe
000001e0: 82f1 473f aced d8bf d28a c5be d2d5 153f
000001f0: 2b1e 2dbf f22c 353d 408e 1ebe d9de f73d
00000200: 1128 d4be 59c6 653f a9ea 503d 5896 5f3f
00000210: b0f6 0fbe 86aa 163f 476c 80bd 9714 0a3f
00000220: 791c 853d c409 3bbe 0fc6 863b c045 92be
00000230: c7cf 613f 795a 863f 7a61 d43e 354a e9bd
00000240: 8e1c 953e 7138 1840 e918 09be d117 b5bd
00000250: 1061 0c3f 226d a13f f8dc 1cbe 2724 e23e
00000260: b69f 29bd 564f f6be f985 f83e 1cf9 523d
00000270: 6105 28bf 0d5a a63f ae46 6bbd 2bc8 7e3d
00000280: 37f6 063f 54e4 27bd de23 dfbc 99bf 79be
00000290: 72c4 db3a a5fc c83e d00e da3d 28f8 a83f
000002a0: e390 1e3f 5a60 dd3e c2be 1140 f5e7 b5be
000002b0: 3cac 91be f66d 9cbe 0332 083f 2539 c83e
000002c0: 8205 d1be fe8c 1b40 f847 0a3e c778 293e
000002d0: 422d 2dbf 17ad 6d3d 3bee b2bf cd73 1b3e
000002e0: 193b 84be b257 03be b810 5dbc 50fd 833f
000002f0: 08f4 873c a3b4 84bb 65dc 3ebd d723 38bf
00000300: 4ec7 c83f 8dfe 6b3e beda e03e 0258 7bbe
00000310: b0c4 9f3f 3876 0e3b 0321 2abf fff8 c23e
00000320: 2602 16c0 13f0 863e 6240 0fbf 9fb4 3ebc
00000330: bf78 1e3f 2bd2 b9bb 9eca 8ebd d411 bc3f
00000340: bf14 6a3b 1e57 0940 e983 92be 44fb 91bf
00000350: 9d8f 873d e224 ae3f 1fa5 8e3f 01ff 6a3f
00000360: 0259 333e 659e fc3e bb43 62bf 0f67 4cbf
00000370: 7d37 1d40 ae89 3bbe baee 9b3f a77f 8b3f
00000380: 265d 803f e0ef 6ebf 9050 563f 879d 0a3c
00000390: 1a27 a5be 1d7e b5be 3f50 a33d 97ce 623f
000003a0: d1c2 45be 620e 5abd ecb0 8a3f 104e f93f
000003b0: 879d b03e d8bb e8be ac77 90bf 24ff 413c
000003c0: 1c93 23bf 7d7d 7a3f a7f0 a2bd 3569 0abf
000003d0: cafb 93bd 3410 34bf 1448 e33a 6466 6abd
000003e0: e87d d63e 4c4a 99bf 4e44 a3be b260 983e
000003f0: 5f68 4a3f d496 7e3d 8ac1 55be b314 ab3e

fc3.bias f4 [7]
-0.08001257 0.18299642 0.1598891 0.10074022 -0.07352695 -0.517307 0.10760236
00000000: a1dd a3bd 6a63 3b3e f8b9 233e e350 ce3d
00000010: 4c95 96bd 3b6e 04bf a05e dc3d
