hackathon_toolkit/checkpoints_qlearn_CTDE/target_agent_0_episode_501.pth (torch, 98630 bytes, 6 tensors)

fc1.weight f4 [128, 50]
0.07292302 0.104240485 0.11769621 -0.025641993 -0.09535681 0.11799869 -0.13100483 -0.055316173
0.014847398 0.031084185 0.102531314 0.09014107 -0.03712406 0.106132746 0.08138135 -0.122068465
0.02500942 -0.012450536 -0.038148727 -0.043731704 -0.11030977 0.024716975 0.12729612 -0.14220753
-0.09056808 0.04540585 0.007515738 0.06713798 -0.009912183 0.07879779 0.09165701 0.09306234
-0.10711356 -0.07653219 -0.0047017187 0.07106578 -0.09225957 0.051089752 -0.075340144 -0.079979226
0.023584839 0.12118025 -0.12651914 -0.10823345 0.09078108 -0.07340026 0.09826332 -0.12232287
0.07494813 -0.02862484 -0.06834293 -0.08700174 -0.13570467 0.12774034 0.092365265 0.022656158
0.06617054 0.04873033 -0.10633721 0.07596939 -0.07206615 0.03793564 0.10717383 0.12641202
0.14029907 0.13115004 -0.12217455 -0.009946379 -0.010626794 0.050969154 -0.011943817 -0.13949107
-0.021743674 0.14832884 0.013422579 -0.10709326 0.08154886 0.08358225 -0.08927741 0.04168664
-0.04010882 0.019868627 0.09252439 -0.13927206 -0.052709647 -0.12696747 -0.13522077 -0.047060195
0.07317148 0.053000644 0.050342407 -0.023256913 0.086494945 -0.1194756 -0.024748228 -0.0079216985
0.1401099 -0.014424301 0.10675524 0.113682434 -0.075636104 -0.014274448 0.0508116 0.0007840544
-0.12433444 -0.012163341 -0.073134765 0.027151763 0.08109833 -0.118971504 0.04335705 -0.11638565
-0.1038349 -0.12787017 0.020225182 0.07295038 0.14360714 0.0042364174 -0.112860635 0.08021964
0.11889337 -0.023602331 -0.020257019 -0.010289408 -0.10892168 -0.02791632 0.029358732 -0.032894142
0.08387958 0.032621533 0.04829502 -0.1245342 -0.03707915 -0.062721744 0.013277456 0.10273894
0.03830544 0.006948095 0.022803754 0.14093919 0.06557031 -0.043216497 -0.08755781 -0.12649238
0.11734979 0.04073984 -0.09589816 -0.06826297 -0.073086075 0.12858735 -0.13429354 -0.049477763
-0.020229843 -0.028358035 0.13407637 -0.13744035 0.070721656 -0.12624864 -0.104417235 -0.024032714
-0.11927292 0.0018917547 0.09075494 -0.080869555 -0.0043744594 0.12793964 0.14015724 -0.09975597
0.055823613 0.009815827 0.055820227 -0.05937548 -0.06647459 -0.028114313 -0.016193375 -0.075277016
-0.039306104 0.0025982447 0.11569164 -0.028670311 -0.07500138 -0.1302094 -0.08402291 0.004973516
-0.09670973 0.051761646 -0.14801353 0.15322943 0.01699011 0.004746273 -0.029728264 -0.14948718
-0.10401354 -0.053324394 -0.032918848 -0.06281376 0.13924478 -0.16080281 -0.090984024 0.054203913
-0.14483845 0.06628846 -0.0065276013 0.10357158 0.030116789 -0.049906425 0.07052115 -0.12049658
-0.022090264 -0.111486085 0.12974161 0.08856859 -0.031720296 -0.0045648813 0.11759587 0.13868676
0.21766672 0.09061954 -0.0780085 -0.051198244 -0.013428345 0.013079027 0.20413561 -0.10511054
0.10193373 -0.023215361 -0.07150296 -0.13037258 -0.039095648 -0.052674294 -0.1284276 -0.090831846
-0.06621235 -0.008645177 0.11853662 0.008233517 -0.031293545 -0.06625857 -0.044636242 0.0032280684
0.076242104 0.10227515 0.07539167 -0.14094241 -0.005794376 0.069234766 0.04528954 0.033520594
-0.08140487 0.0025214553 -0.043060243 0.12686731 -0.07234873 0.018277198 -0.052721694 0.030758753
00000000: aa58 953d 097c d53d b60a f13d 280f d2bc
00000010: 6e4a c3bd 4ca9 f13d 2126 06be 3693 62bd
00000020: 8042 733c 43a4 fe3c f0fb d13d e29b b83d
00000030: 660f 18bd 205c d93d 44ab a63d 08ff f9bd
00000040: 8ee0 cc3c 55fd 4bbc d741 1cbd 0420 33bd
00000050: 17ea e1bd 417b ca3c ea59 023e da9e 11be
00000060: c27b b9bd 7cfb 393d 9446 f63b a37f 893d
00000070: b566 22bc bc60 a13d acb6 bb3d 7897 be3d
00000080: 5b5e dbbd e9bc 9cbd e010 9abb f08a 913d
00000090: 96f2 bcbd 7d43 513d ef4b 9abd 26cc a3bd
000000a0: fe34 c13c 5a2d f83d 3c8e 01be 80a9 ddbd
000000b0: 6eeb b93d e052 96bd 483e c93d 6a84 fabd
000000c0: 687e 993d a47e eabc 61f7 8bbd f82d b2bd
000000d0: 2af6 0abe 5dce 023e 002a bd3d 6899 b93c
000000e0: 6c84 873d 7499 473d 53c7 d9bd d795 9b3d
000000f0: 6b97 93bd 6762 1b3d f47d db3d 2772 013e
00000100: 8faa 0f3e 324c 063e a736 fabd 23f6 22bc
00000110: 011c 2ebc 08c5 503d 00b0 43bc bfd6 0ebe
00000120: ca1f b2bc 84e3 173e 60ea 5b3c b653 dbbd
00000130: 1703 a73d 2c2d ab3d 13d7 b6bd 9cbf 2a3d
00000140: 2549 24bd 88c3 a23c 6d7d bd3d 569d 0ebe
00000150: 12e6 57bd c303 02be 5077 0abe 31c2 40bd
00000160: eeda 953d 3417 593d d733 4e3d 4885 bebc
00000170: 4324 b13d a0af f4bd ccbc cabc 03ca 01bc
00000180: f878 0f3e e753 6cbc 7ea2 da3d 56d2 e83d
00000190: 1ae7 9abd 60df 69bc d31f 503d 0089 4d3a
000001a0: 0ea3 febd c048 47bc aec7 95bd 606d de3c
000001b0: e216 a63d 55a7 f3bd 2997 313d 9a5b eebd
000001c0: 64a7 d4bd 66f0 02be 48af a53c 0267 953d
000001d0: c00d 133e a5d1 8a3b 7a23 e7bd 324a a43d
000001e0: 5e7e f33d ad59 c1bc 0cf2 a5bc e894 28bc
000001f0: 5412 dfbd c4b0 e4bc b981 f03c 02bc 06bd
00000200: 0fc9 ab3d 289e 053d 00d1 453d c90b ffbd
00000210: 4fe0 17bd 4274 80bd b089 593c cb68 d23d
00000220: 2ae6 1c3d d8ac e33b f0ce ba3c 5d52 103e
00000230: ba49 863d c803 31bd 8251 b3bd 3887 01be
00000240: 1655 f03d d2de 263d 4166 c4bd 75cd 8bbd
00000250: 27ae 95bd 67ac 033e 3f84 09be 32a9 4abd
00000260: 0eb9 a5bc 1c4f e8bc 514b 093e 2abd 0cbe
00000270: 84d6 903d 5347 01be b4d8 d5bd 41e0 c4bc
00000280: 5c45 f4bd c1f4 f73a badd b93d f09e a5bd
00000290: a057 8fbb 9c02 033e 6185 0f3e dc4c ccbd
000002a0: 4da7 643d 90d2 203c c0a3 643d b433 73bd
000002b0: d423 88bd fd4f e6bc f8a7 84bc d62a 9abd
000002c0: 70ff 20bd 5047 2a3b bdef ec3d 00de eabc
000002d0: 539a 99bd 9d55 05be 3414 acbd e0f8 a23b
000002e0: c00f c6bd 0504 543d dc90 17be 2de8 1c3e
000002f0: d82e 8b3c a086 9b3b b088 f3bc 2b13 19be
00000300: 0d05 d5bd ae6a 5abd ead5 06bd 80a4 80bd
00000310: 2f96 0e3e 7ea9 24be d555 babd ec04 5e3d
00000320: 8850 14be 3ec2 873d 7de5 d5bb 561d d43d
00000330: 7cb7 f63c ae6a 4cbd 656d 903d e9c6 f6bd
00000340: a4f6 b4bc d152 e4bd fcda 043e 7363 b53d
00000350: 24ed 01bd 0095 95bb 1ad6 f03d e703 0e3e
00000360: 06e4 5e3e bd96 b93d ecc2 9fbd 40b5 51bd
00000370: 9002 5cbc 6a49 563c ed08 513e 3244 d7bd
00000380: a2c2 d03d 242e bebc 2570 92bd 6480 05be
00000390: c222 20bd 00c1 57bd 8682 03be 0c06 babd
000003a0: 579a 87bd 80a4 0dbc 54c3 f23d e0e5 063c
000003b0: a92d 00bd 93b2 87bd 7ed4 36bd 008e 533b
000003c0: d224 9c3d a275 d13d f366 9a3d 3553 10be
000003d0: c0de bdbb f5ca 8d3d 8681 393d e44c 093d
000003e0: 99b7 a6bd 003f 253b f05f 30bd 81e9 013e
000003f0: 922b 94bd 10ba 953c b4f2 57bd c8f9 fb3c

fc1.bias f4 [128]
0.005298343 0.07219414 -0.10044521 -0.08970422 -0.052331936 0.10375494 -0.04662232 -0.08418669
0.07581754 0.05497606 0.034766346 0.0056055337 -0.019402675 0.012806415 -0.08356801 0.014765662
-0.12919481 -0.073329225 0.088421956 0.025034957 0.010374923 0.10551552 0.04504499 -0.0093776435
0.07528166 0.05185883 0.061881855 0.0762435 -0.06053698 0.05668651 -0.0870406 0.012591775
-0.009633279 -0.04439964 0.028072491 -0.018640367 -0.07917749 -0.111634575 0.09926298 0.13195795
0.08320931 -0.026665196 -0.11993312 0.022351874 0.07871099 -0.0834015 -0.09563728 -0.03342151
-0.12533094 0.12500142 0.09856738 0.044603035 -0.13597341 -0.0698974 0.0989313 -0.10122362
-0.021032138 -0.07175823 -0.1387469 -0.098664775 -0.13671611 -0.12430409 -0.13302445 -0.027657425
-0.13494316 -0.12996085 0.019652653 0.12896849 -0.1403694 -0.06365164 -0.055759434 0.04099401
0.06863258 -0.049491994 0.015775317 -0.13641319 0.03867751 0.0035078533 -0.055379275 0.13476804
-0.10526938 0.083054766 -0.13608184 -0.10835034 0.026711233 -0.08973109 -0.08331677 0.073145635
-0.027314052 0.0072823325 -0.070767924 0.10823215 -0.018440112 -0.02086891 -0.07933946 0.045460008
0.11395825 -0.029982042 -0.033120207 0.019583713 -0.031972285 -0.13204488 -0.096202776 0.11678913
-0.007829741 0.015849499 -0.021604063 0.047797635 0.13906945 -0.072832875 -0.079634055 0.055985253
-0.10286732 -0.124684244 -0.043444965 0.09896701 -0.12924212 -0.02950128 0.057099912 -0.0017652414
0.00071522925 -0.11586771 0.025602635 -0.058345057 -0.071241595 -0.012343622 -0.002670607 -0.020839723
00000000: b99d ad3b 85da 933d 38b6 cdbd d9b6 b7bd
00000010: 035a 56bd 787d d43d 0cf7 3ebd 126a acbd
00000020: 3a46 9b3d 942e 613d 2867 0e3d a0ae b73b
00000030: 5cf2 9ebc ffd1 513c b425 abbd adeb 713c
00000040: a54b 04be a22d 96bd 9216 b53d 1c16 cd3c
00000050: 95fb 293c 8518 d83d 1881 383d b0a4 19bc
00000060: 452d 9a3d ed69 543d d477 7d3d 8d25 9c3d
00000070: a0f5 77bd 1d30 683d 5842 b2bd bb4d 4e3c
00000080: e7d4 1dbc 66dc 35bd 48f8 e53c afb3 98bc
00000090: cf27 a2bd aba0 e4bd 644a cb3d fc1f 073e
000000a0: a569 aa3d f870 dabc 7f9f f5bd 471b b73c
000000b0: 3a33 a13d 68ce aabd 7add c3bd fee4 08bd
000000c0: c156 00be 5f00 003e b2dd c93d acb1 363d
000000d0: 9d3c 0bbe 5e26 8fbd 7e9c ca3d 544e cfbd
000000e0: 974b acbc fbf5 92bd ab13 0ebe c210 cabd
000000f0: 4fff 0bbe 2593 febd 9037 08be d391 e2bc
00000100: 8a2e 0abe 7514 05be 9afe a03c 5110 043e
00000110: ffbc 0fbe cb5b 82bd 0164 64bd 56e9 273d
00000120: 3d8f 8c3d 1eb8 4abd 3d3b 813c e6af 0bbe
00000130: 4f6c 1e3d 03e4 653b 61d5 62bd a200 0a3e
00000140: 7997 d7bd 9e18 aa3d 0a59 0bbe c8e6 ddbd
00000150: 84d1 da3c efc4 b7bd fca1 aabd 61cd 953d
00000160: b8c1 dfbc a2a0 ee3b c6ee 90bd d1a8 dd3d
00000170: b80f 97bc 47f5 aabc ba7c a2bd 4634 3a3d
00000180: f162 e93d e69c f5bc 0ea9 07bd 066e a03c
00000190: 5ff5 02bd c636 07be f605 c5bd 242f ef3d
000001a0: 5048 00bc cfd6 813c 01fb b0bc 74c7 433d
000001b0: 3968 0e3e 6729 95bd 2e17 a3bd cb50 653d
000001c0: 1aac d2bd 745a ffbd 59f3 31bd 37af ca3d
000001d0: 0c58 04be abac f1bc 99e1 693d ac5f e7ba
000001e0: 397e 3b3a 0d4c edbd 9ebc d13c 3afb 6ebd
000001f0: 1de7 91bd e73c 4abc 5a05 2fbb 11b8 aabc

fc2.weight f4 [128, 128]
0.012474591 0.02080371 0.10067266 -0.057979476 0.082511075 -0.01543669 -0.046928976 0.0725368
0.022770766 0.033226114 -0.066143975 0.088125445 0.015283689 0.025914317 0.05948181 -0.05413165
-0.09495778 0.010746524 -0.08214117 0.02937153 0.03805492 0.010356613 -0.070250794 0.031503208
0.0009744813 0.002721246 0.07103907 0.040590644 -0.08073327 0.040568203 -0.02560048 0.12119727
-0.05159809 -0.028858278 -0.041930556 0.20679075 0.03354809 0.027911825 -0.07963429 -0.0022312368
0.0045961495 -0.043025706 0.026192635 -0.03264891 0.0117679285 0.09284991 -0.10568544 0.0026446823
-0.04799192 0.032770336 -0.04777859 -0.025796441 0.0864529 0.024838366 -0.022287272 -0.024895929
-0.083722934 -0.035741918 0.044719495 0.081097186 0.0929964 -0.0002477318 0.06707759 -0.026333183
-0.09716036 -0.060117897 -0.027185054 0.017657848 -0.018614322 -0.051302396 -0.034766916 0.0022069511
0.06799777 0.040701434 0.06547005 0.021908512 -0.0044174427 -0.018855795 0.080134705 -0.05674676
0.020328905 0.007387745 0.058246173 0.0033789705 -0.016257718 0.03162317 -0.05017074 -0.045291655
-0.030384721 -0.06523626 -0.07558737 -0.07901418 0.023492653 0.02543597 -0.07074408 -0.0053943377
0.07294253 0.0516399 0.028193757 0.091803 0.05363756 -0.008968474 0.015254632 -0.0047817794
0.017989054 0.07212756 -0.087614655 -0.08600407 -0.11078485 -0.01969167 0.08905623 0.070919834
-0.023352308 -0.0011196781 -0.014186593 0.013317206 -0.05846327 -0.024404814 -0.043227535 0.0360627
0.054168392 -0.04887813 -0.072874226 -0.08205631 -0.010063368 0.03081316 -0.08269842 0.05007886
0.04860922 0.01401703 -0.123850904 -0.06143065 -0.07018532 0.0031916779 0.058272474 -0.06514624
0.0756878 -0.056821235 0.030616462 -0.053120643 0.075631194 -0.020435438 0.028337246 0.060474973
-0.035992034 0.0695341 -0.0019332041 0.018600604 -0.012844249 0.033769175 0.08569598 -0.012921236
-0.108092315 -0.06534713 0.0046445816 -0.054174747 0.016711388 0.03862538 -0.031303268 0.013209119
0.01025483 0.020358361 -0.023684084 0.038367625 0.06883314 0.06765575 0.023829982 -0.02559956
-0.012122039 0.03223842 -0.05653883 0.07247908 0.06283476 0.08991072 -0.05273702 -0.057175502
0.054025568 -0.037368987 -0.020864487 -0.013350203 -0.085654736 -0.011532874 -0.028459728 0.020319032
-0.03042395 0.014208674 0.0118067935 -0.027624106 0.10467686 -0.080696575 -0.10133706 0.06728325
-0.018149313 0.04594525 0.07788625 -0.028736435 -0.04394204 -0.096436255 0.06985937 -0.06625327
-0.006251955 0.10174093 0.09302353 -0.040516682 0.07413024 0.05681523 -0.015944574 0.121598735
-0.089895464 -0.06348494 0.06944788 -0.018212117 -0.06904706 -0.0090126805 0.033971626 -0.07357761
0.0790975 -0.09829735 -0.08381406 -0.1083573 0.0069574546 -0.06393148 -0.047170658 0.0019768453
0.008702655 -0.003188266 -0.07935652 0.070646554 0.032311335 -0.07739847 -0.052277654 -0.009244741
-0.08824104 0.008537256 -0.0153591605 0.090356395 0.034369875 0.03587946 0.05405265 -0.021238547
0.082991615 0.033706944 -0.04201764 -0.05851287 0.013019563 -0.020001696 0.057877846 0.054248713
0.04899146 -0.048968956 -0.0009244378 0.05282641 0.123457104 -0.002063795 -0.031779487 -0.090761594
00000000: 3a62 4c3c 8b6c aa3c 782d ce3d e37b 6dbd
00000010: 91fb a83d 2cea 7cbc 9938 40bd 2c8e 943d
00000020: c289 ba3c 1b18 083d 7e76 87bd 1d7b b43d
00000030: 7068 7a3c 434a d43c 33a3 733d 26b9 5dbd
00000040: 3979 c2bd 3012 303c a139 a8bd 909c f03c
00000050: 7adf 1b3d c9ae 293c a6df 8fbd 8209 013d
00000060: 5574 7f3a ef56 323b ef7c 913d 6042 263d
00000070: 7c57 a5bd d82a 263d 19b8 d1bc 4636 f83d
00000080: 8558 53bd 3268 ecbc 60bf 2bbd f4c0 533e
00000090: b969 093d 57a7 e43c 4d17 a3bd f139 12bb
000000a0: 4c9b 963b b93b 30bd f091 d63c ddba 05bd
000000b0: 45ce 403c 1828 be3d 9c71 d8bd 6852 2d3b
000000c0: 2d93 44bd 303a 063d 7cb3 43bd 0f53 d3bc
000000d0: 380e b13d d479 cb3c cc93 b6bc 8cf2 cbbc
000000e0: ee76 abbd 1e66 12bd ca2b 373d 4816 a63d
000000f0: e674 be3d 00e2 81b9 fa5f 893d b0b8 d7bc
00000100: 03fc c6bd 2f3e 76bd 31b3 debc 31a7 903c
00000110: 107d 98bc 7622 52bd c167 0ebd 7fa2 103b
00000120: 6a42 8b3d 8cb6 263d 2915 863d 7b79 b33c
00000130: 32c0 90bb 7877 9abc aa1d a43d 4a6f 68bd
00000140: ce88 a63c e614 f23b 8a93 6e3d b871 5d3b
00000150: e82e 85bc 4c87 013d d57f 4dbd be83 39bd
00000160: 61e9 f8bc 979a 85bd 8dcd 9abd 30d2 a1bd
00000170: aa73 c03c 185f d03c 46e2 90bd fcc2 b0bb
00000180: e562 953d 5c84 533d 98f6 e63c 3603 bc3d
00000190: 0fb3 5b3d 82f0 12bc 90ee 793c 79b0 9cbb
000001a0: c85d 933c 9db7 933d 506f b3bd e722 b0bd
000001b0: 2be3 e2bd 6d50 a1bc 1d63 b63d 6b3e 913d
000001c0: 574d bfbc 2ac2 92ba e26e 68bc 6930 5a3c
000001d0: 2f77 6fbd 9bec c7bc 5b0f 31bd 7bb6 133d
000001e0: addf 5d3d 6f34 48bd 153f 95bd 230d a8bd
000001f0: d3e0 24bc e16b fc3c ca5d a9bd 7e1f 4d3d
00000200: 761a 473d afa7 653c 8ba5 fdbd b59e 7bbd
00000210: 52bd 8fbd 782b 513b 1eaf 6e3d 646b 85bd
00000220: 3502 9b3d 62bd 68bd 60cf fa3c 0895 59bd
00000230: 87e4 9a3d 3868 a7bc 8323 e83c 9bb4 773d
00000240: 626c 13bd e567 8e3d 9163 fdba 4b60 983c
00000250: af70 52bc 8c51 0a3d 6081 af3d 98b3 53bc
00000260: 815f ddbd b7d4 85bd 9331 983b 57e6 5dbd
00000270: 52e6 883c a535 1e3d db37 00bd 106b 583c
00000280: e003 283c 94c6 a63c 2005 c2bc 5f27 1d3d
00000290: 64f8 8c3d 198f 8a3d 1837 c33c 2bb6 d1bc
000002a0: 849b 46bc 6f0c 043d 4395 67bd e96f 943d
000002b0: 83af 803d 1d23 b83d c602 58bd dc30 6abd
000002c0: ea49 5d3d 3910 19bd 00ec aabc cfba 5abc
000002d0: c06b afbd 61f4 3cbc 6024 e9bc 1974 a63c
000002e0: a63b f9bc 80cb 683c 4871 413c f34b e2bc
000002f0: d260 d63d 3f44 a5bd ce89 cfbd cdcb 893d
00000300: dead 94bc 1631 3c3d d482 9f3d ac68 ebbc
00000310: 92fc 33bd 5f80 c5bd 6e12 8f3d cbaf 87bd
00000320: 33dd ccbb 8c5d d03d 1f83 be3d d2f4 25bd
00000330: 98d1 973d 16b7 683d 329e 82bc c208 f93d
00000340: 1d1b b8bd 6404 82bd b13a 8e3d 9431 95bc
00000350: 8c68 8dbd eca9 13bc d525 0b3d dcaf 96bd
00000360: dffd a13d 1f50 c9bd b5a6 abbd 6fea ddbd
00000370: 5cfb e33b 82ee 82bd 0536 41bd f68d 013b
00000380: 9595 0e3c 3af2 50bb ac85 a2bd 24af 903d
00000390: e458 043d 1783 9ebd 1821 56bd 4177 17bc
000003a0: b8b7 b4bd d9df 0b3c fda4 7bbc c60c b93d
000003b0: 6dc7 0c3d 57f6 123d 5066 5d3d 76fc adbc
000003c0: 82f7 a93d 4b10 0a3d b01a 2cbd 31ab 6fbd
000003d0: 0150 553c 99da a3bc 5211 6d3d e633 5e3d
000003e0: 45ab 483d ac93 48bd f855 72ba 8160 583d
000003f0: 14d7 fc3d bc40 07bb 352b 02bd 37e1 b9bd

fc2.bias f4 [128]
-0.07823584 0.07745331 0.03405681 -0.042991135 0.0097931605 -0.005469311 0.028810835 -0.025447275
-0.04126264 -0.067735404 0.022983016 0.067668594 0.06251367 0.02105279 0.072819255 -0.05194673
0.09730735 -0.0035847963 0.0029450713 0.07937845 -0.04519554 0.08207216 -0.04580478 -0.060644276
0.07337007 0.039975855 -0.027387213 -0.007331583 -0.08924453 -0.00024840646 -0.061332416 0.01752838
0.11200112 0.045506857 -0.025366094 0.06871514 0.02696023 0.0668107 -0.06605665 -0.03689619
0.022907566 -0.044495426 -0.07472024 -0.060799796 -0.029423025 0.0893156 0.036498215 0.053145133
0.05028647 -0.036446586 -0.06475565 0.048015755 -0.059887175 -0.051504135 -0.04984266 0.091865554
0.059328534 -0.086415686 0.07004452 -0.004437666 0.021341588 -0.04822751 0.057561934 -0.016825166
0.11513177 -0.04289148 -0.07367775 0.041566808 -0.009486332 0.095519 0.019875862 -0.08893254
-0.053370852 0.046482794 0.013020591 0.04817343 0.040151834 0.010138356 -0.055841047 0.09871834
-0.056219757 -0.04995151 -0.008330391 -0.021955136 0.070274845 -0.024549432 -0.05578019 -0.024404228
-0.040317763 -0.046905972 0.02869258 0.043134317 0.053293295 0.0028651338 -0.073460236 0.11484553
-0.039223872 0.06978584 -0.03594983 0.06956386 -0.081721105 -0.060642365 0.027301935 0.009868022
0.053221103 0.014654623 -0.081987 0.03009416 0.0951204 0.06085372 0.052531954 -0.060347352
-0.047362156 -0.07195654 0.014625774 -0.0031814333 0.07799213 -0.081792384 -0.04205865 0.08217872
-0.030274997 -0.057565566 -0.0705417 -0.082229026 -0.015551043 -0.050291587 0.06348253 -0.051359322
00000000: 1d3a a0bd d79f 9e3d 277f 0b3d 7917 30bd
00000010: 7e73 203c e837 b3bb b304 ec3c ce76 d0bc
00000020: 0403 29bd dcb8 8abd e146 bc3c d595 8a3d
00000030: 2b07 803d e776 ac3c 4322 953d 18c6 54bd
00000040: 1349 c73d e7ee 6abb 1902 413b 2b91 a23d
00000050: f51e 39bd 7315 a83d cb9d 3bbd 2266 78bd
00000060: 0c43 963d b9bd 233d 265b e0bc c73d f0bb
00000070: d6c5 b6bd 8d3c 82b9 b337 7bbd ad97 8f3c
00000080: d860 e53d 6665 3a3d 8ecc cfbc 86ba 8c3d
00000090: b3db dc3c 0cd4 883d b548 87bd 7620 17bd
000000a0: a6a8 bb3c d640 36bd ed06 99bd 3509 79bd
000000b0: 8e08 f1bc 19eb b63d 277f 153d b6ae 593d
000000c0: 30f9 4d3d 0449 15bd 9c9e 84bd 2bac 443d
000000d0: 414c 75bd 00f6 52bd d127 4cbd 0224 bc3d
000000e0: 7a02 733d b5fa b0bd 8073 8f3d d769 91bb
000000f0: 8ed4 ae3c 368a 45bd 10c6 6b3d eed4 89bc
00000100: 35ca eb3d faae 2fbd 5ce4 96bd f541 2a3d
00000110: 8f6c 1bbc 779f c33d b4d2 a23c 4322 b6bd
00000120: 659b 5abd be64 3e3d 5154 553c 8151 453d
00000130: 4076 243d 591b 263c 95b9 64bd d72c ca3d
00000140: b046 66bd f499 4cbd 317c 08bc 42db b3bc
00000150: 42ec 8f3d e41b c9bc c579 64bd 60eb c7bc
00000160: 3d24 25bd 7a20 40bd b40c eb3c 9cad 303d
00000170: 124a 5a3d f8c4 3b3b 5272 96bd 2234 eb3d
00000180: 36a9 20bd e1eb 8e3d 2140 13bd 7f77 8e3d
00000190: 655d a7bd 2164 78bd 4fa8 df3c 7cad 213c
000001a0: 5ffe 593d f219 703c cde8 a7bd 0788 f63c
000001b0: 7cce c23d c041 793d bf2b 573d c92e 77bd
000001c0: d2fe 41bd f35d 93bd f1a0 6f3c 987f 50bb
000001d0: 56ba 9f3d c482 a7bd b145 2cbd 514d a83d
000001e0: 4503 f8bc dfc9 6bbd 2b78 90bd b167 a8bd
000001f0: cdc9 7ebc 8dfe 4dbd 2103 823d 275e 52bd

fc3.weight f4 [7, 128]
0.04860253 0.025411438 0.029152924 0.0080618085 -0.07430004 0.005115893 0.0111215655 -0.0088688675
-0.04091313 -0.010218526 -0.025803816 0.11975909 -0.01842864 -0.03160719 -0.09757643 0.075286664
-0.062269833 -0.0065618106 0.023453023 0.021536056 0.10705602 -0.117560744 0.06800474 -0.03520696
-0.08012755 0.030647732 0.052768923 -0.06762383 0.0692678 0.05104963 0.018573534 0.08302366
-0.08597581 -0.04964573 -0.06361613 -0.056326758 -0.029214196 0.08448035 0.00930951 -0.055942602
0.075651236 -0.06242277 0.07999323 -0.057819333 0.023369303 -0.09894784 -0.009358564 0.055120353
0.020721164 0.011930646 -0.048099868 -0.009166046 0.079738066 0.033028748 -0.11201412 -0.059105765
0.072239585 0.06461622 0.028320935 0.011120288 0.0017365719 -0.067532115 0.00029339717 0.0120646
-0.032911323 -0.089324564 -0.11311332 0.13869047 -0.084405564 -0.06690377 -0.044197753 0.07064297
0.06791415 -0.07372334 0.056976862 0.08374667 -0.04115033 -0.055307906 0.059829623 -0.011319771
0.04648259 -0.07569826 0.0693751 -0.07257769 -0.029552381 0.041338835 0.0018974489 -0.03196565
-0.048546992 0.045145653 -0.047926676 -0.008267563 0.060876843 -0.083504334 -0.04133582 0.06562082
-0.0018429235 0.0010583147 -0.05908668 0.05583331 0.045316063 0.06656 -0.05116335 0.034319457
-0.099181876 0.034076978 0.023437163 -0.11761855 -0.06005686 0.01959047 0.12778625 -0.016120797
-0.07986102 -0.063731395 0.009695949 0.076072745 -0.03160964 0.057641365 0.027735451 0.08342307
-0.035051074 -0.02787512 0.054590993 0.03642459 -0.020899212 -0.06705024 -0.0007561094 0.011304213
0.07308132 0.04866137 -0.08172296 0.11225822 -0.033700585 -0.025123196 0.060614273 -0.07035117
-0.06881872 0.080635294 0.057001926 -0.043547757 0.0146829095 -0.00869509 -0.15015426 -0.0024609475
0.0021687984 0.015469514 -0.07744369 0.005544197 0.0747091 -0.10485273 0.12447533 -0.038920045
-0.0139065925 -0.028980259 0.009166491 -0.030784518 0.04540413 -0.12561488 -0.052464474 -0.058665
0.045037795 0.043631975 0.034081705 0.11796461 0.0559246 -0.0646379 0.005448482 -0.026440334
0.07417097 -0.06617977 -0.03930694 -0.034698006 0.008266142 0.035841245 -0.06467984 -0.09840659
0.017165162 -0.10849187 -0.065436825 0.02475682 -0.08303068 -0.069818325 -0.083797224 -0.07029068
-0.06482084 -0.014034989 0.040283225 0.11717751 0.08417807 -0.012686424 0.06327439 0.038573857
-0.09240132 -0.13029955 -0.13421604 0.13111052 -0.04882266 -0.023609156 0.07280955 0.06196757
-0.04131168 0.012178156 -0.063978985 -0.070001595 0.051886734 0.076568246 -0.009899797 -0.021914043
-0.030130945 0.040284872 -0.031394474 0.042239428 0.12568365 0.0014369166 0.085271426 -0.12531163
0.054794714 -0.02554343 0.014671907 0.027801754 -0.020935638 -0.016723862 -0.0847226 -0.02499011
0.086463355 -0.0063635544 -0.128187 -0.058823757 -0.013610987 0.02337344 -0.0086370325 -0.048392754
-0.09966934 0.009290321 0.07423903 -0.060300015 -0.029642228 0.08209272 0.08791667 0.07823336
0.07189245 0.00839752 -0.0806901 0.08604882 -0.043020684 0.041597016 0.006064172 0.052814893
0.009494152 -0.015608775 0.116233826 -0.04559878 0.04425026 -0.072261244 -0.06392298 0.015652757
00000000: 7213 473d a62b d03c 1dd2 ee3c ad15 043c
00000010: 9f2a 98bd 39a3 a73b 3a37 363c ba4e 11bc
00000020: 8794 27bd 9b6b 27bc 8662 d3bc 4144 f53d
00000030: a9f7 96bc 8a76 01bd 27d6 c7bd e52f 9a3d
00000040: a70e 7fbd 7504 d7bb 8e20 c03c 626c b03c
00000050: 3040 db3d b0c3 f0bd 1246 8b3d 2c35 10bd
00000060: ea19 a4bd f410 fb3c 3a24 583d 5d7e 8abd
00000070: 47dc 8d3d 6b19 513d 8627 983c 4f08 aa3d
00000080: 1614 b0bd 5259 4bbd 2c49 82bd e3b6 66bd
00000090: 9c52 efbc 0904 ad3d ea86 183c 1224 65bd
000000a0: 09ef 9a3d 05af 7fbd 7ed3 a33d f7d3 6cbd
000000b0: fb70 bf3c 2aa5 cabd aa54 19bc e1c5 613d
000000c0: 6ebf a93c c278 433c 5e04 45bd 2f2d 16bc
000000d0: b64d a33d 2749 073d a967 e5bd e318 72bd
000000e0: 59f2 933d 8255 843d 4e01 e83c de31 363c
000000f0: af9d e33a 474e 8abd 1ad3 9939 9aaa 453c
00000100: 06ce 06bd ccef b6bd f5a7 e7bd e004 0e3e
00000110: d3dc acbd d804 89bd b408 35bd 43ad 903d
00000120: 9316 8b3d 43fc 96bd 9260 693d 6083 ab3d
00000130: 408d 28bd 8b8a 62bd e80f 753d 9076 39bc
00000140: 8764 3e3d b007 9bbd 8814 8e3d 9da3 94bd
00000150: d617 f2bc e952 293d d2b3 f83a 6aee 02bd
00000160: 36d9 46bd a6ea 383d c34e 44bd ac74 07bc
00000170: ff59 793d 5204 abbd c04f 29bd 3564 863d
00000180: 408e f1ba 26b7 8a3a e004 72bd 78b1 643d
00000190: 569d 393d 9c50 883d a990 51bd 8f92 0c3d
000001a0: de1f cbbd 4d94 0b3d 4bff bf3c ffe1 f0bd
000001b0: 2ffe 75bd 317c a03c 66da 023e c30f 84bc
000001c0: 2d8e a3bd 9b85 82bd c2db 1e3c 07cc 9b3d
000001d0: 1c79 01bd 5a19 6c3d 7535 e33c b7d9 aa3d
000001e0: b791 0fbd 5d5a e4bc ce9a 5f3d f331 153d
000001f0: d334 abbc a351 89bd a535 46ba 4e35 393c
00000200: a9ab 953d 2551 473d 5e5e a7bd a3e7 e53d
00000210: a009 0abd 29cf cdbc ac46 783d 4614 90bd
00000220: d4f0 8cbd 1e24 a53d da7a 693d 225f 32bd
00000230: 9690 703c da75 0ebc 0ac2 19be d947 21bb
00000240: 6622 0e3b d873 7d3c cc9a 9ebd 18ac b53b
00000250: 1601 993d 07bd d6bd ecec fe3d a06a 1fbd
00000260: 7ad8 63bc 0268 edbc 0d2f 163c d02f fcbc
00000270: aef9 393d 30a1 00be fde4 56bd b64a 70bd
00000280: 8d79 383d 71b7 323d 4299 0b3d 6e97 f13d
00000290: 3211 653d e060 84bd 2e89 b23b 6699 d8bc
000002a0: f3e6 973d 4289 87bd 5000 21bd 7f1f 0ebd
000002b0: b66e 073c 45ce 123d dd76 84bd 6589 c9bd
000002c0: f49d 8c3c fc30 debd be03 86bd d1ce ca3c
000002d0: fd0b aabd e9fc 8ebd e19d abbd 8ff4 8fbd
000002e0: cac0 84bd 03f3 65bc 0600 253d c3fa ef3d
000002f0: 8d65 ac3d b8da 4fbc 0196 813d 9fff 1d3d
00000300: e73c bdbd 3f6d 05be ee6f 09be d641 063e
00000310: 45fa 47bd fd67 c1bc 2c1d 953d b5d1 7d3d
00000320: 7036 29bd e386 473c 6a07 83bd ff5c 8fbd
00000330: 2f87 543d d0cf 9c3d c232 22bc 1485 b3bc
00000340: 2cd5 f6bc c001 253d 7e97 00bd 4003 2d3d
00000350: 37b3 003e ec56 bc3a c9a2 ae3d b151 00be
00000360: 6c70 603d 7540 d1bc 7062 703c 81c0 e33c
00000370: 3781 abbc 7b00 89bc 0b83 adbd 0fb8 ccbc
00000380: b313 b13d 5d85 d0bb 7443 03be 2ef1 70bd
00000390: 9e00 5fbc a879 bf3c 5782 0dbc 7b37 46bd
000003a0: 701f ccbd 6e36 183c a20a 983d 26fd 76bd
000003b0: 42d4 f2bc 3a20 a83d a80d b43d d038 a03d
000003c0: 593c 933d c095 093c da40 a5bd 5d3a b03d
000003d0: 7536 30bd a261 2a3d f6b5 c63b 6e54 583d
000003e0: 5c8d 1b3c f3bb 7fbc 000c ee3d c9c5 3abd
000003f0: c33f 353d b4fd 93bd 0dea 82bd 363a 803c

fc3.bias f4 [7]
0.020929102 0.027987052 0.037172087 0.057701953 -0.03660743 -0.0041974755 -0.034502868
00000000: 8273 ab3c 1a45 e53c c241 183d e258 6c3d
00000010: acf1 15bd fa8a 89bb e152 0dbd
