hackathon_toolkit/checkpoints_qlearn_CTDE/target_agent_0_episode_301.pth (torch, 98630 bytes, 6 tensors)

fc1.weight f4 [128, 50]
000000 79 23 98 3d e2 66 d7 3d 83 d5 f3 3d 28 0f d2 bc
       0.07428641 0.1051767 0.119059585 -0.025641993
000010 15 13 c6 bd 4c a9 f1 3d c6 c5 04 be 36 93 62 bd
       -0.09671608 0.11799869 -0.1296607 -0.055316173
000020 80 42 73 3c b8 81 f3 3c 41 b0 d4 3d a5 5c bb 3d
       0.014847398 0.02972494 0.1038518 0.0914853
000030 66 0f 18 bd 20 5c d9 3d 44 ab a6 3d 47 3e f7 bd
       -0.03712406 0.106132746 0.08138135 -0.12072425
000040 7a a7 d6 3c fd f3 35 bc c9 a0 18 bd 04 20 33 bd
       0.026202906 -0.011105535 -0.03726271 -0.043731704
000050 17 ea e1 bd e4 7e d7 3c 2c 42 03 3e 42 3e 10 be
       -0.11030977 0.026305623 0.12818211 -0.1408625
000060 c2 7b b9 bd 7c fb 39 3d c1 73 11 3c 7c 6a 8b 3d
       -0.09056808 0.04540585 0.008877696 0.0680742
000070 31 10 0c bc bc 60 a1 3d 05 ee b8 3d 78 97 be 3d
       -0.008548782 0.07879779 0.090297736 0.09306234
000080 9a 9d d8 bd e9 bc 9c bd e0 10 9a bb 1e f7 93 3d
       -0.10576935 -0.07653219 -0.0047017187 0.07224868
000090 6c 7e bc bd ba af 57 3d ef 4b 9a bd 26 cc a3 bd
       -0.092038006 0.05265782 -0.075340144 -0.079979226
0000a0 ea fb ca 3c 86 ee fa 3d fc a5 00 be 80 a9 dd bd
       0.024778325 0.12252526 -0.12563318 -0.10823345
0000b0 6e eb b9 3d fe 45 93 bd 72 46 c9 3d f1 43 f7 bd
       0.09078108 -0.07191084 0.098278895 -0.12073506
0000c0 68 7e 99 3d a4 7e ea bc f5 97 9e bd 34 e8 c5 bd
       0.07494813 -0.02862484 -0.07743827 -0.0966343
0000d0 74 46 14 be 5d ce 02 3e 5a 30 d2 3d 68 99 b9 3c
       -0.1448 0.12774034 0.102631286 0.022656158
0000e0 ab f4 8c 3d 74 99 47 3d 53 c7 d9 bd 33 9c b0 3d
       0.06882604 0.04873033 -0.10633721 0.08623543
0000f0 34 0c 88 bd e5 42 26 3d f4 7d db 3d 27 72 01 3e
       -0.066429526 0.04059114 0.10717383 0.12641202
000100 8f aa 0f 3e 50 04 09 3e d7 c2 bb bd cb a0 22 3c
       0.14029907 0.13380551 -0.09168022 0.009926031
000110 6d e4 67 bc 08 c5 50 3d 00 b0 43 bc e4 d0 e2 bd
       -0.014153582 0.050969154 -0.011943817 -0.11074999
000120 f4 ba 36 3c ac 3c 15 3e 60 ea 5b 3c b6 53 db bd
       0.011152972 0.14573926 0.013422579 -0.10709326
000130 36 ac 95 3d f6 72 97 3d b4 77 c9 bd 9c bf 2a 3d
       0.07308237 0.07394974 -0.09837285 0.04168664
000140 ce 78 f4 bc 88 c3 a2 3c ac ed c2 3d 56 9d 0e be
       -0.02984276 0.019868627 0.095179886 -0.13927206
000150 12 e6 57 bd 5e e2 00 be 31 a2 f2 bd 29 19 7f bd
       -0.052709647 -0.12586352 -0.11847342 -0.062279854
000160 ee da 95 3d 34 17 59 3d de 9a 5b 3d 56 b4 d0 bc
       0.07317148 0.053000644 0.05361449 -0.025476616
000170 59 a9 c3 3d a0 af f4 bd cc bc ca bc c0 3f 3b bc
       0.09553785 -0.1194756 -0.024748228 -0.011428773
000180 40 5f 07 3e 4e d0 97 b9 7e a2 da 3d 56 d2 e8 3d
       0.13219929 -0.00028956163 0.10675524 0.113682434
000190 27 9e 90 bd db 49 c2 bb 79 b1 64 3d 00 89 4d 3a
       -0.07061415 -0.0059292144 0.055833314 0.0007840544
0001a0 57 ba f4 bd c0 48 47 bc 0a 81 8f bd 60 6d de 3c
       -0.11949604 -0.012163341 -0.07007034 0.027151763
0001b0 e2 16 a6 3d a2 be e9 bd 16 0f 24 3d 9e 10 e8 bd
       0.08109833 -0.114133134 0.04005345 -0.113312945
0001c0 64 a7 d4 bd 66 f0 02 be 48 af a5 3c a5 ad 9b 3d
       -0.1038349 -0.12787017 0.020225182 0.076014794
0001d0 6c c2 e6 3d 98 a4 5d 3c b3 d7 dd bd 32 4a a4 3d
       0.11267552 0.013528012 -0.10832157 0.08021964
0001e0 5e 7e f3 3d f9 24 53 bd 67 bc 26 bd e5 d5 58 3a
       0.11889337 -0.05154893 -0.04070702 0.0008271619
0001f0 54 12 df bd c4 b0 e4 bc 89 8b 0a 3d d5 1a c9 bc
       -0.10892168 -0.02791632 0.033824477 -0.024548927
000200 da 11 b6 3d 28 9e 05 3d 75 a2 59 3d c9 0b ff bd
       0.08890124 0.032621533 0.053133447 -0.1245342
000210 09 53 0b bd 42 74 80 bd b0 89 59 3c c5 f1 9f 3d
       -0.034014735 -0.062721744 0.013277456 0.07809786
000220 c4 bb 0d 3d 3f 06 ef 3c f0 ce ba 3c 5d 52 10 3e
       0.034602895 0.029177783 0.022803754 0.14093919
000230 e6 e6 95 3d 7b 35 1f bd 9c 8e b5 bd 38 87 01 be
       0.07319431 -0.038869362 -0.08865091 -0.12649238
000240 16 55 f0 3d db c9 00 3d 89 13 ef bd 09 b0 58 bd
       0.11734979 0.031442504 -0.11673648 -0.052902255
000250 27 ae 95 bd 67 ac 03 3e 9d c6 02 be 45 21 2d bd
       -0.073086075 0.12858735 -0.12771077 -0.042268056
000260 33 98 5f bc 1c 4f e8 bc b0 70 0b 3e 2a bd 0c be
       -0.013647127 -0.028358035 0.13617206 -0.13744035
000270 0e 90 98 3d 53 47 01 be b4 d8 d5 bd 4a b5 b3 bc
       0.07449351 -0.12624864 -0.104417235 -0.021937031
000280 1c d5 f6 bd 41 95 b9 3b ba dd b9 3d f0 9e a5 bd
       -0.12052366 0.0056635444 0.09075494 -0.080869555
000290 a0 57 8f bb 61 df 06 3e 82 d7 fc 3d 73 44 ce bd
       -0.0043744594 0.1317115 0.12345792 -0.100716494
0002a0 5e fc 69 3d 90 d2 20 3c c0 a3 64 3d 2e 7b ca bd
       0.05712544 0.009815827 0.055820227 -0.09886776
0002b0 9e 2a 3b bd 9f 84 f1 bc f8 a7 84 bc d6 2a 9a bd
       -0.04569494 -0.029482184 -0.016193375 -0.075277016
0002c0 91 0b 09 bd ac b1 20 3c fb 6a fa 3d 00 de ea bc
       -0.033458296 0.009807985 0.12227436 -0.028670311
0002d0 94 4f 95 bd 9d 55 05 be a5 5a a4 bd e0 f8 a2 3b
       -0.07290569 -0.1302094 -0.080251016 0.004973516
0002e0 c0 0f c6 bd 1d 87 81 3d 7a 40 11 be fd 8b 18 3e
       -0.09670973 0.06324599 -0.14184752 0.14897151
0002f0 d8 2e 8b 3c a0 86 9b 3b 41 a8 b7 bc 47 45 12 be
       0.01699011 0.004746273 -0.022419097 -0.1428424
000300 e5 7f d7 bd ae 6a 5a bd ea d5 06 bd 8f 96 7e bd
       -0.10522441 -0.053324394 -0.032918848 -0.062155303
000310 63 da 0c 3e c2 c2 18 be d5 55 ba bd ec 04 5e 3d
       0.13755183 -0.14918044 -0.090984024 0.054203913
000320 52 9f 0e be 76 6a 90 3d be 0a 7e ba 56 1d d4 3d
       -0.13927963 0.07051556 -0.0009690932 0.10357158
000330 b7 a2 e5 3c ae 6a 4c bd 75 c2 93 3d e9 c6 f6 bd
       0.02803169 -0.049906425 0.07214824 -0.12049658
000340 a4 f6 b4 bc 02 98 e8 bd 97 57 03 3e 86 b8 b8 3d
       -0.022090264 -0.11357118 0.12826382 0.0901957
000350 24 ed 01 bd 00 95 95 bb 1a d6 f0 3d 70 ae 0f 3e
       -0.031720296 -0.0045648813 0.11759587 0.14031386
000360 36 ca 36 3e 5e 6b bc 3d c2 3e 93 bd 40 b5 51 bd
       0.17850575 0.09200166 -0.071897045 -0.051198244
000370 90 02 5c bc f7 46 40 bd 56 03 30 3e 03 29 ca bd
       -0.013428345 -0.046942677 0.17188773 -0.098711036
000380 a2 c2 d0 3d 24 2e be bc 8f 83 86 bd 4c 2c 01 be
       0.10193373 -0.023215361 -0.065680616 -0.12614554
000390 38 5e 09 bd 00 c1 57 bd 20 a5 05 be 0c 06 ba bd
       -0.03353712 -0.052674294 -0.13051271 -0.090831846
0003a0 40 45 84 bd 80 a4 0d bc 54 c3 f2 3d c8 51 55 3d
       -0.06458521 -0.008645177 0.11853662 0.052079946
0003b0 4a 08 86 bc 94 d3 88 bd 7e d4 36 bd 00 8e 53 3b
       -0.016361374 -0.0668098 -0.044636242 0.0032280684
0003c0 03 4b 9f 3d a6 bd c8 3d 8a 3f a6 3d 35 53 10 be
       0.07777979 0.098017976 0.08117588 -0.14094241
0003d0 c0 de bd bb 23 ba 87 3d e8 29 1e 3d 09 25 29 3d
       -0.005794376 0.066273 0.038614184 0.041295085
0003e0 99 b7 a6 bd 00 3f 25 3b 1d 7a 23 bd 9f f6 01 3e
       -0.08140487 0.0025214553 -0.03991138 0.12691735
0003f0 d4 b8 8d bd 10 ba 95 3c ce 9c 58 bd c8 f9 fb 3c
       -0.06920019 0.018277198 -0.052883916 0.030758753

fc1.bias f4 [128]
000000 a0 a9 d9 3b c5 4a 99 3d 93 6f c7 bd 50 fd af bd
       0.0066425353 0.07484964 -0.09738078 -0.085932374
000010 da af 4f bd 26 5f d5 3d 0c f7 3e bd 8a 03 a8 bd
       -0.050704814 0.10418539 -0.04662232 -0.082038
000020 01 0b 9f 3d 3e 6c 72 3d eb 53 0a 3d a0 ae b7 3b
       0.07765771 0.05918526 0.033771437 0.0056055337
000030 5c f2 9e bc 65 6a 8b 3c c7 73 a6 bd 39 f8 84 3c
       -0.019402675 0.017018506 -0.081275515 0.016231643
000040 26 25 03 be 2f 34 92 bd 10 f7 b6 3d 43 6b e4 3c
       -0.1280714 -0.071388595 0.08933842 0.027883178
000050 26 14 6b 3c 06 a5 da 3d 04 83 42 3d b0 a4 19 bc
       0.0143480655 0.10676007 0.047488227 -0.0093776435
000060 40 fc a0 3d 19 a6 67 3d 77 ae 81 3d 55 74 a1 3d
       0.07860613 0.056554887 0.06332105 0.07883517
000070 d7 fe 70 bd 0c ba 7d 3d d6 fd ab bd 95 24 91 3c
       -0.058836784 0.061945006 -0.08398025 0.017717639
000080 36 75 39 bc 2e c8 2c bd 2f a7 fa 3c 99 a3 33 bc
       -0.011319449 -0.042183094 0.030597297 -0.010964298
000090 b9 9b 99 bd 1f 7c dd bd ae ed d2 3d 2e fd 07 3e
       -0.07500405 -0.1081469 0.1029924 0.13280174
0000a0 c6 62 ab 3d 67 37 c4 bc 7d 9c f7 bd e8 9c c8 3c
       0.08368449 -0.0239522 -0.12090395 0.024488881
0000b0 89 78 9b 3d 71 b9 a6 bd 7b 52 bf bd 48 58 05 bd
       0.0759135 -0.08140839 -0.09341904 -0.032554895
0000c0 c1 56 00 be 24 02 fc 3d 7f d0 ce 3d 12 37 39 3d
       -0.12533094 0.12305096 0.10098361 0.045218535
0000d0 9d 3c 0b be c8 db 8c bd f5 54 c9 3d 1b 64 c9 bd
       -0.13597341 -0.068778574 0.098306574 -0.09833547
0000e0 b2 a5 a4 bc fb f5 92 bd ab 13 0e be 07 dd c3 bd
       -0.020098541 -0.07175823 -0.1387469 -0.09563642
0000f0 88 4e 08 be 25 93 fe bd 74 ae 05 be 47 df f1 bc
       -0.13311207 -0.12430409 -0.1305483 -0.029525412
000100 c4 1f 07 be 0f ed ff bd d1 2d a7 3c a9 7b 06 3e
       -0.13195711 -0.12496387 0.02040759 0.1313311
000110 ff bc 0f be dd 3f 75 bd 7b 62 65 bd d2 cb 37 3d
       -0.1403694 -0.059875358 -0.05600212 0.044872113
000120 ef 66 93 3d a0 4f 3f bd 5e 8b a2 3c af da 0a be
       0.071973674 -0.046706796 0.019841846 -0.13559984
000130 56 d3 25 3d 03 e4 65 3b cb 03 54 bd 8d 68 0b 3e
       0.04048475 0.0035078533 -0.05176143 0.13614102
000140 08 48 d6 bd 9b 8f ab 3d 0a 59 0b be 5b 48 dd bd
       -0.104629576 0.08377 -0.13608184 -0.10804816
000150 30 08 ee 3c d3 2c b3 bd 4c 14 aa bd 84 aa 9b 3d
       0.029056638 -0.08748784 -0.083046526 0.07600883
000160 c7 ff d3 bc fb 53 9f 3b c6 ee 90 bd 64 4a e3 3d
       -0.0258788 0.004862306 -0.070767924 0.11098173
000170 ec ca 62 bc 47 f5 aa bc ba 7c a2 bd cd e3 50 3d
       -0.013842326 -0.02086891 -0.07933946 0.050998498
000180 9a f7 ed 3d 09 ea e4 bc 0e a9 07 bd ee 74 a5 3c
       0.11619492 -0.027943628 -0.033120207 0.020197358
000190 f8 5c 01 bd e5 d5 05 be d3 b5 bc bd c3 43 f0 3d
       -0.031582803 -0.13069876 -0.09214368 0.117316745
0001a0 50 48 00 bc 0a f7 8c 3c 70 78 99 bc b8 e2 3c 3d
       -0.007829741 0.017207641 -0.018734187 0.046114653
0001b0 d9 48 0f 3e f9 f9 8d bd 13 da a0 bd e3 3b 67 3d
       0.13992633 -0.06932444 -0.07854094 0.056453597
0001c0 5d 4f ca bd 65 bc f7 bd ff ae 21 bd 46 82 cb 3d
       -0.098784186 -0.1209648 -0.03947353 0.09936957
0001d0 4d ba 01 be 68 d1 e7 bc 13 d3 7b 3d f1 24 3d 3a
       -0.12668724 -0.028298095 0.061480593 0.00072152825
0001e0 c4 64 96 3b 11 bb e6 bd 68 db ef 3c a5 fd 6c bd
       0.004589649 -0.11266149 0.029279426 -0.05785908
0001f0 55 02 90 bd f4 78 2b bc ad 0c cb ba 18 be a4 bc
       -0.07031695 -0.010465849 -0.0015491449 -0.020110175

fc2.weight f4 [128, 128]
000000 69 d3 57 3c f2 73 31 3d fe 1a 9e 3d 7a a2 69 bd
       0.013172963 0.043323465 0.07719992 -0.057039715
000010 df 2a a0 3d ac 32 f5 bb 99 38 40 bd e5 b5 8c 3d
       0.07820677 -0.007482847 -0.046928976 0.06870631
000020 8c 49 b7 3c 4c 54 c2 3c 02 50 91 bd 1d 7b b4 3d
       0.022373937 0.023721837 -0.070953384 0.088125445
000030 70 68 7a 3c 21 ab c6 3c 6a 43 54 3d b6 d6 5d bd
       0.015283689 0.024251522 0.051822104 -0.054159842
000040 61 6e a5 bd 78 77 20 3c 9a 52 8c bd 33 fa ac 3c
       -0.08077694 0.009794109 -0.068516925 0.021115398
000050 9a 02 0b 3d c2 bd 77 3c 90 8a 60 bd 82 09 01 3d
       0.033938028 0.015120925 -0.054819643 0.031503208
000060 f6 52 07 3c cf a1 3f bc c9 02 a9 3d 71 a8 42 3d
       0.0082595255 -0.011696293 0.08252484 0.04752392
000070 04 03 a6 bd 70 2a 53 3d 45 86 88 bc b2 7c ad 3d
       -0.08106044 0.051554143 -0.016665587 0.08471049
000080 1f 13 d4 bc 5e 68 c2 bc 44 5e 0e bd 48 a7 ba 3d
       -0.025888024 -0.023731407 -0.034757867 0.091139376
000090 c0 4c e2 3c 55 d6 c7 3c dd 19 ab bd 16 a9 0d 3d
       0.027624488 0.024394194 -0.083545424 0.03458508
0000a0 2b 8a 81 3d 5e 33 29 bc b4 a4 c6 3c dc 83 dc 3b
       0.063251816 -0.010327188 0.024248458 0.006729586
0000b0 78 b4 01 3d f2 09 9d 3d 86 33 aa bd a1 e3 45 3d
       0.03166625 0.076679125 -0.083106086 0.048312787
0000c0 2d 93 44 bd a0 f6 e5 3c ad 0b 26 bd d2 3e b5 bc
       -0.04799192 0.028071702 -0.04053848 -0.022124682
0000d0 38 0e b1 3d 2d 36 47 3c ad b9 8c 3c 1f 57 ed bc
       0.0864529 0.012158913 0.01717838 -0.028972207
0000e0 af 57 96 bd 1e 66 12 bd ca 2b 37 3d 76 d8 95 3d
       -0.07340943 -0.035741918 0.044719495 0.07316677
0000f0 85 5f b6 3d 00 e2 81 b9 a3 29 9f 3d a3 d9 0e bc
       0.08904938 -0.0002477318 0.077716134 -0.008718881
000100 cd 2c a8 bd d5 b6 6d bd 46 87 ae bc 2f 7c 8d 3c
       -0.0821167 -0.05803569 -0.021304738 0.01727113
000110 10 7d 98 bc 5e 2c 73 bd 80 bb 36 bd 97 48 43 bc
       -0.018614322 -0.059368484 -0.044612408 -0.011919162
000120 c0 a5 55 3d 02 4d 72 3d b3 95 7a 3d 1b 4e a7 3c
       0.052160025 0.05915547 0.06117792 0.020422986
000130 d1 c0 a5 3b 78 77 9a bc c3 62 8e 3d 74 16 60 bd
       0.005058386 -0.018855795 0.06952431 -0.054708913
000140 63 dc a4 3c da 74 ac 3b 8a 93 6e 3d cf a1 23 3a
       0.02012462 0.005262953 0.058246173 0.0006242068
000150 92 d6 2e ba 1a 18 f0 3c 49 a4 67 bd 12 9f f3 bc
       -0.0006669547 0.029308368 -0.05655316 -0.029738937
000160 14 54 02 bd af 2d 40 bd 8d cd 9a bd e6 0a 9e bd
       -0.031818464 -0.046918567 -0.07558737 -0.077169225
000170 00 97 87 37 18 5f d0 3c 46 e2 90 bd f9 93 4a bc
       1.6163569e-05 0.02543597 -0.07074408 -0.012364381
000180 c5 66 96 3d 6f e5 46 3d 98 f6 e6 3c f8 12 99 3d
       0.073438205 0.04855865 0.028193757 0.07474321
000190 d1 32 5d 3d 3c fd 28 bc f2 ab 47 3c 27 01 53 bd
       0.05400354 -0.010314282 0.012186991 -0.05151477
0001a0 c8 5d 93 3c 35 17 92 3d 8e 68 ac bd cd 10 b4 bd
       0.017989054 0.07133333 -0.0841838 -0.08792267
0001b0 63 3c 66 bd fe 0c 13 bd 3f 16 84 3d c5 fe 8f 3d
       -0.056209933 -0.035901062 0.064495556 0.07031015
0001c0 1b ef 9f bc ae a9 10 3c cc 47 ed bc 09 fa 51 3c
       -0.019523194 0.008829517 -0.0289649 0.012815961
0001d0 62 10 89 bd fc 4e 1a 3a 19 c0 67 bd 3b 32 56 3d
       -0.06692578 0.00058864034 -0.056579683 0.052293997
0001e0 2e b7 74 3d 18 67 75 bd e2 34 84 bd 43 37 a3 bd
       0.059745006 -0.05991277 -0.06455399 -0.07969525
0001f0 f8 90 bc 39 3a 06 2c 3c ca 5d a9 bd df 7d 8b 3d
       0.00035966164 0.010499531 -0.08269842 0.068111174
000200 76 1a 47 3d bc 3f 0e 3c c2 fe d4 bd 36 6f 68 bd
       0.04860922 0.008682188 -0.10400154 -0.056746684
000210 0d 72 12 bd 15 62 4d bc 1e af 6e 3d ff 0c 6f bd
       -0.0357533 -0.012535592 0.058272474 -0.058362003
000220 07 4a 9c 3d 29 db 82 bd a1 b8 01 3d 08 95 59 bd
       0.07631307 -0.06389458 0.031670216 -0.053120643
000230 87 e4 9a 3d 9d e9 99 bc 03 4a de 3c 0f 42 75 3d
       0.075631194 -0.018788153 0.0271349 0.05987745
000240 d9 92 a9 bc 2d 7b 6e 3d 7b ba 4d bc 0e 19 97 3c
       -0.020699905 0.05822294 -0.012556667 0.018444564
000250 fb e3 8f bc 46 29 f4 3c 8c 65 ae 3d 98 b3 53 bc
       -0.017564764 0.029804837 0.08515462 -0.012921236
000260 b4 cf ce bd 84 67 94 bd cd 41 8c 3c 08 5e 69 bd
       -0.1009821 -0.072463065 0.01712122 -0.05697444
000270 a4 d4 a0 3c ce d4 9e 3c 08 b9 23 bd b5 75 b0 3b
       0.019632645 0.019388583 -0.03997138 0.0053851255
000280 53 ed 82 3c 4f 24 01 3c 39 e0 e5 bb 68 5f 46 3d
       0.015982306 0.007882192 -0.007015255 0.04843083
000290 bd ac 83 3d 31 20 97 3d 2b 39 c9 3c ed 54 8d bb
       0.064294316 0.07379187 0.024563393 -0.0043131025
0002a0 ac c7 b2 bb 65 22 9f 3c 1e 6d 4d bd 2b ca 83 3d
       -0.0054559316 0.01942558 -0.05015289 0.06435045
0002b0 e6 64 8c 3d 36 e6 ac 3d 01 45 5b bd e9 d6 ab bc
       0.06855182 0.08442347 -0.053532604 -0.0209765
0002c0 ea 49 5d 3d ac 7e 27 bd 0c af d6 bc 73 2c 08 bc
       0.054025568 -0.040892288 -0.026206516 -0.008311379
0002d0 c0 6b af bd 7e db 91 bc 87 34 be bc 67 bf 52 3c
       -0.085654736 -0.017804857 -0.023218406 0.012863017
0002e0 87 a9 35 bd 80 cb 68 3c 48 71 41 3c 2d 6c 36 bc
       -0.044351127 0.014208674 0.0118067935 -0.01113419
0002f0 df 03 bf 3d 3f 44 a5 bd 5b d3 8f bd aa 38 56 3d
       0.0932691 -0.080696575 -0.07022735 0.052300133
000300 9a b3 b0 bc 75 67 3c 3d 57 25 95 3d b3 f2 dd bc
       -0.021570016 0.0459971 0.07282513 -0.027093267
000310 92 fc 33 bd 56 d8 a4 bd 9b 30 41 3d 6b 9c 8a bd
       -0.04394204 -0.08049075 0.047165494 -0.067681156
000320 44 ac b3 3b 71 54 b7 3d 34 a8 b0 3d 54 19 2c bd
       0.005483182 0.08951653 0.08625832 -0.042016342
000330 96 e5 9e 3d 16 b7 68 3d f2 db 78 bb dc b6 bd 3d
       0.07758634 0.05681523 -0.0037972894 0.09263393
000340 2b cc b4 bd 2a 13 67 bd b1 3a 8e 3d 2c a3 3e bc
       -0.088280044 -0.05641476 0.06944788 -0.011635583
000350 76 42 7b bd d2 94 05 bc 9b 2a 02 3d 86 80 4a bd
       -0.06134268 -0.008153157 0.031778913 -0.049438976
000360 df fd a1 3d 56 37 97 bd b5 a6 ab bd 59 e7 af bd
       0.0790975 -0.07383601 -0.08381406 -0.08589048
000370 90 46 1d 3d 82 ee 82 bd 05 36 41 bd e5 d6 c8 3a
       0.03839737 -0.06393148 -0.047170658 0.0015322833
000380 1e 33 1a 3c ed f9 1b bc ac 85 a2 bd fc e5 80 3d
       0.009411601 -0.009520036 -0.07935652 0.06293866
000390 2d 82 02 3d 17 83 9e bd e6 82 46 bd 81 ce 60 bc
       0.031862427 -0.07739847 -0.04846468 -0.013721109
0003a0 b8 b7 b4 bd 4e c0 f2 3b fa 15 c2 bc a5 fc b3 3d
       -0.08824104 0.0074081784 -0.02369212 0.087884225
0003b0 59 0b 64 3d 8a d5 5e 3d 76 e9 6a 3d 8d 71 3f bc
       0.055674884 0.054402865 0.057351552 -0.011684787
0003c0 da 37 a8 3d e5 ed d7 3c 88 db 2c bd f8 53 6d bd
       0.08213778 0.026358554 -0.04220155 -0.057941407
0003d0 38 e1 20 3c 24 90 95 bc b9 78 5c 3d 12 45 8a 3d
       0.009819321 -0.018257208 0.053826068 0.06751455
0003e0 f0 eb 2f 3d 6b b1 e3 bc b2 98 a3 bb e6 c2 6f 3d
       0.042949617 -0.02779456 -0.004992568 0.05853548
0003f0 c8 d1 d9 3d 92 a5 80 3c ed 80 fb bc 5b 85 98 bd
       0.10635716 0.01570395 -0.030701125 -0.074473105

fc2.bias f4 [128]
000000 91 ee 8c bd 21 0b a3 3d 0d 06 12 3d 3d 33 2b bd
       -0.068814404 0.07961107 0.0356503 -0.04179691
000010 e3 27 47 3c 1d 9d ad bb d8 43 11 3d 09 1c f8 bc
       0.012155506 -0.0052982704 0.03546509 -0.030286806
000020 a8 48 46 bd e7 67 85 bd 81 a8 db 3c 3d 08 92 3d
       -0.048409134 -0.065139584 0.026813747 0.071304776
000030 da c7 8c 3d 08 79 ea 3c a1 a6 8c 3d 4a 62 4d bd
       0.06874056 0.028622165 0.068677194 -0.050142564
000040 20 b3 97 3d 8b 81 9b ba 01 7e 69 bc b9 07 a8 3d
       0.07407212 -0.0011864168 -0.014251233 0.08204598
000050 df 2e 24 bd 6d 47 9a 3d f1 f4 1a bd eb 9a 71 bd
       -0.040083762 0.07533155 -0.03783125 -0.058985632
000060 86 d5 8f 3d dc 3a 33 3d 98 25 d9 bc 40 dc 21 ba
       0.07023148 0.043757305 -0.026507184 -0.00061744824
000070 66 ba b1 bd db 48 08 bb fc c2 70 bd e7 a0 ad 3c
       -0.08678131 -0.0020795378 -0.0587797 0.021194888
000080 0d af c5 3d d0 dc 45 3d c0 9f b4 bc 05 a4 8a 3d
       0.09652529 0.048306286 -0.022048831 0.067695655
000090 b1 07 07 3d 24 56 91 3d 5b 78 77 bd d7 10 16 bd
       0.03296632 0.07096508 -0.060417514 -0.036637153
0000a0 57 05 c4 3c 5f 13 49 bd 4c fe 95 bd 3b c9 93 bd
       0.023928327 -0.04909074 -0.07323894 -0.07216116
0000b0 22 71 f2 bc 28 40 9d 3d eb 3a 20 3d 38 a1 62 3d
       -0.029594962 0.076782525 0.03911869 0.05532953
0000c0 5c 76 5a 3d 9b d2 32 bd b4 06 7b bd c5 99 33 3d
       0.053335533 -0.04365788 -0.06128569 0.043847818
0000d0 16 06 84 bd d1 ef 29 bd 94 f3 50 bd 64 65 b6 3d
       -0.06446473 -0.041488472 -0.051013544 0.089060575
0000e0 90 f7 6e 3d 1f 82 ac bd c3 ba 56 3d b7 73 01 bb
       0.058341563 -0.08423256 0.052424204 -0.001975281
0000f0 20 1a b8 3c 6e 9d 48 bd 09 f1 67 3d aa 72 86 bc
       0.022473395 -0.04897826 0.056626353 -0.016412098
000100 c8 16 b9 3d 6e 9d 5c bd 83 5c a3 bd a2 47 40 3d
       0.09037548 -0.053861074 -0.079766296 0.046943314
000110 50 e3 6e bb ac 6d 93 3d f7 4d ad 3c be 7a b1 bd
       -0.0036451407 0.071986526 0.02115534 -0.08665989
000120 9b fe 50 bd 89 7a 3b 3d 14 65 82 3c 7c cb 20 3d
       -0.05102406 0.045771156 0.015917338 0.039256558
000130 bd eb e8 3c db 09 58 3c 54 70 4f bd d6 35 c0 3d
       0.028432721 0.0131859435 -0.050644234 0.093852684
000140 3b 37 47 bd b7 8b 49 bd 87 ab 3b bb 11 c8 98 bc
       -0.048636656 -0.049205508 -0.0028636174 -0.018650087
000150 c8 d4 97 3d 3f c5 68 bc f7 02 58 bd 00 43 07 bd
       0.07413632 -0.014207183 -0.052737202 -0.03302288
000160 3c e0 19 bd 26 9b 30 bd 30 b3 ed 3b f7 0e 42 3d
       -0.037567362 -0.04311671 0.007254027 0.047377553
000170 18 c7 60 3d 9c 14 d6 3b 24 9a 92 bd 95 12 c0 3d
       0.05487737 0.0065332185 -0.07158306 0.09378544
000180 cf 2f 13 bd f9 e2 92 3d 3e b1 2e bd fa eb 8a 3d
       -0.035934266 0.07172198 -0.0426495 0.0678329
000190 61 d6 9d bd 10 98 4d bd 2d 44 ec 3c 4b 4f 79 ba
       -0.07706905 -0.050193846 0.028841102 -0.0009510412
0001a0 0c 63 2a 3d e9 86 85 3c f4 53 96 bd 10 8e 07 3d
       0.041598365 0.016299682 -0.073402315 0.033094466
0001b0 25 60 b5 3d 01 83 85 3d bb b3 80 3d 1b 83 6b bd
       0.08856229 0.06519128 0.06284281 -0.05749808
0001c0 8c 8a 3b bd fa b0 90 bd af 2c 89 3c 7f 3e 18 3c
       -0.045786425 -0.070650056 0.01674494 0.009292244
0001d0 e4 00 a7 3d 80 de a1 bd 05 8f 11 bd 9f c1 ab 3d
       0.08154467 -0.07903767 -0.035536785 0.0838654
0001e0 d8 dc c2 bc 8b 35 44 bd 4e 8f 71 bd 3e 40 a3 bd
       -0.023786947 -0.047902625 -0.058974557 -0.079712376
0001f0 a8 1f 5a bc 88 33 53 bd 5e 6b 88 3d 2e a4 3a bd
       -0.0133132115 -0.051562816 0.06661104 -0.04556673

fc3.weight f4 [7, 128]
000000 69 c8 b2 3c 0e b9 56 bb cf bb f6 3c ee 0c 06 bd
       0.021824079 -0.003276411 0.030118851 -0.032727174
000010 1d 27 95 bd ad 09 ba bc 1a 56 aa bb 89 3c b5 3c
       -0.07282851 -0.022709692 -0.0051982524 0.022123592
000020 ae 99 88 bc b3 65 1b bc 46 6e 5b bd 26 01 d1 3d
       -0.016674843 -0.009484696 -0.05357196 0.10205297
000030 ae 3f 97 bb 23 1b 60 bd 32 37 b4 bd 8b 2a 9d 3d
       -0.0046157455 -0.05471338 -0.0879959 0.0767413
000040 c5 b3 47 bd 46 d3 a9 bc f8 57 1a 3d ed 0f f2 3c
       -0.048755426 -0.020730626 0.03768155 0.02954861
000050 17 8a af 3d 3e 46 b1 bd 4f 92 3e 3d 2c 35 10 bd
       0.085712604 -0.08655976 0.04652625 -0.03520696
000060 49 b0 50 bd e8 35 fa 3c 0a 55 68 3d c5 a9 57 bd
       -0.05094937 0.030543283 0.056721725 -0.05265214
000070 4e d3 8c 3d 11 00 85 3d bb ee 92 3c 11 6a a4 3d
       0.06876241 0.06494153 0.017936101 0.08028043
000080 6f d6 91 bd d3 34 4b bd 27 a3 81 bd 3e ff 87 bd
       -0.07120978 -0.049610924 -0.06329947 -0.066404805
000090 e0 2d 7c bd 51 b7 b0 3d e4 45 86 bc f4 a2 8e bd
       -0.061567187 0.08628715 -0.016390748 -0.069646746
0000a0 6c a1 8e 3d df 08 5d bd 2a f5 a1 3d 80 32 99 bd
       0.069643825 -0.05396354 0.079080895 -0.07480335
0000b0 c8 07 24 3d c6 85 95 bd 92 42 0e bc 9c 26 8a 3d
       0.040046483 -0.07300906 -0.008682864 0.067456454
0000c0 50 9c b0 3c 71 aa b1 3c bd 81 2c bd f2 d4 7e 3c
       0.02155891 0.021687718 -0.042115916 0.0155537
0000d0 f9 ad 8e 3d 69 bb d1 3c f5 77 90 bd 35 1f 21 bd
       0.069667764 0.02560206 -0.0705413 -0.039336402
0000e0 79 44 8d 3d 11 56 87 3d 04 e9 25 3d 28 ac 31 bc
       0.06897826 0.06608213 0.040505424 -0.010844268
0000f0 7e de eb 3a d5 b6 8c bd 01 a2 34 3b 84 60 41 3c
       0.0017995385 -0.0687081 0.0027562382 0.011802796
000100 2a 56 97 bc e0 44 95 bd 63 f0 b9 bd 2f 48 b9 3d
       -0.018473703 -0.072885275 -0.09079053 0.09046971
000110 4f ff a9 bd d1 ba 57 bd cd 5f 3a bd 43 ad 90 3d
       -0.083006494 -0.052668396 -0.04550152 0.07064297
000120 38 1d 89 3d 6c e7 b1 bd 92 60 69 3d bf 3f 98 3d
       0.06695026 -0.08686718 0.056976862 0.074340336
000130 88 8c 99 bc 20 41 63 bd 15 47 46 3d fb da 65 3c
       -0.018743768 -0.05548203 0.048407633 0.01402926
000140 40 10 6b 3b 92 e0 7a bd 65 4a a0 3d e6 a1 95 bd
       0.003586784 -0.061249323 0.0782669 -0.0730627
000150 22 a6 6c bd 7e f0 1a 3d f0 66 61 3b 4d a6 f8 bc
       -0.057775624 0.037827007 0.003439363 -0.030352736
000160 e0 e8 46 bd a6 ea 38 3d 6c 3b fe bc b6 13 ed bb
       -0.04856193 0.045145653 -0.031034194 -0.0072350157
000170 00 15 70 3d fa d0 aa bd b2 4b 2a bd 41 a9 a0 3d
       0.058613777 -0.0834064 -0.041576095 0.078447826
000180 94 03 2c bb e2 84 e9 b9 ef cc 3f bd 4a e4 e8 3c
       -0.002624725 -0.0004454023 -0.0468263 0.02842917
000190 b8 c5 37 3d b3 7d 52 3d c5 f5 83 bd 74 bf 2d 3d
       0.044866294 0.051389407 -0.06443361 0.042418912
0001a0 52 49 be bd eb b7 0d 3d 83 9d a0 3c 8e bc a4 bd
       -0.092913285 0.034599226 0.019606357 -0.080437765
0001b0 49 94 1a bd a0 02 ea bb 41 6a b5 3d 3e 0f 6c bc
       -0.037739072 -0.007141426 0.08858157 -0.014407931
0001c0 62 a9 9d bd 9b 85 82 bd 56 9b 55 bc 33 2f 88 3d
       -0.07698323 -0.063731395 -0.013037523 0.066496275
0001d0 b4 ad 01 bd 5a 19 6c 3d 87 55 e8 3c ad 31 8e 3d
       -0.031659797 0.057641365 0.028361095 0.06943069
0001e0 b8 f4 e7 bc fd 84 29 bd 94 51 37 3d bc 14 0c 3d
       -0.028314933 -0.041386593 0.044755533 0.03419946
0001f0 79 e3 ab bc c1 85 86 bd 2c c4 7b b9 00 b3 27 bc
       -0.02098249 -0.0656848 -0.00024010305 -0.010235548
000200 10 bb 6b 3d 11 9b 07 3d e0 db ac bd 96 72 c3 3d
       0.057551444 0.033106867 -0.08440375 0.0954334
000210 7c 12 0b bd dd 69 24 bd 25 4f 2a 3d 3b 9f 8f bd
       -0.033953175 -0.04014002 0.041579384 -0.07012793
000220 40 13 82 bd 11 8b a6 3d b4 ec cb 3c be cf 5e bd
       -0.06351328 0.081319936 0.024893142 -0.054397337
000230 fd 64 8d bc 39 43 ac bc 2e 7e f2 bd c9 2d 7c bb
       -0.017260069 -0.021028148 -0.11840473 -0.0038479439
000240 7e 1d 6b 3c b9 2d fa 3c 2a 00 89 bd d6 41 65 3c
       0.014350293 0.03053938 -0.066894844 0.013992747
000250 bd 3e 99 3d 23 73 b6 bd 3f 51 ce 3d bc 8e 25 bd
       0.074826695 -0.08908679 0.1007409 -0.040419325
000260 fc da 6b bc 02 06 ec bc 3d a4 07 3c c9 c4 c0 bc
       -0.014395472 -0.028811458 0.008278904 -0.023531334
000270 af bf 3b 3d 5d a7 c9 bd 0d 6b 5a bd 51 3b 12 bd
       0.0458371 -0.09846375 -0.053324748 -0.0357011
000280 32 25 7e 3d 90 0a 41 3d c6 4c 0a 3d 33 30 c3 3d
       0.06204719 0.047129214 0.033764623 0.09530678
000290 25 d9 d5 3c ed c7 85 bd 1d d2 be bc 0a 44 27 bd
       0.02610452 -0.065322734 -0.02329355 -0.04083637
0002a0 e4 6f 7d 3d 72 50 41 bd 2d 63 21 bd 7a 21 8c bc
       0.061874285 -0.04719586 -0.039401222 -0.017105807
0002b0 0c ed 27 3c d0 1d 34 3d 8f 4f 86 bd 07 52 a8 bd
       0.0102493875 0.043973744 -0.06558143 -0.082187705
0002c0 73 99 8e 3c 60 44 ce bd 14 2f 98 bd 0e bb 4c 3d
       0.017407155 -0.10071635 -0.074308544 0.049983077
0002d0 42 ce b6 bd a2 87 94 bd c1 1e 53 bd a0 67 53 bd
       -0.08926059 -0.072524324 -0.051543 -0.051612496
0002e0 a0 f5 7e bd d7 97 70 bc 3a df 4b 3d c6 95 ab 3d
       -0.062245965 -0.014684639 0.049773432 0.083781764
0002f0 33 b9 96 3d 9a 5a fd ba fa 20 56 3d 1d c4 0b 3d
       0.07359543 -0.001932937 0.052277543 0.034122575
000300 63 b5 a6 bd 13 a4 e2 bd 1c 9f ec bd d4 94 c2 3d
       -0.081400655 -0.11066451 -0.11553785 0.09501043
000310 57 b9 5b bd 93 ff 33 bc 07 c9 7d 3d 7a 4c 83 3d
       -0.05364355 -0.010986227 0.061959293 0.06411071
000320 38 92 2f bd a1 45 f8 3c 20 cf 82 bd 2f 87 84 bd
       -0.042864054 0.03030664 -0.06387162 -0.06471097
000330 1e e3 7d 3d 9d a4 9f 3d a0 aa d5 bb 84 8e 14 3b
       0.061984174 0.07795069 -0.006520584 0.0022667954
000340 37 74 80 bd f3 0b 36 3d 06 10 f7 bc 5c 9e 30 3d
       -0.06272166 0.04444499 -0.030159008 0.043119773
000350 0f 5c cc 3d 1b 8c f9 bb c9 a2 ae 3d d1 77 b0 bd
       0.09978496 -0.007615579 0.085271426 -0.08616603
000360 98 e6 62 3d 74 0b d7 bc 5b ea 28 3d 24 fb 00 3d
       0.055395693 -0.026250578 0.041239124 0.031489506
000370 6d 48 1b bd c2 c4 94 bc ed 23 ae bd 43 7b 62 bc
       -0.037910867 -0.018160228 -0.08502946 -0.013823333
000380 13 da ab 3d bb ed d7 bb 9d ac e0 bd 4a 11 68 bd
       0.08391204 -0.006589619 -0.10970423 -0.056657113
000390 43 06 68 bc 5d c1 0d 3d e5 ff 1b 3c 2c aa 80 bc
       -0.014161649 0.034608234 0.009521459 -0.015706144
0003a0 80 87 a4 bd 3f 04 14 3c f0 d2 9b 3d f8 c3 1f bd
       -0.08033657 0.0090342155 0.076085925 -0.03900525
0003b0 50 52 50 bc ff a9 6c 3d d8 11 49 3d b4 b0 9c 3d
       -0.012714937 0.05777931 0.049089283 0.07650891
0003c0 28 91 96 3d c0 95 09 3c bb 83 98 bd ac 78 91 3d
       0.07351905 0.00839752 -0.074470006 0.071030945
0003d0 be 71 36 bd a2 61 2a 3d 02 53 36 bc 68 8e 87 3a
       -0.044542067 0.041597016 -0.011128189 0.0010342123
0003e0 50 d6 9a 3c e1 cf 08 bd 75 a7 b9 3d 36 4b 4b bd
       0.01890102 -0.033401374 0.09065143 -0.049632274
0003f0 4b cc 3f 3d 07 24 42 bd d6 9c 82 bd 80 c1 f0 bb
       0.04682569 -0.04739764 -0.0637757 -0.0073472857

fc3.bias f4 [7]
000000 9b fc 13 3d de aa 29 3d ad 0b 57 3d ee e1 95 3d
       0.036129575 0.041422717 0.05250137 0.07318483
000010 9f 4e d0 bc 47 f4 22 3c 65 b7 a9 bc
       -0.025428114 0.009945936 -0.020717332
