hackathon_toolkit/checkpoints_qlearn_CTDE/target_agent_1_episode_2101.pth (torch, 98704 bytes, 6 tensors)

fc1.weight f4 [128, 50]
00000000: 677f 15bd 2a3d f73d 4bca 12be 60c0 073d
00000010: 5053 03bd b836 83bc dd96 45bd d099 fdbc
00000020: 3e2f b63d 12c1 123d 3691 ff3a e88e cabe
00000030: b556 a4bd 7ffc 7dbd b224 b9bd 96e0 f23d
00000040: d818 85bc d568 9b3d b947 a8bd c1c3 483d
00000050: 3c16 f2bd 6bd3 6b3d 15f8 12be 831a 7cbc
00000060: 98c4 c8bc 2eb4 babd 20df 3e3d d44e 833d
00000070: 0d58 393d 0089 ebba 03a9 b73d ab09 b0bd
00000080: 41fe 96bb 0833 223d d0a9 07bd 70b0 b7bd
00000090: c8a5 a33c 7039 f43c 1884 6abd 172e eb3d
000000a0: f61b 9dbe e838 c13d 0e3a 353c e6d2 3abd
000000b0: efb3 98bd 3e41 99be 2e16 1cbe ec26 e33d
000000c0: 5ee1 ec3d cac5 f83d 7268 5cbb aac9 23be
000000d0: 2f75 043e 4055 3dbc 52f0 1d3b 50f4 0a3d
000000e0: 45a0 99bc ba8e d33d 6691 e43d ec94 a83c
000000f0: c8d0 ca3d 6fa4 5bbf 06f1 acba 4cfa 243e
00000100: 14bd af3d d993 47bd 0c84 c73d d19c 0fbe
00000110: 8b31 ddbd 80e0 e63a 1ce7 d63d d20d 2e3d
00000120: e199 00be 1f4f c6bd 90bb d9bd 467e c1bd
00000130: 8508 673d 113d 19be c01c 5e3d c697 bc3d
00000140: a7c8 9b3d a47f 5c3d 6551 b43d e0dc 9e3c
00000150: 909d 883d 5ab4 da3d 2ccc 933d 1e2d c1bd
00000160: 604c 623d e41d 023e 2bc6 f6bc 772e 803d
00000170: d419 6a3d 7c22 873d 1a2c 0bbe 47f5 6bbc
00000180: 785e 943c e7b2 15be 2004 82bc f69a a33d
00000190: 076b f0bd bfd6 553d 78ad 103e 5a25 fabd
000001a0: a862 f6bd 2cec 42bd 27f0 f2bd ccbf 693d
000001b0: e774 edbd 67ee 863d 7851 b83d d42a 67bd
000001c0: 3bb2 9b3d c99b e53b 2ab7 f4bd 017d b2bd
000001d0: 8f4b 66bd 1049 013e 1f6f 0cbe d0e0 24bc
000001e0: 6866 0ebe 8905 a1bc a0b2 823c e334 44bd
000001f0: 1017 e3bc b5c6 06be f7a7 223d 076e c53c
00000200: 6e98 6fbc 425d 24bd 6450 bf3d 64de f43d
00000210: 0e64 c2bd 18ec d73c 3f28 0b3e 1110 863d
00000220: 7048 6fbc 12a7 823d 4cdd e2bc a0a1 53bd
00000230: 1f0e e8bd 1333 873d 26e6 8dbd 79e6 f9bd
00000240: d65b ae3d bd19 bc3d 4cbc 0c3d 336e 043c
00000250: a0d4 c13d 27b4 2c3d 33fe 7fbd d62a c9bc
00000260: 5472 1ebe fe56 30bd 092e 0cbe 90cd adbd
00000270: 63dc 4dbe 3418 8cbc 4ad9 db3d 4070 0fbe
00000280: bd17 cabd b8da b03e ebee 0ebd 50db 66be
00000290: 006d acbd 7023 78bd 29fb a83c 40e6 cbbc
000002a0: 6790 413d 9aff e73d 6011 88bb 6272 a63d
000002b0: c2d5 323e 1190 d8bd 0a96 b9bd 042e 0abe
000002c0: 02f6 ecbc 91b5 c83d 0b9b ac3d fd6d efbd
000002d0: 6c42 b9bd 0530 013e b285 21be 58d7 903c
000002e0: 4d09 05be 3e3f 43bd ca5a 05be 501f 6b3d
000002f0: 124c 1fbd 2347 1a3d 8276 c2bd 9594 433e
00000300: 79aa 9ebd a66c f8bd 78dd 903c ee1c 063e
00000310: d967 06be 9bb7 22bd 456a adbd 405d cb3b
00000320: c998 54be de4b 223c 9ad6 43be c053 22bd
00000330: 1047 9ebd 3b06 023e f88a b63d e4a4 dd3d
00000340: 509f 56bc 66d4 953d 598e 8cbc 531f e93d
00000350: cc40 55be 0f28 d73d 53de 8cbd 2640 d63d
00000360: 2e13 adbd af79 99bc 5ec5 f2bd 4022 f8bd
00000370: 424e 7dbd c986 86bd 4e18 8fbd 74ec 45bc
00000380: 789e da3c 811d 103e eae6 43be 3903 0d3e
00000390: c05d f4bd b05e 943d ecd7 a63b a00c 33bc
000003a0: 3f71 a13d 3427 4f3d d89f e73c ec8f a83d
000003b0: ff9d d7bd 444b 583d e428 873d 774b 11bd
000003c0: 9453 1bbe 8cb9 ce3c e5df b4bd 20f1 ddbb
000003d0: eae7 2ebd 6417 d73d c122 2b3d a7ba 1cbe
000003e0: 9866 17bd 5428 fdbd 1564 2f3d 8aff 74bd
000003f0: ed1a e6bd ec4d cebd 4383 c43d 5b28 9dbd
-0.036498453 0.12072213 -0.14334981 0.033142447 -0.032061875 -0.016017303 -0.048239578 -0.030957133
0.088957295 0.035828657 0.0019498232 -0.39562154 -0.080243506 -0.062008377 -0.09040202 0.118592426
-0.016247198 0.075883545 -0.08216805 0.04901481 -0.11820647 0.05757467 -0.14352448 -0.01538718
-0.024507806 -0.09116398 0.046599507 0.0641152 0.045249987 -0.0017969906 0.08967783 -0.08595594
-0.004607946 0.03959945 -0.03312093 -0.089692 0.019976512 0.029812545 -0.05725488 0.114834
-0.30685395 0.09434682 0.011061205 -0.045611285 -0.074561946 -0.29932588 -0.15242836 0.11091408
0.11566423 0.121471 -0.003363159 -0.15994897 0.12935327 -0.01155597 0.002409954 0.0339244
-0.01875318 0.10329957 0.11160545 0.020578824 0.09903103 -0.8579778 -0.0013194389 0.16111106
0.08580986 -0.048724983 0.09741983 -0.14024664 -0.10800465 0.0017614514 0.10493299 0.04249365
-0.125587 -0.0968306 -0.10631478 -0.09447913 0.05640461 -0.14964701 0.054226637 0.09208636
0.07606631 0.053832665 0.08804587 0.01939243 0.06670678 0.106789306 0.07216677 -0.094324335
0.055248618 0.12706715 -0.03012379 0.062588625 0.057153538 0.06598374 -0.13591042 -0.01440174
0.018111452 -0.14619027 -0.015871108 0.07988541 -0.11739164 0.05220675 0.14128673 -0.122141555
-0.12030536 -0.047588512 -0.11862212 0.057067677 -0.11594563 0.065884404 0.08999914 -0.05643733
0.07602354 0.0070070964 -0.11948998 -0.08715249 -0.056224402 0.12625527 -0.13714264 -0.010063365
-0.13906252 -0.01965596 0.015954316 -0.047902 -0.027720958 -0.13161738 0.039710965 0.024100317
-0.014623744 -0.040128 0.09341505 0.1195648 -0.0949174 0.026357695 0.13589571 0.06546033
-0.014604673 0.063795224 -0.027693413 -0.05166781 -0.113308184 0.066015385 -0.06928663 -0.12202162
0.0851361 0.09184597 0.03435926 0.008082914 0.09464383 0.042163994 -0.062498283 -0.024556559
-0.154733 -0.043051712 -0.13689436 -0.084864736 -0.20103602 -0.017101385 0.10734804 -0.14007664
-0.09867809 0.3454187 -0.03489582 -0.22544599 -0.084192276 -0.06058067 0.020627575 -0.024890065
0.047256853 0.11328049 -0.004152462 0.081272855 0.17464355 -0.105743535 -0.09061821 -0.13494116
-0.0289259 0.09800256 0.084280096 -0.116909005 -0.09045872 0.12615974 -0.15773657 0.017680809
-0.12991829 -0.047667734 -0.13022915 0.05740291 -0.038890906 0.037665498 -0.0949526 0.19099648
-0.07747359 -0.12130098 0.01768373 0.13096973 -0.13125552 -0.03972588 -0.08467535 0.0062061846
-0.20761408 0.009905783 -0.19124833 -0.03963065 -0.07728398 0.12697689 0.08913225 0.10822466
-0.0130995065 0.073159024 -0.01715772 0.11382928 -0.208255 0.105056874 -0.068783425 0.10461454
-0.08450924 -0.018734781 -0.11854051 -0.12115908 -0.06184221 -0.06568677 -0.069870576 -0.012080301
0.026686892 0.14073755 -0.19131055 0.1377076 -0.11931944 0.07244623 0.005091658 -0.010928303
0.07882928 0.050574496 0.028274462 0.08230576 -0.10528182 0.052806154 0.06599596 -0.03547236
-0.15168601 0.02523496 -0.08831767 -0.006773129 -0.04270164 0.10502508 0.04178119 -0.15305577
-0.036963075 -0.123612076 0.042820055 -0.059814014 -0.112356044 -0.10073456 0.09595349 -0.07673713

fc1.bias f4 [128]
00000000: d2e8 983d 75d4 3fbd 48b9 943d 7494 37be
00000010: 0687 bd3b d69f b03d 65ee bfbd e638 55bd
00000020: ce28 6bbd 396a 993c 2fc5 08be 2e0b 2cbd
00000030: 83b1 6f3d 7764 acbd ccde f93c 9bd7 b4bc
00000040: 5eff 26be 50f7 863d 8bec 473d a994 b1bd
00000050: 188e f7bd 18ce ea3d 6ff9 e73c 945a 043d
00000060: d875 263d 1841 0ebe ac91 31bc 3478 ddbd
00000070: 5c3b a43d 8586 c4bd 89fa e4bd 3764 c6bd
00000080: 8e0b 0fbe 1d17 873d 6634 26be 17b8 fe3d
00000090: 8dd6 0bbd 9049 b4bd 4517 0fbe 9a20 c1bd
000000a0: a0ef ad3b 6d8e 38bd c9e8 ed3b 4e5a 7bbd
000000b0: 971f 8a3d a5b5 92bd d62b 29be 0e54 bdbd
000000c0: e29d 37bd 7ffd 04be 5fbc 65bd ae3e 2abd
000000d0: 9202 c2bd 7ffb 5fbd e6eb 223d bfa7 94bd
000000e0: d32e c83d 417f 7d3d 907d 32bd 4322 473d
000000f0: 764b f33d 43ea f1bd e855 34bd f5e1 26be
00000100: 2d66 efbd 9c95 45bc 9f36 113d 461a 18be
00000110: ee0c 8f3d 74fc 913d cb18 353d 2a5e 11be
00000120: 30b2 1abe bfa0 0a3d 2101 e73d cf0b d5bd
00000130: c2b9 923b 6655 dc3c 3d0a 1e3c 4840 953d
00000140: 3ff2 a83d 08ea 84bd 26f0 05be e3f4 00be
00000150: 2437 88bd c65e c23c d8ab 6ebd bdd5 a3bc
00000160: 4982 03be 2ea5 febc 47cb 13bd c3d7 9cbd
00000170: 87d5 313d 4d0d dfbc 9026 933c c1c5 8a3d
00000180: 1a47 5bbd 4a06 c8bd 8cbc 803c b91c 113d
00000190: b43d ac3d f9f2 333d f03b a3bd 2c6e 10be
000001a0: 5aa2 bebd 4a59 33bc 0663 d3bd bc5e 23bd
000001b0: 3de2 fbbd 6291 08be 12e7 17be c440 e1bc
000001c0: f6a6 253d fc14 3abe ceec 06be e3a5 0a3e
000001d0: 7386 6bbd b97b ba3d 722b d3bd 8410 c53d
000001e0: 7e48 02be 1e4c e43c 4f45 0dbe 6b09 c0bc
000001f0: ed7a 36be 41b2 103d e753 b73d 98a8 a73d
0.07466282 -0.046833474 0.07261902 -0.17927724 0.0057839183 0.08624236 -0.09371642 -0.052056216
-0.05741196 0.018727409 -0.1335647 -0.04200285 0.058518898 -0.084176 0.030501746 -0.022075465
-0.16308352 0.0659014 0.04880957 -0.08670933 -0.12087649 0.114650905 0.028317181 0.032312945
0.04063973 -0.13892019 -0.010837954 -0.108139426 0.080191344 -0.0959597 -0.11180598 -0.09687083
-0.13969252 0.065962054 -0.16230926 0.12437456 -0.03414016 -0.088030934 -0.1397372 -0.094300464
0.0053081065 -0.045057703 0.007260416 -0.061365418 0.067443065 -0.07163552 -0.16520628 -0.09244548
-0.044828303 -0.12987326 -0.056087848 -0.041563682 -0.094731465 -0.054683205 0.03977575 -0.072585575
0.09774556 0.061888937 -0.043576777 0.04861666 0.118796274 -0.1181226 -0.04402724 -0.16297133
-0.1168941 -0.012059595 0.03545248 -0.14853773 0.06984888 0.0712823 0.044213098 -0.14196077
-0.15107036 0.033844706 0.11279512 -0.10402643 0.0044777105 0.02689619 0.009645996 0.07287651
0.0824933 -0.064899504 -0.1307989 -0.12593417 -0.06651142 0.023726832 -0.05826935 -0.01999938
-0.12842669 -0.031084623 -0.036082532 -0.07658341 0.043416526 -0.027228022 0.017962724 0.06776
-0.053534605 -0.097668245 0.015714906 0.035427783 0.084102064 0.04393289 -0.079704165 -0.14104527
-0.0930831 -0.010946581 -0.103216216 -0.039885268 -0.12299011 -0.13336709 -0.1483424 -0.027496703
0.04044243 -0.18172067 -0.13176271 0.13539843 -0.057501268 0.091056295 -0.10311021 0.09622291
-0.12722966 0.027868327 -0.1379597 -0.02344199 -0.1782033 0.035326246 0.0895155 0.081864536

fc2.weight f4 [128, 128]
00000000: 9cd6 abbe 45c2 1c3d 16d7 5b3d 401e 413d
00000010: a7d9 dd3c c4e0 49be 1a1a 523d fb48 30bd
00000020: e139 9f3d 23ce 4fbe a18d b33d 6705 acbd
00000030: 863f 9bbd 7562 b2bd 108a 21bd 5b32 79bd
00000040: cd3e e6bd 3c0b 3ebd bed5 e23d 087c c1bd
00000050: 1b22 a8bd dc1d 72bc cf88 a9bd 7dcb f3bd
00000060: 968e ed3c cdb1 d53b 8a29 08bf 3baa 1dbf
00000070: c456 8d3c b0ea bfbc 2c8c fabc 06b9 fa3d
00000080: 4a41 7b3d 17d9 813d 200a f73c fd76 30bf
00000090: aa18 89bc d0f7 69bd 3c33 01be 34e2 8dbc
000000a0: aaf0 713d 3274 a03d 1532 9cbd 2ee7 aebd
000000b0: fd75 83bb 4a08 aebd 4900 643d 2af6 79be
000000c0: 34d1 8abd b7d1 a13d 10fe 27bf 62fc 3ebc
000000d0: 92b8 0dbe 8a54 81bd 071d 63be 8b83 50bc
000000e0: 7d4b 09be c1c9 313d 7b8e 55bd 0ddf a7bb
000000f0: 0146 243c 8f0e 40bc 4f93 35bd 148b 00bd
00000100: 8657 86bc fcf6 f53c 808f c0be bf91 863e
00000110: f1c6 5dbf 8667 afbd ac5b b8bc fc57 34be
00000120: 8b8c 14be cde3 acbd 424e 2dbd 998e 30be
00000130: 2108 5b3c 5913 99bc a1bc 983d fc8a 1d3e
00000140: ca49 9dbe 0dd5 1ebe 71bb 10be b852 003e
00000150: 3830 30bd c989 d1be b931 b63d 8a62 443e
00000160: 2027 243b c359 153d 225d eabc 3290 233d
00000170: b9da 06bf 9705 673d 82f2 833c 5c74 d83d
00000180: 7ec3 69bd 8260 193d 54e5 3cbf 3093 bcbe
00000190: b6eb 1c3d 3d7d 21be f2e5 94be bcfd 32be
000001a0: cf91 2ebe b687 a1bd ed1c 873d 7656 6c3d
000001b0: 128a 473d b773 b63b da6e 7f3d f872 cfbc
000001c0: 651a 46be 4008 04bf 12a2 743d 8087 8e3c
000001d0: ecfa cd3c 90ec 60bd 7abe 0cbd cfb5 edbe
000001e0: 1fa9 453e ea6f 8cbd 88f7 3d3c f86f 2d3c
000001f0: 5904 663d c674 59be a175 233e bfff 193e
00000200: 67f8 ac3d a38b fb3d b959 73bd e314 093e
00000210: aa8d 98bd df9a 32bd 2ed0 2fbe 8449 0d3e
00000220: 3093 dbbc 8ef4 48be b8d6 733c e03c d2bb
00000230: 564f db3c b2e4 d8bc fe2c 31be 8c58 33bd
00000240: d615 c2bd a640 34bd 25e2 893e bef4 ee3a
00000250: 5142 993a 00fc 293c cb70 98bd 9fb4 28be
00000260: f8e7 a83d a03a 5dbc c410 4f3e d3ef cd3d
00000270: e1e6 b13d 0e69 07be c2bc 353d 84a1 be3d
00000280: 407b 2f3b aa35 b8bd 0d17 2dbe 32d7 e53d
00000290: 8efc 883d 2af5 dbbc e998 adbd 8e69 3f3d
000002a0: 8feb 9c3d c2c8 afbd cad1 013e be84 7abd
000002b0: 9be2 97be 4352 113d 9ac6 03bd b046 1fbe
000002c0: 1d12 aa3d 384d 02bc 9ac1 9a3e 0c2e a5bc
000002d0: 6d7a d43d 7e81 deba 37ca d6be eaec d13b
000002e0: f041 c93d 8baf a53d d07f a4bb b942 46bd
000002f0: 3e0b 54bc c416 0f3e c77d a73c 0af3 24be
00000300: 8f18 8d3d ee3b aabd 15b8 fd3b 9597 503e
00000310: 6446 b2bd e34f 1abd 4b10 f03d f366 d93d
00000320: 46af babd 6b16 5ebd be4d e23b 30ab 8cbc
00000330: 439b 15bd 3b02 693d e101 65bd e062 ea3b
00000340: 1a4e 283e 2fbf f13d 8534 ea3d bb79 c13d
00000350: 11f4 f8bd fffd 24bd 0eea a6bc 10fa 473d
00000360: 917a a33d 59df 98bd 8acd 8bbe 1445 023d
00000370: 4253 1b3c cc3b 793d f039 9cbe dae6 6f3d
00000380: 92a2 503d 2212 31bc 24a5 713e 7d4b d13e
00000390: 0057 afbc 6f8c 76bd f165 4fbe 5eaa a23e
000003a0: f39e bdbe 1e62 30be 00cc faba 2022 6a3b
000003b0: 0c14 c53c 0d4b 83bd 0ecc d9bc b0cc 513c
000003c0: 3258 02be 66fb 54be 504a 393c 4850 a5bc
000003d0: 925d 44be 48fc 92be cee6 8bbe 3e4c 94bd
000003e0: 76f2 4d3e f5f7 023e 884f b53c 57ed 0cbf
000003f0: 153b f7bd 983e 98bd f231 b53d fcd5 413d
-0.3356217 0.038271207 0.05367192 0.04714799 0.027081324 -0.19714648 0.051294424 -0.04303835
0.077747114 -0.20293479 0.08767248 -0.08399468 -0.075804755 -0.087101854 -0.039438307 -0.06083904
-0.11242447 -0.046397433 0.11075924 -0.09447485 -0.0820963 -0.014777627 -0.08278047 -0.11904047
0.028998654 0.0065214396 -0.53188384 -0.61587876 0.017253287 -0.023427337 -0.030584417 0.12242322
0.06134156 0.06340235 0.030156195 -0.6893156 -0.016735394 -0.057121098 -0.126172 -0.017319776
0.059067406 0.078346625 -0.0762674 -0.08540188 -0.004011868 -0.08497675 0.055664334 -0.2441031
-0.067781836 0.07901328 -0.65622044 -0.011656852 -0.13839939 -0.06314953 -0.22179042 -0.012726675
-0.13407703 0.0434053 -0.052137833 -0.0051230253 0.010026456 -0.011722221 -0.044329938 -0.031382635
-0.016399156 0.030024998 -0.37609482 0.2628307 -0.86631685 -0.085646674 -0.02250465 -0.17611688
-0.14506738 -0.08441887 -0.04231096 -0.17241897 0.013368637 -0.018685983 0.07457853 0.1538505
-0.3072036 -0.1551096 -0.14134003 0.12531555 -0.043014735 -0.40925434 0.088962026 0.19178215
0.0025047734 0.036462557 -0.028608862 0.039932437 -0.52677494 0.056401815 0.016106848 0.10569069
-0.0570712 0.037445553 -0.73787427 -0.36831045 0.03831073 -0.15770431 -0.29081684 -0.17479604
-0.17047809 -0.07887213 0.06597314 0.057699643 0.04871566 0.0055679935 0.062361576 -0.025323376
-0.19346006 -0.5157509 0.059724875 0.017398596 0.025144063 -0.054913104 -0.03436134 -0.4642777
0.19302796 -0.068572834 0.011594661 0.010585777 0.05615649 -0.21235952 0.1596284 0.15038966
0.084458165 0.12282493 -0.059411738 0.13386874 -0.07448895 -0.043604728 -0.17169258 0.13797575
-0.026803583 -0.1962454 0.014882736 -0.0064159483 0.026771229 -0.026476238 -0.1730232 -0.043785617
-0.09476821 -0.044006966 0.26930347 0.0018230898 0.0011692737 0.010375023 -0.074433886 -0.16475151
0.082473695 -0.013502747 0.2022124 0.100555085 0.08686615 -0.13223669 0.044369467 0.093081504
0.0026776344 -0.089946106 -0.16903324 0.11222686 0.06688796 -0.026850302 -0.08476431 0.046731524
0.07662117 -0.085832134 0.12677684 -0.06116175 -0.29665074 0.03547884 -0.032171823 -0.15554309
0.08304236 -0.007952981 0.3022583 -0.020163558 0.10374913 -0.0016975848 -0.41951153 0.006406416
0.0982703 0.08090123 -0.0050201192 -0.048403475 -0.0129421335 0.13973528 0.020445717 -0.16108337
0.0688945 -0.08312212 0.0077428916 0.20370324 -0.08704832 -0.037673842 0.11721858 0.10615339
-0.09115462 -0.0542206 0.0069062402 -0.017171472 -0.036525022 0.056886893 -0.055909995 0.0071529
0.16436043 0.118040435 0.114357986 0.09447046 -0.12155927 -0.040281292 -0.020375278 0.048822463
0.07982362 -0.07464475 -0.2730525 0.03180416 0.009480299 0.060848042 -0.30512953 0.058569767
0.05093629 -0.010807546 0.23598152 0.40877905 -0.02140379 -0.06019252 -0.20253731 0.31770605
-0.3703533 -0.17224929 -0.0019134283 0.0035725906 0.02405741 -0.06410799 -0.026586559 0.012805149
-0.12728956 -0.20799026 0.011309221 -0.020179883 -0.19176319 -0.287081 -0.27324528 -0.072411045
0.20112023 0.127899 0.02213265 -0.5504965 -0.12071816 -0.07433814 0.08847417 0.047323212

fc2.bias f4 [128]
00000000: d271 d5bc 1ce2 94be 32b7 5f3b 4da7 c73d
00000010: 723c d6bc eea3 04bd 0f63 99be 020b 08bf
00000020: dd1a e8bc b155 92be bbe2 84bd aaea 85bd
00000030: f6e2 94be 1a56 debd 1248 94be a8e9 0e3e
00000040: 6a19 6cbd 3e96 f8bd 9510 c23e bd48 203d
00000050: 9ffe f5be f51a 1dbe 6d02 833e d303 de3d
00000060: 484b b0bd 9d5a fa3e 4c9a 4abe 06c7 d9bd
00000070: 9777 983e cef1 953d 1a7f ec3b 9420 0fbb
00000080: aa52 353e 3a4c a6bd a917 163c 1b3e bcbd
00000090: 312d 27bd a35f 823e ad6c fa3d 18d3 b33d
000000a0: 916c dcbe 3ce6 9bbe a584 253e 7948 c53e
000000b0: c54d f23d 005e 11be 9def fb3e a1ec c3bc
000000c0: 9371 883e 5574 333e 9a56 933d a6f1 153d
000000d0: 475f 19be a4e3 95bd b7e2 bfbe 6d0f 45bd
000000e0: 0c1f c8bd 4933 b1be 8b0f f1bd 46df 8cbd
000000f0: a8f0 fd3c 5a40 a33c 83c2 dfbd ac27 4fbe
00000100: 7a9a 44be 7760 843e 7668 95bd 9fd5 c839
00000110: cd3d 983e 5185 bfbd 2bc9 a43d 1cfb 59be
00000120: dcc2 6ebf 4c38 35be a747 9f3e dcc9 c83c
00000130: d4a3 b0bd b0d4 c7bd b1d7 53bd b669 f9bd
00000140: ead6 c9bd a306 96bd 0056 d2bd 02c5 e8be
00000150: f955 e63c cb48 0b3d 237b 323d 8076 5cbd
00000160: f7b4 063f 698f fa3d e62b e1be 2291 acbe
00000170: ec26 9e3d a99c eabd a64a dcbd 7fce 64bd
00000180: a028 f03d 6693 043e 19b4 14bf 0d2c 33bc
00000190: de9b 14be bbf6 233f a1fe 04be 38c7 323d
000001a0: c089 4b3f b767 a8bd cb63 2fbe 84ed 42be
000001b0: e767 0f3e aca6 0fbc 8f89 d9bd 7238 bfbd
000001c0: b04a e2be 04c0 f4be aee9 61bd 382d 04bc
000001d0: 4f36 18bd 7cdd 913e 0cc8 92bd 3beb d3bd
000001e0: bc95 d83c 20a6 abbe 2fd4 03bd 0557 cabd
000001f0: 9dcf eb3e ce4c 5c3b 52bc 13bd b87d c13c
-0.02605525 -0.29078758 0.0034136293 0.09748707 -0.02615187 -0.032382898 -0.29958388 -0.53141797
-0.028333122 -0.28581002 -0.06488558 -0.06538899 -0.29079407 -0.10856266 -0.28961235 0.1395632
-0.057641424 -0.121380314 0.37903276 0.03913187 -0.48045823 -0.15342315 0.25587788 0.10840573
-0.08608109 0.48897257 -0.19785422 -0.10633664 0.2977874 0.07321511 0.0072173 -0.0021839486
0.17707315 -0.08120008 0.009160914 -0.09191533 -0.040814582 0.2546359 0.122277595 0.08780497
-0.4305158 -0.30449092 0.16163881 0.38531855 0.118312396 -0.14196014 0.49206248 -0.023916544
0.2664915 0.17524846 0.07194252 0.036607407 -0.14977752 -0.0731881 -0.37477657 -0.048110414
-0.09771547 -0.3460944 -0.11770543 -0.068785235 0.030998543 0.019928146 -0.10925772 -0.20229977
-0.19199553 0.25854847 -0.07295315 0.00038306133 0.2973465 -0.093516 0.08046182 -0.21287197
-0.9326608 -0.17697257 0.31109354 0.024510317 -0.08624998 -0.09757364 -0.05171937 -0.12178366
-0.09855445 -0.073254846 -0.102703094 -0.45462805 0.028117167 0.034004968 0.043574464 -0.053823948
0.5261988 0.122343846 -0.43978804 -0.33704478 0.077222675 -0.11455662 -0.107564256 -0.055860993
0.117264986 0.12946853 -0.5808731 -0.0109357955 -0.14512584 0.64048356 -0.12987758 0.04364702
0.79507065 -0.08222907 -0.17127912 -0.19035918 0.1400448 -0.008767765 -0.1062194 -0.09336938
-0.44197607 -0.47802746 -0.055154495 -0.008067422 -0.037161168 0.28489292 -0.07167062 -0.10347601
0.026438586 -0.3352518 -0.032184776 -0.09879879 0.46056834 0.0033615115 -0.036068268 0.023619518

fc3.weight f4 [7, 128]
00000000: 8e4d 26be bb75 7a3e 5d94 6ebd d31e 443f
00000010: 6a8d 86be 87fb 62bd f7c5 e23e 4196 143e
00000020: 1511 083d d3e4 09be 47a3 81bd 0476 58be
00000030: cb5a f13e 7466 283f 834b f23d 8d2e 1cbf
00000040: 8911 02be 82ff e03e f6eb 98be 304f 513e
00000050: cc1f b23f 1c17 0b3d 0054 083e 93af 03be
00000060: 2fc1 c53c 4b74 00be f141 993f 8bb7 bf3c
00000070: 68d0 2bbf a422 4f3f 890b 06bd 281f 0f3d
00000080: 4f28 04bf 522d 27bd 2f80 1b3f 7f92 9c3e
00000090: f438 073c 93d5 c33d fb95 a23e ef6c 8d3e
000000a0: f623 5d3f ed9b b23e 1244 8b3f e4f3 dbbe
000000b0: 3fde 0abe 2279 03bd 41f8 303e b89e c8bc
000000c0: 2e4e 0d3c 7f70 443f f61b 6a3f cd45 133e
000000d0: bb45 90be cdcb 163d 107c 093f b53a 643e
000000e0: 3451 c5bd 6ded e23b ef03 2cbd 6dd1 913f
000000f0: 644d a73d c31e 763c d026 9cbd e564 6dbe
00000100: 2c9f 7c3f 10f9 9e3e dd1a 603e d177 923d
00000110: 0626 833e a82a 5dbc 7cff e4be d8ac ed3e
00000120: 2c4c c8be fb5a fbbd 661e 85be 9f6c 12bc
00000130: b52d 713e c2f0 973d af41 8c3e 0dfd 353f
00000140: 8600 f73c 94c6 b8bd 833b 043f 5829 41bd
00000150: 5cd5 e63b 0053 a03f 03cb 723f e2f0 783e
00000160: 1efe b13c 63bf 3ebe bf57 04bf a587 34bf
00000170: fd27 4b3f c3c1 50be 9999 6fbe 72a6 813c
00000180: 2dba de3e 6440 1e3e e259 eb3e 37bd 25bd
00000190: 05bd 2bbe 98db 66be eef2 8abe 3a3a a43f
000001a0: 59de c4be 2082 d03d 971b 653f 5f94 4e3f
000001b0: 5039 a33d b3d9 85be c51d 373c 5f2d 813b
000001c0: cea8 243e 76b4 253d 10d7 43bd ab4d 59be
000001d0: 8476 443d ae60 75bf 6712 adbc c5ab 78be
000001e0: 5f29 f13e b83e 8ebf 1700 86be 6deb df3e
000001f0: 7b2e 17bf 49b7 533d 9df2 e5bd 1903 a33d
00000200: 6a18 9cbe d541 3b3f be6d 403d 9f6d ec3e
00000210: f178 13be ba71 cd3e 19b7 a9bd 9640 9d3e
00000220: 4af5 873d aa00 06be 1bf3 cb3b 9935 69be
00000230: 16db 083f b2a5 193f b511 633e e1da cdbe
00000240: eb1c 623e c977 ae3f cee4 c7be 72ee 2fbd
00000250: 0c01 da3e 5248 3c3f f322 a7bd 1899 a73e
00000260: 4646 20bd a559 9ebe 463b a73e df5c 763d
00000270: 698e 09bf 00f8 563f 4fd6 5ebd 31e7 843d
00000280: 88f3 463e 6174 2abd 40ff 83bd 930c 09be
00000290: 8f8a 39bc 9907 20be 6855 753d cf4c b93e
000002a0: 1ffa 003f 336a 833e 65ac 9c3f 2f6b 9dbe
000002b0: 9363 c2bd 02d9 cbbd 3b89 b8bd 7273 833e
000002c0: 8b2f 14bf 2942 ab3f 73b3 0cbd a769 8d3d
000002d0: 7604 04bf 6abe 6e3d c43e 52bf 3159 b33d
000002e0: d42d 5abe 2f22 e3bd 8687 1abd cba9 473f
000002f0: 045a 913c d77e 86bb d5b2 50bd f441 05bf
00000300: 3e3e 743f f0b2 34bd 0af2 9f3e 0736 33be
00000310: 0f78 0e3f ce0a a3ba bb9f f6be bafa 663e
00000320: c973 96bf b6e9 963d f6b9 eabe 2cc7 f6bb
00000330: 7d2e 8b3e 894f f9bb 79dd 9ebd 4cc3 f23e
00000340: 9365 efbb d856 9b3f 5dcc 80be 3854 f0be
00000350: b48f 8a3d 33e2 5d3f 534d 303f 537b 0b3f
00000360: bc34 2abe 3631 173e bc1e 00bf 410d e0be
00000370: bea0 963f 9ef8 26be 36e9 543f 30c2 203f
00000380: 5e21 bc3e b135 34bf 680d 123f 75de 553c
00000390: 7991 5bbe 48aa 9dbe 21a0 8a3d a4de 0f3f
000003a0: d237 13be 35ea 71bd cb4b 223f 619b 8c3f
000003b0: 0e22 db3d 45dd 9cbe b5d7 50bf 3b4b ec3c
000003c0: 8cbc 9ebd 63a8 1c3f 10ba 26bd 3f91 c0be
000003d0: 62ef 8fbd 6c42 07bf 9bd9 0fb9 8667 d9bc
000003e0: bb60 913e 8625 43bf 80f8 82be 31d3 eebc
000003f0: ab69 523e eba0 8a3d 3a58 38be 4dc8 dc3c
-0.16240522 0.24458973 -0.05824696 0.76609534 -0.26279765 -0.055415656 0.4429166 0.14510442
0.033219416 -0.13466196 -0.06329971 -0.2113877 0.47139582 0.6578133 0.11830809 -0.6100853
-0.12702002 0.43944937 -0.29867524 0.20440364 1.3915954 0.033957586 0.13313293 -0.12859945
0.024139969 -0.12544362 1.1973249 0.02340295 -0.6711488 0.8091223 -0.032725845 0.034941822
-0.51624006 -0.040814705 0.6074247 0.30580518 0.008253325 0.095622204 0.3175505 0.27622172
0.86383 0.34884587 1.0880148 -0.4295951 -0.13561343 -0.032097943 0.17282201 -0.024489745
0.0086245965 0.76734155 0.91448915 0.14382096 -0.281782 0.036815453 0.5370493 0.2228802
-0.09634629 0.006925276 -0.04199594 1.1392037 0.08169058 0.015021983 -0.076245904 -0.2318302
0.98680377 0.31049395 0.21885248 0.071517594 0.25614947 -0.01349894 -0.4472617 0.46420932
-0.39120615 -0.122732125 -0.25999755 -0.00893703 0.23552592 0.07418968 0.27393863 0.7108925
0.030151617 -0.09022251 0.5165331 -0.04715857 0.0070444774 1.252533 0.9484102 0.2431064
0.021727618 -0.18627696 -0.5169639 -0.7051948 0.7935789 -0.20386414 -0.23398437 0.015826438
0.43501416 0.1545425 0.45967013 -0.040463652 -0.16771324 -0.22544706 -0.27138466 1.2830269
-0.38450888 0.101810694 0.89495224 0.80695146 0.07969916 -0.26142654 0.011176531 0.0039421762
0.16080019 0.040455304 -0.04781252 -0.21221034 0.047964588 -0.95850646 -0.021126939 -0.24284275
0.47101876 -1.111289 -0.26171944 0.43734303 -0.590553 0.051688466 -0.112279154 0.07959575
-0.30487376 0.73147327 0.04697966 0.46177384 -0.14401604 0.4012583 -0.08286876 0.30713338
0.06638582 -0.13086191 0.006224049 -0.22774352 0.534593 0.60018456 0.22174723 -0.40206054
0.22081344 1.3630306 -0.39041752 -0.04295201 0.42578924 0.7354785 -0.08160963 0.3273399
-0.039129518 -0.30927768 0.3266241 0.060147163 -0.53732926 0.8397217 -0.0544036 0.06489409
0.19428837 -0.041614894 -0.064451694 -0.13383703 -0.011324539 -0.15627898 0.059895903 0.36191413
0.50381655 0.2566696 1.2240111 -0.30745837 -0.094916485 -0.099535 -0.0901055 0.25674015
-0.57885045 1.3379565 -0.034350824 0.06904917 -0.51569307 0.05828706 -0.8212702 0.08757246
-0.21306545 -0.110905044 -0.0377269 0.7799346 0.017743118 -0.004104476 -0.050951798 -0.5205376
0.95407474 -0.04411596 0.3123935 -0.17501079 0.55651945 -0.0012439133 -0.4816874 0.22556582
-1.1754085 0.073687956 -0.45845002 -0.0075310674 0.27183905 -0.0076083583 -0.07757086 0.47414625
-0.0073058098 1.2135878 -0.25155917 -0.46939254 0.067656904 0.8667328 0.6886799 0.5448505
-0.16621679 0.14764866 -0.50046897 -0.43760112 1.1767805 -0.16305777 0.8316835 0.62796307
0.36744207 -0.70394427 0.57051706 0.013053526 -0.21442212 -0.30793977 0.067688234 0.561991
-0.14376763 -0.059061248 0.633969 1.0984918 0.10699855 -0.30637565 -0.8157914 0.028844466
-0.07750806 0.6119444 -0.040704787 -0.37610814 -0.070280805 -0.52835727 -0.00013718607 -0.026538622
0.28394112 -0.7622913 -0.25580215 -0.029153438 0.20548122 0.06768974 -0.18002406 0.02695098

fc3.bias f4 [7]
00000000: 3ea1 5cbe 60a8 fbbb 7641 973d da37 1b3d
00000010: 8e96 0abe fa7b e3be 7c6e 52bd
-0.21545884 -0.007679984 0.073855326 0.03789506 -0.13533995 -0.44430524 -0.051374897
