hackathon_toolkit/checkpoints_qlearn_CTDE/target_agent_1_episode_2501.pth (torch, 98704 bytes, 6 tensors)

fc1.weight f4 [128, 50]
0	0xbd3aecf4	-0.045636132
1	0x3df8d503	0.12150004
2	0xbe1c3160	-0.1525321
3	0x3d07c060	0.033142447
4	0xbcdc2483	-0.026872879
5	0xbc8336b8	-0.016017303
6	0xbd5337e3	-0.05156697
7	0xbcfd99d0	-0.030957133
8	0x3db62f3e	0.088957295
9	0x3d24e5fd	0.040258396
10	0xbb3998e7	-0.0028319897
11	0xbedfddfc	-0.43724048
12	0xbdc2b02a	-0.09506257
13	0xbd575a15	-0.052576143
14	0xbdb924b2	-0.09040202
15	0x3df2e096	0.118592426
16	0xbc891898	-0.01673536
17	0x3da9cb80	0.08290768
18	0xbdbabf2c	-0.091184944
19	0x3d48c3c1	0.04901481
20	0xbdf2163c	-0.11820647
21	0x3d61893a	0.05506251
22	0xbe14019f	-0.14453743
23	0xbc916c0e	-0.01775172
24	0xbcc8c498	-0.024507806
25	0xbdbab42e	-0.09116398
26	0x3d1942b0	0.037417114
27	0x3d84e6b2	0.06489314
28	0x3d13bb90	0.036067545
29	0xbaeb8900	-0.0017969906
30	0x3dc2497f	0.094866745
31	0xbdb009ab	-0.08595594
32	0xbc020329	-0.007935324
33	0x3d223308	0.03959945
34	0xbd07a9d0	-0.03312093
35	0xbdbe80ed	-0.093019344
36	0x3ca3a5c8	0.019976512
37	0x3cf43970	0.029812545
38	0xbd6a8418	-0.05725488
39	0x3de45d9a	0.111506656
40	0xbeb62272	-0.35573155
41	0x3dc0b5d4	0.09409681
42	0x3c7e8195	0.015533824
43	0xbd3ad2e6	-0.045611285
44	0xbd98b3ef	-0.074561946
45	0xbea99c6e	-0.3312716
46	0xbe29d913	-0.16586713
47	0x3de147aa	0.10999997
48	0x3dece15e	0.11566423
49	0x3df8c5ca	0.121471
50	0xbba53df5	-0.0050427862
51	0xbe2a1f36	-0.16613469
52	0x3e02ddb7	0.1277989
53	0xbc3d5540	-0.01155597
54	0x3bc2add6	0.005941133
55	0x3d0af450	0.0339244
56	0xbcaa24ea	-0.020769555
57	0x3dd38eba	0.10329957
58	0x3de49166	0.11160545
59	0x3cb85954	0.022503532
60	0x3dcde12b	0.10052713
61	0xbf799234	-0.97488713
62	0xbc63b177	-0.013897291
63	0x3e273b8e	0.16331312
64	0x3dafbd14	0.08580986
65	0xbd4793d9	-0.048724983
66	0x3dc41f8a	0.09576328
67	0xbe10276f	-0.14077543
68	0xbddf658e	-0.10908042
69	0x3ae6e080	0.0017614514
70	0x3dd6e71c	0.10493299
71	0x3d25ca08	0.040475875
72	0xbe068a16	-0.13138613
73	0xbdc02c0a	-0.093834
74	0xbdd9bb90	-0.10631478
75	0xbdc17e46	-0.09447913
76	0x3d60aaa1	0.054850224
77	0xbe1f929b	-0.1558327
78	0x3d57bee0	0.052672267
79	0x3dbc97c6	0.09208636
80	0x3da30404	0.0795975
81	0x3d5c7fa4	0.053832665
82	0x3db03052	0.08602966
83	0x3c9edce0	0.01939243
84	0x3d889d90	0.06670678
85	0x3dd6926e	0.10477148
86	0x3d93cc2c	0.07216677
87	0xbdc12d1e	-0.094324335
88	0x3d624c60	0.055248618
89	0x3e000d54	0.12505084
90	0xbd029d23	-0.03188814
91	0x3d7c8279	0.061647866
92	0x3d673ae0	0.056452632
93	0x3d87227c	0.06598374
94	0xbe0b2c1a	-0.13591042
95	0xbb9a25a4	-0.004704194
96	0x3c941709	0.01807739
97	0xbe195f10	-0.1497767
98	0xbc820420	-0.015871108
99	0x3da39af6	0.07988541
100	0xbdf21f5c	-0.118223876
101	0x3d52315e	0.05131661
102	0x3e111260	0.14167166
103	0xbdfa255a	-0.122141555
104	0xbdf8355c	-0.121195525
105	0xbd42ec2c	-0.047588512
106	0xbdf4c0a9	-0.119508095
107	0x3d69bfcc	0.057067677
108	0xbded74e7	-0.11594563
109	0x3d851bdf	0.064994566
110	0x3db91b40	0.09038401
111	0xbd6acf58	-0.057326645
112	0x3d99df89	0.07513339
113	0x3bf2387f	0.0073919888
114	0xbdf4b72a	-0.11948998
115	0xbdb27d01	-0.08715249
116	0xbd69ec8f	-0.057110365
117	0x3e0060d3	0.12536936
118	0xbe0c6f1f	-0.13714264
119	0xbc24e0d0	-0.010063365
120	0xbe0e6668	-0.13906252
121	0xbca84784	-0.020541914
122	0x3c82b2a0	0.015954316
123	0xbd47d5e7	-0.048787978
124	0xbce31710	-0.027720958
125	0xbe06c6b5	-0.13161738
126	0x3d243b94	0.04009588
127	0x3cbe233f	0.023210166
128	0xbc694a12	-0.014238851
129	0xbd245d42	-0.040128
130	0x3dbd7dad	0.092524864
131	0x3df4de64	0.1195648
132	0xbdc43490	-0.09580338
133	0x3cd7ec18	0.026357695
134	0x3e0b283f	0.13589571
135	0x3d843f98	0.06457442
136	0xbc6f4870	-0.014604673
137	0x3d82a712	0.063795224
138	0xbce2dd4c	-0.027693413
139	0xbd57429a	-0.05255375
140	0xbde9de6a	-0.11419375
141	0x3d8562de	0.06512998
142	0xbd8d3532	-0.06894912
143	0xbdf9e679	-0.12202162
144	0x3dae5bd6	0.0851361
145	0x3dba4940	0.090960026
146	0x3d0cbc4c	0.03435926
147	0x3bebd471	0.007196956
148	0x3dc1d4a0	0.09464383
149	0x3d2cb427	0.042163994
150	0xbd8feaed	-0.070272304
151	0xbcb4231b	-0.021989396
152	0xbe25d539	-0.16194619
153	0xbd3056fe	-0.043051712
154	0xbe177049	-0.14788927
155	0xbdadcd90	-0.084864736
156	0xbe5905de	-0.21193644
157	0xbc8c1834	-0.017101385
158	0x3ddbd94a	0.10734804
159	0xbe1dbb0a	-0.15403381
160	0xbde93de0	-0.11388755
161	0x3ec714aa	0.38882953
162	0xbcb5f30c	-0.02221062
163	0xbe7ce7ad	-0.24697752
164	0xbdac6d00	-0.084192276
165	0xbd782370	-0.06058067
166	0x3b128c56	0.0022361479
167	0xbd4bb591	-0.049733702
168	0x3d6655b6	0.056234084
169	0x3de7ff9a	0.11328049
170	0xbb881160	-0.004152462
171	0x3da48e1d	0.080349185
172	0x3e3e5dfe	0.18590543
173	0xbe06fde1	-0.13182785
174	0xbdb9960a	-0.09061821
175	0xbe0a2e04	-0.13494116
176	0xbd140689	-0.036139045
177	0x3dcdf781	0.10056973
178	0x3d9dd546	0.07706694
179	0xbdef6dfd	-0.116909005
180	0xbdcfc6f4	-0.10145369
181	0x3e013005	0.12615974
182	0xbe2caf28	-0.16863692
183	0x3c90d758	0.017680809
184	0xbe05094d	-0.12991829
185	0xbd6fe52d	-0.05856817
186	0xbe055aca	-0.13022915
187	0x3d6b1f50	0.05740291
188	0xbd1f4c12	-0.038890906
189	0x3cdb425c	0.026765041
190	0xbdd727c8	-0.105056345
191	0x3e52c0d1	0.20581366
192	0xbdc3d2b1	-0.095616706
193	0xbdf86ca6	-0.12130098
194	0x3c90dd78	0.01768373
195	0x3e07be7a	0.13256255
196	0xbe1f4d6e	-0.15556881
197	0xbd1b4ddc	-0.03791605
198	0xbdad6a45	-0.08467535
199	0x3bcb5d40	0.0062061846
200	0xbe679b2c	-0.22617787
201	0x3c99e785	0.018787155
202	0xbe5b2721	-0.21401645
203	0xbd2253c0	-0.03963065
204	0xbda2621d	-0.0792887
205	0x3e02063b	0.12697689
206	0x3da50620	0.08057809
207	0x3ddda4e4	0.10822466
208	0xbc569f50	-0.0130995065
209	0x3d90802a	0.07055695
210	0xbd051524	-0.032490864
211	0x3df33905	0.1187611
212	0xbe6c40e2	-0.23071626
213	0x3dcdd68d	0.10050688
214	0xbd8cde53	-0.068783425
215	0x3dd64026	0.10461454
216	0xbdaa16ca	-0.08305128
217	0xbbf3dc7c	-0.0074420553
218	0xbe0ad9ab	-0.13559596
219	0xbdf82240	-0.12115908
220	0xbd7d4e42	-0.06184221
221	0xbda96732	-0.08271636
222	0xbdbe4226	-0.092899606
223	0x3b828af3	0.003983849
224	0x3cda9e78	0.026686892
225	0x3e101d81	0.14073755
226	0xbe5b3773	-0.21407871
227	0x3e161b7a	0.14658919
228	0xbe117f6d	-0.14208765
229	0x3d945eb0	0.07244623
230	0x3b4a4e5c	0.003086946
231	0xbc330ca0	-0.010928303
232	0x3d8fec6e	0.07027517
233	0x3d4f2734	0.050574496
234	0x3ce79fd8	0.028274462
235	0x3d970b50	0.073752046
236	0xbdd79dff	-0.10528182
237	0x3d584b44	0.052806154
238	0x3d8728e4	0.06599596
239	0xbd345521	-0.044026498
240	0xbe24a220	-0.16077471
241	0x3c684d18	0.014178537
242	0xbdc51fd9	-0.09625215
243	0xbbddf120	-0.006773129
244	0xbd2ee7ea	-0.04270164
245	0x3dc6350e	0.09678088
246	0x3d36c2a1	0.044619206
247	0xbe335cc1	-0.17515852
248	0xbd176698	-0.036963075
249	0xbdfd2854	-0.123612076
250	0x3d327556	0.04356893
251	0xbd794420	-0.060855985
252	0xbde7400d	-0.112915136
253	0xbdce4dec	-0.10073456
254	0x3db9da97	0.09074896
255	0xbd9d285b	-0.07673713

fc1.bias f4 [128]
0	0x3d921847	0.07133537
1	0xbd4816c5	-0.04884984
2	0x3d92e8cb	0.07173308
3	0xbe42bdf0	-0.19017768
4	0xbb358c3e	-0.0027702
5	0x3dab1a1d	0.0835459
6	0xbdca0121	-0.098634966
7	0xbd6e30eb	-0.05815212
8	0xbd6d0064	-0.0578617
9	0x3bf2a7c0	0.0074052513
10	0xbe08c52f	-0.1335647
11	0xbd330e7e	-0.043714993
12	0x3d676f63	0.05650271
13	0xbdac6477	-0.084176
14	0x3cb495fb	0.022044173
15	0xbcde8b17	-0.027165933
16	0xbe2f85e0	-0.17140913
17	0x3d86f750	0.0659014
18	0x3d185f0b	0.037200015
19	0xbdbc9217	-0.09207552
20	0xbdfe12e7	-0.12405949
21	0x3de7ef14	0.113248974
22	0x3ce3ebe7	0.027822448
23	0x3cd8f161	0.026482286
24	0x3d011ca0	0.03152144
25	0xbe0f6d95	-0.14006646
26	0xbc86df4f	-0.016463904
27	0xbe0766d4	-0.1322282
28	0x3da43b5c	0.080191344
29	0xbdcfcfc1	-0.10147048
30	0xbde4fa89	-0.11180598
31	0xbdcccbbd	-0.099997975
32	0xbe0f0b8e	-0.13969252
33	0x3d766587	0.060155418
34	0xbe2db325	-0.1696287
35	0x3df68a58	0.12038106
36	0xbd0e1092	-0.03468377
37	0xbdb61cdb	-0.088922225
38	0xbe19edff	-0.15032195
39	0xbdc1209a	-0.094300464
40	0x3badefa0	0.0053081065
41	0xbd59d3b6	-0.05318042
42	0x3bfdddfd	0.0077474103
43	0xbd7fae73	-0.062422227
44	0x3d7038e9	0.058648024
45	0xbda87fa6	-0.08227472
46	0xbe38ac57	-0.18034492
47	0xbdd44832	-0.10365333
48	0xbd413a73	-0.047174882
49	0xbe04fd7f	-0.12987326
50	0xbd6abd97	-0.057309713
51	0xbd2fa172	-0.042878576
52	0xbdcf4337	-0.10120242
53	0xbd701030	-0.058609188
54	0x3c7068fd	0.014673469
55	0xbda5c8bb	-0.08094927
56	0x3dc08769	0.094008274
57	0x3d77db29	0.06051174
58	0xbd327d90	-0.043576777
59	0x3d37af9f	0.04484522
60	0x3defc0c3	0.11706688
61	0xbdf81798	-0.12113875
62	0xbd3455e8	-0.04402724
63	0xbe3e0558	-0.18556726
64	0xbdf2c951	-0.11854804
65	0xbc5614cf	-0.013066485
66	0x3cecbeaf	0.028899519
67	0xbe1d21e1	-0.15344955
68	0x3d84dd17	0.06487482
69	0x3d6ed849	0.058311734
70	0x3d26f441	0.040760282
71	0xbe1e5105	-0.15460594
72	0xbe236bf3	-0.15959148
73	0x3ce608dc	0.028080396
74	0x3ddf6b2e	0.10909115
75	0xbddd99f9	-0.108203836
76	0x3b77dbb6	0.0037820167
77	0x3cbbd55a	0.022928882
78	0x3c0d030e	0.008606685
79	0x3d8266cc	0.06367263
80	0x3da20c3f	0.07912492
81	0xbd9cd238	-0.076572835
82	0xbe14435f	-0.14478825
83	0xbe0c8c5c	-0.13725418
84	0xbd8f88f4	-0.070085436
85	0x3c45b908	0.012068041
86	0xbd86f6ca	-0.0659004
87	0xbcf86351	-0.030320795
88	0xbe038249	-0.12842669
89	0xbd1606b7	-0.036627498
90	0xbd5113f0	-0.051044405
91	0xbd9cd7c3	-0.07658341
92	0x3cf9c0ef	0.030487506
93	0xbcf942cc	-0.030427359
94	0x3c219f77	0.00986468
95	0x3d8220a7	0.06353884
96	0xbd811612	-0.06303038
97	0xbdd02b85	-0.10164551
98	0x3c40a549	0.011758157
99	0x3d08b799	0.033378217
100	0x3dac3db4	0.084102064
101	0x3c724ab6	0.01478832
102	0xbdd6d70c	-0.10490236
103	0xbe1dc1b2	-0.1540592
104	0xbdddd157	-0.10830944
105	0xbd088a8e	-0.03333526
106	0xbdd36306	-0.103216216
107	0xbd235ebc	-0.039885268
108	0xbe02e621	-0.127831
109	0xbe098b4d	-0.13432045
110	0xbe196972	-0.1498163
111	0xbce140c4	-0.027496703
112	0x3d1daabb	0.0384929
113	0xbe45e483	-0.19325452
114	0xbe06ecce	-0.13176271
115	0x3e0a4d6c	0.13506097
116	0xbd8ff15f	-0.0702846
117	0x3daf452e	0.08558117
118	0xbdfc8a5c	-0.123310775
119	0x3dc15dfe	0.09441756
120	0xbe05773f	-0.1303377
121	0x3c644d3f	0.0139344325
122	0xbe0d454f	-0.1379597
123	0xbcf69770	-0.030101508
124	0xbe41482c	-0.18875188
125	0x3cd382be	0.025819179
126	0x3db53e7b	0.08849808
127	0x3d99298b	0.07478627

fc2.weight f4 [128, 128]
0	0xbec1b67f	-0.37834546
1	0x3d29faad	0.04149883
2	0x3d5b3346	0.053515695
3	0x3d5cf81b	0.05394755
4	0x3caba0a7	0.020950628
5	0xbe60ab3a	-0.21940318
6	0x3d64e454	0.055881813
7	0xbd54552d	-0.051839042
8	0x3d9e68af	0.077348106
9	0xbe712c14	-0.2355197
10	0x3db38da1	0.08767248
11	0xbdab0a93	-0.08351626
12	0xbd9bccd9	-0.07607431
13	0xbdb26275	-0.087101854
14	0xbd68d69f	-0.056845304
15	0xbd9be047	-0.07611137
16	0xbdef7dd1	-0.116939195
17	0xbd3e0b3c	-0.046397433
18	0x3de9d8d7	0.11418312
19	0xbdc46e5c	-0.09591362
20	0xbda93685	-0.08262352
21	0xbc848a39	-0.016179191
22	0xbda7fcdd	-0.08202527
23	0xbe003178	-0.12518871
24	0x3d39df9a	0.04537926
25	0x3bcd9dae	0.0062749004
26	0xbf1f8599	-0.6231323
27	0xbf361041	-0.7111855
28	0x3c8d56c4	0.017253287
29	0xbccbfcc4	-0.024900801
30	0xbcfa8c2c	-0.030584417
31	0x3e05d6c1	0.13070203
32	0x3d7b414a	0.06134156
33	0x3d820018	0.06347674
34	0x3ca735c0	0.020411372
35	0xbf4abf4e	-0.7919816
36	0xbc8cae39	-0.01717292
37	0xbd6cf471	-0.057850305
38	0xbe21a805	-0.1578675
39	0xbc8de234	-0.017319776
40	0x3d71f0aa	0.059067406
41	0x3dab3b15	0.083608784
42	0xbdcf6c5a	-0.10128088
43	0xbdb099ca	-0.08623083
44	0xbcaf7ac1	-0.021420838
45	0xbdb67aaa	-0.08910115
46	0x3d68e9ea	0.056863703
47	0xbe90db9c	-0.2829255
48	0xbd890fa2	-0.06692435
49	0x3da1d1b7	0.07901328
50	0xbf406141	-0.751484
51	0xbc2a219d	-0.010383991
52	0xbe1982bf	-0.14991282
53	0xbda24ca9	-0.07924778
54	0xbe8d0f73	-0.2755085
55	0xbc9bcc3c	-0.019018285
56	0xbe16251a	-0.1466259
57	0x3d25dded	0.040494848
58	0xbd558e7b	-0.052137833
59	0xbc168442	-0.009186806
60	0x3c057a32	0.008146809
61	0xbc6b4ed0	-0.014362052
62	0xbd35934f	-0.044329938
63	0xbd435c0f	-0.047695216
64	0xbc7848b7	-0.015154055
65	0x3cedb529	0.029017048
66	0xbed94cfb	-0.42441544
67	0x3e97f8fb	0.29682145
68	0xbf81425e	-1.0098379
69	0xbddc7e97	-0.107663326
70	0xbcae4805	-0.021274576
71	0xbe4e9119	-0.20172538
72	0xbe27b434	-0.16377336
73	0xbde42bc5	-0.11141161
74	0xbd1dc140	-0.038514376
75	0xbe4271d0	-0.18988729
76	0x3c675578	0.014119498
77	0xbcd17a12	-0.025570903
78	0x3d9adaa7	0.07561236
79	0x3e366925	0.17813547
80	0xbeb6bc97	-0.35690758
81	0xbe338888	-0.17532551
82	0xbe29c9d0	-0.16580892
83	0x3e0c7c98	0.13719404
84	0xbd59deb5	-0.053190906
85	0xbef515ec	-0.47868288
86	0x3dcb6dda	0.09933062
87	0x3e553bc3	0.20823579
88	0x3b242720	0.0025047734
89	0x3d116f33	0.03550644
90	0xbcb60427	-0.022218777
91	0x3d239032	0.039932437
92	0xbf211a2b	-0.62930554
93	0x3d676340	0.056491137
94	0x3c6cf199	0.014461898
95	0x3de75639	0.112957425
96	0xbd7fd996	-0.062463365
97	0x3d2f2501	0.0427599
98	0xbf58ac4d	-0.8463791
99	0xbed8564b	-0.42253336
100	0x3d1cebb6	0.03831073
101	0xbe41bb49	-0.189191
102	0xbeb143b4	-0.34621966
103	0xbe5a434b	-0.21314733
104	0xbe42f3c7	-0.19038306
105	0xbdd0d5a0	-0.10196996
106	0x3d871ced	0.06597314
107	0x3d6c5676	0.057699643
108	0x3d47def5	0.048796613
109	0x3bd1c035	0.0064010867
110	0x3d7f6eda	0.062361576
111	0xbccf72f8	-0.025323376
112	0xbe58e653	-0.21181612
113	0xbf1640c8	-0.586926
114	0x3d74a212	0.059724875
115	0x3c8bc40d	0.017061258
116	0x3c8537c5	0.016261945
117	0xbd84e926	-0.06489782
118	0xbd2ea2f9	-0.04263589
119	0xbf09c5e7	-0.538176
120	0x3e579233	0.21051864
121	0xbd953807	-0.07286077
122	0x3c3df788	0.011594661
123	0x3c377711	0.011197821
124	0x3d60f8f2	0.054924913
125	0xbe73f999	-0.23825683
126	0x3e2fdee4	0.1717487
127	0x3e2d442e	0.1692054
128	0x3dc6c91f	0.097063296
129	0x3e19c7f6	0.15017685
130	0xbd720063	-0.0590824
131	0x3e10c580	0.1413784
132	0xbd98c844	-0.07460073
133	0xbd44a795	-0.04801138
134	0xbe3cb8bb	-0.18429844
135	0x3e1f2b1a	0.15543786
136	0xbcdb9330	-0.026803583
137	0xbe6e79b0	-0.23288608
138	0x3c73d6b8	0.014882736
139	0xbbd23ce0	-0.0064159483
140	0x3cbf6bff	0.023366926
141	0xbcd8e4b2	-0.026476238
142	0xbe4bd941	-0.19907095
143	0xbd2b7a43	-0.041864645
144	0xbdd83147	-0.10556274
145	0xbd3440a6	-0.044006966
146	0x3ea2f03a	0.31823903
147	0xbc14f626	-0.0090918895
148	0x3adbfb88	0.0016783336
149	0x3c29fc00	0.010375023
150	0xbd998ee8	-0.0749796
151	0xbe3b9675	-0.18319114
152	0x3dd42ba9	0.1035989
153	0xbc5d3aa0	-0.013502747
154	0x3e672218	0.225716
155	0x3df3e0c4	0.11908105
156	0x3db1e6e1	0.08686615
157	0xbe0e48d2	-0.13894966
158	0x3d35bcc2	0.044369467
159	0x3dcba62a	0.09943803
160	0x3b2f7b40	0.0026776344
161	0xbdc89e78	-0.097958505
162	0xbe3f21d8	-0.18665254
163	0x3e02fbb0	0.12791324
164	0x3d89e02d	0.06732211
165	0xbcdbf52a	-0.026850302
166	0xbdc9928d	-0.098424055
167	0x3d3f698e	0.046731524
168	0x3d9ceb8f	0.07662117
169	0xbdc58817	-0.09645098
170	0x3e12f551	0.14351393
171	0xbd6cd6fc	-0.057822213
172	0xbeac6848	-0.3367331
173	0x3d433d6b	0.047665995
174	0xbd3fe7eb	-0.046852034
175	0xbe2a323a	-0.16620722
176	0x3daa121d	0.08304236
177	0xbc024d38	-0.007952981
178	0x3eb01ff0	0.34399366
179	0xbca52e0c	-0.020163558
180	0x3e06bf1f	0.13158844
181	0xbc4045df	-0.011735409
182	0xbef41ce6	-0.47678298
183	0xbb7ff1ca	-0.003905403
184	0x3df439c4	0.119250804
185	0x3da7d621	0.08195139
186	0xbba47fd0	-0.0050201192
187	0xbd8bbed8	-0.0682351
188	0xbcb76d84	-0.022391088
189	0x3e1a7fe7	0.15087853
190	0x3ca77dc7	0.020445717
191	0xbe454d0d	-0.19267674
192	0x3d8d188f	0.0688945
193	0xbdaa3bee	-0.08312212
194	0x3c1289ec	0.008944016
195	0x3e6e77b4	0.2328785
196	0xbdd83851	-0.105576165
197	0xbd187c56	-0.03722795
198	0x3e01fcc2	0.12694076
199	0x3de27735	0.11057893
200	0xbdfb62fc	-0.12274739
201	0xbd21e183	-0.039521705
202	0x3b2f5df2	0.0026758877
203	0xbca49315	-0.020089665
204	0xbd17d713	-0.037070345
205	0x3d72d905	0.059288997
206	0xbd6501e1	-0.055909995
207	0x3ca75db6	0.020430427
208	0x3e46ecdd	0.19426294
209	0x3e15a067	0.1461197
210	0x3e0013e3	0.12507586
211	0x3dc3766e	0.09544073
212	0xbe09f4ed	-0.13472338
213	0xbd104435	-0.035221297
214	0xbcbf45c4	-0.023348697
215	0x3d589a21	0.052881364
216	0x3da37a91	0.07982362
217	0xbda147b6	-0.07875006
218	0xbea49fc8	-0.32153153
219	0x3d024514	0.03180416
220	0xbc155fd9	-0.00911709
221	0x3d713fb9	0.05889866
222	0xbeb0dd04	-0.34543622
223	0x3d7f7e9c	0.062376603
224	0x3d6f2967	0.058389094
225	0xbc88a3c3	-0.01667965
226	0x3e87e79f	0.265439
227	0x3ef4a513	0.47782192
228	0xbcaf5700	-0.02140379
229	0xbda843a7	-0.08216029
230	0xbe6c31bf	-0.23065852
231	0x3eb97419	0.36221388
232	0xbee1475e	-0.4399976
233	0xbe53dfce	-0.20690843
234	0xbafacc00	-0.0019134283
235	0x3b6a2220	0.0035725906
236	0x3d214d34	0.039380267
237	0xbd834b0d	-0.06410799
238	0xbcd9cc0e	-0.026586559
239	0x3c51ccb0	0.012805149
240	0xbe089843	-0.13339333
241	0xbe8425e9	-0.25810173
242	0x3c394a50	0.011309221
243	0xbca55048	-0.020179883
244	0xbe6f2b84	-0.23356444
245	0xbea84a06	-0.32868975
246	0xbeabfdb9	-0.33592013
247	0xbda825f7	-0.08210366
248	0x3e7f96f2	0.24959925
249	0x3e23044a	0.15919605
250	0x3cb54f88	0.02213265
251	0xbf249f70	-0.6430578
252	0xbe19c5be	-0.15016839
253	0xbd99e910	-0.07515156
254	0x3dcc97e4	0.09989908
255	0x3d7e7f64	0.062133208

fc2.bias f4 [128]
0	0xbd489220	-0.04896748
1	0xbeed1ede	-0.46312612
2	0xbbae0be2	-0.005311475
3	0x3db415e8	0.08793241
4	0xbd37e594	-0.044896677
5	0xbd1d19af	-0.038354572
6	0xbec8eb20	-0.39241886
7	0xbf3cf4a7	-0.7381081
8	0xbd0eb1b4	-0.03483744
9	0xbeba70bd	-0.36414137
10	0xbd8b1068	-0.067902386
11	0xbd9b08bd	-0.07570026
12	0xbecd3bb5	-0.40084615
13	0xbe3c707c	-0.18402284
14	0xbed405dd	-0.41410723
15	0x3dd96bae	0.106162414
16	0xbda0474a	-0.07826097
17	0xbe80e9d5	-0.251784
18	0x3f190f9f	0.5978946
19	0x3d0f9c14	0.035060957
20	0xbf1f585a	-0.6224419
21	0xbe61bd88	-0.22044957
22	0x3ea1548d	0.3150982
23	0x3e14dfb3	0.1453846
24	0xbdc35751	-0.09538139
25	0x3f5d7db6	0.86519945
26	0xbe9e6041	-0.3093281
27	0xbddfd27e	-0.1092882
28	0x3f033a2f	0.51260656
29	0x3d86e536	0.06586687
30	0xbae9b592	-0.0017830601
31	0xbc01aa48	-0.007914133
32	0x3e226ea6	0.15862522
33	0xbdb0c565	-0.086314
34	0xbd35838b	-0.044314902
35	0xbde96227	-0.11395674
36	0xbd338df7	-0.04383656
37	0x3e932347	0.28737852
38	0x3dd44bdc	0.103660315
39	0x3dbcd315	0.09219948
40	0xbf033ce5	-0.5126479
41	0xbf02a4d6	-0.5103277
42	0x3e152dbf	0.14568232
43	0x3ef1db74	0.47237742
44	0x3dda4880	0.106583595
45	0xbe8cf512	-0.27530724
46	0x3f171ab6	0.5902513
47	0xbcd7255a	-0.026262928
48	0x3e9154ac	0.28384912
49	0x3e22209a	0.15832749
50	0x3c6d7ecd	0.014495564
51	0x3cfc9404	0.030832298
52	0xbe29e31e	-0.16590545
53	0xbd9f5d66	-0.07781486
54	0xbf236ec5	-0.63840896
55	0xbd67b937	-0.05657312
56	0xbdd5d758	-0.10441464
57	0xbed301ba	-0.41212255
58	0xbe027536	-0.12740025
59	0xbdb9a396	-0.09064405
60	0x3caad228	0.020852163
61	0x3c4e1890	0.012579098
62	0xbdf05a5d	-0.117359854
63	0xbe8b93fc	-0.2726134
64	0xbe8f68c3	-0.28009614
65	0x3e80e729	0.2517636
66	0xbdd27951	-0.102770455
67	0xbbd46a86	-0.006482425
68	0x3eb5bdf4	0.35496485
69	0xbdc70e50	-0.09719527
70	0x3cb505a0	0.022097409
71	0xbe8c17c5	-0.27361885
72	0xbfacb55f	-1.349285
73	0xbe859983	-0.26093683
74	0x3f0fbdc5	0.5614894
75	0x3c63f075	0.01391231
76	0xbe27ec73	-0.16398792
77	0xbdd430e9	-0.10360891
78	0xbd76f324	-0.06029047
79	0xbe1cfa53	-0.15329866
80	0xbdd259ec	-0.102710575
81	0xbd03ac60	-0.03214681
82	0xbe267fba	-0.16259661
83	0xbf354555	-0.7080892
84	0x3cc01dcf	0.023451714
85	0x3cefbd09	0.029264944
86	0x3cda2b5f	0.02663201
87	0xbdefdcff	-0.117120735
88	0x3f303f1f	0.68846315
89	0x3de1e3b2	0.110297576
90	0xbf275ed2	-0.6537906
91	0xbf010982	-0.5040513
92	0x3d8ecc09	0.0697251
93	0xbe223b7f	-0.15843008
94	0xbdd066e7	-0.10175877
95	0xbdd64d81	-0.104640014
96	0x3da2e1a4	0.07953194
97	0x3e3a91bb	0.18219654
98	0xbf4cde6b	-0.8002688
99	0xbc8f8244	-0.01751817
100	0xbe3d9fb8	-0.18517959
101	0x3f576b91	0.8414851
102	0xbe17e820	-0.14834642
103	0xbc638cc4	-0.013888542
104	0x3f90c5fc	1.131042
105	0xbdb4051e	-0.087900385
106	0xbe81befe	-0.25341028
107	0xbe7bf2f9	-0.24604405
108	0x3e01607a	0.12634459
109	0xbc771ebc	-0.015083011
110	0xbe82d31a	-0.25551683
111	0xbddbd126	-0.10733251
112	0xbf1ef5b0	-0.6209364
113	0xbf28dcd7	-0.65961975
114	0xbda0d221	-0.07852579
115	0xbd0e8fc9	-0.034805093
116	0xbd2eb208	-0.042650253
117	0x3edd8594	0.43265975
118	0xbda3310a	-0.07968338
119	0xbdf427a9	-0.11921627
120	0x3bbec3b8	0.0058216713
121	0xbedd24b2	-0.4319206
122	0xbd24c7c5	-0.040229578
123	0xbe6b0bd1	-0.22953726
124	0x3f0f4f59	0.5598045
125	0xbbbb416a	-0.005714585
126	0xbd3b5a41	-0.04574037
127	0x3caba153	0.020950949

fc3.weight f4 [7, 128]
0	0xbe3a8b83	-0.18217282
1	0x3e9ef23f	0.31044194
2	0xbd647322	-0.05577386
3	0x3f8438c9	1.032983
4	0xbe968d6b	-0.29404768
5	0xbd22db8d	-0.03976016
6	0x3f06db9e	0.5267886
7	0x3dffddaf	0.12493455
8	0x3cf8096e	0.030277934
9	0xbe23e382	-0.16004756
10	0xbd831d6e	-0.06402098
11	0xbe78a642	-0.24282172
12	0x3f138e28	0.5763879
13	0x3f5423ab	0.82866925
14	0x3dd6693b	0.1046929
15	0xbf20c0de	-0.6279429
16	0xbe20bb48	-0.15696442
17	0x3f20b497	0.6277556
18	0xbec87754	-0.3915354
19	0x3e93a3f8	0.28836036
20	0x3fd44fbc	1.6586833
21	0x3e10bc74	0.14134389
22	0x3e91bc7f	0.28464124
23	0xbe156b04	-0.14591604
24	0x3cab1e17	0.020888371
25	0xbe055b41	-0.13023092
26	0x3fccfbea	1.6014378
27	0x3cac24eb	0.021013698
28	0xbf390ad4	-0.7228215
29	0x3f8791ed	1.0591408
30	0xbd029d5e	-0.03188836
31	0x3d05f872	0.03270764
32	0xbf1b3a29	-0.6063562
33	0xbd1c395a	-0.038140632
34	0x3f5c4af9	0.860519
35	0x3ec862b3	0.39137802
36	0x3c61b24e	0.013775421
37	0x3e6bd979	0.23032178
38	0x3ee223b2	0.44167858
39	0x3edae9bc	0.4275645
40	0x3f8f5589	1.1197978
41	0x3e36edc3	0.17864136
42	0x3fab3cd0	1.3377934
43	0xbeef8ec1	-0.467886
44	0xbd87c6d7	-0.066297226
45	0xbe61e0b6	-0.22058377
46	0x3f0ea924	0.5572684
47	0xbcdddbd5	-0.027082363
48	0x3e325d94	0.1741851
49	0x3f721fe7	0.9457993
50	0x3f97b2f4	1.1851487
51	0x3e2820ea	0.16418806
52	0xbeaf18f7	-0.34198734
53	0x3d1ecf5c	0.038771972
54	0x3ee59cac	0.44846094
55	0x3e8920d1	0.2678285
56	0xbdd3c4fc	-0.10340306
57	0x3c69b588	0.014264472
58	0xbd0123cf	-0.03152829
59	0x3fad07cb	1.3518003
60	0x3da4bb9c	0.08043596
61	0x3c3f5698	0.01167836
62	0xbd9c26d0	-0.076245904
63	0xbe8aa91f	-0.27082154
64	0x3f984720	1.1896706
65	0x3f05b2ab	0.5222575
66	0x3e6b7ebf	0.22997569
67	0x3dd51055	0.10403506
68	0x3ecda6d8	0.40166354
69	0xbc82d8b5	-0.015972475
70	0xbf12440f	-0.571351
71	0x3f1208fb	0.57044953
72	0xbf3b0059	-0.73047405
73	0xbc46a3d4	-0.012124021
74	0xbe8ba1cc	-0.2727188
75	0xbc10b606	-0.00883246
76	0x3f17abb7	0.5924639
77	0x3d93de45	0.07220129
78	0x3ea8f0cd	0.32996216
79	0x3fa0f6ea	1.2575352
80	0x3ce36913	0.027760064
81	0xbd0bff6f	-0.034179147
82	0x3f35a37f	0.709526
83	0xbeaae8f2	-0.33380848
84	0x3bf71679	0.0075405207
85	0x3fd5c8dd	1.6701924
86	0x3f9c0b9c	1.2191043
87	0x3ea88b57	0.32918808
88	0x3e41535e	0.18879458
89	0xbe6e1712	-0.23250988
90	0xbf2badae	-0.6706189
91	0xbf8405db	-1.0314287
92	0x3fa3640d	1.2764908
93	0xbe67dc2f	-0.22642587
94	0xbeb379e1	-0.35053924
95	0xbd9a4eef	-0.07534587
96	0x3f53e3bf	0.8276939
97	0x3eab8354	0.33498633
98	0x3f0d66cd	0.55234987
99	0xbd2e7750	-0.042594254
100	0xbe4b4b17	-0.19852863
101	0xbe68500a	-0.22686782
102	0xbea78a74	-0.3272282
103	0x3fdd6d65	1.729901
104	0xbee7bd96	-0.4526183
105	0x3dd86b14	0.105672985
106	0x3f91478e	1.1349962
107	0x3f8856ee	1.0651529
108	0x3e3e6776	0.18594155
109	0xbe8bbbba	-0.27291662
110	0xbe14ee17	-0.14543949
111	0xbc156434	-0.009118129
112	0x3dbbd40a	0.091713026
113	0x3d78bf46	0.060729288
114	0xbd564fa1	-0.052322034
115	0xbe912854	-0.2835108
116	0x3d384b51	0.044993702
117	0xbf9416a8	-1.1569414
118	0xbcc4e8a3	-0.024036711
119	0xbe932926	-0.2874233
120	0x3f1e11eb	0.6174609
121	0xbfb1861c	-1.3869052
122	0xbea40426	-0.32034415
123	0x3f027d61	0.50972563
124	0xbf22330c	-0.6335914
125	0x3d454a14	0.04816635
126	0xbe078f9c	-0.13238376
127	0x3dcb18f0	0.09916866
128	0xbeb693d6	-0.35659665
129	0x3f4f5773	0.8099281
130	0x3d48379d	0.048881162
131	0x3f27fd7d	0.6562117
132	0xbe11d0a1	-0.14239742
133	0x3efabd5f	0.48972604
134	0xbd9635ab	-0.07334455
135	0x3ed56c16	0.41684026
136	0x3d869d03	0.06572916
137	0xbe1f0e34	-0.15532762
138	0x3bab45ba	0.005226818
139	0xbe829e7f	-0.25511548
140	0x3f32e06b	0.69873685
141	0x3f4fffbe	0.81249607
142	0x3e848961	0.25886062
143	0xbe8bd74a	-0.2731269
144	0x3e82168f	0.25407836
145	0x3fe2acc6	1.7708976
146	0xbea18caf	-0.31552646
147	0xbd83f4fe	-0.06443213
148	0x3ef7a5d7	0.48368713
149	0x3f7bd9be	0.98379123
150	0xbe23b2de	-0.15986201
151	0x3ec10672	0.3770023
152	0xbd24b0e1	-0.040207747
153	0xbed6e924	-0.41974747
154	0x3ecda1cf	0.40162513
155	0x3d65a53b	0.05606578
156	0xbf22ed22	-0.63643086
157	0x3f874ac2	1.0569689
158	0xbd64b689	-0.05583814
159	0x3d824c9e	0.0636227
160	0x3eb3fdde	0.35154623
161	0xbd293e79	-0.041319344
162	0xbd3ffe03	-0.046873104
163	0xbe3e4930	-0.18582606
164	0xbba9d66b	-0.0051830313
165	0x3d8737c7	0.066024356
166	0x3da7ba40	0.08189821
167	0x3f439d13	0.7641155
168	0x3f1dbe58	0.61618567
169	0x3eade928	0.33966947
170	0x3fdc5bad	1.7215477
171	0xbebce23c	-0.36891353
172	0xbe3ce84a	-0.18447986
173	0xbe279032	-0.163636
174	0x3e100470	0.14064193
175	0x3ea3f003	0.32019052
176	0xbf0c5873	-0.5482246
177	0x3fed513c	1.8540416
178	0x3d1df4d8	0.03856358
179	0x3deab8e6	0.11461048
180	0xbf1775d3	-0.5916416
181	0x3d6e3d4e	0.058163933
182	0xbf8a6016	-1.0810573
183	0x3df17e2b	0.11791643
184	0xbe700abd	-0.23441596
185	0xbdf3ed6b	-0.11910518
186	0xbcd74776	-0.026279192
187	0x3f660b6b	0.8986117
188	0x3c8ce97c	0.017201178
189	0xbb85a665	-0.0040786737
190	0xbd4845bd	-0.048894633
191	0xbf1d4b1d	-0.6144274
192	0x3f9faad5	1.2474009
193	0x3d9a03c6	0.07520251
194	0x3ebe9b69	0.37227944
195	0xbe5548f7	-0.20828615
196	0x3f606790	0.87658024
197	0x39c24502	0.00037053978
198	0xbf116d65	-0.5680755
199	0x3e99092b	0.29889807
200	0xbfdc84e7	-1.7228059
201	0x3e2115be	0.1573095
202	0xbf035ffa	-0.51318324
203	0xbc1b301c	-0.009471919
204	0x3ed8c103	0.42334756
205	0xbbdb51ca	-0.0066930996
206	0xbd9745b2	-0.0738634
207	0x3f66f3e0	0.90215874
208	0xbb0e0bf5	-0.0021674607
209	0x3fd2abc2	1.6458666
210	0xbe892adc	-0.26790512
211	0xbf495189	-0.7864004
212	0x3d8924de	0.06696485
213	0x3f8ccc16	1.0999782
214	0x3f63c921	0.88978773
215	0x3f3899c8	0.7210965
216	0xbd2dab54	-0.04239972
217	0x3e9f37c3	0.3109723
218	0xbf2e7b42	-0.68156826
219	0xbf0ffd8f	-0.56246275
220	0x3fe40197	1.7812985
221	0xbe30afb8	-0.17254531
222	0x3f81d3d1	1.0142766
223	0x3f589cae	0.84614074
224	0x3f1f9171	0.623313
225	0xbf5be0e1	-0.8589001
226	0x3f324c4e	0.6964768
227	0x3c32521b	0.010883833
228	0xbe87f068	-0.26550603
229	0xbebc551b	-0.3678368
230	0x3d96499f	0.07338261
231	0x3f3b4ecb	0.73167104
232	0xbe320e94	-0.17388374
233	0xbd66a500	-0.0563097
234	0x3f58a90c	0.84632945
235	0x3fbccb04	1.4749455
236	0x3e60ab18	0.21940267
237	0xbec0b416	-0.37637395
238	0xbf7622b6	-0.96146715
239	0x3caa7e5c	0.020812206
240	0xbe2ac74a	-0.16677585
241	0x3f48fb73	0.7850868
242	0xbd71e852	-0.05905945
243	0xbee85e18	-0.45384288
244	0xbd91d8f6	-0.0712146
245	0xbf26ba65	-0.65128165
246	0x3a43c067	0.000746733
247	0xbd281445	-0.041034956
248	0x3eb2069f	0.34770676
249	0xbf77c91e	-0.96791255
250	0xbe923a0a	-0.28559905
251	0x3e059172	0.13043764
252	0x3eeb4e83	0.45958337
253	0x3d85464e	0.0650755
254	0xbe463ceb	-0.19359176
255	0x3e3030ec	0.17206162

fc3.bias f4 [7]
0	0xbe23fd09	-0.16014494
1	0x3d7172af	0.05894726
2	0x3dedfa1f	0.116199724
3	0x3d965b9b	0.07341691
4	0xbdf8fa3f	-0.12157106
5	0xbef7cc68	-0.48398137
6	0x3cb80fc4	0.022468455
