hackathon_toolkit/checkpoints_qlearn_CTDE/target_agent_1_episode_2901.pth (torch, 98704 bytes, 6 tensors)

fc1.weight f4 [128, 50]
000000 88 c8 5c bd f4 45 fa 3d d8 b2 24 be 60 c0 07 3d
       -0.05390218 0.12220374 -0.16083848 0.033142447
000010 70 b0 b5 bc b8 36 83 bc 17 8c 5f bd d0 99 fd bc
       -0.022178859 -0.016017303 -0.05457696 -0.030957133
000020 3e 2f b6 3d d7 4f 35 3d e9 8a ea bb b1 24 f3 be
       0.088957295 0.044265594 -0.0071576727 -0.4748893
000030 7c 24 de bd 1b 67 34 bd b2 24 b9 bd 96 e0 f2 3d
       -0.108468026 -0.04404364 -0.09040202 0.118592426
000040 aa b6 8c bc e1 ce b6 3d aa 73 cb bd c1 c3 48 3d
       -0.017176945 0.08926178 -0.099341705 0.04901481
000050 3c 16 f2 bd 4e 3a 58 3d d5 f1 14 be d4 f1 a2 bc
       -0.11820647 0.05278998 -0.14545377 -0.019890703
000060 98 c4 c8 bc 2e b4 ba bd 67 79 ee 3c a7 57 86 3d
       -0.024507806 -0.09116398 0.029110624 0.06559687
000070 16 6b e3 3c 00 89 eb ba 7b e6 cb 3d ab 09 b0 bd
       0.027761023 -0.0017969906 0.0995607 -0.08595594
000080 f1 53 33 bc 08 33 22 3d d0 a9 07 bd 05 ab c4 bd
       -0.010945306 0.03959945 -0.03312093 -0.09602932
000090 c8 a5 a3 3c 70 39 f4 3c 18 84 6a bd 83 33 de 3d
       0.019976512 0.029812545 -0.05725488 0.10849669
0000a0 d1 c5 cc be 40 3f c0 3d d0 65 a0 3c e6 d2 3a bd
       -0.39994672 0.09387064 0.019579798 -0.045611285
0000b0 ef b3 98 bd 34 68 b8 be ed 4b 36 be 1d 96 df 3d
       -0.074561946 -0.36017 -0.17802401 0.10917304
0000c0 5e e1 ec 3d ca c5 f8 3d af 07 d7 bb 17 da 2f be
       0.11566423 0.121471 -0.0065621953 -0.17173038
0000d0 1d 6d 01 3e 40 55 3d bc f6 ac 15 3c 50 f4 0a 3d
       0.1263928 -0.01155597 0.009135475 0.0339244
0000e0 33 16 b9 bc ba 8e d3 3d 66 91 e4 3d b4 9c c6 3c
       -0.022593593 0.10329957 0.11160545 0.024244644
0000f0 bb a6 d0 3d 97 52 8a bf 43 0e cf bc c2 45 29 3e
       0.10188051 -1.0806454 -0.025275355 0.16530517
000100 14 bd af 3d d9 93 47 bd e0 0d c1 3d d5 a4 10 be
       0.08580986 -0.048724983 0.094264746 -0.14125378
000110 c5 63 e1 bd 80 e0 e6 3a 1c e7 d6 3d 13 50 1e 3d
       -0.11005358 0.0017614514 0.10493299 0.038650583
000120 46 e9 0b be d1 9e ba bd 90 bb d9 bd 46 7e c1 bd
       -0.13663206 -0.09112323 -0.10631478 -0.09447913
000130 37 e8 5a 3d 77 4d 25 be 7b fc 51 3d c6 97 bc 3d
       0.053444114 -0.16142832 0.051266175 0.09208636
000140 c6 8e a9 3d a4 7f 5c 3d 17 74 ac 3d e0 dc 9e 3c
       0.08279185 0.053832665 0.0842058 0.01939243
000150 90 9d 88 3d 6a d5 d2 3d 2c cc 93 3d 1e 2d c1 bd
       0.06670678 0.10294612 0.07216677 -0.094324335
000160 60 4c 62 3d 70 5e fc 3d be 26 09 bd 1d 06 79 3d
       0.055248618 0.123227 -0.033484213 0.060796846
000170 05 a2 64 3d 7c 22 87 3d 1a 2c 0b be 76 4f 85 3b
       0.055818576 0.06598374 -0.13591042 0.0040683104
000180 6d d6 93 3c 8b b1 1c be 20 04 82 bc f6 9a a3 3d
       0.018046582 -0.15302102 -0.015871108 0.07988541
000190 0d aa f3 bd 08 e5 4e 3d ac 6d 11 3e 5a 25 fa bd
       -0.11897669 0.05051139 0.14201993 -0.122141555
0001a0 8a db f9 bd 2c ec 42 bd db 64 f6 bd cc bf 69 3d
       -0.12200077 -0.047588512 -0.120309554 0.057067677
0001b0 e7 74 ed bd d8 75 83 3d c9 d1 b9 3d e9 1a 6e bd
       -0.11594563 0.06418961 0.090732165 -0.058131132
0001c0 5b 39 98 3d 37 a1 fd 3b 2a b7 f4 bd 01 7d b2 bd
       0.07432815 0.0077401656 -0.11948998 -0.08715249
0001d0 f3 34 6d bd 73 1d ff 3d 1f 6f 0c be d0 e0 24 bc
       -0.057911824 0.12456789 -0.13714264 -0.010063365
0001e0 68 66 0e be 41 d8 ae bc a0 b2 82 3c 4e 1e 4b bd
       -0.13906252 -0.021343352 0.015954316 -0.049589448
0001f0 10 17 e3 bc b5 c6 06 be ae a8 25 3d 89 8a b7 3c
       -0.027720958 -0.13161738 0.04044407 0.022404926
000200 b3 95 63 bc 42 5d 24 bd 7a d7 bb 3d 64 de f4 3d
       -0.013890672 -0.040128 0.09171958 0.1195648
000210 c2 d8 c5 bd 18 ec d7 3c 3f 28 0b 3e 6c 9b 82 3d
       -0.09660484 0.026357695 0.13589571 0.063773006
000220 70 48 6f bc 12 a7 82 3d 4c dd e2 bc f9 8a 5a bd
       -0.014604673 0.063795224 -0.027693413 -0.05335519
000230 6d 82 eb bd ef be 83 3d 21 95 8c bd 79 e6 f9 bd
       -0.11499486 0.06432902 -0.068643816 -0.12202162
000240 d6 5b ae 3d 12 a5 b8 3d 4c bc 0c 3d 72 91 d1 3b
       0.0851361 0.0901586 0.03435926 0.0063955123
000250 a0 d4 c1 3d 27 b4 2c 3d f8 51 9e bd ed 1c a1 bc
       0.09464383 0.042163994 -0.07730478 -0.019667113
000260 bf 83 2c be fe 56 30 bd 99 9f 21 be 90 cd ad bd
       -0.16847132 -0.043051712 -0.15783538 -0.084864736
000270 c5 1e 63 be 34 18 8c bc 4a d9 db 3d d3 a8 2a be
       -0.22179706 -0.017101385 0.10734804 -0.16665964
000280 af b5 02 be d8 2f db 3e cd e3 2f bc da 6c 88 be
       -0.1276462 0.4280994 -0.010735464 -0.26645547
000290 00 6d ac bd 70 23 78 bd e2 f1 6b bc 84 e1 93 bd
       -0.084192276 -0.06058067 -0.014400931 -0.07220748
0002a0 8f cc 83 3d 9a ff e7 3d 60 11 88 bb 0a d8 a2 3d
       0.06435501 0.11328049 -0.004152462 0.079513624
0002b0 9a cc 48 3e 71 27 1f be 0a 96 b9 bd 04 2e 0a be
       0.196093 -0.1554239 -0.09061821 -0.13494116
0002c0 93 c0 2e bd 0d b9 d2 3d 3d 78 90 3d fd 6d ef bd
       -0.04266412 0.10289202 0.07054184 -0.116909005
0002d0 9c 25 e4 bd 05 30 01 3e 0e c8 36 be 58 d7 90 3c
       -0.11139986 0.12615974 -0.17849752 0.017680809
0002e0 4d 09 05 be 6f 24 8c bd ca 5a 05 be 50 1f 6b 3d
       -0.12991829 -0.06842887 -0.13022915 0.05740291
0002f0 12 4c 1f bd 0b 7b 8a 3c c2 df e9 bd 8a 7a 60 3e
       -0.038890906 0.016904375 -0.114196315 0.21921745
000300 8f 6f e5 bd a6 6c f8 bd 78 dd 90 3c 32 38 09 3e
       -0.11202919 -0.12130098 0.01768373 0.13400343
000310 0a d3 35 be 24 99 14 bd 45 6a ad bd 40 5d cb 3b
       -0.17756286 -0.03627886 -0.08467535 0.0062061846
000320 59 cd 78 be 6b b8 db 3c 53 3e 70 be c0 53 22 bd
       -0.24297084 0.026821336 -0.23461275 -0.03963065
000330 e8 18 a6 bd 3b 06 02 3e 17 2d 95 3d e4 a4 dd 3d
       -0.08110219 0.12697689 0.07283991 0.10822466
000340 50 9f 56 bc 12 ae 8b 3d 7a e5 3d bd 11 5c fc 3d
       -0.0130995065 0.06820311 -0.046361424 0.12322248
000350 a7 87 80 be 95 68 c5 3d 53 de 8c bd 26 40 d6 3d
       -0.25103495 0.09639088 -0.068783425 0.10461454
000360 4f 63 a7 bd f1 c2 35 3b 26 a6 1a be 40 22 f8 bd
       -0.081732385 0.0027734602 -0.15102443 -0.12115908
000370 42 4e 7d bd ee f3 c8 bd 43 ec e8 bd 21 ae 97 3c
       -0.06184221 -0.09812151 -0.11373188 0.018515648
000380 78 9e da 3c 81 1d 10 3e aa 4e 70 be a4 55 1e 3e
       0.026686892 0.14073755 -0.23467508 0.15462357
000390 a7 96 26 be b0 5e 94 3d 47 ea a6 3a a0 0c 33 bc
       -0.16268407 0.07244623 0.0012734615 -0.010928303
0003a0 6a 13 80 3d 34 27 4f 3d d8 9f e7 3c 7d 32 87 3d
       0.06253703 0.050574496 0.028274462 0.06601427
0003b0 ff 9d d7 bd 44 4b 58 3d e4 28 87 3d 2f 07 54 bd
       -0.10528182 0.052806154 0.06599596 -0.051764663
0003c0 69 0d 2d be 47 dd 88 3b fe d2 d3 bd 20 f1 dd bb
       -0.16899647 0.004176769 -0.10342978 -0.006773129
0003d0 ea e7 2e bd 05 ef b6 3d a4 46 41 3d 29 d6 47 be
       -0.04270164 0.08932308 0.04718651 -0.1951529
0003e0 98 66 17 bd 54 28 fd bd ac 3b 35 3d 7d 20 7d bd
       -0.036963075 -0.123612076 0.04424636 -0.06179856
0003f0 34 49 e8 bd ec 4d ce bd 32 36 b0 3d 5b 28 9d bd
       -0.113420874 -0.10073456 0.08604087 -0.07673713

fc1.bias f4 [128]
000000 29 ee 8b 3d 68 8f 4f bd 9b 44 91 3d d8 d6 4c be
       0.06832535 -0.050673872 0.070931636 -0.20003831
000010 32 2b 2c bc 3e 1b a6 3d e0 1d d3 bd 9a 63 82 bd
       -0.010508345 0.08110665 -0.103084326 -0.06366654
000020 fd aa 6e bd 1a eb 39 bb 2f c5 08 be 8f 66 39 bd
       -0.058268536 -0.0028368891 -0.1335647 -0.045263823
000030 ee f6 5f 3d 77 64 ac bd 23 d2 6b 3c 20 22 02 bd
       0.05467885 -0.084176 0.014393362 -0.031770825
000040 2f 3c 37 be 50 f7 86 3d 8a b5 da 3c 27 83 c6 bd
       -0.17894052 0.0659014 0.026697893 -0.09692984
000050 45 fc 01 be 31 56 e5 3d 56 41 e0 3c 02 bc ad 3c
       -0.1269389 0.1119808 0.027374905 0.021207813
000060 fd a6 be 3c 67 7d 10 be 5c 90 b0 bc cb 6a 24 be
       0.023272986 -0.14110337 -0.02155321 -0.16056363
000070 5c 3b a4 3d 61 05 da bd 89 fa e4 bd df 96 d2 bd
       0.080191344 -0.10645557 -0.11180598 -0.102826826
000080 8e 0b 0f be aa e1 60 3d e0 7a 34 be 52 24 ef 3d
       -0.13969252 0.05490271 -0.17624998 0.116768494
000090 36 14 10 bd 94 c3 b7 bd 0b bc 23 be 9a 20 c1 bd
       -0.035175525 -0.089728504 -0.15989701 -0.094300464
0000a0 a0 ef ad 3b 8a ec 77 bd c3 26 06 3c 6a cc 81 bd
       0.0053081065 -0.060528316 0.008187952 -0.06337817
0000b0 5b a2 4f 3d 90 35 bc bd 47 b2 46 be d1 0b e9 bd
       0.050691944 -0.09189904 -0.19403945 -0.11379207
0000c0 4f ec 49 bd 7f fd 04 be 98 44 6f bd b1 80 34 bd
       -0.049297627 -0.12987326 -0.058415025 -0.044068042
0000d0 3c 40 db bd 31 9c 7e bd 60 1f 05 bc 71 47 b5 bd
       -0.10705611 -0.062160674 -0.008125156 -0.08851517
0000e0 e3 9a b9 3d d1 c0 72 3d 90 7d 32 bd 34 b6 29 3d
       0.090627454 0.059265915 -0.043576777 0.041433528
0000f0 8b 8c ec 3d 14 ae fd bd e8 55 34 bd b6 f3 52 be
       0.11550244 -0.123867184 -0.04402724 -0.20600781
000100 bc d9 f5 bd 28 01 65 bc 04 2f bc 3c ab ae 21 be
       -0.1200442 -0.013977326 0.022971638 -0.15789287
000110 07 4c 77 3d 02 c9 3e 3d 14 29 1a 3d ac 07 2a be
       0.06037524 0.046578415 0.03763683 -0.16604489
000120 a3 50 2b be 5d 51 bb 3c 78 8e d8 3d 3b 57 e5 bd
       -0.16729979 0.022865945 0.10574049 -0.111982785
000130 47 9d 4e 3b f5 6e 9e 3c 59 37 fb 3b 4c b3 62 3d
       0.003152685 0.019340018 0.00766651 0.055346772
000140 b6 ce 9b 3d 9a 72 b2 bd c7 38 21 be c4 08 17 be
       0.07607786 -0.08713265 -0.15744315 -0.14749438
000150 06 28 96 bd 04 69 c7 3a 01 1a 95 bd 0f 70 22 bd
       -0.073318526 0.0015213792 -0.072803505 -0.03965765
000160 49 82 03 be 6c 90 2a bd 09 42 84 bd c3 d7 9c bd
       -0.12842669 -0.041641638 -0.06457908 -0.07658341
000170 23 f1 99 3c 24 7c 08 bd 0b 67 26 3b 4f 9d 74 3d
       0.01879174 -0.033321515 0.0025391008 0.059720334
000180 bb ad 92 bd d5 89 d7 bd 88 00 06 3c 79 1f 01 3d
       -0.07162043 -0.10524336 0.008178838 0.031524155
000190 b4 3d ac 3d eb fe 0a bc fb c2 02 be cc cf 29 be
       0.084102064 -0.008483629 -0.12769692 -0.16583174
0001a0 d6 06 fa bd 68 7f 5b bd 06 63 d3 bd bc 5e 23 bd
       -0.12208335 -0.0535883 -0.103216216 -0.039885268
0001b0 17 62 07 be 5e 6d 0a be f5 c6 1a be c4 40 e1 bc
       -0.13221012 -0.13518283 -0.15114959 -0.027496703
0001c0 7e 71 16 3d a1 93 50 be ce ec 06 be 65 fd 09 3e
       0.03672933 -0.20368816 -0.13176271 0.13475569
0001d0 30 a0 a7 bd 79 20 a5 3d 81 fb 10 be c3 05 be 3d
       -0.0818485 0.08062834 -0.14158441 0.09278443
0001e0 48 58 08 be ca 48 ae 3a 4f 45 0d be 9f f8 13 bd
       -0.13314927 0.0013296839 -0.1379597 -0.036125775
0001f0 a6 0d 4b be d4 0e 8d 3c f3 5b b3 3d 7e 0c 8c 3d
       -0.19829425 0.017218985 0.08757772 0.0683832

fc2.weight f4 [128, 128]
000000 38 80 d5 be 40 f0 35 3d 16 9f 5a 3d da 29 76 3d
       -0.41699386 0.044418573 0.053374372 0.060098507
000010 22 64 7c 3c 26 49 75 be b7 e3 75 3d 19 f1 74 bd
       0.015404733 -0.23953685 0.06003162 -0.05980024
000020 72 ab 9d 3d 97 ad 87 be a1 8d b3 3d ad 27 aa bd
       0.07698716 -0.26499626 0.08767248 -0.08308349
000030 ae 4c 9c bd 75 62 b2 bd 09 ab 94 bd 98 2b b8 bd
       -0.07631813 -0.087101854 -0.07259185 -0.0899269
000040 0d db f7 bd 3c 0b 3e bd b5 30 f0 3d be 18 c7 bd
       -0.121023275 -0.046397433 0.1172804 -0.09721516
000050 91 30 aa bd 28 ed 8e bc b2 96 a6 bd 7e e3 05 be
       -0.083100446 -0.01744707 -0.081342116 -0.13075063
000060 76 91 76 3d d7 4e c6 3b 3b a7 34 bf 77 22 4c bf
       0.060197316 0.006051879 -0.70567673 -0.7974009
000070 c4 56 8d 3c 16 e8 d6 bc 2c 8c fa bc f9 81 0d 3e
       0.017253287 -0.026233714 -0.030584417 0.13819112
000080 4a 41 7b 3d 62 23 82 3d 96 fd 3d 3c d0 85 62 bf
       0.06134156 0.06354405 0.011596104 -0.8848543
000090 40 ec 8f bc 25 a8 6f bd 3a 04 3f be 34 e2 8d bc
       -0.017568707 -0.058509964 -0.18653956 -0.017319776
0000a0 aa f0 71 3d cc fa b4 3d a7 c3 fd bd f2 22 b2 bd
       0.059067406 0.08836898 -0.12390833 -0.086980715
0000b0 b5 3e 18 bd c3 1e be bd 96 5b 6d 3d bf d6 a2 be
       -0.037169177 -0.09283211 0.05794867 -0.31804463
0000c0 f4 78 87 bd b7 d1 a1 3d ea 70 56 bf 1b 44 17 bc
       -0.06614867 0.07901328 -0.83766043 -0.009232546
0000d0 04 2d 24 be b1 1f c0 bd be f0 a5 be 16 6c ca bc
       -0.16032797 -0.09381045 -0.32410234 -0.024709743
0000e0 ea c4 21 be 34 15 1b 3d 7b 8e 55 bd 18 bf 52 bc
       -0.15797773 0.037862018 -0.052137833 -0.012862943
0000f0 dd 3c d3 3b 70 37 89 bc 4f 93 35 bd 69 cd 7f bd
       0.0064464645 -0.016750067 -0.044329938 -0.062451754
000100 80 d4 65 bc fb 3c e6 3c 50 ae ef be 3e b7 a7 3e
       -0.014027715 0.02810525 -0.46812677 0.3275699
000110 af e0 91 bf 4b a4 02 be 72 2a a5 bc db 49 66 be
       -1.1396693 -0.12757985 -0.020161841 -0.22489111
000120 18 08 39 be e0 16 0b be fd af 0f bd 39 a0 52 be
       -0.18069494 -0.13582945 -0.035079945 -0.20568933
000130 61 76 72 3c bd 3f 02 bd fa c4 9c 3d 0b e8 4c 3e
       0.014798732 -0.031799067 0.07654758 0.20010392
000140 f1 c1 cd be 80 42 46 be 50 74 40 be 71 7d 17 3e
       -0.40187028 -0.19361305 -0.1879437 0.14793946
000150 56 93 7f bd fa 9e 0a bf 6e a3 de 3d 8c 79 64 3e
       -0.06239637 -0.5414883 0.108710155 0.22311991
000160 20 27 24 3b 45 e4 0d 3d 7a a9 86 bc 32 90 23 3d
       0.0025047734 0.034641523 -0.016438235 0.039932437
000170 a5 d8 38 bf fb b7 67 3d 50 90 54 3c aa cc f4 3d
       -0.72205573 0.05657194 0.01297386 0.11953099
000180 2a ea 89 bd f2 d5 42 3d f5 cc 71 bf 73 73 f1 be
       -0.067341164 0.047567315 -0.94453365 -0.47158393
000190 b6 eb 1c 3d fc e5 5e be c1 ec ca be d6 c9 7d be
       0.03831073 -0.2176742 -0.39633754 -0.24784026
0001a0 ff 63 55 be 60 a0 fb bd ed 1c 87 3d 76 56 6c 3d
       -0.20838927 -0.122864485 0.06597314 0.057699643
0001b0 be 2b 48 3d 13 72 ea 3b da 6e 7f 3d f8 72 cf bc
       0.04886984 0.007154712 0.062361576 -0.025323376
0001c0 40 e7 69 be 5d bc 26 bf 12 a2 74 3d 17 44 89 3c
       -0.22842121 -0.6513117 0.059724875 0.0167561
0001d0 e7 ca 06 3c a0 68 97 bd d4 4b 4d bd f1 e2 1a bf
       0.008227087 -0.073930025 -0.050121143 -0.60502535
0001e0 ea c5 67 3e b1 29 9d bd 88 f7 3d 3c 4b 89 40 3c
       0.22634092 -0.07673968 0.011594661 0.011751483
0001f0 ba 68 5c 3d 71 fb 85 be 13 19 3b 3e 1d b2 3e 3e
       0.053810813 -0.26168397 0.18271284 0.18622632
000200 6f 23 de 3d 27 1e 33 3e fe c7 70 bd 53 ba 17 3e
       0.10846602 0.17491971 -0.058784477 0.14817171
000210 47 fd 98 bd 87 fb 54 bd 0e 66 48 be 07 58 2f 3e
       -0.07470184 -0.051997688 -0.19570181 0.17123424
000220 30 93 db bc 46 35 88 be b8 d6 73 3c e0 3c d2 bb
       -0.026803583 -0.26603144 0.014882736 -0.0064159483
000230 ad 31 a6 3c b2 e4 d8 bc 2b fa 63 be 1e 5c 24 bd
       0.02028736 -0.026476238 -0.222634 -0.040126912
000240 df 30 ec bd a6 40 34 bd 79 9a b9 3e f2 5d 9b bc
       -0.11532759 -0.044006966 0.36250666 -0.018965695
000250 b4 2b 0c 3b 00 fc 29 3c ba 91 9a bd 33 ab 4c be
       0.0021388354 0.010375023 -0.075473264 -0.19987182
000260 d8 4e fb 3d a0 3a 5d bc b2 e7 7c 3e 9b 19 0b 3e
       0.122708976 -0.013502747 0.2469776 0.13583986
000270 e1 e6 b1 3d b9 80 14 be c2 bc 35 3d ea 6c d7 3d
       0.08686615 -0.14502229 0.044369467 0.105188206
000280 40 7b 2f 3b 8f 76 d7 bd 0d 74 4f be 8c 83 11 3e
       0.0026776344 -0.1052066 -0.20259114 0.14210337
000290 16 ae 8a 3d 2a f5 db bc 0d e1 e2 bd 8e 69 3f 3d
       0.067714855 -0.026850302 -0.11078081 0.046731524
0002a0 8f eb 9c 3d 5c 34 d9 bd 53 76 22 3e 44 77 60 bd
       0.07662117 -0.1060569 0.1586545 -0.05480124
0002b0 d1 f8 be be 92 65 70 3d de 4c 76 bd 19 13 34 be
       -0.37299207 0.058690615 -0.0601319 -0.1758541
0002c0 1d 12 aa 3d 38 4d 02 bc 71 74 c3 3e 0c 2e a5 bc
       0.08304236 -0.007952981 0.38174775 -0.020163558
0002d0 ec 88 20 3e bf 85 aa bc c2 51 07 bf aa d1 58 bc
       0.15677232 -0.020815728 -0.5285913 -0.013233582
0002e0 22 8c 0d 3e 32 c8 a9 3d d0 7f a4 bb 7e 7c b0 bd
       0.13822988 0.08290137 -0.0050201192 -0.08617495
0002f0 2d 73 fd bc 63 d2 24 3e c7 7d a7 3c 0a 91 62 be
       -0.03093871 0.16095881 0.020445717 -0.2212564
000300 8f 18 8d 3d ee 3b aa bd 3e 57 24 3c 20 bf 84 3e
       0.0688945 -0.08312212 0.010030566 0.25927067
000310 a3 8b fa bd 63 d5 16 bd 43 fe 0a 3e 23 aa ea 3d
       -0.12233665 -0.036824595 0.13573556 0.11458232
000320 5b f5 1a be a7 d5 d6 bc e4 da 96 ba 33 33 ba bc
       -0.15132658 -0.026224924 -0.0011509326 -0.022729492
000330 57 dc 19 bd 8c bf 7b 3d e1 01 65 bd 4c e1 04 3d
       -0.037563648 0.06146197 -0.055909995 0.032441422
000340 e5 9f 62 3e 11 a3 2f 3e 89 01 0a 3e 98 42 c5 3d
       0.22131307 0.17152049 0.13477148 0.096318424
000350 a7 26 16 be 10 09 fb bc a6 4e d5 bc 36 a4 67 3d
       -0.14663182 -0.03064397 -0.026038479 0.056553088
000360 91 7a a3 3d c2 e2 a8 bd e6 13 bb be 14 45 02 3d
       0.07982362 -0.082463756 -0.3653862 0.03180416
000370 21 81 d4 bc a2 06 6a 3d 23 88 c3 be c3 cc 86 3d
       -0.02594048 0.05713523 -0.38189802 0.06582024
000380 63 63 85 3d c4 27 b4 bc 59 8c 95 3e af 4f 0a 3f
       0.06513097 -0.021991618 0.2920864 0.5402784
000390 00 57 af bc 72 f6 d0 bd 2f 1f 83 be 5b 11 ce 3e
       -0.02140379 -0.10203256 -0.2560973 0.40247616
0003a0 83 c4 00 bf d0 fa 73 be 00 cc fa ba 20 22 6a 3b
       -0.50299853 -0.23826146 -0.0019134283 0.0035725906
0003b0 b7 13 5a 3d 0d 4b 83 bd 0e cc d9 bc b0 cc 51 3c
       0.053241458 -0.06410799 -0.026586559 0.012805149
0003c0 b3 3f 0e be 9e 5b 9b be 50 4a 39 3c 48 50 a5 bc
       -0.13891487 -0.30343336 0.011309221 -0.020179883
0003d0 19 f2 8a be 8a 8f bb be 04 05 c9 be f0 1a ba bd
       -0.2713783 -0.3663295 -0.3926164 -0.09087169
0003e0 99 3f 96 3e 06 02 40 3e 88 4f b5 3c e6 0e 3a bf
       0.29345396 0.18750772 0.02213265 -0.72678983
0003f0 83 0d 35 be d8 6a 9b bd 75 c2 e1 3d b9 af 9a 3d
       -0.17680936 -0.07588738 0.11023418 0.07553048

fc2.bias f4 [128]
000000 c9 bb 8e bd 78 78 1e bf d2 56 58 bc 5d 62 a2 3d
       -0.06969411 -0.6190257 -0.013204293 0.079289176
000010 05 5a 7d bd 22 3a 33 bd 7d ea f3 be 2f d2 6c bf
       -0.061853427 -0.04375661 -0.47639838 -0.92508215
000020 65 cb 26 bd 6b b8 de be 38 a7 90 bd 1f 23 ae bd
       -0.040721316 -0.43500075 -0.070631444 -0.085027926
000030 40 1a 00 bf 7d 2b 81 be 5c 13 0a bf da 9b 38 3d
       -0.50040054 -0.2522849 -0.5393579 0.045070507
000040 a6 7a c6 bd 59 c8 ce be ce 42 36 3f 99 86 00 3d
       -0.09691362 -0.40387228 0.71195686 0.031378362
000050 cc 39 40 bf f2 4f 94 be 96 87 9c 3e 3e f1 1f 3e
       -0.7508819 -0.28967243 0.30572194 0.1561937
000060 3d 92 d4 bd a2 8d a3 3f a0 01 d2 be 54 4a e5 bd
       -0.10379455 1.2777598 -0.41016865 -0.111958176
000070 60 70 4b 3f 43 90 72 3d f6 9b 22 bc cf 97 56 bc
       0.79468346 0.05921961 -0.009924879 -0.013097717
000080 f0 57 11 3e cd 3e ba bd 1b d4 bd bd ee 1b 09 be
       0.14193702 -0.090940095 -0.092689715 -0.1338956
000090 78 c0 3e bd cf 9d 88 3e 20 ce b1 3d 9e e9 a6 3d
       -0.04657027 0.26682898 0.08681893 0.08150028
0000a0 37 2e 23 bf e2 7d 32 bf db 65 06 3e d1 46 07 3f
       -0.63742393 -0.6972333 0.13124792 0.5284243
0000b0 d0 8d c4 3d 4f 37 c5 be 1c e3 1e 3f b2 88 e8 bc
       0.09597361 -0.3851876 0.6206529 -0.028385494
0000c0 42 66 86 3e ff 73 12 3e 33 4c 79 bd 08 c8 d1 3c
       0.26249892 0.14302061 -0.060863685 0.025608078
0000d0 aa d3 38 be c3 ef a7 bd 13 af 60 bf 47 8a 83 bd
       -0.18049493 -0.08200028 -0.8776714 -0.06422859
0000e0 9a 40 e2 bd 9e 96 f1 be 38 70 0b be b5 22 e2 bd
       -0.11047478 -0.47185224 -0.13617027 -0.11041776
0000f0 c5 42 3f 3c 63 59 c2 3b 02 5d ff bd 09 25 ac be
       0.011673634 0.005931066 -0.12468912 -0.33622006
000100 4f d1 bb be 31 d1 68 3e 7c db 04 be 58 f6 4f bc
       -0.36683127 0.2273605 -0.12974352 -0.01269301
000110 9e 2e ac 3e 4d df cd bd d7 7d fb bc 73 3a a8 be
       0.33629316 -0.10052357 -0.030699654 -0.32857093
000120 e2 00 e3 bf 6a 44 d5 be 65 dd 66 3f b4 ba 8d 3b
       -1.7734644 -0.41653758 0.9018157 0.0043252353
000130 e0 b3 8b be 49 5f df bd a3 5a 8b bd 6d b5 5f be
       -0.2728567 -0.10906846 -0.06804397 -0.21846552
000140 10 0d da bd cb f4 73 bc c1 fa 5d be a9 f7 6f bf
       -0.10647023 -0.014889906 -0.21677686 -0.93737274
000150 f6 8a 9d 3c c3 9c cc 3c 7a 3b 39 3c 9f 90 32 be
       0.0192313 0.024977094 0.011305684 -0.17437981
000160 c8 3f 56 3f 6e 92 cb 3d db ed 58 bf dd d0 35 bf
       0.8369107 0.099400386 -0.8473794 -0.71021825
000170 1d e8 80 3d 8f df 4a be 7e a5 c5 bd 20 56 18 be
       0.06294272 -0.19811843 -0.09650706 -0.14876604
000180 bd 3f 20 3c 86 a5 65 3e 36 ad 7f bf bc 49 c0 bc
       0.009780821 0.22426423 -0.99873674 -0.02347266
000190 fe b9 62 be 8d b6 76 3f ca 03 29 be eb f2 e2 bd
       -0.22141263 0.963723 -0.16505352 -0.11081489
0001a0 51 b7 c3 3f e3 86 be bd 34 c9 a7 be 7a 86 91 be
       1.5290319 -0.09303071 -0.32770693 -0.2842291
0001b0 44 5f e9 3d 10 5c aa bc 6b 45 d4 be 85 af f5 bd
       0.113951236 -0.020795852 -0.41459212 -0.11996368
0001c0 78 3e 45 bf 76 ea 52 bf 8f 1e cc bd e1 a1 71 bd
       -0.77048445 -0.8238901 -0.09966766 -0.05899227
0001d0 ba 08 43 bd 95 0c 22 3f 4c 09 b2 bd 72 a8 08 be
       -0.047615744 0.6330045 -0.086931795 -0.13345507
0001e0 11 2f 52 bc 50 f5 04 bf b2 96 42 bd b6 15 b3 be
       -0.012828604 -0.5193682 -0.047506995 -0.34977502
0001f0 52 31 11 3f 5d 25 64 bc bd 30 5f bd c7 da 97 3c
       0.5671588 -0.013924924 -0.05448984 0.018536938

fc3.weight f4 [7, 128]
000000 29 db 4c be 4b 72 bd 3e 45 49 5b bd f9 1f a3 3f
       -0.20005478 0.3700126 -0.053536672 1.2744132
000010 b5 06 a5 be eb b2 d1 bc ef 47 1a 3f 88 7f da 3d
       -0.3223168 -0.02559801 0.6026601 0.10668856
000020 2c 3d e2 3c 6a 67 3b be 83 73 84 bd 35 e2 8a be
       0.02761706 -0.18301168 -0.064673446 -0.27125707
000030 8f de 2b 3f ca b4 7b 3f 77 bd 2f 3d 04 52 29 bf
       0.6713647 0.9832274 0.042905297 -0.6614077
000040 3e 78 3c be 43 c6 68 3f 3a 24 d2 be a1 86 ba 3e
       -0.18405244 0.90927523 -0.41043264 0.3643084
000050 d4 3c f3 3f f5 0f 73 3e 99 36 f9 3e 2a cd 27 be
       1.9002938 0.23736556 0.48674467 -0.16386858
000060 77 05 93 3c a1 49 f8 bd c0 c6 fb 3f 44 70 9a 3c
       0.017946942 -0.121234186 1.9670029 0.01885236
000070 91 7b 3c bf 0c 85 a4 3f e9 05 ff bc 68 62 fb 3c
       -0.7362605 1.2853103 -0.031130748 0.030686572
000080 a7 18 30 bf dc 50 12 bd cb 73 8b 3f ff 04 f0 3e
       -0.68787616 -0.035721645 1.0894712 0.46878812
000090 27 c5 99 3c d7 28 a8 3e ba d0 0d 3f 30 ee 2f 3f
       0.018770767 0.32843658 0.55396616 0.6872282
0000a0 fa de 9d 3f ea 53 ce 3c d2 28 c8 3f 12 21 bf be
       1.2333672 0.025186498 1.5637457 -0.37329918
0000b0 66 79 6b bb e9 b1 05 bf 20 1d 89 3f 4f 12 f1 bc
       -0.0035930513 -0.52224594 1.0712013 -0.029427676
0000c0 d1 57 a2 3e d9 b9 8d 3f d6 21 b3 3f bb fe 3a 3e
       0.31707624 1.1072341 1.3994701 0.18261234
0000d0 75 fb ca be 3a 0f 26 3d 96 7d bd 3e 52 f2 9d 3e
       -0.3964497 0.040541865 0.37009877 0.30848938
0000e0 d9 d7 e0 bd ff 3d ab 3c 4d b5 b4 bc a4 a5 c5 3f
       -0.1097867 0.020903585 -0.022059107 1.5441175
0000f0 95 68 a2 3d 30 c8 0d 3c d0 26 9c bd 4b b8 9c be
       0.07930104 0.008653685 -0.076245904 -0.30609354
000100 b5 9d ad 3f 10 6b 36 3f 7e cc 75 3e 4c a7 08 3e
       1.3563753 0.71257114 0.24003789 0.13345069
000110 ed 64 10 3f 4a 2d 95 bc a6 00 2f bf 65 a3 2a 3f
       0.56404 -0.018210072 -0.68360364 0.6665557
000120 32 18 86 bf 7e b2 d1 3d bb bb 9a be 46 29 0f bc
       -1.0476134 0.10239123 -0.30221352 -0.008737868
000130 98 40 75 3f 38 2f 90 3d 74 e3 c2 3e b9 e5 d2 3f
       0.9580169 0.07040256 0.38064158 1.6476356
000140 0e b0 d1 3c b4 41 01 3e 00 55 62 3f 5e d6 17 bf
       0.025596645 0.1262272 0.8841095 -0.59311473
000150 55 e5 02 3c 9d 12 03 40 98 63 bb 3f fa 69 d0 3e
       0.007989247 2.048011 1.4639769 0.40705854
000160 de c0 d3 3e 53 75 8c be 0b 43 4f bf 51 cb ab bf
       0.41358083 -0.2743326 -0.80961674 -1.3421422
000170 ad 4e db 3f 6d c2 7c be ae 75 e9 be e7 9b 21 be
       1.7133385 -0.24683543 -0.45597595 -0.15782128
000180 e3 6d 8b 3f 03 fd 21 3f 47 dd 22 3f 4e 5c 36 bd
       1.089291 0.6327669 0.6361889 -0.044521622
000190 9a d6 67 be ec 7c 68 be c7 67 c1 be 21 88 04 40
       -0.22640458 -0.22703904 -0.37774488 2.0708086
0001a0 1e 73 05 bf dc 92 df 3d 01 13 ad 3f a6 ec b0 3f
       -0.5212878 0.10916683 1.3521425 1.3822219
0001b0 ce 68 90 3e 1a 0e 91 be d8 f2 7c be e7 7a ab bc
       0.2820496 -0.2833107 -0.24702013 -0.020932628
0001c0 32 f6 00 3d 27 ef a1 3d 27 05 67 bd 5d 2e b2 be
       0.03148479 0.07906943 -0.056401398 -0.34800997
0001d0 44 49 2d 3d 16 9a 9f bf c8 78 da bc 08 cf a7 be
       0.0423062 -1.2468898 -0.026668921 -0.3277514
0001e0 b0 fb 3f 3f 00 70 d1 bf 3b 2b bf be ea e4 11 3f
       0.7499342 -1.6362305 -0.3733767 0.5698992
0001f0 d8 d3 2b bf 24 3d 38 3d 2f 2f 1a be e8 5b ef 3d
       -0.6712012 0.044980183 -0.15057062 0.116874516
000200 91 88 ce be 9b 82 61 3f 4b 43 4f 3d a3 04 55 3f
       -0.40338567 0.88089913 0.050601285 0.832102
000210 c9 50 10 be 73 db 11 3f 8e 90 84 bd f6 1d 04 3f
       -0.14093317 0.5697548 -0.06472884 0.51608217
000220 93 65 85 3d f4 b7 35 be 50 b6 8d 3b f4 4b 8f be
       0.06513514 -0.17745954 0.004324712 -0.27987635
000230 a0 e3 58 3f 44 95 80 3f 28 84 c0 3e d1 72 18 be
       0.8472233 1.0045552 0.37600827 -0.14887549
000240 c1 7e 91 3e 1e 5c 0f 40 13 e8 34 be 8c c0 ab bd
       0.28417018 2.2399974 -0.17666654 -0.08386335
000250 60 3b 09 3f 6e ad 9a 3f f4 4e 36 be db 49 d9 3e
       0.53606224 1.2084177 -0.17803556 0.4243916
000260 a4 af 28 bd 69 af f0 be 9d 5e f0 3e d3 85 56 3d
       -0.04118313 -0.47008827 0.46947184 0.05237372
000270 0e 7b 2a bf 7d 72 a0 3f 47 07 6a bd 3f e3 7f 3d
       -0.66594017 1.2534939 -0.057135846 0.06247258
000280 cb d3 fc 3e 21 26 28 bd 90 b7 fd bc c7 71 6e be
       0.49380335 -0.041051988 -0.030971318 -0.2328559
000290 f9 5e c3 39 92 a7 a8 3e 6b 7d d0 3d 64 7f 9b 3f
       0.00037264058 0.32940346 0.101801716 1.2148252
0002a0 61 05 21 3f 61 5a d4 3e e5 fb 0a 40 a2 93 be be
       0.6289883 0.41475204 2.1716244 -0.3722201
0002b0 98 ef 87 be 31 ad 93 be 21 8d e2 3e 42 53 c1 3e
       -0.26549983 -0.28843072 0.44248298 0.37758833
0002c0 48 28 de be 98 89 14 40 67 76 ef 3d c0 90 1f 3e
       -0.43390107 2.320898 0.11692505 0.15582561
0002d0 65 0c 29 bf 83 c8 6d 3d bc 35 a9 bf cb da 14 3e
       -0.6603454 0.05805255 -1.3219523 0.14536588
0002e0 e3 e8 81 be 45 8f 01 be fa 71 82 bc 93 c3 80 3f
       -0.2537299 -0.12652309 -0.015923489 1.0059685
0002f0 5c e5 88 3c 99 e2 84 bb 6b a6 40 bd 51 09 33 bf
       0.01671093 -0.004055333 -0.04703371 -0.6993609
000300 92 f6 c0 3f 40 c5 4d 3e 0e 58 da 3e d4 1b 74 be
       1.5075247 0.20094776 0.42645305 -0.2383874
000310 62 8b 96 3f de fd ef 3a e0 6e 25 bf 15 00 bb 3e
       1.1761286 0.0018309911 -0.64622307 0.365235
000320 79 88 0e c0 b3 31 79 3e b9 75 0d bf 1c f4 37 bc
       -2.2270796 0.24335365 -0.55257756 -0.011227634
000330 6b 6d 16 3f 6a 30 c0 bb 58 67 90 bd 1c 21 b0 3f
       0.5876071 -0.0058651464 -0.07050961 1.3760104
000340 03 94 22 3b 7e 17 03 40 fc bc 90 be 99 5d 89 bf
       0.002480746 2.0483088 -0.28269184 -1.0731689
000350 a7 dc 87 3d 04 ce a7 3f dd 2d 89 3f 72 6a 61 3f
       0.06633883 1.3109746 1.0717121 0.8805305
000360 69 a0 eb 3d ec dc ea 3e a5 6b 58 bf c9 56 44 bf
       0.11505205 0.45871675 -0.8453925 -0.76694924
000370 72 00 15 40 96 79 39 be 49 f8 96 3f 9f 91 85 3f
       2.3281522 -0.18112788 1.1794521 1.0435065
000380 e8 41 6e 3f 16 30 71 bf c4 77 4f 3f d7 29 12 3c
       0.93069315 -0.94214 0.8104212 0.008921108
000390 62 99 9f be 99 2a c0 be 53 d6 a0 3d 05 56 5d 3f
       -0.3117171 -0.375325 0.07853379 0.8645938
0003a0 4b 24 3e be 03 73 5c bd 5e eb 84 3f 7c cc ea 3f
       -0.18568532 -0.05382062 1.0384328 1.8343654
0003b0 34 65 a4 3e b7 1f e1 be f2 01 8c bf a0 f0 5d 3c
       0.32108462 -0.4396951 -1.0938094 0.013546139
0003c0 8d f4 09 bf 1f 14 71 3f 56 f5 9a bd 80 2f 06 bf
       -0.5388878 0.9417133 -0.07566325 -0.5241623
0003d0 d6 93 93 bd 62 56 35 bf 62 ae ca 3a ce ca 5d bd
       -0.07205932 -0.70834935 0.0015463347 -0.054148488
0003e0 3f 8f cf 3e a3 b3 93 bf 06 07 a0 be 34 a0 84 3e
       0.40538976 -1.1539196 -0.31255358 0.25903475
0003f0 9c 04 36 3f 71 6e 80 3d 55 ce 52 be 1d 4e 9b 3e
       0.71100783 0.06271065 -0.20586522 0.30333033

fc3.bias f4 [7]
000000 45 a8 c5 bd 04 92 23 3e 68 57 17 3e bf d3 c6 3d
       -0.096512355 0.1597367 0.14779437 0.09708356
000010 91 53 be bd 54 6d 02 bf e5 6e bb 3d
       -0.09293283 -0.5094807 0.09152011
